RefAgent/BC-CAB-256128/checkpoints/agent_2000.pt (torch, 488547 bytes, 18 tensors)

net.0.weight f4 [256, 23]
000000 b6 73 27 bd c4 5b 12 bd 54 59 7d bd 1f 23 7b 3c
       -0.040881835 -0.035732046 -0.061852768 0.015328198
000010 30 e0 ee bb 20 8a 04 bc 7f d4 66 bd 63 c1 6f bc
       -0.007289909 -0.008089572 -0.056354996 -0.014633509
000020 13 6b 96 ba a4 49 3c be ee cb cf be ee 09 0a bf
       -0.0011476002 -0.18387467 -0.40585274 -0.539214
000030 9f 51 3e 3e 54 fc 8d 3d 87 93 e4 bd be 2c fb 3a
       0.18585823 0.069328934 -0.11160951 0.0019163114
000040 6c e3 7c be 9e 78 2a c0 03 8a ba 3e 04 dd 49 bd
       -0.2469613 -2.663612 0.3643342 -0.049283043
000050 db d3 8a 3f 67 1d 52 3e cd 12 f2 3d 48 96 a2 3a
       1.0845903 0.20519029 0.11819992 0.0012404406
000060 9a a4 5d be 89 d1 eb 3d 60 58 0f bd 85 82 7d 3d
       -0.21644822 0.11514575 -0.03499639 0.06189205
000070 20 6e 6d bd 4d 33 51 bd b0 25 29 bc 89 00 4a bb
       -0.05796635 -0.051074315 -0.010323927 -0.0030823073
000080 e7 e3 ba bc a7 37 38 bf 74 ef 3f be d5 b4 50 3e
       -0.02281375 -0.7195992 -0.18743688 0.20381482
000090 e5 4b 98 3d 1e 05 82 be d4 39 30 bd fd 85 5f 3d
       0.07436351 -0.2539453 -0.0430239 0.05457114
0000a0 8a 45 34 3e c7 7a f5 3d 8e cc cc be d8 92 8e 3e
       0.17604652 0.119863085 -0.39999813 0.27846408
0000b0 02 05 0c 3e 9e 64 2d bd ce c7 16 3e f2 7a 91 3c
       0.13673785 -0.042332284 0.14724657 0.01775882
0000c0 44 85 8a 3d 39 ee e1 3c c8 18 0c bd c3 6f b1 3d
       0.067637 0.027579414 -0.03420332 0.08663895
0000d0 1f 97 2d 3e f7 6b 90 bd c9 52 16 bd f9 c4 8c 3c
       0.1695218 -0.07051843 -0.036700044 0.017183768
0000e0 8b b4 c1 3e d1 1b b9 3e 8d 4d 5f be 6e a6 6d 3c
       0.37833056 0.36154035 -0.21806927 0.014505012
0000f0 57 0e 13 3e c1 8e a2 3e 0d 5d 97 be 57 e3 c2 be
       0.14360939 0.31749538 -0.2956318 -0.38064072
000100 8d 29 e5 bd 98 50 fb bc 3b ac a9 be 43 e2 34 3d
       -0.11189566 -0.030678079 -0.33139214 0.044161092
000110 84 09 82 bd e8 90 96 3d df 42 ea bc 5d 56 c2 bd
       -0.06349471 0.073518574 -0.02859634 -0.09489129
000120 ef 15 70 3c d8 2b 32 3d df c1 36 3d 9b 25 92 3c
       0.014653667 0.043498844 0.044618484 0.017840197
000130 fc e8 e7 bc 92 09 3a bc 05 07 6a bc cd 11 97 be
       -0.028309338 -0.011354821 -0.0142839 -0.29505768
000140 a3 83 c6 be 31 1b fc 3d 63 7c 2c bb 8a e8 a6 3c
       -0.38772306 0.12309874 -0.0026319257 0.020374555
000150 ab aa 8e 3d 16 e8 a5 be 42 5d 49 c0 f4 45 ba 3e
       0.06966146 -0.3240363 -3.146317 0.36381495
000160 d3 73 a3 3e a2 ed 6b 3f 94 41 39 3e 13 24 5e 3d
       0.31924304 0.92159474 0.18091422 0.05423362
000170 d8 93 79 bd 9c 81 f8 bd 1e 3d 76 3c 69 33 11 be
       -0.06093201 -0.12134096 0.01502922 -0.14179768
000180 8a c9 e9 ba 02 f5 44 bd aa b2 b7 3c c9 13 3a bc
       -0.0017836553 -0.04808522 0.02242406 -0.011357256
000190 7c f0 a1 bd 50 82 2a 3c ee 3e 0d 3f f3 77 f6 3d
       -0.07907197 0.0104070455 0.5517415 0.12034597
0001a0 80 35 7a be 4f df 4e be 4a 85 90 3e 7a d5 8f 3d
       -0.24434471 -0.20202373 0.2822669 0.07023139
0001b0 cc c3 b1 bd 00 ef ba bf ca cb 04 be 4b 20 99 3e
       -0.086799234 -1.4604187 -0.12968364 0.2990745
0001c0 01 b4 57 3e 16 cf 04 bd 55 20 7a bd 84 e8 0c be
       0.2106476 -0.032424055 -0.06106599 -0.13760573
0001d0 92 2d e4 bc f2 a9 84 bc 11 73 44 bd f1 40 b6 bd
       -0.02785376 -0.016194317 -0.0479613 -0.08899105
0001e0 73 54 6c bd 3c 16 2a be 41 a3 99 3c f6 47 a1 bb
       -0.057697725 -0.16610044 0.018754603 -0.0049219085
0001f0 56 13 1c be 12 d7 b1 3d aa 7d 29 bd 93 a6 99 be
       -0.15241751 0.086835995 -0.04137961 -0.300099
000200 13 18 a7 bd 03 c4 50 be 91 e5 af be ed aa fc bd
       -0.08158889 -0.20387273 -0.34354833 -0.12337289
000210 67 5f b9 3d 23 71 d9 bd fa 91 4c be 3c c6 c6 3e
       0.090514 -0.10617282 -0.1997756 0.38823116
000220 8b 34 be 3d ca d6 2c bc 80 f0 82 bc 27 81 9c bd
       0.092873655 -0.010549257 -0.01598382 -0.07641821
000230 2a ae ce bc 44 fa 99 bd 17 2d 0d bd ca 69 70 bc
       -0.025229532 -0.075184375 -0.03446683 -0.01467366
000240 b1 29 c7 bc 14 3e 3c 3d 4a 67 73 bc 2d 3a 85 3d
       -0.024311872 0.04595764 -0.014856169 0.06505237
000250 a9 9d 18 3f 8d b9 37 3e 2d 51 76 be ad a9 75 be
       0.5961557 0.17941876 -0.24054404 -0.23990507
000260 2e a0 2b 3e d1 a5 91 be 56 de 1f 3d 03 01 c2 bf
       0.16760322 -0.2844682 0.039030395 -1.5156559
000270 31 30 9d bd f0 00 f7 3e f4 19 1a 3e ae eb c1 bd
       -0.076752074 0.48242903 0.15048963 -0.094687805
000280 96 ed 83 3c 88 e0 f1 3d 5f 0c b0 bd c0 5c 26 bd
       0.0161045 0.11810404 -0.085961096 -0.040615797
000290 11 ec a6 3c ce b5 0e 3e 07 d3 01 3e db 8f 97 3d
       0.020376237 0.1393654 0.12678157 0.07400485
0002a0 15 cf 89 bb 78 d9 64 3c 07 da 7a 3e cf 0b d6 3e
       -0.0042055943 0.013967864 0.24497233 0.41805884
0002b0 75 ad 93 3e eb 63 a6 bd 3d 34 ff 3d f7 18 ac 3e
       0.28843275 -0.081245266 0.124611355 0.33612797
0002c0 81 25 b9 3e d6 fb 75 3f ab 4c 25 3e f3 47 07 be
       0.36161426 0.96087396 0.16142528 -0.1321104
0002d0 0d 6c 8f 3e 1e 24 52 be 7b ab 5d be 08 7e 6d bd
       0.28012124 -0.2052159 -0.21647446 -0.05798152
0002e0 ec bb cf bd b3 cd 87 3e a2 33 90 bd 1f 87 21 3d
       -0.10143265 0.26524124 -0.07041098 0.039435502
0002f0 7c 43 9f bd d0 52 0d 3d a0 83 6e bd a9 a9 a3 ba
       -0.077765435 0.034502804 -0.058230996 -0.0012486476
000300 78 9e 93 3b f3 f6 02 be e1 bf 1a 3f fd 17 79 3d
       0.004504975 -0.12789516 0.60449034 0.060813893
000310 60 4a 4a be f1 bf ec bc d5 a7 37 3e a6 f3 f8 3b
       -0.19754934 -0.028900119 0.17935117 0.0075974045
000320 bf 27 1f 3e de bc 83 bf 93 75 35 3d 97 3f 80 3e
       0.15542506 -1.0292013 0.04430158 0.25048515
000330 4c be fc 3d ce a1 d1 bd 5f 40 61 3d 54 79 2d bd
       0.12340984 -0.1023594 0.05499303 -0.042352036
000340 5c 09 dc bb 4b aa e2 3b e5 53 06 3d 65 b7 be 3c
       -0.006714983 0.006917273 0.03279485 0.023280809
000350 f3 7c 97 3c 00 5c 06 be 5d 97 fa 3d 63 78 39 3d
       0.018492198 -0.13121033 0.122359015 0.045280825
000360 c1 2b 48 3d 54 7a 5a bc 24 3c b2 3d 2f 47 a2 3e
       0.048869852 -0.013334829 0.08702877 0.31694934
000370 38 f5 6d bd 7e 6d 8a bd 2a 3c 7e be 9c 6c f8 3d
       -0.058095187 -0.06759165 -0.24827638 0.121300906
000380 5a 13 2e 3e 40 c8 53 bc 81 3d 73 3e 30 da c5 be
       0.1699957 -0.012926161 0.2375393 -0.38643026
000390 93 f8 06 be 7b d1 bf 3d 7a c4 0e bd 5f 59 a4 3c
       -0.13180761 0.09366127 -0.034855343 0.020062147
0003a0 d0 12 da bd a0 ed 15 be e2 e6 38 bd a8 42 a6 bd
       -0.106481194 -0.14641428 -0.045142062 -0.081181824
0003b0 22 42 e9 bd 88 99 f7 3c 33 88 67 3c 69 81 ce 3d
       -0.11389567 0.030224577 0.0141315935 0.10083277
0003c0 3f 25 25 3c 86 2b 65 bd 62 1f f3 be 63 b5 15 bc
       0.010079681 -0.05594971 -0.4748488 -0.009137484
0003d0 c4 97 d5 bd f0 28 fc bd 7f f0 5a 3e cf b2 93 bf
       -0.104293376 -0.12312496 0.21380804 -1.1538943
0003e0 25 66 92 be 2b d0 ef 3e 71 ef 92 3f 5f 31 0b be
       -0.28593555 0.46838507 1.1479322 -0.13593052
0003f0 b5 43 05 be b0 e8 22 3e 54 07 eb 3d 81 b7 62 3e
       -0.1301411 0.15909076 0.11476007 0.22140314

net.0.bias f4 [256]
000000 de 2c 58 3c 96 7f c7 bd 56 6f 50 bd 24 f1 56 bd
       0.013194291 -0.09741132 -0.05088743 -0.052476063
000010 b1 fa d8 bd 01 88 51 3c 8a a9 24 be 7f 90 2a bd
       -0.105946906 0.0127887735 -0.16080299 -0.04164171
000020 1f c6 83 3e 32 d1 00 bd af 0d 29 be 4e c7 09 3b
       0.25737092 -0.031449504 -0.16509126 0.0021023336
000030 38 0b 2e be 1f 9e b6 3d c5 c8 01 bd c6 34 84 3d
       -0.16996467 0.08916878 -0.03168561 0.06455378
000040 82 ef b4 3d c6 25 11 be 03 2e 97 3c 18 a6 a4 bd
       0.08834745 -0.14174566 0.018454557 -0.08039492
000050 f7 97 4d 3e 61 01 5d be 24 c5 b8 bd e3 62 05 be
       0.20077501 -0.21582557 -0.090219766 -0.13026004
000060 f9 a5 6b bb 60 03 09 bd 5e 53 8d bd 82 fd 5d be
       -0.0035957082 -0.033450484 -0.06900667 -0.21678737
000070 cb e6 84 be a3 98 58 3d 77 07 89 bd 38 c4 0c 3b
       -0.2595733 0.05287994 -0.06690877 0.002147926
000080 66 ca 4c 3d b7 bc c8 bd 6a b0 00 3b ad ae cc 3d
       0.04999771 -0.098016195 0.00196364 0.09994254
000090 27 26 6d 3e f3 29 32 3d 07 0c a9 bc 0f 85 16 3e
       0.23159085 0.043497037 -0.020635618 0.14699195
0000a0 55 0a ab 3c 59 91 ed 3b 52 b1 d0 3d 40 2e a6 bd
       0.02087895 0.007249993 0.10190071 -0.0811429
0000b0 90 33 97 bd ac 49 7a 3c 32 c3 b3 bd 20 43 b8 3c
       -0.07382882 0.015276354 -0.08777465 0.022492945
0000c0 5c 25 51 be dd 5b 45 bd 23 f7 dd 3d 97 fe b3 bc
       -0.20424408 -0.04818331 0.10838153 -0.021971984
0000d0 0e 86 de 3d d6 b4 5e be 9f 79 06 3e 18 fe c3 bd
       0.10865413 -0.21748671 0.13132332 -0.09569949
0000e0 a8 0e 5c 3e be 7a 83 be 1f b8 69 3b 1f 63 9c 3e
       0.21489966 -0.25679582 0.0035662723 0.30544373
0000f0 89 42 84 3b 97 9b 00 3b e5 65 d0 bc b6 24 c6 bc
       0.004036252 0.0019623989 -0.025439212 -0.024187427
000100 ab 47 51 3d 00 32 ca 3d 9f ad 44 3d b6 d4 47 3b
       0.05109374 0.09872818 0.04801714 0.0030491776
000110 74 fe 22 3e 32 73 27 3d 4d 2f 2e 3d e6 26 85 3d
       0.15917379 0.040881343 0.04252558 0.0650156
000120 7f d5 98 3d b4 88 f3 bd c6 8f df bc e1 ac 49 3d
       0.07462596 -0.118913084 -0.027290236 0.049237136
000130 9d 7a 61 bd 3a 23 22 bd 5a 58 0a be ae a0 07 3e
       -0.055048574 -0.039584376 -0.13510266 0.13244888
000140 0e 46 29 3d 6c a2 85 3c 49 da 99 ba 68 eb e8 bc
       0.041326575 0.0163128 -0.0011738028 -0.028432563
000150 43 15 f6 bd 0e 7b e0 3d 47 6e 27 3e 80 a6 78 bd
       -0.12015774 0.10960971 0.16350661 -0.06070566
000160 ee 36 11 be ee c6 c8 3d 7c 74 df 3c 02 7c e9 3d
       -0.1418111 0.09803568 0.027277224 0.11400606
000170 19 36 59 3d 9c 82 05 3e 05 b2 ed bd c4 0d 05 3d
       0.053030107 0.13038105 -0.1160622 0.03248383
000180 f0 6c a2 3d 03 4f aa 3b 43 95 c6 3b 18 2f aa bd
       0.079309344 0.005197407 0.006060274 -0.08309764
000190 18 01 12 be 07 43 29 3e bb a7 6a 3d ba e9 94 bd
       -0.1425823 0.16529475 0.057288866 -0.07271142
0001a0 a3 d6 4e bd 74 f0 b9 3d 4b c3 18 be c6 26 37 bd
       -0.050497662 0.09079066 -0.14918248 -0.04471471
0001b0 12 37 cd 3d e0 da e7 bd 6a 42 00 be 58 4a 83 bd
       0.100202695 -0.11321044 -0.12525335 -0.06410664
0001c0 30 63 c0 3d 0e 2a c8 bd 23 74 ae bc d9 00 27 bd
       0.093939185 -0.09773646 -0.021295613 -0.040772293
0001d0 00 cc f8 bd 42 dc cc bd 12 8b 89 3d fe ba ac 3c
       -0.12148285 -0.10002948 0.06715979 0.021085259
0001e0 d7 a4 bd 3d 73 e1 59 3e 7b 63 ba bd 60 56 87 3d
       0.09259956 0.21277408 -0.09101006 0.066082716
0001f0 38 eb 93 bc a3 bf 39 bd f9 b5 a8 bd e1 8e 6c 3d
       -0.018056497 -0.045348775 -0.082378335 0.057753447
000200 4d f6 16 3c 7b 41 bf 3c 12 00 c3 3c 29 2b 11 3e
       0.009213996 0.023346653 0.023803744 0.1417662
000210 4e f3 86 3d 6e e4 94 3d cb bd 8d 3d 8b 34 50 3c
       0.065893754 0.07270132 0.06920966 0.01270784
000220 21 90 3c be d1 00 e0 3c e9 16 f6 bc e7 ae da 3c
       -0.18414356 0.02734414 -0.030040221 0.026694728
000230 5d 74 d4 bb cd cf c3 3d f2 27 86 3d 95 8b 4e bb
       -0.006483598 0.09561119 0.06550588 -0.0031516303
000240 d0 20 e0 bd a2 d0 2f bd eb 68 5a 3e 52 26 fd 3c
       -0.109437585 -0.042923577 0.21329086 0.030902062
000250 fe b7 5d 3e 69 1a cf 3d 70 53 20 3d f9 3a 55 3d
       0.21652219 0.10112459 0.039142072 0.052058194
000260 4e a1 dd 3c 5d c7 d3 bd c4 9a 39 3c a2 4c 00 3d
       0.027054455 -0.1034076 0.011328403 0.031323083
000270 43 68 92 3d 9d 5f ce bd 67 d6 10 3e 55 3d e0 3d
       0.071487926 -0.100768305 0.14144288 0.10949198
000280 bd c2 86 bd 3f 4a 8d 3d 69 b5 9c 3d 62 ae 46 be
       -0.06580112 0.06898927 0.07651789 -0.1940246
000290 cc 50 d2 bc e5 1b a5 bd 38 5b 5b bd cc 73 e8 bd
       -0.025673293 -0.08061961 -0.05355379 -0.113502115
0002a0 a4 83 30 bd 3e af d7 bd 33 3d ce 3d 18 a8 21 bd
       -0.043094292 -0.10531472 0.100702666 -0.039466947
0002b0 3f c0 51 3e e1 4f 03 3c 5a 7e 9d ba 9d b2 3c bc
       0.20483492 0.00801465 -0.0012015805 -0.011517194
0002c0 a0 57 9d bd 14 e8 ed 3d d3 0d ba 3d 34 7f 9c 3b
       -0.07682729 0.11616531 0.09084668 0.004775906
0002d0 94 87 83 3e b0 d8 dd 3d a0 ac a1 bd e9 f1 b8 bd
       0.25689375 0.108323455 -0.07894254 -0.09030516
0002e0 03 64 23 3d c8 c2 dd bd c5 b7 e7 bd fb 9b 7d 3c
       0.0398903 -0.10828167 -0.11314348 0.015479083
0002f0 c0 98 5d 3d e7 15 50 be 7f ee 8c bc 41 7c 82 bc
       0.054100752 -0.20320855 -0.017203568 -0.01592839
000300 34 5a b7 3d 65 7d c4 3d 74 4d 2d be ea b2 a7 bd
       0.08952752 0.095942296 -0.16924077 -0.08188422
000310 c4 d5 11 be 24 a6 2d 3c a9 5b c2 3d 91 91 03 bd
       -0.14241701 0.010598693 0.09490139 -0.032121245
000320 76 f8 15 bd 6e e3 15 3e 85 3f 89 3d b8 57 a4 bd
       -0.036613904 0.14637539 0.067015685 -0.080245435
000330 74 32 db bd 1a 75 fe 3d 2c 07 37 3e 34 5b aa bc
       -0.107029825 0.12424679 0.1787383 -0.020795442
000340 14 5f 7c 3c ea cb 6d bc fa 23 5a 3d 58 09 28 bd
       0.015403528 -0.014513949 0.053256966 -0.041024536
000350 3e c9 dd 3c e0 9a 60 3d 65 ec 93 bd 96 4e 85 3c
       0.027073499 0.0548352 -0.07222823 0.016272824
000360 80 43 6b bd 74 ec d6 bd f2 40 0e 3a 18 62 f6 3c
       -0.05743742 -0.104943186 0.0005426548 0.030076072
000370 a9 4e 35 bd af a2 e5 bd 29 e9 3e 3d 1d 6f 65 bc
       -0.04426447 -0.1121267 0.046609078 -0.014003542
000380 e5 bf f4 bc 3d af 25 3a ba 05 57 be 67 33 97 3d
       -0.029876659 0.0006320363 -0.20998278 0.07382851
000390 74 21 7e 3b 4a 1f 52 3c bc f0 c8 3c 92 5b fa 3d
       0.0038777264 0.012824843 0.024528854 0.12224497
0003a0 4a 27 88 3d 99 ff db bd d9 2c 42 be 70 85 72 3d
       0.06648119 -0.10742111 -0.1896242 0.059209287
0003b0 6b db 71 3a 12 43 8b 3d bc 40 23 3e d9 21 30 be
       0.0009226116 0.06799902 0.15942663 -0.17200412
0003c0 d5 75 df 3c d4 f3 43 38 3d 49 3e bd c6 17 c0 bc
       0.027277866 4.6718706e-05 -0.046456564 -0.023448836
0003d0 96 f2 6b bc db c0 c4 3c 6d 8a 2b be 44 fa 02 be
       -0.014401099 0.024017742 -0.16752024 -0.12790781
0003e0 aa 78 81 bd ea e7 e2 bd ee 3f aa 3d ff f1 88 3d
       -0.06321843 -0.1107939 0.08312975 0.06686782
0003f0 8d b1 54 3d 8b 97 c4 3d 11 5d 20 3b 06 da 42 3e
       0.051927138 0.09599217 0.0024469534 0.19028482

net.3.weight f4 [128, 256]
000000 07 18 42 bd 0d d7 d3 3d bd fd cb 3d 18 83 e6 3c
       -0.047386196 0.10343752 0.09960506 0.028138682
000010 02 91 f9 bb 58 18 94 3d 66 eb 6a bd 08 fd 84 bc
       -0.007616163 0.07231206 -0.0573534 -0.016233936
000020 c1 87 46 be 3f e0 23 bc e0 e3 8b be 1f 72 0c 3d
       -0.19387724 -0.010002195 -0.27322292 0.03428852
000030 65 bf 8a 3d 66 0a 31 bd fd 30 30 3c bc d5 45 be
       0.06774787 -0.043222807 0.010753867 -0.19319814
000040 2e 70 90 3b 33 d1 e7 be 78 81 cb bd 50 26 41 bd
       0.004407904 -0.45276794 -0.099368036 -0.04715568
000050 90 23 f0 bd 3d 80 f6 3a 97 3c 61 bd 51 4d 01 3d
       -0.11725533 0.0018806529 -0.054989424 0.031567875
000060 f5 cd c7 3d c8 1d 77 3b d6 8e 01 bd c2 c5 b5 be
       0.0975608 0.003770696 -0.03163036 -0.3550244
000070 e8 d0 ba bd cb 77 91 3e 9e a1 f3 bd a6 e8 0b be
       -0.09121877 0.28411707 -0.118960604 -0.13662967
000080 fd b9 83 bc 13 6c 97 3d 28 78 36 bd 61 99 1e 3c
       -0.016079897 0.073936604 -0.044548184 0.009680123
000090 ad d7 73 bc 67 bc 52 3d d4 27 76 3d 4d 72 db 3b
       -0.014882964 0.051449206 0.060096577 0.0066969753
0000a0 48 11 0f 3d b5 cb 73 3a 71 51 d8 3e 9f e5 90 3e
       0.03492859 0.0009300069 0.42249635 0.28300187
0000b0 f3 90 b9 3b a5 5f 5a 3e c0 1b 83 3d 26 13 ec bc
       0.0056630312 0.21325548 0.06401777 -0.028817724
0000c0 03 bf da bd ef b7 21 bc 6e 4a 00 3d ff 82 44 3d
       -0.10680964 -0.009870513 0.03132098 0.04797649
0000d0 a8 14 82 bd 83 54 46 be da 82 5a bd 56 f7 b5 bc
       -0.06351596 -0.19368176 -0.053347446 -0.022212666
0000e0 93 31 67 3d 5e f7 11 be c2 92 92 bd 9b 62 23 bd
       0.056443762 -0.1425452 -0.07156898 -0.03988896
0000f0 38 99 7d 3b 9e b6 b0 bb 20 6a 1f bd bd c1 1b bb
       0.0038696062 -0.0053928634 -0.038919568 -0.00237666
000100 84 fb 2a 3d a0 bb fc 3c d8 89 25 3d 1f 0b b6 bc
       0.04174377 0.030851185 0.04041466 -0.0222221
000110 66 e4 d2 bd 09 f3 80 bc ea 9b bb 3d 06 ae bc 3e
       -0.1029747 -0.015740888 0.091605976 0.3685152
000120 55 e4 91 3d 29 64 b7 3b eb 9f 84 be c1 89 2a bd
       0.07123629 0.005596657 -0.25903258 -0.04163528
000130 5d 0f 2d 3d b7 5b e6 3c dc 43 e3 3d b3 0b 63 3e
       0.04225098 0.028119905 0.110969275 0.22172432
000140 b4 a3 0a 3c 30 ad 17 3b 8d b3 dd bd 20 4f a9 3c
       0.008461881 0.0023144 -0.10825262 0.020667613
000150 2e 91 9c bc bc c1 89 3d ce 15 f4 bd 03 5d b4 bd
       -0.019112196 0.06726405 -0.119182214 -0.08806803
000160 11 51 b4 be 30 b0 94 bc b6 4b 5b bb fa be 99 bd
       -0.352181 -0.018150419 -0.0033461875 -0.07507129
000170 b3 7b 7c 3c 20 fc a6 bd 34 fa 69 3c 67 30 1a be
       0.015410352 -0.08153558 0.0142808445 -0.15057527
000180 ed 70 3d bd 52 27 83 3c 0b ec 6f bd 11 19 62 3d
       -0.046250273 0.01600996 -0.058574717 0.055199686
000190 1f 2c 31 3d 5f 2f 9e bc 69 bf 4b bc 85 ae c2 bd
       0.043254968 -0.019309698 -0.012435772 -0.09505943
0001a0 42 38 2c bd 7c 76 19 be 7a 51 2a bd 05 e0 3a 3a
       -0.04204584 -0.14986604 -0.04158161 0.00071287184
0001b0 95 27 c0 3d f3 13 87 bd cf 6d 8c bd 3a 7c c4 3b
       0.0938255 -0.06595602 -0.06856882 0.0059962543
0001c0 c6 8b 3f 3d 9a d8 3a 3d 81 7a 0e 3b 6a 4f 8c be
       0.046764158 0.045616724 0.0021740498 -0.27404338
0001d0 1e 22 10 be 13 d6 d2 bc 9f 16 e5 3c ff d0 cc bc
       -0.14075515 -0.025736844 0.027964888 -0.025002
0001e0 55 e4 a3 bd 49 6d d5 3d 33 04 41 bd 92 66 f0 3c
       -0.08002535 0.10421235 -0.047123145 0.029345784
0001f0 76 e8 93 3d 9a 55 b8 be 50 d4 89 bd f8 c4 f2 bd
       0.07222073 -0.3600281 -0.067299485 -0.11853975
000200 25 9e 7c bd 88 89 82 3c 40 7f 1b be 94 14 8b 3b
       -0.061674256 0.01593472 -0.15185261 0.0042443965
000210 ed 73 79 bd c7 0b f9 3b 14 60 ae bd c2 c5 f1 3b
       -0.06090157 0.007600281 -0.08514419 0.007378311
000220 dc 7d 07 3d da 14 92 bd 2e 71 58 bd f7 e8 da 3d
       0.033079013 -0.07132883 -0.05284231 0.10688966
000230 4c 64 0d 3d 15 56 30 3d 64 33 4a 3d 8c 8d bb 3d
       0.03451948 0.043050844 0.049365416 0.09157857
000240 49 20 b1 bb b8 d9 09 3c 58 92 04 3d a7 ab 4e bc
       -0.00540546 0.008413725 0.032366127 -0.012614167
000250 87 1f 7d bd e3 80 51 bd c8 3b 8b 3d 92 7f e7 bd
       -0.061797645 -0.051148307 0.06798512 -0.11303629
000260 96 58 a9 3b c0 1a 8c 3d 82 eb b6 bc 4e 1d 86 bc
       0.005168031 0.0684104 -0.022329096 -0.016371395
000270 f8 49 20 3d 2c 17 7a bd a8 87 be bd 56 21 5a bd
       0.039133042 -0.061057255 -0.09303218 -0.053254448
000280 0e b8 a5 bd 02 b3 0c be 8f d4 8e 3d 24 8b 65 bd
       -0.08091746 -0.13740161 0.06974136 -0.056040898
000290 a7 5e 5f 3d a2 ac ca bc 96 ac f2 bd 89 a3 d6 3c
       0.054533627 -0.02474052 -0.118493244 0.026201027
0002a0 2b 3f 9d bd 36 6a 4b 3d f4 d5 42 bd 67 7c 4d 3c
       -0.07678064 0.049661838 -0.047567323 0.012541867
0002b0 45 c4 be bd bb 6d 83 3e 52 9d d0 3c 71 ea 78 bd
       -0.09314779 0.25669655 0.025465641 -0.060770456
0002c0 81 4b 25 3c 6e 9b b4 bc d2 b8 be b8 f5 e9 28 bd
       0.010088802 -0.02204677 -9.0943315e-05 -0.041238744
0002d0 f9 00 23 3d 53 df de be 22 c1 59 3e 97 b5 52 bd
       0.03979585 -0.43529758 0.2126508 -0.05144271
0002e0 51 87 02 3d cf 1d 26 bc 7a c6 17 be 8b c8 a8 bd
       0.03186733 -0.010138943 -0.14821807 -0.082413755
0002f0 ec 3b 1e 3d df 54 07 bb 78 71 65 3d 58 35 1f 3a
       0.038631365 -0.0020649952 0.056016415 0.00060733175
000300 9f 58 5c bd 4c 3f a2 bd 19 b8 c6 bc c3 6b b3 3c
       -0.053795453 -0.07922229 -0.024257706 0.02190197
000310 a2 a7 7d bc 42 81 56 3e 82 0c 3f bd 5f a0 9b 3e
       -0.015481861 0.20947745 -0.046642788 0.3039579
000320 74 59 58 bd f3 1c 06 be 1c ce 94 bd 7a be 97 3b
       -0.052819684 -0.13096981 -0.07265875 0.004630861
000330 f2 9a 5f 3d 74 45 b6 bd eb e8 2b be 5c e5 1b 3e
       0.054591127 -0.08899966 -0.1678807 0.15224212
000340 6f 09 2a 3c 52 2a 0c bb 5b 2f 94 3b 25 44 3f 3c
       0.010378226 -0.002138753 0.004522247 0.011673962
000350 1b 5b 91 bd 02 3b 33 3d 90 05 5c 3d 08 f9 2b bd
       -0.07097455 0.043757446 0.053716242 -0.04198554
000360 d4 85 82 bd af c4 8a bc ae f5 2c 3d db 2f 36 bd
       -0.06373182 -0.01693949 0.042226486 -0.044479232
000370 7a 99 9a 3d 14 51 80 3d 84 b7 e1 3c 5a a9 45 bd
       0.075488046 0.062654644 0.027553327 -0.04825721
000380 86 ed 97 3b bc 12 88 3d 39 9d ad bc da 8e dc b9
       0.0046364693 0.06644198 -0.021193134 -0.00042068103
000390 05 e6 25 be e5 82 15 bd 59 26 cf 3d d7 62 7a bd
       -0.16201027 -0.036501784 0.10114736 -0.061129417
0003a0 27 66 8c 3d 32 23 da 3c 1e cf 9e 3c 37 a4 48 3d
       0.068554215 0.02662811 0.01938587 0.048984732
0003b0 f5 f2 ed bc c7 5e dc 3d 69 ba 51 bc 13 33 87 3c
       -0.029046515 0.10760265 -0.012800791 0.016503846
0003c0 c2 f2 ac 3d bb 1c 81 bd 62 08 38 3e 9a b0 cb bb
       0.0844474 -0.06304308 0.17971948 -0.006216121
0003d0 68 7e 8f bd 60 c7 e1 3d 3e 28 35 3c 05 2d 08 be
       -0.07006532 0.11024356 0.011056958 -0.13298424
0003e0 db b6 8a 3d c7 2e 3b bc 9a 92 ac 3b de 9c c7 bd
       0.06773158 -0.011424727 0.0052664997 -0.09746717
0003f0 f4 73 5c bd 0d cd ef bc 41 6f 8f 3c a6 37 c1 bd
       -0.05382152 -0.02927258 0.017509105 -0.09434442

net.3.bias f4 [128]
000000 6c 5b 88 bb a6 cc ed 39 78 a8 85 bb 6f 4f d0 bc
       -0.004161289 0.00045356638 -0.004078921 -0.025428502
000010 8b a2 c5 bc 19 af 04 bc 1a cf f4 bc 86 ea 71 bc
       -0.024125358 -0.008098387 -0.02988391 -0.014765387
000020 a3 7a e8 ba 6f 8b 5e bc c0 76 8e bb 6b 44 9d bc
       -0.0017736744 -0.013583048 -0.004347652 -0.019197663
000030 18 9e 79 bc 47 98 5a bc 4f cf 6e bc 02 0d ed bc
       -0.015235446 -0.01334197 -0.014575793 -0.028936867
000040 11 b5 a7 bc 33 4b 63 bb 4e 4c 02 bc 00 f8 30 bc
       -0.020472081 -0.0034682273 -0.007952763 -0.010801315
000050 d9 39 be bc e6 91 03 3b c1 a5 56 bc cf 1b 5b bc
       -0.023220943 0.0020075976 -0.013101042 -0.013373329
000060 05 d2 4b bc 30 cb 88 bb 0c b1 a2 bc a8 91 04 bd
       -0.012440209 -0.0041746125 -0.019859813 -0.03236547
000070 9b aa b6 bc 67 15 ab 3c 97 10 92 3b 4f 2a 2d bc
       -0.022298148 0.020884229 0.004457544 -0.010569169
000080 2f b2 5d 3a 67 f1 1f bc 2d e6 90 bc f6 e3 38 3c
       0.00084570324 -0.009762145 -0.017687881 0.011284819
000090 e4 ba c7 bb 1e 6e fc bb b1 8a 19 bc 06 22 8d bc
       -0.006095277 -0.0077035567 -0.0093714455 -0.017228138
0000a0 4f 3e 39 bb 9a 97 96 bc e6 a4 96 bc 92 98 4d bb
       -0.0028265899 -0.018382836 -0.018389177 -0.0031371457
0000b0 ad ac a8 bc c1 6f d4 bb cf a3 0b bc 2c af 38 bc
       -0.02059015 -0.0064830487 -0.008522942 -0.011272233
0000c0 27 de 6f bc 66 e1 38 bc ff 62 11 3c 8a cb 54 3c
       -0.014640368 -0.011284208 0.0088737 0.012987981
0000d0 3c e8 34 bc 74 8f 1a bc ad 6f 88 bb 80 fb 81 bc
       -0.011041697 -0.009433616 -0.0041637034 -0.015866995
0000e0 e3 27 1e bd 8b 47 e2 3a cc a0 a5 bc bf b6 09 bc
       -0.038612258 0.0017263753 -0.020218275 -0.0084053865
0000f0 23 af 3a bc 28 35 a5 bb 65 83 a0 bb b5 46 7e bb
       -0.011394295 -0.005041737 -0.004898476 -0.003879947
000100 79 4e cb bb 65 d0 bd bc 0a 50 a9 bc 4f 14 23 bc
       -0.006204423 -0.02317066 -0.020668048 -0.009953572
000110 5b 99 20 bc b1 96 e0 bc db 6b 0f bc 0f ad 65 bb
       -0.009802188 -0.027415605 -0.008753742 -0.0035045778
000120 f8 c5 03 bc 95 5e 1e bc 84 54 2f bb b4 65 83 bc
       -0.008042805 -0.009666105 -0.0026753256 -0.016039707
000130 b8 1f aa 3c ef a6 0a bc 51 1c 0a 3b 73 dc b5 3b
       0.020767078 -0.008462652 0.0021074007 0.0055499612
000140 b4 2f bc 3b 9f 80 bc 3b 1e 46 cf 3a 6f b2 23 3b
       0.0057429913 0.0057526375 0.0015813743 0.002497818
000150 8d 84 f0 bb 51 5a 8b bc 5b bd 96 bb 76 04 12 3c
       -0.00734002 -0.01701084 -0.0046002096 0.008912196
000160 3a 49 71 bc 6e e0 5b bc a8 41 2f bc 03 fe 10 3c
       -0.014726931 -0.013420207 -0.010696806 0.008849624
000170 9e 93 a9 bc ea 6f 24 bc aa fa 12 3c 12 93 75 bc
       -0.020700272 -0.010036448 0.008970896 -0.014988678
000180 bd c3 85 3a 6e 84 d8 bb 5a ae 04 bc 68 2c 31 bc
       0.0010205429 -0.0066075837 -0.008098209 -0.01081381
000190 b2 2f 81 bb fa e2 80 bc 7d 45 3f 3c d8 c8 f6 ba
       -0.0039424533 -0.01573323 0.011674282 -0.0018828167
0001a0 b1 7a a8 ba 79 b5 2c bc 26 ac b1 bc f0 50 81 bc
       -0.0012853948 -0.010541313 -0.021688532 -0.015785664
0001b0 94 2c 81 bc 5c dc 47 bc 38 25 a2 bc 19 90 31 3c
       -0.015768327 -0.012198534 -0.019793138 0.010837578
0001c0 3f c8 38 bc e9 72 79 bc 14 57 d8 bb 32 71 b9 bc
       -0.011278211 -0.015225151 -0.0066021774 -0.022636984
0001d0 1f 16 85 bb 81 fd 06 bd 83 13 ac bc 37 00 6c bc
       -0.004061475 -0.032956604 -0.021005398 -0.014404348
0001e0 0e 0c 39 3b 45 f1 9b bc ae 49 d1 bb fb 42 ca bb
       0.0028235945 -0.019035945 -0.006386957 -0.0061725355
0001f0 25 2f 3f bb 64 41 36 bc 69 3e 27 bc 7e ba 44 bc
       -0.0029172387 -0.011123989 -0.010207751 -0.012007354

net.6.weight f4 [9, 128]
000000 c5 a4 04 bc ae c9 3e bd b0 a6 fb bc af c8 14 bd
       -0.008095925 -0.046579055 -0.030719131 -0.0363242
000010 17 c8 bf 3c fb 19 c6 bc e8 57 07 3b 80 49 0a 3e
       0.02341084 -0.02418231 0.0020651761 0.135046
000020 38 86 f3 3c b4 b3 a6 3c 68 ca b9 bc 22 c5 ae 3c
       0.029727086 0.020349361 -0.022679523 0.021334235
000030 76 16 c4 bd ce 1c 53 bd c4 fd a2 bc 79 3f d8 bb
       -0.095745966 -0.051541142 -0.019896396 -0.0065993634
000040 d6 d3 94 3c ce 84 89 3c 9e d3 0e 3e b5 46 a6 3c
       0.018167417 0.016786959 0.13947913 0.020297388
000050 d9 8d e9 3c 8f 39 69 bb be 58 2d 3c 84 1b c7 3b
       0.028510021 -0.0035587286 0.01058024 0.006076278
000060 d8 d5 88 3c 3e 02 9b bc 25 88 a2 3c 4a 79 6e bd
       0.016703531 -0.018921968 0.01984031 -0.05822114
000070 ac 50 1b bc 70 7a ae bc 0e fd 18 3e ed 02 51 bc
       -0.009479683 -0.021298617 0.14940283 -0.012757045
000080 9b a2 1a 3e f3 d3 a1 bb 12 a8 cd bb 1b 6e 87 3a
       0.15101092 -0.0049385964 -0.006276139 0.0010332497
000090 e4 af 5f bc 72 02 dc bb 8a d0 17 3e 75 35 94 bc
       -0.013652775 -0.0067141587 0.14825645 -0.018091897
0000a0 f1 04 81 3b 47 62 06 3c 92 23 0e bc 84 10 f4 3a
       0.0039373566 0.008202142 -0.008675473 0.0018620645
0000b0 60 cb 90 3c b9 54 cb 3a 0d ce 2c bc 2c 82 d1 3c
       0.017675102 0.001551292 -0.010547173 0.025574766
0000c0 f9 43 7b 3c 9e eb 03 3e 42 99 07 3d 61 c8 9c bc
       0.01533603 0.1288285 0.033105142 -0.019138517
0000d0 ce 19 35 bc a9 80 a8 bc c8 80 84 3c 59 f5 ea bd
       -0.011053516 -0.020569162 0.016174689 -0.114725776
0000e0 d8 cf c3 3c 89 24 b4 3c 2f 0a 95 3c c6 c8 e9 bc
       0.023902819 0.021990078 0.018193332 -0.028538119
0000f0 57 6d af 3c a5 67 2b bd 97 61 8e 3c e3 97 1f bc
       0.021414442 -0.04184689 0.017380519 -0.009740802
000100 ee 5e 75 3c 7b e8 df bc 50 25 f6 3b b0 3b 04 bc
       0.014976246 -0.027332535 0.007511772 -0.008070871
000110 7a fa e5 bd 9b 67 92 bc aa 26 f2 3b ce 13 87 bd
       -0.11229415 -0.017871669 0.007389863 -0.06595574
000120 21 8d e0 3b 11 b1 7e 3c 9f 7a 60 bc 65 f5 a5 bd
       0.0068527614 0.015545146 -0.01370111 -0.08103446
000130 e3 e0 00 bd 9f a8 19 3e ce 8d 49 bc 53 5f d7 bc
       -0.03146447 0.1500573 -0.012301875 -0.026290571
000140 1c fe 78 bb d6 20 4f 3d db dd 13 3d ee 9d 8f bd
       -0.0037993258 0.050568424 0.03610025 -0.070125446
000150 ec 30 1c 3e f6 37 29 3c 45 2d c5 3c c6 e5 3d bc
       0.15253037 0.0103282835 0.024069438 -0.011590427
000160 dc 07 80 bc 4a 4d ad bc 33 8f 2e bc 3c 71 40 3b
       -0.015628748 -0.021155018 -0.010654259 0.0029364368
000170 78 13 93 bc 72 2f aa 3c c2 22 02 3c 1d a2 6d bc
       -0.01795362 0.020774577 0.007942857 -0.014503983
000180 b9 77 a7 3c 9a b1 09 3e 50 02 90 3c bf 51 fb 3d
       0.02044283 0.13446656 0.017579228 0.12271451
000190 e9 48 13 3c 9e 98 c3 bc d8 53 94 bc 2f a2 cc 3c
       0.008989551 -0.023876484 -0.018106386 0.024979679
0001a0 60 8c 04 bd c0 5d 2d bc 5b 09 bb 3c 58 76 96 bc
       -0.032360435 -0.010581434 0.02283161 -0.018366978
0001b0 38 2a 24 3d 5b 23 c1 3c d8 42 02 3d 62 15 1a 3c
       0.040079325 0.02357643 0.03180203 0.009404512
0001c0 83 b5 24 3c fc d0 a5 3c 0a 57 b0 bc 6c 51 5d 3c
       0.010053041 0.020241253 -0.021525878 0.013508182
0001d0 37 99 06 3d d7 2a e3 bc 52 5a 5f bd 86 ac 05 3d
       0.03286096 -0.027730389 -0.054529496 0.032635234
0001e0 0f d7 07 bd 30 06 b3 3d 54 11 f1 bd d4 4e fb 3c
       -0.03316408 0.087414145 -0.11770883 0.030677237
0001f0 20 61 89 bc ae 71 8a bc f2 52 f4 bb fe da 2d bc
       -0.016769946 -0.01689991 -0.007456177 -0.010611294
000200 35 dc 8c 3c 0e 1a 27 bb ce a9 fc 3c f1 f3 29 bb
       0.017194847 -0.0025497708 0.030842688 -0.0025932754
000210 e7 7b 91 bc 63 ff ce 3b 5b 2d ce ba 28 f9 f5 3c
       -0.017759277 0.0063170656 -0.001573007 0.030026034
000220 72 0f bf 3c 5f 6d eb 3d 87 4a 98 bd af 8e fa 3b
       0.023322795 0.1149547 -0.0743609 0.0076464037
000230 21 d7 93 bd 8c a8 e6 bd ee e6 42 bc 8f a4 c1 3c
       -0.07218767 -0.112626165 -0.011895878 0.023638038
000240 a3 80 ce 3d 20 c7 f2 bc e5 04 6b 3c 7c c8 8a bc
       0.10083129 -0.029635966 0.014344429 -0.016941302
000250 9f 53 66 bd 22 55 1d 3d 4f a5 b8 bc 2d c0 99 3d
       -0.05623209 0.038411267 -0.022539763 0.07507358
000260 11 9a f4 3c 27 24 06 bc 6e 6b e4 bc 86 6a 36 bd
       0.02985862 -0.00818733 -0.027883258 -0.044535182
000270 63 40 58 3c d7 b8 4b 3c b7 ad 1f 3d 28 72 ab 3a
       0.013198945 0.012434206 0.038984027 0.0013080286
000280 cf 31 b7 3c 34 86 60 bc 0f 2f 6e 3b e7 8a f1 3c
       0.022362618 -0.0137038715 0.0036343967 0.02948518
000290 99 4f a8 3d bf a9 51 bd 29 c5 e7 3c e2 50 3d bd
       0.08218307 -0.051187273 0.028292255 -0.046219714
0002a0 40 90 73 bd 98 9c 24 3b 01 39 ea 3c 25 e8 82 3c
       -0.05946374 0.0025117751 0.028591635 0.015979836
0002b0 0f fa 23 bd ca d2 1d bd 83 82 82 bb bf 6b 7d bb
       -0.040033396 -0.038531102 -0.0039828434 -0.0038668958
0002c0 dc 50 19 bd 9c c6 01 3c 2d 4e aa 3c d4 bf 83 3b
       -0.03743063 0.007920887 0.02078923 0.0040206704
0002d0 90 f5 ca 3c 6f eb 86 bc 48 01 38 3c 75 29 9f bc
       0.024775296 -0.016469685 0.011230774 -0.019428948
0002e0 43 5d 00 bd d2 90 e7 3c d2 80 01 3d cf 85 4e 3b
       -0.03133894 0.028267298 0.031616993 0.0031512862
0002f0 41 5f 52 3b 2b 31 eb bd ab 24 ab bb 71 be e7 3c
       0.0032100233 -0.114839874 -0.005222877 0.028289052
000300 c4 b5 2a bd 82 7f 86 bb 37 40 53 bd 13 c3 27 bd
       -0.04167725 -0.0041045556 -0.051574912 -0.04095752
000310 0c 96 b4 bc a1 81 b5 bc 0d 83 05 bd 92 6d ed bd
       -0.022044204 -0.022156538 -0.032595683 -0.115931645
000320 1d f8 47 bc 10 53 4d 3c d7 5c 12 bc 91 3e 93 bb
       -0.012205151 0.012532011 -0.008933268 -0.0044935425
000330 48 a9 c6 3b 60 c5 d1 3c e3 c2 39 bd 41 96 90 3d
       0.0060626604 0.025606811 -0.045351874 0.07059909
000340 2e e7 22 3d 35 08 f6 3d 91 3a f7 3d f5 55 41 3c
       0.03977125 0.12013284 0.120717175 0.011800279
000350 ef 6a 4f 3c 4f 8b ab 3c ac b5 86 bc 36 07 1d 3d
       0.012659772 0.020940451 -0.01644405 0.038336955
000360 9d 7b a3 3d 4a 10 81 bc 2d 0b ba 3c 52 ef 16 bc
       0.07982562 -0.015754838 0.022710407 -0.009212332
000370 df 5c 5b bd f4 5d 79 bb 6b 3d 14 3d 45 7d e3 3b
       -0.053555366 -0.0038050385 0.036191385 0.0069424235
000380 ee c1 95 3b b2 1e de 3c f6 be e6 bc 19 54 06 3c
       0.0045702374 0.027114246 -0.02816723 0.008198761
000390 89 64 17 3d b7 78 c1 3a ec 88 98 3c 86 5a 97 3c
       0.036961112 0.0014760707 0.018619977 0.018475782
0003a0 4b e4 09 3c 6e db a8 3c 46 a7 b5 bc 73 d8 ef bb
       0.008416246 0.020612445 -0.022174489 -0.007319504
0003b0 88 f9 21 3d f5 4f 19 bc aa 89 b0 bc b2 5d 97 3d
       0.039544612 -0.009357442 -0.021550018 0.07390918
0003c0 32 6c 31 3d 98 bd 80 bc 94 b7 af bd 68 2b 57 ba
       0.043316074 -0.015715405 -0.085799366 -0.0008208067
0003d0 37 1e 05 bc cf 53 e2 bc d7 57 3b 3d f4 db 78 bc
       -0.00812488 -0.027627854 0.045738067 -0.01518916
0003e0 6f 54 99 3c 7e f5 2b 3d 19 44 b2 bc f9 59 fc 3d
       0.018717019 0.041982166 -0.021760987 0.123218484
0003f0 b7 00 a4 bb 86 dc 5b bd 7e 12 fc bc 2e 10 68 3b
       -0.005004968 -0.053677104 -0.030770537 0.0035410034

net.6.bias f4 [9]
000000 c4 86 1e 3b e2 b1 27 bc ef b5 1d 3c 55 98 14 3c
       0.0024189213 -0.010235282 0.009625896 0.009069522
000010 25 b1 d3 bb d7 4b b9 3b 3d f3 99 3c 20 41 b1 3e
       -0.0064603263 0.0056547928 0.018792743 0.3462
000020 f1 a3 65 3e
       0.2242582

exp_avg f4 [256, 23]
000000 de 12 87 b9 d8 2a b7 39 dd 2d 2a b8 48 a5 af 39
       -0.00025763264 0.000349364 -4.0573872e-05 0.00033501745
000010 2f 8c 51 39 d4 ae 5e 38 0d 8b 22 b9 97 7a fc b9
       0.00019984016 5.3091746e-05 -0.00015501324 -0.00048156522
000020 7f 50 aa b9 33 37 c1 38 ba 25 b6 b6 28 b2 7b b8
       -0.000324849 9.213239e-05 -5.4284146e-06 -6.0008984e-05
000030 a4 62 58 37 43 e2 9b b8 ac c6 ca 38 7c 42 7e b8
       1.289757e-05 -7.4331205e-05 9.669116e-05 -6.0620237e-05
000040 2a c1 1b 35 cb 25 04 34 6b e7 67 37 40 7f b6 b8
       5.802309e-07 1.2307207e-07 1.3822554e-05 -8.7021384e-05
000050 55 b5 12 b7 b4 c7 7e b9 77 87 d0 b8 e8 d6 a1 b8
       -8.744498e-06 -0.00024297723 -9.943445e-05 -7.717108e-05
000060 e5 a0 39 39 19 e5 23 37 2a 5b eb b8 8d 66 62 b9
       0.00017702913 9.768898e-06 -0.00011222654 -0.00021591243
000070 7e fe 55 b9 0c fa b2 b8 bf ab 0e ba cf 9d a4 38
       -0.00020408069 -8.534276e-05 -0.0005442462 7.8495235e-05
000080 b4 56 1f 37 1f 28 c1 37 0d f9 eb b8 55 0d 57 b7
       9.497326e-06 2.3026076e-05 -0.000112520625 -1.2818103e-05
000090 c8 be 86 b9 ac 9b de 37 20 0d 0e 39 3f 65 2b 30
       -0.00025700615 2.6536953e-05 0.00013547065 6.2353317e-10
0000a0 a2 9a 2f b5 4f 6e 35 37 ff 7b f4 b7 4b 08 41 b8
       -6.54176e-07 1.0814124e-05 -2.9144807e-05 -4.602251e-05
0000b0 7f 79 9e 35 18 53 82 38 bd c0 5e 37 58 7e 1b 38
       1.1807277e-06 6.2143605e-05 1.32771065e-05 3.7072547e-05
0000c0 8d f1 35 b7 3c bb 6b 36 7a 0d 66 38 f3 fc ee b6
       -1.0844681e-05 3.5126714e-06 5.4848824e-05 -7.1224e-06
0000d0 54 ec 51 b8 c4 e1 cb 38 ae 10 ec b8 d4 22 09 b8
       -5.004958e-05 9.7218464e-05 -0.00011256464 -3.269578e-05
0000e0 72 91 32 37 28 44 22 38 63 9c 82 b7 ca 67 f5 37
       1.0643491e-05 3.8687285e-05 -1.557003e-05 2.9254606e-05
0000f0 9a 35 dc b7 55 f5 0b 38 fc e4 cd b4 c2 3c 68 b4
       -2.6251004e-05 3.3368666e-05 -3.8350834e-07 -2.1628787e-07
000100 bb 64 2b 38 9c 39 7a 36 1a f1 2c b3 91 fd 49 37
       4.086339e-05 3.7286436e-06 -4.026615e-08 1.2039572e-05
000110 11 f9 c7 37 12 56 ff b8 0c 18 1d 39 3f 8a d3 37
       2.383863e-05 -0.000121753794 0.00014981645 2.5217536e-05
000120 3e 55 af 39 6d 63 03 39 d8 ae f6 b8 c3 26 d6 b8
       0.0003344211 0.00012530173 -0.00011762761 -0.00010211535
000130 33 35 25 b9 93 41 24 38 17 43 9e 38 97 a9 32 b6
       -0.00015755444 3.9161718e-05 7.5465236e-05 -2.6622781e-06
000140 60 25 2b b8 e8 45 76 38 1a 35 45 b8 da ae df 38
       -4.0804385e-05 5.8716076e-05 -4.7017915e-05 0.00010666037
000150 b9 04 01 b9 3c ec 6a 35 35 87 0a 35 20 84 30 b8
       -0.00012304158 8.751556e-07 5.160576e-07 -4.208472e-05
000160 12 21 80 36 f1 78 dc 35 44 ef 24 b9 c0 19 7e b8
       3.818547e-06 1.6426476e-06 -0.00015729392 -6.05823e-05
000170 c0 4f 43 b9 32 e5 4a 39 2b dc a3 38 65 31 ba b7
       -0.00018626358 0.00019349603 7.813455e-05 -2.2195929e-05
000180 63 5a 8c 39 db 6d 07 39 3c ed 09 37 4d 51 02 b9
       0.00026770224 0.00012915528 8.221072e-06 -0.00012428053
000190 ca 5c a7 39 be b4 b0 b8 6a f4 a2 37 4b 3e 32 38
       0.00031921855 -8.426e-05 1.9425719e-05 4.2496522e-05
0001a0 0b e6 ed b7 64 c2 19 38 1d 08 68 b8 7a cf 90 38
       -2.8359724e-05 3.6659083e-05 -5.5320666e-05 6.9051006e-05
0001b0 fa a5 31 b5 f7 31 ee b3 23 e3 82 38 a7 8a dc 37
       -6.6179166e-07 -1.1091827e-07 6.2411906e-05 2.6290609e-05
0001c0 02 21 e3 36 96 09 af 38 7e b2 d7 b7 43 74 53 b8
       6.76897e-06 8.346436e-05 -2.5713114e-05 -5.0414597e-05
0001d0 8b 82 a5 b8 25 0d 08 38 a6 c1 cf b9 f5 9a 83 b8
       -7.8921286e-05 3.243717e-05 -0.00039626396 -6.27543e-05
0001e0 25 72 8a 39 89 f3 54 39 58 fb 92 38 92 cd 03 39
       0.00026406455 0.0002030862 7.008639e-05 0.00012569714
0001f0 f8 2a ba b8 14 1c 48 37 4f 20 2c 38 7e b2 ba b8
       -8.877175e-05 1.1927466e-05 4.1038085e-05 -8.902418e-05
000200 4b 85 63 37 21 4a d7 b8 a6 aa fa 38 10 7c a7 b5
       1.3561289e-05 -0.000102658065 0.00011952715 -1.2478577e-06
000210 c7 28 0f b5 0f 9f 1c 38 0e ae 85 37 9b ab b8 36
       -5.333099e-07 3.7341433e-05 1.5935886e-05 5.503605e-06
000220 ea c7 41 39 b1 fd 98 37 1f cc 64 b9 40 33 2a 39
       0.00018480388 1.8237946e-05 -0.00021819815 0.00016231555
000230 86 00 05 39 4e a9 b0 b8 40 be be 39 03 af 71 39
       0.00012684063 -8.4238694e-05 0.0003638137 0.00023048748
000240 9d e8 87 38 38 49 23 b9 0d 66 f5 39 28 cc 04 b9
       6.480629e-05 -0.00015572167 0.00046806075 -0.00012664555
000250 be 0f 76 37 ec 63 a8 38 18 b7 60 b8 8b 83 ba 38
       1.4666408e-05 8.029476e-05 -5.357628e-05 8.893673e-05
000260 47 cf 24 b9 72 c3 51 38 3f 86 47 b5 c0 8b 60 b3
       -0.00015717476 5.0011506e-05 -7.432863e-07 -5.2281166e-08
000270 b6 c0 a4 38 78 64 56 38 b8 61 94 37 fc f0 22 39
       7.8560246e-05 5.1115145e-05 1.7688479e-05 0.00015539298
000280 3a 62 b2 37 ee a6 ea 38 3e d6 91 38 7a 3e a1 b8
       2.1264994e-05 0.000111890826 6.9540445e-05 -7.6887154e-05
000290 c3 d7 e4 39 a5 32 f3 38 32 b9 9a b9 3c 52 73 b9
       0.00043648304 0.00011596576 -0.0002951115 -0.0002320492
0002a0 f1 e7 88 b8 11 b2 e7 b8 e2 91 26 38 1b 04 5a b7
       -6.528188e-05 -0.00011048106 3.9713348e-05 -1.2994768e-05
0002b0 64 12 bd 36 cb 89 01 38 4d 4a 4f b6 5c 6d 0a 38
       5.63478e-06 3.0884326e-05 -3.0888652e-06 3.3003613e-05
0002c0 c4 3a aa b8 f8 b6 65 35 99 c6 f7 34 53 52 c5 35
       -8.117178e-05 8.55754e-07 4.6151834e-07 1.4701603e-06
0002d0 73 97 07 b8 fc c0 59 35 49 43 41 b9 de 2c 54 38
       -3.2327556e-05 8.111963e-07 -0.0001843098 5.0586525e-05
0002e0 15 59 3b b9 83 2e 3b 38 e9 02 8e b8 1d b7 67 39
       -0.00017866895 4.462759e-05 -6.77163e-05 0.00022098092
0002f0 b3 b0 ba 39 ce dc 0e 3a ce ff e7 38 7b 3e 1a 3a
       0.00035608336 0.00054497726 0.00011062586 0.0005883944
000300 b6 9a 91 b9 55 14 44 37 21 70 be b5 ec e0 84 38
       -0.00027771824 1.1687244e-05 -1.4188737e-06 6.3361455e-05
000310 46 0c a9 b6 07 83 79 39 29 36 7b b8 56 2c e3 b8
       -5.0380213e-06 0.00023795302 -5.9893504e-05 -0.00010832462
000320 33 58 21 b4 fc 3a 4a 35 00 96 1c 38 a5 e7 28 b8
       -1.502638e-07 7.53367e-07 3.7332997e-05 -4.0270057e-05
000330 99 24 82 38 9e 2f e7 b8 02 d2 4f b9 2c 68 ac b8
       6.2057e-05 -0.00011023808 -0.00019819292 -8.221003e-05
000340 6d ca 4a 38 ce a2 4d 38 66 9d e9 37 e7 ad 35 38
       4.8349077e-05 4.9027432e-05 2.7849059e-05 4.3315722e-05
000350 7b 25 b1 b6 4a 6b 79 37 e9 c0 20 b9 0c e7 e1 38
       -5.2793744e-06 1.4866537e-05 -0.00015330654 0.00010771872
000360 a0 b0 34 37 aa a2 98 35 1d bb 08 b8 45 53 37 37
       1.076996e-05 1.1372224e-06 -3.259919e-05 1.0927038e-05
000370 42 a9 87 b7 5b fa 83 36 0d c1 ef b7 2e 3e d9 34
       -1.617207e-05 3.9332494e-06 -2.8580916e-05 4.046464e-07
000380 db 9b 81 34 8c 28 da b7 dd 69 51 b7 2d 94 ae b5
       2.4141522e-07 -2.6006506e-05 -1.2482019e-05 -1.3007135e-06
000390 27 33 1a b5 5a 84 40 b7 ba e9 6f 38 00 f0 43 37
       -5.7443907e-07 -1.1474907e-05 5.7199715e-05 1.1678785e-05
0003a0 f4 8f 20 b5 5d ac 81 b8 5b 73 8e 38 bc ab 87 b7
       -5.9814124e-07 -6.1833045e-05 6.792574e-05 -1.6173224e-05
0003b0 27 0f 3c b8 60 9e ea b9 9b b6 df 39 28 f0 5a b8
       -4.4836805e-05 -0.00044749957 0.00042669926 -5.2198913e-05
0003c0 9b 55 d6 b7 d9 94 29 37 2e b6 a2 b8 28 fa f3 b8
       -2.5550651e-05 1.0107841e-05 -7.7586956e-05 -0.00011633738
0003d0 ae 17 b4 b8 5f 00 40 39 3f 3b df b4 c9 41 20 34
       -8.5874795e-05 0.00018310685 -4.1580094e-07 1.4925094e-07
0003e0 2e 86 bb 37 f4 b0 49 38 d2 3f 8b b7 b7 04 e9 38
       2.235462e-05 4.8086935e-05 -1.659981e-05 0.00011111184
0003f0 66 7e 03 39 4b a5 87 39 dd a2 c6 b9 e6 18 bf b7
       0.0001254022 0.0002587236 -0.00037886846 -2.2780569e-05

exp_avg_sq f4 [256, 23]
000000 46 46 a6 35 b7 5c db 35 be 36 a8 33 f9 77 67 35
       1.2388416e-06 1.6343755e-06 7.833067e-08 8.622879e-07
000010 32 b5 92 35 69 8f b8 34 ba 32 e0 34 52 48 2e 36
       1.0930582e-06 3.4377015e-07 4.176016e-07 2.5970116e-06
000020 7a 14 09 36 3d 58 e4 32 40 ba c5 31 b9 f6 8b 32
       2.042651e-06 2.658282e-08 5.7546288e-09 1.6293926e-08
000030 42 86 6e 32 3e 06 e9 32 d3 66 de 32 7c 38 ba 32
       1.388395e-08 2.7127609e-08 2.589096e-08 2.1678936e-08
000040 e7 9d b9 2c 57 c7 9c 2b 47 a2 48 33 bb 54 46 33
       5.275547e-12 1.1139795e-12 4.671372e-08 4.617753e-08
000050 06 6c d0 30 10 a6 69 34 ed b2 00 33 d2 04 e7 35
       1.5164694e-09 2.1760229e-07 2.9965054e-08 1.7212244e-06
000060 c0 19 19 36 8c 06 03 34 d9 b0 a0 35 68 5b d1 35
       2.2813765e-06 1.2202707e-07 1.1972398e-06 1.5598316e-06
000070 85 9d fc 34 5a a3 19 35 f6 7b 6c 36 71 70 44 36
       4.7053268e-07 5.723465e-07 3.5238895e-06 2.9271725e-06
000080 3a 5a 0d 33 a1 92 14 32 9e 85 ec 32 2d 71 b1 32
       3.291118e-08 8.648073e-09 2.7534778e-08 2.0656978e-08
000090 2b da 44 33 ec 32 15 33 11 36 0a 33 54 09 94 2c
       4.583323e-08 3.473808e-08 3.2179802e-08 4.2074486e-12
0000a0 15 fb fd 2b 5b ee a4 33 38 17 8e 33 aa 2b 5a 31
       1.804642e-12 7.680202e-08 6.616614e-08 3.1747995e-09
0000b0 d0 31 a3 34 d6 9e 2b 33 98 7e ba 34 c7 7a fd 34
       3.039736e-07 3.99585e-08 3.473731e-07 4.7214255e-07
0000c0 da 3e b3 32 e1 d4 85 34 7f 39 ab 34 fd 26 c3 33
       2.0866924e-08 2.492807e-07 3.1893066e-07 9.087487e-08
0000d0 06 bf 00 34 ae 3b 3c 35 68 79 1e 35 4d 2a ca 31
       1.1990423e-07 7.0122303e-07 5.9036256e-07 5.883783e-09
0000e0 f0 65 07 31 ce 69 99 31 c8 ef 83 31 21 16 f0 31
       1.970303e-09 4.4649147e-09 3.8398618e-09 6.987435e-09
0000f0 72 9e fa 31 e5 9e b4 31 2a 5b e8 2c 57 e7 de 2a
       7.2939708e-09 5.2567537e-09 6.603958e-12 3.9595646e-13
000100 12 28 80 32 ba 6a 5e 32 92 c0 1e 30 0b d4 84 33
       1.4919383e-08 1.29463675e-08 5.7753724e-10 6.1852994e-08
000110 ec 1c fc 31 72 27 8b 35 48 c5 ba 35 fe 4f 86 33
       7.3374533e-09 1.0367787e-06 1.3915496e-06 6.254412e-08
000120 fb c3 49 35 ae a3 7a 35 b8 b0 93 34 37 39 c4 34
       7.5163524e-07 9.337044e-07 2.7509464e-07 3.6549474e-07
000130 a4 19 12 36 42 69 e8 35 23 69 ca 32 19 1e ac 31
       2.177062e-06 1.7315981e-06 2.3563706e-08 5.0092805e-09
000140 7e a8 66 32 f2 88 47 32 80 73 ae 32 23 ab b6 32
       1.3426073e-08 1.1614462e-08 2.030879e-08 2.1265413e-08
000150 8d 04 8c 32 d4 12 4b 2c ee a4 70 2b 0b 07 27 33
       1.6300215e-08 2.8858487e-12 8.5494014e-13 3.8889123e-08
000160 c4 16 2a 33 f1 a5 9f 30 39 58 46 34 43 d2 b5 32
       3.9601915e-08 1.1615936e-09 1.8472282e-07 2.116679e-08
000170 e5 7f d5 34 33 d4 13 35 d5 c8 c1 32 b1 75 9e 34
       3.9767397e-07 5.507056e-07 2.2559485e-08 2.9515425e-07
000180 64 1f c6 34 1f af cc 33 b3 13 15 34 ae f4 67 35
       3.6903214e-07 9.5313446e-08 1.3883873e-07 8.641026e-07
000190 d7 d0 39 35 a1 cd 05 32 3f 50 0e 31 05 d4 bc 31
       6.922177e-07 7.7883735e-09 2.0709334e-09 5.495624e-09
0001a0 c8 d1 97 31 4a 5b 05 32 0c c8 04 32 72 21 f6 31
       4.4185278e-09 7.762376e-09 7.728897e-09 7.1633446e-09
0001b0 d9 3b 49 2d e7 6b ce 2a 56 be 93 32 c3 c8 86 32
       1.1438816e-11 3.6667823e-13 1.7199607e-08 1.5690949e-08
0001c0 34 51 29 30 a7 a6 9e 33 e7 12 1b 32 0b 95 20 35
       6.159724e-10 7.387762e-08 9.026485e-09 5.982153e-07
0001d0 8d 3d 5e 35 3c c8 1c 33 dc c4 f0 34 02 fa 15 35
       8.279101e-07 3.6503693e-08 4.4846718e-07 5.5870635e-07
0001e0 09 2d 29 34 e7 d9 6b 34 09 cb a8 35 2b bf 85 35
       1.5755735e-07 2.1965353e-07 1.2576066e-06 9.964909e-07
0001f0 f3 c8 72 32 b3 ad 42 31 43 6c 16 32 08 a0 e9 31
       1.41319445e-08 2.8329452e-09 8.755765e-09 6.799386e-09
000200 26 2d 67 32 92 10 49 32 0a f6 15 32 5a 63 5b 2c
       1.3456235e-08 1.17035075e-08 8.728884e-09 3.1176923e-12
000210 05 b4 17 2b 32 c2 e4 32 69 6a c8 32 d5 5b 81 30
       5.3895804e-13 2.6631003e-08 2.3331454e-08 9.412086e-10
000220 2e 9d f0 33 e4 6c 6a 32 2b d5 36 35 ec 94 76 35
       1.1204462e-07 1.36453515e-08 6.8110484e-07 9.185885e-07
000230 11 a3 4b 33 bc 81 0c 35 61 61 27 35 e1 22 4e 34
       4.741293e-08 5.234285e-07 6.2354053e-07 1.9197934e-07
000240 db 79 85 34 6a 3e c4 35 4e 48 a9 35 09 81 87 32
       2.4861842e-07 1.4621303e-06 1.2612525e-06 1.5774747e-08
000250 3d dd 81 31 09 f3 4d 32 94 b7 0b 32 01 e9 85 32
       3.779546e-09 1.198783e-08 8.132606e-09 1.5589196e-08
000260 e6 26 90 32 f4 6d 42 32 4f 5e 66 2b 6a cc 15 2b
       1.6781495e-08 1.1317287e-08 8.1843294e-13 5.3219115e-13
000270 cd 38 03 33 9f c2 ef 32 77 74 90 30 d6 f7 10 34
       3.0552474e-08 2.7911765e-08 1.051048e-09 1.3501207e-07
000280 d1 8f 88 32 22 e5 21 35 20 55 55 35 77 43 3c 33
       1.5897884e-08 6.0310606e-07 7.9472557e-07 4.383352e-08
000290 96 6f e5 34 12 2b 12 35 23 f4 31 34 df 6e 61 34
       4.2735763e-07 5.4451914e-07 1.6573226e-07 2.0995093e-07
0002a0 ef 93 a0 35 d3 af 86 35 82 d4 82 32 15 26 65 31
       1.1963983e-06 1.003495e-06 1.523063e-08 3.3345533e-09
0002b0 c9 a2 29 32 2c 56 ed 31 c5 c3 86 32 d7 82 61 32
       9.874108e-09 6.9074044e-09 1.5688679e-08 1.3126473e-08
0002c0 89 15 44 32 0c 46 a7 2b ad 82 2c 2b 84 d9 f0 32
       1.1413598e-08 1.1885506e-12 6.1288024e-13 2.8038592e-08
0002d0 dd bf ce 32 01 e6 97 30 66 ce ea 33 be b8 65 32
       2.4068806e-08 1.1052067e-09 1.0934018e-07 1.337156e-08
0002e0 b4 7c 08 36 c7 b5 30 36 30 8f 1a 34 1b 93 b8 35
       2.0338166e-06 2.6331852e-06 1.4394459e-07 1.3751882e-06
0002f0 85 cd f1 35 c3 44 20 35 f7 7a 30 35 2a 49 8b 36
       1.8015713e-06 5.9704706e-07 6.5744047e-07 4.1510402e-06
000300 b0 7b 62 36 38 ed 33 33 9e df 2e 32 07 f4 0c 33
       3.374862e-06 4.1892434e-08 1.0178978e-08 3.281823e-08
000310 91 35 c9 32 34 bd 61 33 97 af 33 33 99 5c 2b 33
       2.3423839e-08 5.2558974e-08 4.1836383e-08 3.9898257e-08
000320 9a 2b a3 2c 04 8e 18 2c d9 8c c4 33 6c e9 a0 33
       4.6375794e-12 2.1679334e-12 9.152581e-08 7.49304e-08
000330 38 66 93 31 b0 26 ba 34 49 58 5a 33 8c f4 a5 34
       4.289884e-09 3.467335e-07 5.0837375e-08 3.0911576e-07
000340 04 c5 d9 34 62 24 a6 32 31 70 50 34 d0 cd 95 34
       4.0562747e-07 1.9341488e-08 1.9412325e-07 2.790316e-07
000350 6e d6 b0 33 8b 79 c4 33 7b 15 2b 35 5c ab f8 34
       8.234643e-08 9.14907e-08 6.373372e-07 4.631828e-07
000360 a6 12 ce 31 6e ff d8 30 09 df 89 31 9a 62 66 31
       5.997509e-09 1.5788666e-09 4.012581e-09 3.3525454e-09
000370 ef 2b dd 31 bb 56 dd 31 70 dc a2 31 6f 36 9d 2c
       6.436941e-09 6.4418066e-09 4.7398814e-09 4.4682517e-12
000380 74 6d a4 2a b7 ec 7b 32 09 c8 36 32 39 f0 20 30
       2.92082e-13 1.4663946e-08 1.0639277e-08 5.854904e-10
000390 cf a3 4c 33 c7 bd cb 31 04 96 bc 35 4d 8f f5 35
       4.7646434e-08 5.9296528e-09 1.4050752e-06 1.8295628e-06
0003a0 e2 54 c4 33 f3 3c 80 35 8b 37 a7 35 bc 80 e0 34
       9.142401e-08 9.554482e-07 1.2458635e-06 4.1816918e-07
0003b0 22 e3 f3 34 59 54 40 36 6a 9b 1c 36 57 6e 18 33
       4.5427538e-07 2.8659326e-06 2.3336274e-06 3.549061e-08
0003c0 3f e1 21 32 26 bb ee 32 06 b5 9a 32 d7 1d 2b 33
       9.422648e-09 2.7791952e-08 1.801028e-08 3.984118e-08
0003d0 fc ba 2a 33 5f 4c dd 32 89 00 3d 2d 32 6d d2 2b
       3.975127e-08 2.5762516e-08 1.0743525e-11 1.4951705e-12
0003e0 29 be 6b 33 5f 91 5f 33 bb 88 07 31 8a 69 80 34
       5.488815e-08 5.2053448e-08 1.9722808e-09 2.3918648e-07
0003f0 24 dc 4a 33 44 3b 6e 35 b7 80 9d 35 a3 2a 64 33
       4.7232007e-08 8.874815e-07 1.1734872e-06 5.3124165e-08
