RefAgent/BC-CAB-256128/checkpoints/agent_4800.pt (torch, 488547 bytes, 18 tensors)

net.0.weight f4 [256, 23]
0	0xbdacc3ff	-0.08435821
1	0xbcff827f	-0.031190155
2	0xbe17b914	-0.14816695
3	0xbc8e3471	-0.01735899
4	0xbc70f6a5	-0.014707242
5	0xbce25cb7	-0.0276321
6	0xbc98e1ed	-0.018662417
7	0xbc6890ec	-0.014194708
8	0xbcaeea5b	-0.021351984
9	0xbe486d51	-0.19572951
10	0xbe94c837	-0.29059002
11	0xbf090a8b	-0.5353171
12	0x3dce5bf9	0.10076136
13	0x3d626eac	0.055281326
14	0xbe00c3cc	-0.1257469
15	0xbb9f2d3d	-0.0048576877
16	0xbeaa8deb	-0.333114
17	0xc03c55d0	-2.9427376
18	0x3ea881b5	0.3291146
19	0x3d915209	0.07095725
20	0x3f93e202	1.1553347
21	0x3e38c63b	0.18044369
22	0x3de401cd	0.11133156
23	0x3cb372d2	0.021905337
24	0xbe4961a0	-0.19666147
25	0x3d65f945	0.056145925
26	0xbd0afa6a	-0.03393022
27	0x3d7c91ed	0.061662603
28	0xbd636518	-0.055516332
29	0xbc202b7e	-0.009775994
30	0xbcadc7be	-0.021213409
31	0xbc0c4d99	-0.008563423
32	0x3c296a7f	0.010340332
33	0xbf3a6529	-0.7281061
34	0xbe504254	-0.20337802
35	0x3e842f29	0.2581723
36	0x3da81739	0.08207554
37	0xbe80b6e3	-0.25139531
38	0xbcd1dad5	-0.025617043
39	0x3e1b03d2	0.15138176
40	0x3e32ac4d	0.1744854
41	0x3d81681a	0.06318684
42	0xbeabf7e6	-0.3358757
43	0x3e81c57b	0.25345978
44	0x3e42902a	0.19000307
45	0xbc7476f7	-0.014920942
46	0x3d95069b	0.072766505
47	0xbd14699e	-0.036233537
48	0x3d4e86ac	0.0504214
49	0x3d167798	0.036735147
50	0xbc880150	-0.016602188
51	0x3d99a3e7	0.07501965
52	0x3e05da85	0.1307164
53	0xbd37615b	-0.04477058
54	0xbbfcb51a	-0.0077120187
55	0xbde871c2	-0.113498226
56	0x3e9372b8	0.2879846
57	0x3e93fc11	0.2890325
58	0xbea8691d	-0.32892695
59	0xbced7ad9	-0.028989242
60	0x3e17af87	0.14813052
61	0x3e523294	0.20527107
62	0xbebd02f0	-0.36916304
63	0x3f376f73	0.71654433
64	0xbd67ef13	-0.056624483
65	0xbe2c04ef	-0.16798757
66	0xbe47de0f	-0.19518302
67	0xbb78574e	-0.0037893835
68	0xbdd207fe	-0.10255431
69	0x3d07949e	0.033100717
70	0xbcb7d6d2	-0.022441301
71	0xbdcbf62c	-0.09959063
72	0x3c582066	0.013191318
73	0x3c834b86	0.016027223
74	0x3c569cd1	0.013098911
75	0x3cf0423f	0.029328464
76	0xbb5b0ede	-0.003342561
77	0xbc70e431	-0.014702843
78	0x3a43d50e	0.0007470407
79	0xbe592f93	-0.21209554
80	0xbebc742c	-0.36807382
81	0x3ddbbb15	0.107290424
82	0x3cac9ec7	0.021071805
83	0x3bc2bcae	0.0059429025
84	0xbc670e6c	-0.01410256
85	0xbe88bbcc	-0.26705778
86	0xc048ac96	-3.1355338
87	0x3ed25035	0.41076818
88	0x3e953a0a	0.29145843
89	0x3f4c0cde	0.79707134
90	0x3e32c9d3	0.17459802
91	0x3d9737ad	0.07383666
92	0xbcaa4873	-0.0207865
93	0xbd93d485	-0.07218269
94	0x3c897818	0.016780898
95	0xbe0361f9	-0.12830342
96	0x3c80d05a	0.01572435
97	0xbd74a3e7	-0.059726622
98	0x3d37a8e0	0.044838786
99	0xbc7963fa	-0.01522159
100	0xbda37145	-0.07980589
101	0xbd006b40	-0.03135228
102	0x3eb037e6	0.34417647
103	0x3e2a20ed	0.16614123
104	0xbc95377f	-0.01821494
105	0xbe4525f0	-0.19252753
106	0x3e3f9c5d	0.18711992
107	0x3d88794b	0.0666376
108	0xbd499b14	-0.04922016
109	0xbfbff4e3	-1.4996608
110	0xbe719454	-0.23591739
111	0x3e16eca9	0.14738716
112	0x3d3587cb	0.044318955
113	0x3b5604cb	0.0032656665
114	0xbd0a4ff2	-0.033767648
115	0xbe0337d4	-0.12814265
116	0xbc616391	-0.013756649
117	0xbc4c38e2	-0.012464734
118	0xbd4dd0cc	-0.050247952
119	0xbcfb5c72	-0.03068373
120	0xbd5a3666	-0.053274535
121	0xbe10f602	-0.14156345
122	0x3c775558	0.015096031
123	0xbc06f087	-0.008236057
124	0xbe4ddae6	-0.20103034
125	0x3d632b0e	0.055460982
126	0xbd132cb9	-0.035931323
127	0xbe895d43	-0.26828966
128	0xbd8facb6	-0.07015364
129	0xbe53e5ec	-0.20693177
130	0xbe945f9c	-0.28979194
131	0xbe920c45	-0.28524986
132	0x3f00d3d7	0.5032324
133	0xbe283591	-0.16426684
134	0xbe387497	-0.18013225
135	0x3ed3394f	0.4125466
136	0x3d556659	0.05209956
137	0xbcdcd9d8	-0.026959345
138	0x3b10935b	0.0022060487
139	0xbcc3d1a8	-0.023903683
140	0xbcb3a843	-0.02193082
141	0xbd9c0bde	-0.07619451
142	0xbd34b54f	-0.04411822
143	0xbc7c89b0	-0.015413687
144	0xbd1ec3a8	-0.03876081
145	0x3d2e8c9e	0.04261457
146	0xbca8adc2	-0.020590667
147	0x3d871919	0.06596584
148	0x3f0a178b	0.53942174
149	0x3e3913c9	0.18073954
150	0xbe1b7c26	-0.15184078
151	0xbe507c63	-0.2035995
152	0x3e17a984	0.14810759
153	0xbe828f66	-0.2550003
154	0xbdc78d4d	-0.09743748
155	0xbf9ff50c	-1.2496657
156	0xbde29634	-0.11063805
157	0x3ef20c21	0.4727488
158	0x3e659aee	0.22422382
159	0xbd3fcd82	-0.046826847
160	0x3c373c01	0.01118374
161	0x3df1539d	0.11783526
162	0xbd523357	-0.051318493
163	0xbc7e54f5	-0.015523185
164	0x3ce94c34	0.02847872
165	0x3d956ccb	0.07296141
166	0x3dbabedf	0.09118437
167	0x3dd606df	0.10450529
168	0xbc86e7e0	-0.016467988
169	0xba814c76	-0.0009864706
170	0x3e48034c	0.19532508
171	0x3ea38038	0.3193376
172	0x3e4b3f4c	0.19848365
173	0x3d09fedd	0.033690322
174	0x3d25ccbe	0.04047846
175	0x3eb482c7	0.35256025
176	0x3eb53a7a	0.35396177
177	0x3f6ebb06	0.93254125
178	0xbe2a0ae4	-0.16605717
179	0xbd7bcb2e	-0.061473064
180	0x3e7ca6cf	0.24673007
181	0xbe7c4d11	-0.24638774
182	0xbe19d580	-0.1502285
183	0xbd4cacf8	-0.049969643
184	0xbd7f58ed	-0.062340666
185	0x3e87117a	0.2638052
186	0xbd696467	-0.056980517
187	0x3d486c6d	0.048931528
188	0xbd6e7609	-0.058218036
189	0x3d2f58ef	0.042809423
190	0xbca26ae1	-0.019826354
191	0x3b8d07f1	0.004303925
192	0xbaafd528	-0.0013414966
193	0xbd4b9adc	-0.049708232
194	0x3f22b8ae	0.6356305
195	0x3de705cd	0.11280403
196	0xbe089746	-0.13338956
197	0xbd5ebdee	-0.05438035
198	0x3e5cf27a	0.21576872
199	0x3ccb950e	0.024851348
200	0xbce56d97	-0.028006358
201	0xbf1ddc84	-0.61664605
202	0x3d87dd59	0.066340156
203	0x3e5abe58	0.21361673
204	0xbdeec95c	-0.116595
205	0xbdc9ed04	-0.0985966
206	0x3d9eaa7b	0.0774736
207	0xbc174cd6	-0.009234628
208	0x3ca9c507	0.020723833
209	0xbcad0121	-0.021118702
210	0x3b932976	0.0044910265
211	0xbc2f5d46	-0.01070339
212	0x3c91e005	0.017807016
213	0xbdb40da3	-0.087916635
214	0x3d96f169	0.07370264
215	0x3c9af5de	0.018916067
216	0x3d3ad013	0.04560859
217	0xbd3546ad	-0.044256855
218	0xbd152557	-0.036412563
219	0x3e964603	0.2935029
220	0xbd539e0c	-0.051664397
221	0xbd38168e	-0.044943385
222	0xbe6a864c	-0.22902793
223	0x3b6e470a	0.003635826
224	0xbe48bf5a	-0.19604245
225	0x3cda0808	0.026615158
226	0x3e79e445	0.24403484
227	0xbe953479	-0.29141596
228	0xbcff57c8	-0.031169787
229	0x3e150e76	0.14556298
230	0x3af7b77f	0.0018899291
231	0x3bb05849	0.005381618
232	0xbd9546b5	-0.07288877
233	0xbe11079d	-0.1416306
234	0xbd22a07e	-0.03970384
235	0xbd56b494	-0.052418306
236	0xbde8cc9b	-0.113671504
237	0x3cf5a70c	0.02998688
238	0x3be3cbe6	0.006951797
239	0x3dc08837	0.09400981
240	0x3d86b8ae	0.065781936
241	0xbda1f968	-0.079088986
242	0xbef4f07c	-0.47839725
243	0xbd053fa1	-0.032531384
244	0xbdb1b2fb	-0.08676716
245	0xbd8214d3	-0.06351628
246	0x3cb7a7aa	0.022418816
247	0xbf851143	-1.0395893
248	0xbe9af223	-0.3026286
249	0x3ed67130	0.4188323
250	0x3f89e64e	1.0773408
251	0xbe19867a	-0.14992705
252	0xbe071453	-0.13191347
253	0x3e01c5a9	0.12673058
254	0x3d94603f	0.0724492
255	0x3e400f7c	0.18755907

net.0.bias f4 [256]
0	0x3c15b624	0.009137664
1	0xbe022887	-0.12710772
2	0xbc94b9c2	-0.018154982
3	0xbd4275f3	-0.047475766
4	0xbdaacd6a	-0.08339961
5	0x3d2968f5	0.04135986
6	0xbe09cebf	-0.13457774
7	0xbd60984b	-0.054832738
8	0x3e6f9766	0.23397598
9	0xbd3e7fc4	-0.046508566
10	0xbe18c3a5	-0.14918382
11	0x3ba742f1	0.0051044156
12	0xbe2d27cd	-0.16909714
13	0x3d2ab0dc	0.041672572
14	0xbc71190f	-0.014715447
15	0x3d780b75	0.0605578
16	0x3db95224	0.0904887
17	0xbe11eb84	-0.14249998
18	0x3bde90cd	0.006792164
19	0xbd595332	-0.053057857
20	0x3e453388	0.19257939
21	0xbe3c736c	-0.18403405
22	0xbd31e0ac	-0.043427154
23	0xbde44823	-0.111465715
24	0xb9c23cd1	-0.00037047875
25	0xbc0019db	-0.007818664
26	0xbd30f115	-0.043198664
27	0xbe425bce	-0.18980333
28	0xbe8e1bb8	-0.27755523
29	0x3d8078bc	0.06273028
30	0xbd89b0ab	-0.0672315
31	0x3c167c35	0.009184887
32	0x3d2ed9a9	0.042688046
33	0xbdb89aef	-0.09013926
34	0xbb89e134	-0.0042077545
35	0x3da748a0	0.08168149
36	0x3e57a938	0.21060646
37	0x3d32ceef	0.04365438
38	0xbb8fae47	-0.004384789
39	0x3daa56b0	0.083173156
40	0x3d20daf7	0.03927132
41	0x3c78e443	0.015191141
42	0x3dbba529	0.09162361
43	0xbd757a94	-0.059931353
44	0xbd591ac0	-0.053004026
45	0x3d1ea097	0.03872737
46	0xbd807fd1	-0.06274379
47	0x3c41e8b0	0.011835262
48	0xbe7c15c9	-0.24617685
49	0xbd2ede22	-0.04269231
50	0x3dc3dcae	0.09563576
51	0xbd23f489	-0.04002813
52	0x3d8afc55	0.0678641
53	0xbe5f0c67	-0.21782075
54	0x3de31da2	0.110896364
55	0xbd2976db	-0.041373115
56	0x3e56e0d7	0.20984207
57	0xbe540845	-0.2070628
58	0x3ac8cee1	0.0015320444
59	0x3e995101	0.29944614
60	0xbc5b9094	-0.013401169
61	0x3c27bf90	0.010238543
62	0xbd0f25c3	-0.03494812
63	0xbd216c2d	-0.039409805
64	0x3d07314c	0.033005998
65	0x3d8a8503	0.06763651
66	0x3cdf0e94	0.027228631
67	0xb956b6aa	-0.00020476678
68	0x3e1577c4	0.14596468
69	0x3ca77b94	0.020444669
70	0x3d6252e0	0.055254817
71	0x3d8642df	0.065557234
72	0x3d87b304	0.066259414
73	0xbdaddc0d	-0.08489237
74	0xbbe25553	-0.006907144
75	0x3c510791	0.012758152
76	0xbcd8e535	-0.026476482
77	0xbca7b56d	-0.020472253
78	0xbdac5bab	-0.08415922
79	0x3dfce8a0	0.12349057
80	0x3d84fe95	0.0649387
81	0x3c83e7e8	0.016101792
82	0x3bd4627d	0.0064814673
83	0x3c33fa21	0.010984928
84	0xbdfdf11e	-0.12399505
85	0x3d919418	0.07108325
86	0x3e2d512b	0.16925494
87	0xbc8bb452	-0.017053757
88	0xbe06d6d8	-0.13167894
89	0x3daf151a	0.08548947
90	0x3c6e9597	0.014562032
91	0x3d8eeb02	0.06978418
92	0x3d4237f9	0.04741666
93	0x3dcdeff2	0.100555316
94	0xbdb06bc3	-0.08614304
95	0x3c76c1d6	0.0150608625
96	0x3d3e3656	0.046438538
97	0x3c9fe0cc	0.019516371
98	0x3c855efd	0.016280646
99	0xbd30a69f	-0.043127652
100	0xbe1d78bc	-0.15378088
101	0x3e102155	0.14075215
102	0x3d8b7aaf	0.068105094
103	0xbd7701a0	-0.060304284
104	0x3c4f2b0e	0.012644542
105	0x3dc19721	0.09452654
106	0xbe0822b9	-0.13294496
107	0xbd6b1c2c	-0.057399914
108	0x3da4c234	0.08044854
109	0xbde9fc57	-0.11425083
110	0xbdd1f796	-0.102523014
111	0xbcec3752	-0.028834973
112	0x3da7a8d8	0.08186501
113	0xbd59e00f	-0.053192195
114	0xbc7be775	-0.015375008
115	0xbcef22f5	-0.029191473
116	0xbdcc2938	-0.09968799
117	0xbdacb6dc	-0.08433315
118	0x3d714b0f	0.058909472
119	0x3c672fff	0.014110564
120	0x3d8c4628	0.06849319
121	0x3e5c8262	0.21534112
122	0xbdc4de83	-0.09612753
123	0x3d847abb	0.064687215
124	0xbc748549	-0.014924356
125	0xbd832924	-0.06404331
126	0xbda25dde	-0.0792806
127	0x3d749152	0.0597089
128	0x3ca44b98	0.020055577
129	0x3cdf9eb8	0.027297363
130	0x3b3e82a2	0.0029069562
131	0x3da4f85f	0.080551855
132	0x3d089f81	0.03335524
133	0x3d840adc	0.06447384
134	0x3d70f93c	0.05883144
135	0x3c62d7b7	0.013845376
136	0xbe2abd32	-0.16673735
137	0x3d5671b8	0.052354544
138	0x3c010607	0.007874972
139	0x3d06631b	0.032809358
140	0xbc4b24ab	-0.012398879
141	0x3dc184ee	0.094491825
142	0x3d513357	0.051074352
143	0xbc4caa2d	-0.012491745
144	0xbdcd33ea	-0.100196674
145	0xbd163eec	-0.0366811
146	0x3e62208d	0.2208273
147	0x39ed3b7f	0.0004524849
148	0x3e7561c8	0.23963082
149	0x3dbe802d	0.09301791
150	0x3d0eb59b	0.03484116
151	0x3d82ffbb	0.06396433
152	0x3c9c2d21	0.019064488
153	0xbd64b2bb	-0.055834513
154	0x3c7d983e	0.015478192
155	0x3ca3e14b	0.020004889
156	0x3d9e3467	0.07724839
157	0xbdc9893b	-0.09840628
158	0x3dd9df7c	0.106383294
159	0x3ddb6ec4	0.10714486
160	0xbda88397	-0.08228224
161	0x3d6d8429	0.057987366
162	0x3d7bcc03	0.061473858
163	0xbe33495d	-0.17508455
164	0xbb5c5c31	-0.0033624286
165	0xbd98df4f	-0.07464468
166	0xbd269d21	-0.040677194
167	0xbdc3825b	-0.09546348
168	0xbcf5d65e	-0.030009445
169	0xbdcfe606	-0.10151295
170	0x3dc01e99	0.09380836
171	0xbc7fabd4	-0.015604932
172	0x3e465341	0.19367696
173	0x3cbca749	0.023028987
174	0xbc853192	-0.016258989
175	0xbcdabf79	-0.02670263
176	0xbcac5393	-0.021035945
177	0x3dbde7b5	0.0927271
178	0x3d84a6c9	0.06477124
179	0x3c737c6b	0.0148612065
180	0x3e5d8660	0.21633291
181	0x3d952eee	0.07284342
182	0xbd9fbf6b	-0.07800182
183	0xbd947bdf	-0.07250189
184	0x3d14933c	0.036273226
185	0xbdc58d5d	-0.096461035
186	0xbdeab38a	-0.114600256
187	0x3b859200	0.0040762424
188	0x3d122879	0.03568313
189	0xbe54ac18	-0.20768774
190	0xbc87cd99	-0.016577529
191	0xbc3cea11	-0.011530415
192	0x3d5b9422	0.053608067
193	0x3d9b4a37	0.07582515
194	0xbdff6da2	-0.12472083
195	0xbdace934	-0.084429175
196	0xbde0b6b8	-0.10972351
197	0x3cb1dbea	0.021711309
198	0x3d5b64eb	0.05356304
199	0xbaa53e81	-0.0012607129
200	0xbc2c058b	-0.010499368
201	0x3df1e615	0.11811463
202	0x3d73d9d3	0.059533905
203	0xbd74e38a	-0.05978731
204	0xbd5b4b48	-0.05353859
205	0x3e0038f2	0.12521723
206	0x3e335e0e	0.17516348
207	0xba9557a1	-0.0011393913
208	0x3cedf2ed	0.0290465
209	0xbd237bb8	-0.03991291
210	0x3d724d9f	0.059156056
211	0xbd9ed8a5	-0.077561654
212	0x3d1148c5	0.03546979
213	0x3d053638	0.03252241
214	0xbda6f9cd	-0.081531145
215	0xbc863bed	-0.016385997
216	0xbd872de1	-0.066005476
217	0xbda9391f	-0.08262848
218	0x3b66aad4	0.0035197036
219	0x3d27c0ad	0.040955234
220	0xbd3f3b81	-0.046687607
221	0xbd893a5b	-0.067005835
222	0x3d1ae43c	0.037815318
223	0xbd081ac9	-0.03322867
224	0xbc855988	-0.016278043
225	0xbc9c02b7	-0.019044263
226	0xbe4f3134	-0.20233613
227	0x3b7e2ff3	0.0038785904
228	0x3c890810	0.016727477
229	0x3bdec326	0.006798166
230	0x3cc1d30a	0.023660202
231	0x3d877e63	0.06615903
232	0x3d9e46c4	0.07728341
233	0xbda5cbe9	-0.080955334
234	0xbe38df78	-0.18053997
235	0x3d551353	0.052020382
236	0x3c31fa7b	0.010862942
237	0x3cc98992	0.024601731
238	0x3e2e8720	0.17043734
239	0xbe2593ad	-0.16169615
240	0x3caa2561	0.020769777
241	0x3cada73b	0.021197906
242	0xbd1d74f4	-0.038441613
243	0xbd39dbfa	-0.0453758
244	0xbc872564	-0.016497321
245	0x3d26c18d	0.04071193
246	0xbe16e791	-0.14736773
247	0xbe07f691	-0.13277651
248	0xbd065c71	-0.032803003
249	0xbde371b6	-0.11105673
250	0x3da14913	0.07875266
251	0x3d0f08d5	0.034920532
252	0x3d27c849	0.04096249
253	0x3d5f2e51	0.05448753
254	0xbd0c400a	-0.03424076
255	0x3e1901a8	0.14942038

net.3.weight f4 [128, 256]
0	0xbd3928d2	-0.045204945
1	0x3ddb25b0	0.10700548
2	0x3dca0fb6	0.09866278
3	0xbcf24832	-0.029575441
4	0x3ba2c5f7	0.004967447
5	0x3d95dd2c	0.07317576
6	0xbd22856b	-0.03967802
7	0xbd84c625	-0.064831056
8	0xbda3a7af	-0.079909675
9	0xbd541f77	-0.05178782
10	0xbe550824	-0.20803887
11	0xbd1346d0	-0.035956204
12	0xbc9c8978	-0.019108519
13	0xbd33ea11	-0.043924395
14	0x3cc2b9c9	0.02377023
15	0xbd816561	-0.063181646
16	0xbcca14e7	-0.02466817
17	0xbea05714	-0.31316435
18	0x3c40fa59	0.0117784375
19	0xbc3dd66b	-0.011586766
20	0xbd83273e	-0.06403969
21	0x3c91072d	0.017703617
22	0x3c3d6409	0.011559495
23	0x3c447069	0.011989691
24	0x3d6dd8d0	0.058068097
25	0xbd068c5b	-0.032848697
26	0x3c259323	0.010105881
27	0xbea8cf78	-0.32970786
28	0xbd3f5efb	-0.04672144
29	0x3e6e0c6a	0.23246923
30	0xbd957b8c	-0.07298955
31	0xbdb6beb5	-0.08923093
32	0x3a278ce3	0.0006391538
33	0xbc78abbe	-0.015177665
34	0xbcabea81	-0.020985844
35	0xbd90ed85	-0.07076553
36	0x3b20ef76	0.0024556792
37	0x3d70ce5a	0.058790542
38	0x3d33389d	0.043755163
39	0x3bce61a3	0.0062982603
40	0x3d48efcf	0.049056824
41	0xbc2c5080	-0.01051724
42	0x3ecd9cea	0.40158778
43	0x3e10d284	0.14142805
44	0x3cab0893	0.020878112
45	0x3e35c8e4	0.17752415
46	0x3dbde1cb	0.09271582
47	0x3cb94fd1	0.022621067
48	0xbdb32d43	-0.08748867
49	0xbcee602e	-0.029098596
50	0xbbe2c4ad	-0.0069204182
51	0x3bedf85f	0.007262274
52	0xbc1906d0	-0.009340003
53	0xbe2a36e2	-0.16622499
54	0xbc66c7e2	-0.014085742
55	0xbd0d6f2a	-0.034529842
56	0xbc23708b	-0.009975563
57	0xbde34ec3	-0.11099007
58	0xbdecc8ce	-0.11561738
59	0xbd520844	-0.051277414
60	0xbad50ba9	-0.0016254085
61	0xbcf950a3	-0.030433958
62	0xbd527e25	-0.051389832
63	0xbc906829	-0.017627792
64	0x3db48f0c	0.088163465
65	0x3cf45270	0.029824466
66	0x3ba7c9b7	0.005120482
67	0xbc85edf5	-0.016348818
68	0xbd2f4721	-0.042792443
69	0xbc471773	-0.012151587
70	0x3dea9a30	0.1145519
71	0x3eadb144	0.33924305
72	0x3da5c8b5	0.080949225
73	0xbc1ffbf5	-0.009764661
74	0xbda753c9	-0.081702776
75	0x3c626545	0.01381809
76	0x3c8338e8	0.016018346
77	0xbc6328b7	-0.013864688
78	0x3cc0546f	0.023477761
79	0x3e21ced6	0.15801558
80	0x3d06d955	0.032922108
81	0xbd1b25aa	-0.037877716
82	0xbde8768a	-0.113507345
83	0x3c6d1f99	0.0144728655
84	0xbc95cca0	-0.01828605
85	0x3bf9d858	0.007624667
86	0xbdf37768	-0.11888009
87	0xbc82293d	-0.015888805
88	0xbe849f62	-0.2590285
89	0xbdd161fa	-0.10223766
90	0xba6770f2	-0.0008828781
91	0xbd8cc6d1	-0.06873859
92	0xbceb9d68	-0.02876158
93	0xbd4fd300	-0.050738335
94	0x3d70cd15	0.05878933
95	0xbe824192	-0.2544065
96	0xbc32ae6a	-0.010905841
97	0xbd2afc3a	-0.04174445
98	0xbd0bbf6d	-0.034118105
99	0x3d31a9ce	0.04337483
100	0x3d145547	0.03621414
101	0x3bd88057	0.006607096
102	0x3d440a3c	0.047861323
103	0xbca7f14a	-0.020500798
104	0xbd16c7fd	-0.036811817
105	0xbe0e320b	-0.13886277
106	0xbd40511e	-0.04695236
107	0x3d118dcf	0.03553563
108	0x3d22ba08	0.039728194
109	0x3c7f33c3	0.015576306
110	0x3cf65867	0.03007145
111	0x3c73fc6a	0.014891723
112	0x3d86f681	0.06589986
113	0x3d70befd	0.05877589
114	0x3ba93443	0.005163701
115	0xbe3d2b51	-0.18473555
116	0xbd5c64ad	-0.05380695
117	0xbc910fdc	-0.017707758
118	0x3b2a354a	0.0025971704
119	0xbd14d998	-0.036340326
120	0xbce7e9fc	-0.028309815
121	0xbc8a3ea9	-0.016875582
122	0xbc3dfce6	-0.01159594
123	0x3c411048	0.011783667
124	0x3daca061	0.08429027
125	0xbea7f0fc	-0.32801044
126	0xbc4118e8	-0.011785723
127	0xbdbf4c34	-0.093407065
128	0x3d3af783	0.0456462
129	0xbcea9d32	-0.02863941
130	0xbdfbecb7	-0.12301009
131	0x3bc526d4	0.0060165916
132	0xbb355580	-0.002766937
133	0x3cab8e69	0.02094193
134	0xbdc16a17	-0.09444063
135	0xba33bb17	-0.00068561867
136	0xbcb58b60	-0.022161186
137	0x3cb2d2ae	0.021828976
138	0x3bc40185	0.0059816265
139	0x3df741e3	0.12073114
140	0x3d96935a	0.07352324
141	0xbd0b8b23	-0.034068238
142	0x3d190e66	0.037367247
143	0xbb44b28b	-0.0030013646
144	0xbaf0bc26	-0.001836662
145	0xba7a8284	-0.00095561915
146	0xbcf777b5	-0.030208448
147	0x3da491ce	0.080356225
148	0xbdd4a836	-0.10383646
149	0xbd00d617	-0.031454172
150	0x3cb461ee	0.022019353
151	0xbd4c72aa	-0.04991404
152	0x3c821ab6	0.015881877
153	0x3c9fb809	0.019496934
154	0x3c84b99e	0.01620179
155	0x3c3dd068	0.011585332
156	0x3d1eaebc	0.03874086
157	0xbc9bf853	-0.019039309
158	0xbd889c89	-0.06670482
159	0xbc803cdf	-0.015654026
160	0xbd23b479	-0.039967034
161	0xbd73a855	-0.059486706
162	0x3dedd4b2	0.11612834
163	0x3c5b94d1	0.01340218
164	0x3c5d3fa2	0.013503941
165	0xbd386c37	-0.045025077
166	0xbd6c04d9	-0.05762181
167	0x3c6e95e8	0.014562108
168	0xbd97e55a	-0.07416792
169	0xbc95edf2	-0.018301938
170	0xbd2879b7	-0.0411317
171	0xbc5b26d9	-0.013375961
172	0x3c252743	0.0100801615
173	0x3e344daa	0.17607751
174	0xbd0aa5f7	-0.033849683
175	0xbd650e9a	-0.05592213
176	0x3cbc5896	0.02299146
177	0xbd3f0bae	-0.046641998
178	0xbc2fdc1d	-0.010733631
179	0xbdb0a9a2	-0.08626105
180	0x3c986e4b	0.01860728
181	0xbea4ddef	-0.32200572
182	0x3dc93c4b	0.09825953
183	0xbb95ee36	-0.004575516
184	0xbbc166ec	-0.005902162
185	0x3d64201d	0.055694688
186	0xbde96263	-0.11395719
187	0xbc35a9a3	-0.011087808
188	0xbce37bf4	-0.027769066
189	0x3d094e6f	0.033522066
190	0xbd044957	-0.032296505
191	0x3cd344c1	0.02578962
192	0xbd3dc107	-0.046326663
193	0xbdd16649	-0.102245875
194	0xbbbbe482	-0.0057340274
195	0x3cdfa073	0.027298188
196	0x3d5175fb	0.051137906
197	0x3e1cc9dc	0.15311378
198	0xbda31104	-0.0796223
199	0x3e8a6c95	0.27035967
200	0xbd492cce	-0.049114995
201	0xbda27501	-0.07932473
202	0xbcd2906e	-0.025703635
203	0xbcc188ef	-0.023624865
204	0x3ca3fac6	0.020017039
205	0xbb5daa65	-0.0033823487
206	0xbe041fe4	-0.1290279
207	0x3e05c375	0.13062842
208	0xbc0f3057	-0.008739552
209	0x3cd267cb	0.025684258
210	0xbd231301	-0.039813045
211	0xbc54fc60	-0.012999624
212	0xbd7a2200	-0.06106758
213	0xbb6a7a2e	-0.0035778391
214	0x3be9fa2a	0.0071404176
215	0x3c2e4b0b	0.010638009
216	0xbd4091f7	-0.047014203
217	0x3c15c03f	0.009140073
218	0xbc4869de	-0.012232272
219	0xbcf2ebe1	-0.029653491
220	0x3d262ca8	0.04056993
221	0x3deac7aa	0.11463864
222	0x3d400c5b	0.046886783
223	0xbcf4b312	-0.029870544
224	0xbd7f4706	-0.062323593
225	0x3d330a89	0.04371122
226	0xbe19c56c	-0.15016717
227	0x3c3c685b	0.01149949
228	0xbd9924e1	-0.07477737
229	0xbd22abe1	-0.039714698
230	0x3d382539	0.044957373
231	0xbd101925	-0.03518023
232	0x3d9118d0	0.07084811
233	0x3d844f9a	0.06460495
234	0x3cbb0c79	0.022833096
235	0x3dbc82d6	0.092046425
236	0x3bd46c85	0.006482663
237	0x3bb7c7ed	0.00560855
238	0x3cda7a5a	0.02666967
239	0x3cb693ea	0.022287328
240	0x3da5e1a8	0.08099681
241	0xbd67f8b4	-0.056633666
242	0x3dcb5aea	0.0992945
243	0xbd3e01be	-0.04638838
244	0xbd384ffe	-0.04499816
245	0x3db767c6	0.0895534
246	0xbd6a8c21	-0.057262544
247	0xbd02beb9	-0.03192017
248	0x3ccefe2d	0.025267685
249	0xbc8fa930	-0.01753673
250	0xbcb06541	-0.021532657
251	0xbb821854	-0.0039701853
252	0xbd513d39	-0.051083777
253	0x3c206173	0.009788859
254	0x3cbc260d	0.022967363
255	0x3c9b52a3	0.018960303

net.3.bias f4 [128]
0	0xba9868d5	-0.0011627922
1	0x3bd9b931	0.006644391
2	0x3b27fa36	0.0025631315
3	0x3b177bd4	0.0023114579
4	0xbb0bc853	-0.002132912
5	0xbc2a5966	-0.010397291
6	0xbc298318	-0.010346197
7	0xbc618118	-0.0137636885
8	0x3b31aa98	0.0027109738
9	0xbc2ef1f7	-0.010677806
10	0xbc2d4431	-0.01057534
11	0xbcae53ba	-0.021280158
12	0xbb990145	-0.004669341
13	0xbacda7d0	-0.0015690271
14	0xbc8e4a03	-0.017369276
15	0x3b6e0a4b	0.0036322053
16	0xbc01d569	-0.007924416
17	0xbbe378ae	-0.0069418764
18	0xbb07765f	-0.002066992
19	0xbb54c844	-0.0032468
20	0xbb004adb	-0.0019575867
21	0xbb808dd6	-0.003923158
22	0xbbf1719f	-0.007368281
23	0x3b7924d2	0.0038016331
24	0x3b3059f8	0.0026909094
25	0xbbfb364b	-0.0076663843
26	0xbbc2f445	-0.0059495294
27	0xbc9e3a63	-0.01931495
28	0xb950fc73	-0.0001993047
29	0x3c951809	0.018199937
30	0x3adf3d92	0.0017031899
31	0x3c33fab5	0.010985066
32	0xbc23079e	-0.009950547
33	0x3be5ce28	0.007013101
34	0xbb3a7ac3	-0.002845452
35	0x3b3b9556	0.0028622947
36	0xbc095b02	-0.008383514
37	0xbbeb5d34	-0.0071827415
38	0xbc946544	-0.018114693
39	0xbb8e0405	-0.0043339753
40	0x3c3f9e08	0.011695392
41	0xbc703d30	-0.014663026
42	0xba195c39	-0.0005850229
43	0x382ebbac	4.1659616e-05
44	0xbbe46b7e	-0.006970822
45	0xbc03f01c	-0.008052852
46	0x3ab88068	0.0014076354
47	0x3bad738c	0.0052933153
48	0x3c07e267	0.008293725
49	0xbb1784dd	-0.0023119964
50	0x3c85b54d	0.016321803
51	0x3b772380	0.0037710369
52	0xbc2616bf	-0.010137259
53	0xbc2f156d	-0.010686261
54	0x3b6f030c	0.0036470322
55	0xbc589d3a	-0.0132210795
56	0x3a973f1c	0.0011539194
57	0xb83cd782	-4.50234e-05
58	0xbc05a2d8	-0.008156501
59	0x3bac52dd	0.0052589015
60	0xbcad0867	-0.02112217
61	0xb9f297f0	-0.0004627104
62	0xbc186438	-0.009301238
63	0x3bf43fb5	0.0074538835
64	0x3b2fc2b3	0.002681893
65	0xbc562356	-0.013069948
66	0xbc553d37	-0.013015083
67	0xbc1f9995	-0.009741207
68	0xbb3f6248	-0.0029202867
69	0xbc4296ec	-0.011876803
70	0x3b3ac203	0.0028496988
71	0x3b9c8392	0.0047764266
72	0xbbe58ffa	-0.0070056887
73	0xbc0080c9	-0.007843205
74	0xbc8bce1f	-0.01706606
75	0x3b245777	0.0025076547
76	0x3c204574	0.009782184
77	0xbbab7cdb	-0.00523339
78	0xbb79f705	-0.003814162
79	0x3ac60950	0.0015108977
80	0xbc0cd401	-0.008595468
81	0xbae52058	-0.0017480953
82	0xbb9ff59a	-0.004881573
83	0xbb7091c9	-0.0036707988
84	0xba3eb2e3	-0.0007274581
85	0xbbf233d7	-0.0073914337
86	0xba9c542c	-0.0011926941
87	0xb9dcb0ad	-0.00042093304
88	0x3ac61b56	0.0015114348
89	0xbbb237c6	-0.0054387776
90	0xba08d5bf	-0.0005219839
91	0x3acc4be0	0.0015586577
92	0xba9da156	-0.0012026231
93	0xbb8a6406	-0.0042233495
94	0x3c0be00b	0.008537303
95	0xbc5bf87e	-0.013425944
96	0x3b79b317	0.003810113
97	0xbc381713	-0.01123597
98	0xbc54e1fc	-0.012993332
99	0xbc04c325	-0.008103167
100	0x3bd890a2	0.0066090384
101	0xbbb14201	-0.0054094796
102	0x3b1279ce	0.0022350433
103	0xbb3a079e	-0.0028385888
104	0xbb5ba7ca	-0.0033516758
105	0x3beb47f7	0.0071802097
106	0xbc475908	-0.012167223
107	0xbc16f158	-0.009212814
108	0x3b9df657	0.0048206258
109	0xbae34967	-0.0017340601
110	0xbbcfd36c	-0.006342342
111	0xbb36c732	-0.0027889726
112	0xbba4b13a	-0.00502601
113	0xbba1fb52	-0.00494329
114	0xbb833d6f	-0.004005126
115	0xbbd57195	-0.006513784
116	0xbc0e77fb	-0.008695598
117	0xbc23ec86	-0.010005122
118	0xbc0a1e44	-0.008430067
119	0xba9c55c7	-0.0011927419
120	0xbbf3df66	-0.0074424027
121	0x3b72901d	0.0037012168
122	0xbc1dc420	-0.009629279
123	0xb8ef1c39	-0.00011401665
124	0xbc37c369	-0.011216023
125	0xbc3f41be	-0.011673389
126	0x3bf6a667	0.007527161
127	0xbbc7ce89	-0.006097619

net.6.weight f4 [9, 128]
0	0xbc63df6a	-0.0139082465
1	0xbc42fb70	-0.011900768
2	0xbd247250	-0.04014808
3	0xbd0107ad	-0.03150146
4	0x3bd3bb51	0.006461539
5	0xbc010743	-0.0078752665
6	0x3a9f1888	0.0012138048
7	0x3e1760d8	0.14783037
8	0x3c57ab37	0.013163379
9	0x3cf16249	0.029465811
10	0xbced2991	-0.028950484
11	0xbcea731f	-0.028619347
12	0xbdfd0350	-0.123541474
13	0xbd24f9a9	-0.040277157
14	0xbc8f2df0	-0.01747796
15	0xbb1c8c15	-0.0023887206
16	0x3c669ff7	0.0140762245
17	0x3ca8d694	0.020610131
18	0x3e20f799	0.15719451
19	0x3ceba662	0.028765861
20	0x3c10b556	0.008832296
21	0xbc5f2054	-0.0136185475
22	0x3b8b9d48	0.0042606927
23	0xbc561732	-0.013067054
24	0xbc8e3551	-0.017359408
25	0xbcb289c7	-0.021794213
26	0x3c4a623f	0.012352525
27	0xbdb9adc4	-0.09066346
28	0xbce99024	-0.028511114
29	0xbca8542b	-0.020547947
30	0x3e1087bb	0.14114277
31	0xbcedb853	-0.029018557
32	0x3e1f5e0c	0.1556322
33	0xbd220abb	-0.039561015
34	0xbb590dbc	-0.0033119759
35	0xbd0fe43a	-0.035129763
36	0xbcaf3367	-0.021386815
37	0xbc731cf0	-0.014838442
38	0x3e16c4ab	0.1472346
39	0xbcb067aa	-0.021533806
40	0xbbc4fa1b	-0.00601126
41	0x3c2925c9	0.01032395
42	0x3c22071a	0.009889388
43	0xbd088b13	-0.033335757
44	0x3cd60555	0.02612559
45	0xbc46401c	-0.012100246
46	0xbc803dd8	-0.01565449
47	0x3c7af6c5	0.0153176235
48	0x3c620227	0.0137944585
49	0x3e1b010d	0.1513712
50	0x3c9e662e	0.019335832
51	0xbc82f511	-0.015985997
52	0xbcbb2805	-0.022846231
53	0xbc777da2	-0.015105637
54	0x3cb325c5	0.021868596
55	0xbdee6c57	-0.11641758
56	0xb99c5a1f	-0.00029821784
57	0x3c59d5f1	0.0132956365
58	0x3c8cef1a	0.017203856
59	0xbd138e86	-0.036024593
60	0x3c0d855f	0.008637755
61	0xbd24f666	-0.040274046
62	0x3c6436e2	0.013929101
63	0xbd00da41	-0.031458143
64	0xbbb8c9f4	-0.005639309
65	0xbd351195	-0.04420622
66	0x3b7f6fc1	0.0038976523
67	0x3c22db3a	0.009939963
68	0xbe107a36	-0.1410912
69	0xbcb43e58	-0.022002384
70	0xbb33053a	-0.0027316348
71	0xbc77b831	-0.015119598
72	0x3c83b3f2	0.016077016
73	0x3c5e7abb	0.013579066
74	0xbbfed30c	-0.0077766236
75	0xbde842dc	-0.113408774
76	0xbd5cb5ea	-0.053884424
77	0x3e11d95d	0.14243074
78	0xbbace9ff	-0.005276918
79	0xbb8bcf3f	-0.004266649
80	0xb9938b8f	-0.00028142004
81	0x3c6ef2d1	0.014584259
82	0x3c96c3e8	0.018403962
83	0xbd707969	-0.058709536
84	0x3e167627	0.14693509
85	0x3c00012d	0.00781278
86	0x3ca874c7	0.020563496
87	0xbcf73717	-0.030177636
88	0xbc878abe	-0.01654565
89	0xbcda6e67	-0.026663972
90	0xbc4b35db	-0.012402977
91	0xbc2c51a5	-0.010517512
92	0xbcc90472	-0.024538253
93	0x3c89d24e	0.016823914
94	0xbd0be0e9	-0.034150038
95	0xbca6a3ec	-0.020341836
96	0x3ca2541a	0.019815493
97	0x3e142731	0.14468075
98	0x3c7dd2b1	0.015492127
99	0x3e2147a6	0.15749988
100	0x3c982665	0.018572995
101	0xbc8d61dd	-0.017258579
102	0xbd232b7c	-0.03983639
103	0x3c0d594c	0.008627247
104	0xbca8736a	-0.020562846
105	0xbc9f96da	-0.019481111
106	0x3cc1c2bc	0.023652427
107	0xbc065f97	-0.008201501
108	0x3c91a1b6	0.017777305
109	0x3cd5b4b0	0.026087135
110	0x3ca58c83	0.020208603
111	0x3ccee289	0.025254505
112	0x3bf05247	0.007334027
113	0x3c92ab03	0.01790381
114	0xbcb64483	-0.022249466
115	0x3a19d1b3	0.00058677344
116	0x3cac16ea	0.02100702
117	0xbc0e4ba1	-0.0086850235
118	0xbd3e87e5	-0.046516318
119	0x3c84cd1e	0.016211089
120	0xbcb42b75	-0.021993378
121	0x3e128b71	0.14311005
122	0xbe05b087	-0.13055621
123	0x3c8744cd	0.016512299
124	0xbc664492	-0.014054434
125	0x3b853388	0.004064981
126	0xbc84ea40	-0.01622498
127	0xbd0a8546	-0.033818506
128	0x3cb761ee	0.022385564
129	0xbc436296	-0.01192536
130	0x3ca6686b	0.020313462
131	0xba093c64	-0.0005235134
132	0xbc3334ea	-0.010937909
133	0xbb15827c	-0.002281337
134	0x39f1fb60	0.0004615439
135	0x3c6e0474	0.014527429
136	0x3cfb1629	0.030650215
137	0x3e147e99	0.14501418
138	0xbd64872c	-0.055792972
139	0xbc1c06c6	-0.009523099
140	0xbd3d306b	-0.046188753
141	0xbe09f614	-0.13472778
142	0x3b7ab264	0.0038253302
143	0x3d43dbb3	0.047816943
144	0x3e179dc4	0.14806277
145	0xbcaa2a1d	-0.020772034
146	0x3c014a23	0.007891211
147	0xbc398b40	-0.011324704
148	0xbcd4e08b	-0.025985977
149	0x3c1a4261	0.00941524
150	0xbb652f53	-0.0034970834
151	0x3cbf9782	0.023387674
152	0x3d54a097	0.051910963
153	0x3b607ad3	0.0034252896
154	0xbccd772b	-0.025081238
155	0xbd010855	-0.031502087
156	0x3c174f40	0.009235203
157	0x3c84aea2	0.016196553
158	0x3cd2a4d4	0.025713362
159	0xbbc594b9	-0.006029692
160	0x3c262f8f	0.010143175
161	0x3b9e53a5	0.0048317485
162	0xbbc67aa9	-0.0060571027
163	0x3c9b2887	0.018940223
164	0x3d95810b	0.073000036
165	0xbd2b5d7e	-0.041837208
166	0x3c99c297	0.018769545
167	0xbd638c7c	-0.0555539
168	0xbd2aa59e	-0.04166185
169	0xbc9b63a7	-0.018968416
170	0x3d4c5f72	0.04989571
171	0x3d0289c9	0.031869683
172	0xbd06d46d	-0.03291743
173	0xbd48a277	-0.048983064
174	0xbbb9aac5	-0.0056661093
175	0xb9a0b5d3	-0.00030653048
176	0xbcf98ebe	-0.030463573
177	0x3cd4e017	0.02598576
178	0x3cbb9d09	0.022902029
179	0x3c66846c	0.014069658
180	0x3d1cece8	0.03831187
181	0xbaff8046	-0.0019493185
182	0x3800a4d6	3.0671094e-05
183	0xbd12f698	-0.0358797
184	0xbd161193	-0.036637854
185	0x3c5c09b4	0.013430048
186	0x3cc175cf	0.023615746
187	0x3cf3d25c	0.029763393
188	0xbc083d9c	-0.00831547
189	0xbe0820d3	-0.13293771
190	0xbc05ebbe	-0.008173881
191	0x3cfef17d	0.03112101
192	0xbd2bed33	-0.041974258
193	0x3c528223	0.01284841
194	0xbd678d4b	-0.05653123
195	0xbd221040	-0.03956628
196	0xbc85f5b4	-0.016352512
197	0xbc1efc1b	-0.009703661
198	0xbd35918c	-0.044328257
199	0xbe14f266	-0.14545593
200	0xbcaa9684	-0.020823725
201	0xbbf80d4e	-0.0075699454
202	0xbb92dae6	-0.004481661
203	0x3c18b8e2	0.009321423
204	0x3c2de389	0.010613331
205	0x3c9e938b	0.019357463
206	0xbc05992c	-0.008154195
207	0x3cf46bac	0.029836498
208	0x3c482e62	0.01221809
209	0x3e1ae51e	0.15126464
210	0x3e1b9ab3	0.15195732
211	0x3c08ed16	0.008357307
212	0x3cd3efc6	0.025871169
213	0x3ae4b4a4	0.0017448855
214	0xbc800670	-0.01562807
215	0x3c8c2846	0.017109048
216	0x3db3e7d7	0.08784454
217	0xba71d221	-0.0009224732
218	0x3d11b488	0.03557256
219	0xbb92bf14	-0.0044783447
220	0xbd187681	-0.03722239
221	0xbc946cf6	-0.018118363
222	0x3c881587	0.016611828
223	0x3d474e68	0.04865876
224	0x3bdf222f	0.006809495
225	0x3c90c457	0.017671747
226	0xbcae0135	-0.02124081
227	0x3c5e0c27	0.013552702
228	0x3d793399	0.060840223
229	0xbb66f0b2	-0.003523868
230	0x3ad61aa9	0.001633485
231	0x3c44daed	0.012015087
232	0x3d065eef	0.03280538
233	0x3c6a66ed	0.014306766
234	0xbc9b25b3	-0.018938875
235	0xbab0d479	-0.0013491056
236	0xbc2510f9	-0.010074847
237	0xbca1713c	-0.019707315
238	0xbcb8a565	-0.022539804
239	0x3e0c8d4a	0.13725773
240	0xbbf893c1	-0.007585973
241	0xbc8c1d17	-0.017103715
242	0xbe0bf8a8	-0.13669074
243	0x3d19276a	0.037391104
244	0xbc4bed1e	-0.01244667
245	0x3ba7f24f	0.005125321
246	0x3d594d5c	0.05305229
247	0x3b8cd80c	0.0042982157
248	0xbcb63447	-0.022241725
249	0x3bb319f6	0.0054657413
250	0xbcac1368	-0.021005347
251	0x3e21b22f	0.15790628
252	0x3b3dc482	0.002895624
253	0xbd77010f	-0.060303744
254	0xbd24f3a9	-0.040271435
255	0x3ca2687b	0.01982521

net.6.bias f4 [9]
0	0xbc446b7f	-0.01198852
1	0xbc724ac6	-0.014788335
2	0x3c911378	0.017709479
3	0x3b232e8f	0.0024899577
4	0xbc0570c0	-0.0081445575
5	0x3b87fa14	0.0041496847
6	0x3ceb366d	0.028712476
7	0x3ea7f554	0.32804358
8	0x3e442689	0.19155325

exp_avg f4 [256, 23]
0	0x3849cbd0	4.811195e-05
1	0x35fc6bf6	1.8806884e-06
2	0x38498c1e	4.805263e-05
3	0xb93d028d	-0.00018025395
4	0x38d57809	0.0001017899
5	0xb82d7ce0	-4.1362713e-05
6	0x38bcac99	8.9966874e-05
7	0x390f1cbb	0.00013648246
8	0x37c48bb4	2.3430075e-05
9	0xb6405003	-2.8656802e-06
10	0xb88d34fb	-6.733272e-05
11	0x37ba6807	2.222137e-05
12	0xb8aef3ee	-8.342402e-05
13	0x38c05376	9.170819e-05
14	0x389e0702	7.5353324e-05
15	0x3721a148	9.633899e-06
16	0x34d7fc66	4.0230515e-07
17	0xb58fa71b	-1.0702964e-06
18	0xb490b453	-2.6953293e-07
19	0xb7b36685	-2.1386202e-05
20	0xb79509dc	-1.7766775e-05
21	0x38c58129	9.41775e-05
22	0x3873d686	5.8135505e-05
23	0x3878a322	5.9279737e-05
24	0x38e74580	0.00011027884
25	0x381be496	3.7167767e-05
26	0x398496db	0.00025289398
27	0x38f8c51f	0.00011862278
28	0xb97c7f2f	-0.00024079972
29	0xb916b423	-0.00014372221
30	0xb67da090	-3.7793397e-06
31	0xb993d005	-0.00028193012
32	0xb7c898e7	-2.3913059e-05
33	0xb70d13e3	-8.408885e-06
34	0xb87adcb6	-5.9810198e-05
35	0xb7ac8bcd	-2.0569098e-05
36	0xb706a511	-8.025455e-06
37	0x382c0908	4.1016407e-05
38	0x361690e7	2.2436086e-06
39	0x351c65ef	5.826286e-07
40	0xb484c72f	-2.473184e-07
41	0x379c936a	1.8665294e-05
42	0x37fab754	2.9887691e-05
43	0xb7e0735b	-2.6756597e-05
44	0xb822780e	-3.873562e-05
45	0x37896115	1.637688e-05
46	0xb7df6033	-2.6628468e-05
47	0x391cb9f8	0.00014946598
48	0xb81d2e82	-3.747503e-05
49	0x3949b475	0.00019236079
50	0x38d795f3	0.00010279929
51	0xb866bdc7	-5.5013017e-05
52	0xb8ecc71a	-0.000112904425
53	0xb948d185	-0.00019151538
54	0xb89f280c	-7.58917e-05
55	0x348529c9	2.4803583e-07
56	0x3812101d	3.482412e-05
57	0x353e2556	7.0834847e-07
58	0x383f7eb0	4.5655936e-05
59	0x37b0a26c	2.1056469e-05
60	0x373ff4c5	1.1441477e-05
61	0xb5cff9bb	-1.5495383e-06
62	0xb43ec8ab	-1.7768131e-07
63	0x34b1f0b5	3.3143957e-07
64	0x38394b24	4.4177417e-05
65	0xb7ee5c7e	-2.8414881e-05
66	0x374d8b30	1.2251359e-05
67	0xb8b2f4cf	-8.5333006e-05
68	0xb825194d	-3.936263e-05
69	0x38c42d4f	9.354448e-05
70	0x3843f32e	4.67181e-05
71	0xb72c1436	-1.0256705e-05
72	0xb8a57974	-7.8904355e-05
73	0x39013d47	0.00012325226
74	0xb86d4902	-5.6573197e-05
75	0xb84a52a7	-4.823753e-05
76	0x38b6425b	8.690796e-05
77	0xb84d7eaf	-4.8993792e-05
78	0x36bffdc6	5.7217867e-06
79	0xb80f9948	-3.423661e-05
80	0xb7381be8	-1.0973752e-05
81	0xb805b019	-3.1873675e-05
82	0x381a7772	3.6827703e-05
83	0x387a8752	5.973067e-05
84	0x3689d381	4.1075405e-06
85	0x348da32b	2.6382017e-07
86	0xb5655334	-8.5430224e-07
87	0x375c7af6	1.3141651e-05
88	0xb81b617a	-3.7045662e-05
89	0xb802ec49	-3.1214473e-05
90	0x381baf29	3.711801e-05
91	0x38443574	4.6779824e-05
92	0x3846182b	4.7229387e-05
93	0x37637bfd	1.3559123e-05
94	0xb840adf3	-4.593837e-05
95	0xb59976e5	-1.1433991e-06
96	0x37f0bab5	2.8697172e-05
97	0x362abc90	2.5441732e-06
98	0xb894b544	-7.090953e-05
99	0x3831f0ad	4.2424235e-05
100	0xb79c5517	-1.8636272e-05
101	0xb70d6435	-8.427586e-06
102	0x372d8c4a	1.0344267e-05
103	0xb7991b3c	-1.8251703e-05
104	0x3726c1a5	9.939457e-06
105	0x372d5a8f	1.0332688e-05
106	0xb6a318ab	-4.8606503e-06
107	0xb76158d2	-1.3431725e-05
108	0xb455ac12	-1.989977e-07
109	0xb501e6da	-4.839218e-07
110	0x3772f299	1.4480808e-05
111	0xb80587be	-3.183609e-05
112	0xb6dc35a3	-6.562755e-06
113	0xb7d06938	-2.4844529e-05
114	0xb79d6603	-1.8763361e-05
115	0xb8725163	-5.7773093e-05
116	0xb76fb16d	-1.428682e-05
117	0x37b1b2bd	2.1183276e-05
118	0xb700225a	-7.637393e-06
119	0xb7ad1864	-2.0634565e-05
120	0x382d7c0b	4.136194e-05
121	0x389d3933	7.4969976e-05
122	0xb8218047	-3.850486e-05
123	0x3941ea99	0.00018493309
124	0xb81e18fd	-3.7693408e-05
125	0xb677b51a	-3.6911283e-06
126	0xb78b0f5b	-1.6577242e-05
127	0xb76907f7	-1.3889737e-05
128	0xb82282e1	-3.87457e-05
129	0xb6c6be11	-5.9229865e-06
130	0x37d147b6	2.4948135e-05
131	0xb470b208	-2.2416509e-07
132	0x34457057	1.8387924e-07
133	0x3631ba59	2.6483524e-06
134	0x373ce376	1.1258633e-05
135	0x376b1b1d	1.4013404e-05
136	0x37925990	1.7446262e-05
137	0xb81a9095	-3.6851114e-05
138	0x3828aad6	4.0213425e-05
139	0xb84dc720	-4.906126e-05
140	0xb840aeb3	-4.593907e-05
141	0xb8e2ac18	-0.00010808575
142	0xb806d9f9	-3.2151092e-05
143	0x389b707a	7.411926e-05
144	0x370053e0	7.648923e-06
145	0x390ad82f	0.0001324124
146	0x396becc1	0.00022499544
147	0xb7a65a83	-1.983089e-05
148	0xb7b9d36c	-2.215217e-05
149	0xb839e47a	-4.4320223e-05
150	0xb78d9836	-1.6879389e-05
151	0xb819b9cd	-3.6651083e-05
152	0x37cb3604	2.4224639e-05
153	0xb6ad0493	-5.1563343e-06
154	0xb43b6766	-1.7453348e-07
155	0xb4e0d8e0	-4.188105e-07
156	0xb7aa4e07	-2.0301914e-05
157	0xb80a1faa	-3.2931253e-05
158	0xb7c1f96d	-2.312354e-05
159	0x37213e6b	9.610881e-06
160	0xb8103931	-3.438554e-05
161	0xb7171a18	-9.006377e-06
162	0x38c17a35	9.22572e-05
163	0xb7ea2d2c	-2.7916009e-05
164	0x38343017	4.296013e-05
165	0x38ac4980	8.2152896e-05
166	0x36609f50	3.3471333e-06
167	0xb8f479d5	-0.0001165752
168	0xb8455a15	-4.7052356e-05
169	0xb956978a	-0.00020465083
170	0x37e9a8ba	2.7854334e-05
171	0x37098249	8.196171e-06
172	0x37106041	8.60548e-06
173	0x37ae301d	2.076482e-05
174	0x381b2db9	3.6997462e-05
175	0xb3bac0d5	-8.696376e-08
176	0xb7a5d340	-1.9767904e-05
177	0x33fabd34	1.1675948e-07
178	0xb4b06e0d	-3.2862627e-07
179	0x3731a012	1.0587291e-05
180	0xb800c170	-3.069773e-05
181	0xb7872bb5	-1.6113607e-05
182	0xb82a5cbc	-4.0617524e-05
183	0x3741e034	1.1555898e-05
184	0xb9d8ae4f	-0.000413286
185	0x39961c9b	0.00028631542
186	0xb8353380	-4.3201726e-05
187	0x38df0266	0.000106339154
188	0x39419367	0.00018460826
189	0x39d7def2	0.00041174103
190	0xb8f10200	-0.00011492148
191	0xba0252be	-0.0004971436
192	0xba233622	-0.0006226023
193	0x37c45a1f	2.3406987e-05
194	0x35a99015	1.2633415e-06
195	0x390f0359	0.0001363879
196	0x3708a138	8.143768e-06
197	0x38cbe4ed	9.722435e-05
198	0xb911a197	-0.00013888474
199	0xb84e5903	-4.9197126e-05
200	0xb53eca03	-7.107448e-07
201	0x342f603e	1.6333158e-07
202	0x38ae2f5b	8.305787e-05
203	0xb8c83630	-9.5468364e-05
204	0x38061a67	3.197268e-05
205	0xb9308ff9	-0.00016838302
206	0xb7c8a04b	-2.39165e-05
207	0xb864efda	-5.4582815e-05
208	0x37122ee2	8.713194e-06
209	0x37c0dfe0	2.2992434e-05
210	0xb8086e02	-3.252738e-05
211	0x3740ab37	1.1483956e-05
212	0x386b2fcd	5.6072884e-05
213	0x363003d9	2.6228283e-06
214	0xb4db7478	-4.087667e-07
215	0xb8d5ceca	-0.00010195149
216	0x369e0025	4.7087838e-06
217	0xb6dfd402	-6.670599e-06
218	0xb4be4fcc	-3.5448318e-07
219	0xb796c6c2	-1.7973947e-05
220	0xb79084d1	-1.7227985e-05
221	0xb81018a0	-3.435521e-05
222	0xb6156f84	-2.226764e-06
223	0x33a11902	7.5016956e-08
224	0xb44162be	-1.8010448e-07
225	0xb7174dba	-9.0183985e-06
226	0xb686aa5a	-4.0133427e-06
227	0xb730f2fe	-1.05469935e-05
228	0x36b0b46c	5.2662126e-06
229	0x37e9ff13	2.7894543e-05
230	0x3937137f	0.00017459503
231	0xb94ba43b	-0.00019420769
232	0x37d375be	2.5207988e-05
233	0xb97d9312	-0.00024182748
234	0xb903c0db	-0.00012564978
235	0xb900a0b9	-0.00012266905
236	0x3971fbb3	0.00023077316
237	0x3a0e13df	0.0005419831
238	0x3a4b9d02	0.00077672314
239	0xb87a6a86	-5.9703852e-05
240	0xb9021abf	-0.0001240773
241	0xb8ec33ab	-0.00011262981
242	0xb88da5c8	-6.754283e-05
243	0xb8cb93cd	-9.707324e-05
244	0x3979d2e4	0.00023825053
245	0x3882020b	6.1992636e-05
246	0x351cb70a	5.8380886e-07
247	0xb4b2da1a	-3.3313773e-07
248	0xb8c63310	-9.450887e-05
249	0x382f1e70	4.17516e-05
250	0xb814050c	-3.529065e-05
251	0x39156a31	0.00014249307
252	0xb875ae80	-5.8575068e-05
253	0xb90da65b	-0.0001350878
254	0x38860ae9	6.39165e-05
255	0x36d3f9f3	6.317388e-06

exp_avg_sq f4 [256, 23]
0	0x3585e5fb	9.976205e-07
1	0x35ad7542	1.2923631e-06
2	0x338e7c9b	6.635056e-08
3	0x352fd2be	6.549925e-07
4	0x3568218a	8.647554e-07
5	0x34922e8c	2.7228486e-07
6	0x34b493ee	3.3635246e-07
7	0x360f4691	2.1349736e-06
8	0x35e3d907	1.6975981e-06
9	0x32a50323	1.9209955e-08
10	0x3197d511	4.4189012e-09
11	0x32584353	1.25881625e-08
12	0x3227dafa	9.770469e-09
13	0x32bb3e82	2.179809e-08
14	0x32b33afa	2.0865162e-08
15	0x3289cc07	1.604168e-08
16	0x2cfb1593	7.1362443e-12
17	0x2b980d5b	1.0803956e-12
18	0x331ece8e	3.6975102e-08
19	0x3312aabf	3.4148567e-08
20	0x30a7ddad	1.2213853e-09
21	0x3430f19a	1.6479171e-07
22	0x32c17f13	2.2525944e-08
23	0x359fa726	1.189507e-06
24	0x35d44051	1.5813949e-06
25	0x339bc16e	7.2529346e-08
26	0x354f31a8	7.718577e-07
27	0x358f57f9	1.0679934e-06
28	0x34a35ddf	3.0429416e-07
29	0x34cbe598	3.7978748e-07
30	0x3628ee15	2.5172533e-06
31	0x360bf156	2.085309e-06
32	0x32ce2f66	2.400311e-08
33	0x31ae63c7	5.07541e-09
34	0x32a1edb7	1.8850967e-08
35	0x32534df6	1.2299543e-08
36	0x32db2151	2.5510106e-08
37	0x32f116f2	2.8066527e-08
38	0x32a7dd31	1.9541945e-08
39	0x2da8df51	1.9198561e-11
40	0x2baa7532	1.2111755e-12
41	0x336ab584	5.4647458e-08
42	0x332fd51f	4.0939195e-08
43	0x311daf1d	2.2946047e-09
44	0x34481437	1.8633806e-07
45	0x32da005c	2.5378704e-08
46	0x34525c6a	1.9591394e-07
47	0x3490a306	2.6940705e-07
48	0x3250dfbc	1.2158065e-08
49	0x34165314	1.4000062e-07
50	0x3444754a	1.8296592e-07
51	0x336f2d1c	5.568755e-08
52	0x33961597	6.9888465e-08
53	0x34e5d334	4.2808244e-07
54	0x34c77893	3.7154368e-07
55	0x318961f6	3.9983616e-09
56	0x30a39bb8	1.1904069e-09
57	0x314ac479	2.950655e-09
58	0x310b1fe7	2.0245297e-09
59	0x31aff876	5.121417e-09
60	0x31abff27	5.0057625e-09
61	0x3177ef77	3.607935e-09
62	0x2c897080	3.906264e-12
63	0x2aa2d2bd	2.892321e-13
64	0x322f33dc	1.0198132e-08
65	0x31f11d04	7.017322e-09
66	0x3000ccfb	4.6857423e-10
67	0x3313b98e	3.4394866e-08
68	0x319324e1	4.2824557e-09
69	0x354bd4e5	7.5933195e-07
70	0x3583b2b2	9.812268e-07
71	0x33427151	4.5272206e-08
72	0x34fbe9c7	4.692249e-07
73	0x35311270	6.596447e-07
74	0x3452ec16	1.9643662e-07
75	0x34825ce4	2.4281974e-07
76	0x35d7bfac	1.6074532e-06
77	0x35a8d619	1.2579286e-06
78	0x325e2863	1.2931284e-08
79	0x315dff73	3.2304939e-09
80	0x3211e892	8.492991e-09
81	0x31e33b6f	6.6133263e-09
82	0x32819a32	1.5087696e-08
83	0x3251a479	1.2202798e-08
84	0x32300adb	1.0247017e-08
85	0x2c419fa4	2.7515568e-12
86	0x2b30098c	6.254101e-13
87	0x32dec68a	2.5934487e-08
88	0x32db55d2	2.5533982e-08
89	0x3068aec8	8.464949e-10
90	0x33fa7c97	1.1664195e-07
91	0x327d2e78	1.4737104e-08
92	0x34327335	1.6619454e-07
93	0x345edd6d	2.0755915e-07
94	0x3266d84b	1.3436941e-08
95	0x33f9e581	1.16367126e-07
96	0x34198f5a	1.4301386e-07
97	0x3363da29	5.305097e-08
98	0x33796573	5.8067098e-08
99	0x34b41473	3.3542491e-07
100	0x34978e7a	2.8229607e-07
101	0x318d1a3a	4.1066217e-09
102	0x3090ada2	1.0526728e-09
103	0x3147926f	2.904155e-09
104	0x3108c223	1.9900959e-09
105	0x31a29e8e	4.732846e-09
106	0x319d5eae	4.580065e-09
107	0x31532ffa	3.0731813e-09
108	0x2c7e8cc8	3.617372e-12
109	0x2a88f624	2.4329247e-13
110	0x31e59cf4	6.6826207e-09
111	0x31ca94b4	5.8958793e-09
112	0x2f959211	2.7206729e-10
113	0x32f96f58	2.9038048e-08
114	0x319e4078	4.6057345e-09
115	0x34fbdd92	4.6913607e-07
116	0x35210afc	5.999316e-07
117	0x33053490	3.101428e-08
118	0x34985df1	2.8380558e-07
119	0x34dc2357	4.1003906e-07
120	0x3408ea28	1.2751173e-07
121	0x341dc070	1.4691773e-07
122	0x3580654f	9.566228e-07
123	0x354f64b5	7.726006e-07
124	0x321592c4	8.706312e-09
125	0x3102d55f	1.9038777e-09
126	0x31ca6d87	5.8914256e-09
127	0x318c1030	4.0763766e-09
128	0x3225583e	9.624328e-09
129	0x320521e2	7.749323e-09
130	0x31ed396d	6.9041364e-09
131	0x2c1d5ef2	2.2363747e-12
132	0x2ad9d7ff	3.869682e-13
133	0x329a2e20	1.7948935e-08
134	0x328336a5	1.5275257e-08
135	0x3025383a	6.0106553e-10
136	0x3398472b	7.090997e-08
137	0x32316e1b	1.0327791e-08
138	0x34a1a472	3.0108237e-07
139	0x34d3f7b0	3.948203e-07
140	0x32bbdf12	2.1871106e-08
141	0x345be74c	2.048011e-07
142	0x3491719c	2.7091016e-07
143	0x33ac00fa	8.009552e-08
144	0x33db253b	1.02047544e-07
145	0x3529a213	6.3193255e-07
146	0x350f7512	5.344201e-07
147	0x32079aec	7.893259e-09
148	0x30f7ba6e	1.8024602e-09
149	0x31b250a6	5.1896505e-09
150	0x31714684	3.51102e-09
151	0x31f9e426	7.2727913e-09
152	0x3215fd78	8.730574e-09
153	0x31c39377	5.6920118e-09
154	0x2b9e776e	1.1259724e-12
155	0x2aaecb18	3.1049534e-13
156	0x32688f9b	1.3536829e-08
157	0x32384baf	1.0727418e-08
158	0x300dcd7a	5.15875e-10
159	0x335b4803	5.1055405e-08
160	0x31ef15cf	6.958295e-09
161	0x34f6e44b	4.5987176e-07
162	0x351f56c5	5.935838e-07
163	0x32fd7bdf	2.9509406e-08
164	0x3497cbd8	2.8274258e-07
165	0x34daca64	4.0752923e-07
166	0x34030d67	1.2205201e-07
167	0x341b1f1d	1.4446819e-07
168	0x357f64a6	9.5141365e-07
169	0x3546e572	7.4094635e-07
170	0x3206cebf	7.846835e-09
171	0x310300f5	1.9063553e-09
172	0x31c0b041	5.607973e-09
173	0x3189d07f	4.010928e-09
174	0x32159a0f	8.70797e-09
175	0x3209e98a	8.02755e-09
176	0x31d46f70	6.182681e-09
177	0x2bd86a6a	1.5377259e-12
178	0x2ae2cc37	4.0287367e-13
179	0x329ecc05	1.8486398e-08
180	0x327d235b	1.4734577e-08
181	0x3032dbe4	6.5068506e-10
182	0x339268e4	6.817734e-08
183	0x32145e4e	8.636176e-09
184	0x35b81a27	1.371668e-06
185	0x35eed8a1	1.7795429e-06
186	0x33b49e9a	8.4107526e-08
187	0x3569e336	8.71299e-07
188	0x35a119c6	1.2002936e-06
189	0x34cb321f	3.7848164e-07
190	0x34e11c1a	4.1929962e-07
191	0x36403f50	2.8647082e-06
192	0x3621366a	2.4022543e-06
193	0x33036568	3.0593043e-08
194	0x31d61017	6.230049e-09
195	0x32c75e0f	2.3209422e-08
196	0x327b32c9	1.462167e-08
197	0x33034465	3.056302e-08
198	0x331dd194	3.674502e-08
199	0x32c8d61c	2.338043e-08
200	0x2d6438de	1.29729266e-11
201	0x2bc096a6	1.3684234e-12
202	0x3386a356	6.269572e-08
203	0x3341859a	4.5057824e-08
204	0x313c77b8	2.7425653e-09
205	0x345de807	2.066664e-07
206	0x32fcaa27	2.9414037e-08
207	0x342b2a83	1.5941082e-07
208	0x345e634c	2.0711485e-07
209	0x323db2ae	1.1041875e-08
210	0x33e50c62	1.0665896e-07
211	0x3419cdc7	1.4324097e-07
212	0x335223a6	4.8926857e-08
213	0x33659930	5.345754e-08
214	0x34b5a0e5	3.3830943e-07
215	0x349daedd	2.937076e-07
216	0x3186c4d1	3.9222887e-09
217	0x3084a45b	9.650977e-10
218	0x3136b997	2.6589981e-09
219	0x30f2276e	1.7619024e-09
220	0x318e24b5	4.136917e-09
221	0x319b2bf0	4.516089e-09
222	0x316784ac	3.369034e-09
223	0x2bee463d	1.6930412e-12
224	0x2a8058b9	2.279893e-13
225	0x32102abd	8.391621e-09
226	0x31be3792	5.5360454e-09
227	0x2fee3e0a	4.333603e-10
228	0x32dfe6a3	2.6065498e-08
229	0x316eda26	3.4757561e-09
230	0x3584f105	9.904912e-07
231	0x35ad899c	1.2929554e-06
232	0x33844092	6.158474e-08
233	0x35292c35	6.3021736e-07
234	0x356c2466	8.796982e-07
235	0x3492ca5d	2.7341858e-07
236	0x34a8e117	3.1456213e-07
237	0x360e6910	2.1220803e-06
238	0x35e262f5	1.6867112e-06
239	0x32cb3492	2.3656217e-08
240	0x31b1ae7f	5.171216e-09
241	0x32a1671d	1.8789757e-08
242	0x324041cd	1.1190832e-08
243	0x32d14533	2.436227e-08
244	0x32f2fc95	2.8287369e-08
245	0x329663e9	1.7507732e-08
246	0x2d282a80	9.559131e-12
247	0x2b9b9f2b	1.105759e-12
248	0x332a2098	3.9610853e-08
249	0x330b48fc	3.242984e-08
250	0x30ca5cdd	1.4723828e-09
251	0x3424c2a4	1.53445e-07
252	0x32f897b4	2.8939986e-08
253	0x35857bf4	9.945347e-07
254	0x35aa8f13	1.2707627e-06
255	0x338b9e4e	6.501487e-08
