RefAgent/BC-CAB-256128/checkpoints/agent_2500.pt (torch, 488547 bytes, 18 tensors)

net.0.weight f4 [256, 23]
0	0xbd58664b	-0.05283193
1	0xbcffd44f	-0.031229166
2	0xbd80f458	-0.06296605
3	0x3befa1f1	0.007313006
4	0xbcb5f6a6	-0.022212338
5	0xbc537b91	-0.0129078785
6	0xbd38db51	-0.04513103
7	0xbce658a7	-0.028118445
8	0xbc4a9f43	-0.0123670725
9	0xbe2dfbd1	-0.16990592
10	0xbec53161	-0.38514236
11	0xbf13359a	-0.57503664
12	0x3e356ffa	0.17718497
13	0x3d308ec1	0.04310489
14	0xbe019699	-0.12655105
15	0x3b78436e	0.0037881988
16	0xbe858325	-0.26076618
17	0xc02a4ee7	-2.6610658
18	0x3eba848b	0.36429247
19	0xbc09b602	-0.00840521
20	0x3f8e175f	1.1100882
21	0x3e597a60	0.21238089
22	0x3de823dc	0.11334965
23	0xbb2e4561	-0.0026591646
24	0xbe5c2e59	-0.21502055
25	0x3dffb08d	0.12484846
26	0xbd40b8a4	-0.047051087
27	0x3d82cf91	0.063872464
28	0xbd84e122	-0.06488253
29	0xbd112bb8	-0.035442084
30	0xbc5a2d49	-0.013316461
31	0xbc5568c3	-0.013025465
32	0x3bdbcdaa	0.0067078667
33	0xbf3a6a13	-0.72818106
34	0xbe5068a5	-0.20352419
35	0x3e747264	0.23871762
36	0x3da506d0	0.0805794
37	0xbe84b1fd	-0.25917044
38	0xbd93c9d6	-0.072162315
39	0x3e2d6b33	0.16935425
40	0x3e78a41a	0.2428135
41	0x3dc59e26	0.09649305
42	0xbeb565ca	-0.3542922
43	0x3e91d9ba	0.28486425
44	0x3e1d6595	0.15370782
45	0xbccc948c	-0.024973176
46	0x3e10b0d2	0.14129952
47	0x3ab3646a	0.0013686542
48	0x3d1f0606	0.038824104
49	0x3d05caf0	0.03266424
50	0xbc6ad557	-0.014333091
51	0x3dabe7c6	0.08393817
52	0x3e236aa0	0.15958643
53	0xbd70101e	-0.05860912
54	0xbce61d69	-0.028090196
55	0xbd12fa8f	-0.035883483
56	0x3eb72915	0.3577353
57	0x3eba3f3d	0.36376372
58	0xbe5b2dc3	-0.21404175
59	0x3c49ce13	0.012317198
60	0x3e34e30a	0.17664734
61	0x3e9916d0	0.29900217
62	0xbe688232	-0.22705916
63	0xbe5418b1	-0.20712544
64	0xbdd7a54c	-0.10529575
65	0xbd82fcf5	-0.06395904
66	0xbeb00aab	-0.3438314
67	0x3ce5754a	0.02801003
68	0xbdbb78ab	-0.09153875
69	0x3d828adb	0.06374141
70	0xbcbe2984	-0.023213156
71	0xbdd20469	-0.102547474
72	0x3cc70f1e	0.0242992
73	0x3d06f5ca	0.032949246
74	0x3d09627a	0.03354118
75	0x3cf00af1	0.029302092
76	0xbcbba8e8	-0.02290769
77	0xbb84ec53	-0.0040564924
78	0xbc22fbdc	-0.009947743
79	0xbe92fa8a	-0.2870677
80	0xbec26f03	-0.3797532
81	0x3e03f3fd	0.12886043
82	0x3d10ab77	0.03531977
83	0x3cb64849	0.022251265
84	0x3d512001	0.051055912
85	0xbe923425	-0.28555408
86	0xc04c9cbc	-3.1970663
87	0x3ebc40fa	0.36768323
88	0x3ea18422	0.31546122
89	0x3f66af4a	0.9011122
90	0x3e30ff45	0.17284878
91	0x3d76c186	0.060243152
92	0xbd2fbcc4	-0.04290463
93	0xbdef6c06	-0.11690526
94	0x3c5d2259	0.013496959
95	0xbe10324b	-0.14081685
96	0x3c0d4fad	0.008624953
97	0xbd66a45c	-0.05630909
98	0x3c7e103c	0.0155068
99	0xbcc0496b	-0.023472508
100	0xbda6a504	-0.08136943
101	0xbd13ef60	-0.036116958
102	0x3f0810cd	0.53150636
103	0x3e2dec85	0.16984756
104	0xbe466971	-0.1937616
105	0xbe5e3ded	-0.2170331
106	0x3e70a778	0.23501384
107	0x3ca43948	0.020046845
108	0xbc3d44a9	-0.011552014
109	0xbfc60642	-1.547066
110	0xbe2b3c26	-0.16722164
111	0x3e8a3d04	0.26999676
112	0x3dccb06c	0.09994587
113	0xbcb54d44	-0.02213157
114	0xbc872986	-0.016499292
115	0xbe143229	-0.1447226
116	0xbcbf8601	-0.023379328
117	0xbc935ab1	-0.017987581
118	0xbd66d1e9	-0.05635253
119	0xbd9dfc54	-0.077141434
120	0xbd31d080	-0.04341173
121	0xbe251226	-0.16120204
122	0x3c7046e0	0.014665335
123	0xbbe62828	-0.00702383
124	0xbe20f490	-0.15718293
125	0x3d485720	0.048911214
126	0xbd27fcb0	-0.041012466
127	0xbeab789d	-0.33490458
128	0xbd9dfb02	-0.077138916
129	0xbe4e8774	-0.20168859
130	0xbead9bac	-0.3390783
131	0xbe622971	-0.22086121
132	0x3de73805	0.11289982
133	0xbde26549	-0.11054475
134	0xbe4f5b12	-0.20249584
135	0x3ec509f6	0.38484162
136	0x3da0e90c	0.0785695
137	0xbc808429	-0.015688019
138	0xbba91918	-0.005160462
139	0xbd85ba71	-0.065297015
140	0xbc9d9c48	-0.01923956
141	0xbda419c0	-0.08012724
142	0xbd1abe3d	-0.03777908
143	0xbc7e2f7d	-0.015514252
144	0xbd4bf3b1	-0.04979295
145	0x3d21b482	0.039478786
146	0xbb80c50b	-0.0039297394
147	0x3d6b1da0	0.0574013
148	0x3f0f8ff8	0.56079054
149	0x3e5f71f5	0.21820815
150	0xbe6cae55	-0.23113377
151	0xbe908159	-0.28223684
152	0x3e4050c5	0.18780811
153	0xbe699885	-0.22812088
154	0x3d99ef93	0.07516398
155	0xbfbfed47	-1.4994286
156	0xbdc3b0a2	-0.095551744
157	0x3ef6af2a	0.48180515
158	0x3dbedeca	0.093198374
159	0xbda19942	-0.0789056
160	0xbca39bf3	-0.019971823
161	0x3dfdb71c	0.12388441
162	0xbda36754	-0.07978693
163	0xbccdecd3	-0.02513734
164	0x3cda9d88	0.026686445
165	0x3e0cffdc	0.13769478
166	0x3dd657c7	0.10465961
167	0x3db3a12f	0.08770978
168	0xbc0191a6	-0.00790826
169	0xbb479265	-0.0030452248
170	0x3e838d90	0.2569394
171	0x3ef09d04	0.46994793
172	0x3e821be8	0.25411916
173	0xbd8c87fe	-0.06861876
174	0x3d86024c	0.06543407
175	0x3ea80896	0.3281905
176	0x3eba4ea2	0.36388117
177	0x3f83d28a	1.0298626
178	0x3e326b6c	0.1742379
179	0xbdfe1844	-0.12406972
180	0x3e939121	0.28821662
181	0xbe361b50	-0.17783856
182	0xbe53989f	-0.20663689
183	0xbd7f7df1	-0.062375966
184	0xbdafd7e9	-0.085861035
185	0x3e8a79d2	0.27046067
186	0xbdbf3304	-0.09335902
187	0x3d07722b	0.033067863
188	0xbd8bbeb2	-0.068234816
189	0x3d2f7a21	0.04284108
190	0xbd4b8ea1	-0.04969657
191	0xba936295	-0.001124459
192	0xbb1ca7cb	-0.0023903723
193	0xbd96a672	-0.07355966
194	0x3f1de8b6	0.61683214
195	0x3d9dfe8f	0.07714569
196	0xbe523a61	-0.20530082
197	0xbd6d7d73	-0.057980966
198	0x3e628e34	0.22124559
199	0x3c59d22c	0.013294738
200	0xbd8a1e7d	-0.067440964
201	0xbf89454e	-1.0724275
202	0x3d75a351	0.059970204
203	0x3e70af54	0.23504382
204	0x3d16fbb8	0.03686115
205	0xbdd4fd5f	-0.10399889
206	0x3d8387e1	0.06422401
207	0xbd123dd8	-0.03570351
208	0x3b9db0d8	0.004812341
209	0xbc2db742	-0.010602774
210	0x3cf3bb1e	0.02975231
211	0x3c8fdc4d	0.017561102
212	0x3d0600c5	0.032715578
213	0xbdf96d6a	-0.12179072
214	0x3dd46501	0.103708275
215	0x3d440d20	0.04786408
216	0x3d04c32c	0.032412693
217	0xbd6a2a85	-0.057169456
218	0x3d943546	0.072367236
219	0x3eb53b01	0.3539658
220	0xbd588d5f	-0.052869197
221	0xbd632dfe	-0.055463783
222	0xbe857b6d	-0.2607073
223	0x3ce90244	0.028443463
224	0x3e389e0b	0.18029039
225	0x3c7e5a23	0.01552442
226	0x3e7b183a	0.2452096
227	0xbeadb776	-0.33929032
228	0xbde66d1c	-0.1125128
229	0x3dd093e7	0.1018446
230	0xbcb47f7a	-0.022033442
231	0x3c29558f	0.01033534
232	0xbdd17e6f	-0.102291934
233	0xbe15bfad	-0.146239
234	0xbd3f5333	-0.046710204
235	0xbd5abca2	-0.05340255
236	0xbe08a699	-0.13344802
237	0x3d01a6a3	0.031653058
238	0x3c40e5ad	0.011773509
239	0x3da71353	0.08157983
240	0xbc5cdd61	-0.013480515
241	0xbda77e7d	-0.081784226
242	0xbef313ca	-0.47476035
243	0xbd35565b	-0.044271808
244	0xbddfbf3c	-0.10925147
245	0xbd876d45	-0.066126384
246	0x3e01e98e	0.1268675
247	0xbf972849	-1.1809169
248	0xbe982f71	-0.29723695
249	0x3eeebf84	0.4663049
250	0x3f940dcc	1.156671
251	0xbe154f20	-0.14580965
252	0xbde8729a	-0.113499835
253	0x3e1a9086	0.15094194
254	0x3dd67cde	0.10473035
255	0x3e674d86	0.22588167

net.0.bias f4 [256]
0	0x3c2d6d70	0.010585174
1	0xbdddb157	-0.108248405
2	0xbd34d93f	-0.044152495
3	0xbd596d0e	-0.05308252
4	0xbdd19b85	-0.10234741
5	0x3c6ea3fa	0.014565462
6	0xbe20b0ce	-0.15692446
7	0xbd1f625e	-0.03891217
8	0x3e842be8	0.25814748
9	0xbd22eea7	-0.039778378
10	0xbe293ac4	-0.16526324
11	0x3bafe8b9	0.005368319
12	0xbe374f2b	-0.17901294
13	0x3d9c5d67	0.076350026
14	0xbcf38e50	-0.029730946
15	0x3d98109c	0.07425043
16	0x3dc14d0d	0.094385244
17	0xbe131a86	-0.14365587
18	0x3cb349bc	0.021885745
19	0xbda3adda	-0.07992144
20	0x3e42d814	0.1902774
21	0xbe5b91e4	-0.21442372
22	0xbda95fde	-0.08270238
23	0xbdfb2824	-0.122635156
24	0xbaad3571	-0.0013214779
25	0xbcb3f822	-0.021968905
26	0xbd8b8838	-0.06813091
27	0xbe5b6863	-0.21426539
28	0xbe897237	-0.26844952
29	0x3d737048	0.05943325
30	0xbd8c2035	-0.068420805
31	0x3c4cb2d9	0.0124938125
32	0x3d37a717	0.044837084
33	0xbdbb7fd4	-0.09155241
34	0x3bdbb069	0.0067043793
35	0x3dc721bc	0.09723231
36	0x3e70b09f	0.23504876
37	0x3d44863c	0.04797958
38	0xbc5760aa	-0.013145605
39	0x3e088631	0.1333244
40	0x3d03c0b8	0.032166213
41	0x3c50743c	0.012723025
42	0x3dc30ee2	0.09524323
43	0xbd9ab3b2	-0.075538054
44	0xbd963f4b	-0.07336291
45	0x3cd44bfc	0.025915138
46	0xbd9e7b57	-0.07738369
47	0x3c9e5183	0.019325977
48	0xbe5e967f	-0.21737097
49	0xbd465287	-0.048418548
50	0x3dd29219	0.10281772
51	0xbcf8e23c	-0.030381314
52	0x3dc7d816	0.09758012
53	0xbe60cbb3	-0.21952705
54	0x3e03e8bb	0.12881748
55	0xbda64d80	-0.08120251
56	0x3e5f236d	0.21790858
57	0xbe7aeebb	-0.24505131
58	0x3c22a837	0.009927801
59	0x3e9d91d0	0.3077531
60	0x3b8d6c60	0.004315898
61	0x3b6a3b23	0.0035740815
62	0xbccfd471	-0.025369855
63	0xbccc45c7	-0.024935616
64	0x3d617e4d	0.05505209
65	0x3db4c85b	0.08827277
66	0x3d1c27a3	0.038123738
67	0x3b82f2fc	0.003996251
68	0x3e258125	0.16162546
69	0x3d2b85d4	0.041875675
70	0x3d32dd65	0.04366817
71	0x3d81853d	0.06324241
72	0x3d89aa85	0.06721977
73	0xbdf06132	-0.117372885
74	0xbcf83ea4	-0.030303307
75	0x3d38991b	0.045067888
76	0xbd481505	-0.04884817
77	0xbd0ec649	-0.03485707
78	0xbe028c19	-0.12748756
79	0x3e039c4f	0.12852596
80	0x3d44a32a	0.048007168
81	0x3c9f9da8	0.019484356
82	0x3b8927d2	0.004185655
83	0xbca6d3ee	-0.020364728
84	0xbe02d767	-0.12777482
85	0x3dd2516a	0.10269435
86	0x3e2cdfa4	0.16882187
87	0xbd4a190b	-0.04934029
88	0xbe12b396	-0.14326319
89	0x3dc911e4	0.098178655
90	0x3ce0e13a	0.027451146
91	0x3ddcad93	0.10775294
92	0x3d640bb8	0.05567524
93	0x3dfa9861	0.12236095
94	0xbde31784	-0.110884696
95	0x3ceffce5	0.029295394
96	0x3da1ea91	0.07906068
97	0x3c12d4e2	0.008961888
98	0x3c1e92c6	0.009678548
99	0xbd9d7f14	-0.07690254
100	0xbe15569a	-0.14583817
101	0x3e20a179	0.15686597
102	0x3d5e14de	0.05421912
103	0xbd88b687	-0.06675439
104	0xbd0095b4	-0.031392768
105	0x3db7d144	0.08975461
106	0xbe1d24ab	-0.15346019
107	0xbd4308e7	-0.04761591
108	0x3db85123	0.089998506
109	0xbdef51bd	-0.11685512
110	0xbde8e4b1	-0.113717444
111	0xbd694188	-0.05694726
112	0x3dc7d61d	0.09757636
113	0xbdc30228	-0.09521896
114	0xbcc998d8	-0.024609014
115	0xbd19f78e	-0.037589602
116	0xbdf429ad	-0.119220115
117	0xbdca10ac	-0.09866461
118	0x3d818347	0.06323867
119	0x3caf61f4	0.021409012
120	0x3db30536	0.08741228
121	0x3e59cd50	0.21269727
122	0xbdc76200	-0.09735489
123	0x3d855b56	0.065115616
124	0xbc81d840	-0.015850186
125	0xbd3b931d	-0.045794595
126	0xbdabef8b	-0.083952986
127	0x3d7167d5	0.058936913
128	0x3c2c9a0b	0.010534774
129	0x3cdc3306	0.026879799
130	0x3ca2574e	0.01981702
131	0x3e066967	0.13126145
132	0x3d79d351	0.060992543
133	0x3d99f449	0.07517297
134	0x3d81bbf8	0.0633468
135	0x3c648d5d	0.013949719
136	0xbe3945d5	-0.18093045
137	0x3d09cfce	0.033645444
138	0xbca37611	-0.01995376
139	0x3cc30c9e	0.023809727
140	0xbc05b915	-0.008161803
141	0x3dcecc88	0.10097605
142	0x3d7a0277	0.061037507
143	0xbb6e5f81	-0.0036372843
144	0xbddffd0c	-0.10936937
145	0xbd3d0ac7	-0.046152856
146	0x3e5e1ef0	0.21691489
147	0x3ccdcddc	0.025122575
148	0x3e6418e3	0.22275119
149	0x3dcf36b7	0.10117858
150	0x3d4153b1	0.047198955
151	0x3d672ba4	0.056438103
152	0x3ced5e48	0.02897562
153	0xbdb70aab	-0.08937582
154	0x3c70da38	0.014700465
155	0x3ceb894e	0.028751995
156	0x3d90195e	0.070360884
157	0xbdd7ed12	-0.105432644
158	0x3e07dc0f	0.1326754
159	0x3dd8b836	0.105820104
160	0xbd8e5875	-0.069504656
161	0x3d84d615	0.064861454
162	0x3d98940e	0.07450114
163	0xbe466efd	-0.19378276
164	0xbc915284	-0.017739542
165	0xbd96b899	-0.07359428
166	0xbd629c0e	-0.055324607
167	0xbdea4a8f	-0.11440002
168	0xbd2451dc	-0.04011713
169	0xbdcf7ccf	-0.10131227
170	0x3dd35e04	0.103206664
171	0xbd10ce55	-0.035353024
172	0x3e53fc86	0.20701799
173	0x3c72ae72	0.014812099
174	0xbbcbe7bc	-0.0062226932
175	0xbc6b0814	-0.014345188
176	0xbd70ec56	-0.058819138
177	0x3df05895	0.11735646
178	0x3dac8276	0.08423321
179	0x3c92f69b	0.017939856
180	0x3e830d17	0.25595924
181	0x3dd1f3e3	0.10251596
182	0xbd9cb69a	-0.07652016
183	0xbdb1dbf7	-0.08684533
184	0x3d28166a	0.041037
185	0xbdda8557	-0.10669964
186	0xbddd6354	-0.10809961
187	0x3c25870a	0.010102997
188	0x3d49441f	0.04913723
189	0xbe557f6d	-0.2084939
190	0xbc537293	-0.012905735
191	0xbca3958f	-0.019968776
192	0x3dafd148	0.08584839
193	0x3dbf05e8	0.093272984
194	0xbe27bdf5	-0.16381057
195	0xbdaf5eb2	-0.085629836
196	0xbe088b13	-0.13334303
197	0x3c55c45e	0.013047306
198	0x3dae348c	0.08506116
199	0xbcd2de52	-0.025740776
200	0xbd00e118	-0.031464666
201	0x3e15d400	0.14631653
202	0x3d8db878	0.0691995
203	0xbdada328	-0.08478385
204	0xbdc496de	-0.09599088
205	0x3e04e9ba	0.12979785
206	0x3e3beffa	0.18353263
207	0xbc91d6e1	-0.017802658
208	0x3cec1d4a	0.02882256
209	0xbc95104a	-0.018196244
210	0x3d671ff9	0.056426976
211	0xbd51e75b	-0.05124603
212	0x3ce07155	0.02739779
213	0x3d4481d3	0.047975373
214	0xbd905776	-0.07047932
215	0x3c96e54c	0.018419884
216	0xbd803883	-0.06260779
217	0xbdd23ad2	-0.10265125
218	0x39aca44a	0.000329288
219	0x3d0790e9	0.03309718
220	0xbd35f9ba	-0.04442761
221	0xbdcbd66e	-0.099530086
222	0x3d459e81	0.048246864
223	0xbc6e6ec9	-0.01455278
224	0xbce1b2ba	-0.027551044
225	0xbba7c58b	-0.0051199845
226	0xbe53d964	-0.20688397
227	0x3d803a75	0.0626115
228	0xbb081ad8	-0.0020767953
229	0x3c068e1d	0.008212593
230	0x3cdc238d	0.02687242
231	0x3de8f2b2	0.113744155
232	0x3d8f9dc3	0.070125125
233	0xbdd15d7d	-0.102229096
234	0xbe4bbb92	-0.19895771
235	0x3d7a6045	0.061126966
236	0x3bcfde12	0.0063436115
237	0x3d78c602	0.06073571
238	0x3e224112	0.15845135
239	0xbe3293d9	-0.17439212
240	0x3cb2db1c	0.021832995
241	0x3b8b73e4	0.0042557586
242	0xbd4b7b9b	-0.049678426
243	0xbce08b8b	-0.02741029
244	0xbc44c617	-0.012010119
245	0x3ca73634	0.020411588
246	0xbe23f42d	-0.16011114
247	0xbe073bfe	-0.13206479
248	0xbd5638f9	-0.052300427
249	0xbdeda371	-0.116034396
250	0x3dacbb74	0.08434191
251	0x3d7e5a29	0.062097702
252	0x3d586c46	0.052837633
253	0x3db2293f	0.08699273
254	0xbbcc8b97	-0.0062422263
255	0x3e3fd125	0.18732126

net.3.weight f4 [128, 256]
0	0x3c57d5f4	0.013173569
1	0x3dcfd934	0.1014885
2	0x3d1eec9f	0.03879988
3	0x3c035beb	0.00801752
4	0x3c22ea0c	0.009943496
5	0x3daae23c	0.08343932
6	0xbdbf8cf2	-0.09353055
7	0x3c071862	0.008245559
8	0xbdde8efe	-0.10867117
9	0xbc1d3250	-0.009594515
10	0xbe90df08	-0.2829516
11	0xbcdde689	-0.027087467
12	0x3b105e07	0.00220287
13	0xbd06571c	-0.032797918
14	0x3d5e5333	0.054278564
15	0xbdd0e6a5	-0.10200242
16	0xbd6d2985	-0.057900924
17	0xbeca89e0	-0.39558315
18	0xbd57435b	-0.05255447
19	0xbd9400fc	-0.0722675
20	0xbc0c51d4	-0.008564431
21	0xbd313942	-0.043267496
22	0xbd59654b	-0.053075116
23	0x3d62f456	0.0554088
24	0x3ca69232	0.020333383
25	0xbc545744	-0.012960259
26	0xbdc62597	-0.096751384
27	0xbebe45d1	-0.3716264
28	0xbdba5cdf	-0.09099745
29	0x3e4fda39	0.20298089
30	0xbe073272	-0.13202837
31	0xbe1e3e84	-0.15453535
32	0xbb18021e	-0.0023194621
33	0x3d50fb3c	0.051020846
34	0x3c16859d	0.009187129
35	0xbc9de81d	-0.01927572
36	0xb97b5ac0	-0.00023971032
37	0x3d315632	0.043295093
38	0x3cee9a9a	0.029126454
39	0x3d05cd66	0.032666586
40	0xbb8e6c11	-0.0043463786
41	0x3c0b307f	0.008495449
42	0x3ed3d0b0	0.41370153
43	0x3e4a249f	0.19740532
44	0x3d9880cd	0.07446442
45	0x3e1cc258	0.15308511
46	0x3d7f935c	0.062396392
47	0xbd2c6838	-0.04209158
48	0xbdc30348	-0.0952211
49	0x3d276dea	0.040876307
50	0x3d510dc9	0.051038537
51	0x3d76e689	0.06027845
52	0xbd0f5592	-0.034993716
53	0xbe3eaafd	-0.18619914
54	0xbca858ea	-0.02055021
55	0xbc2793f0	-0.010228142
56	0x3dbcbb9f	0.092154734
57	0xbe00e52b	-0.1258742
58	0xbcf3259f	-0.029681025
59	0xbd2a07a3	-0.04151119
60	0x3b3b9396	0.0028621904
61	0x3ce60fa8	0.028083637
62	0xbcde2d7a	-0.027121294
63	0xbb0c9ea8	-0.0021456871
64	0x3d22a615	0.03970917
65	0x3c903858	0.017604992
66	0x3d1f60ba	0.038910605
67	0xbc89b342	-0.01680911
68	0xbdb2c53e	-0.08729027
69	0xbd2afea8	-0.041746765
70	0x3c0d82fa	0.008637184
71	0x3eacab3c	0.3372439
72	0x3cbb3618	0.022852942
73	0xbc8a4b21	-0.016881527
74	0xbe633755	-0.22189076
75	0xbcb0abe4	-0.021566339
76	0x3d53a809	0.051673923
77	0xbbc2f5a8	-0.0059496947
78	0x3d759598	0.059957117
79	0x3e6556a2	0.22396329
80	0xbca06afa	-0.01958226
81	0x3a46be2c	0.00075814384
82	0xbdd8c648	-0.10584694
83	0xbc07d444	-0.008290354
84	0xbd32f7c2	-0.04369331
85	0x3d8753de	0.06607793
86	0xbd9b7115	-0.07589928
87	0xbd981d41	-0.07427455
88	0xbea66c06	-0.3250429
89	0xbd8811ef	-0.066440456
90	0x3c98b1a6	0.018639397
91	0xbdb8bafd	-0.0902004
92	0x3ce87461	0.028375806
93	0xbd5c7a94	-0.053827837
94	0x3caf17a0	0.02137357
95	0xbe4fda3f	-0.20298098
96	0xbd8cb6bc	-0.06870791
97	0xbd28ea70	-0.041239202
98	0xbcf024d2	-0.029314432
99	0x3cb74c3e	0.022375222
100	0x3d3fee07	0.04685786
101	0xbbb99689	-0.005663697
102	0x3cb85bbf	0.022504685
103	0xbd976bd3	-0.07393613
104	0xbbc908c8	-0.00613508
105	0xbd0200a4	-0.031738892
106	0xbda90a6b	-0.0825394
107	0x3c977318	0.018487498
108	0x3da92529	0.08259041
109	0xbd191015	-0.037368853
110	0xbdb31df0	-0.087459445
111	0xbd1847f1	-0.037177984
112	0xbc925a5c	-0.017865352
113	0x3bd82056	0.0065956516
114	0xbb4f6d25	-0.0031650749
115	0xbe5f1ac9	-0.21787561
116	0xbe054be2	-0.13017228
117	0xbd916042	-0.07098438
118	0x3ced3993	0.028958118
119	0xbc5469d8	-0.012964688
120	0xbcf347f3	-0.029697394
121	0x3ddd7e2e	0.108150825
122	0xbd17b76d	-0.037040163
123	0x3b8def87	0.0043315324
124	0x3d69c600	0.057073593
125	0xbecae176	-0.39625138
126	0xbd003bcb	-0.031307023
127	0xbd82fcc0	-0.063958645
128	0xbd3f2d54	-0.046674088
129	0xbca79017	-0.02045445
130	0xbde9df27	-0.11419516
131	0xbcef266c	-0.029193126
132	0xbda3d291	-0.07999147
133	0xb956882b	-0.00020459357
134	0xbd0c8ab5	-0.03431197
135	0xbc4eaff8	-0.012615196
136	0x3c9c8cb0	0.019110054
137	0xbd84c2f4	-0.06482497
138	0xbd688726	-0.056769513
139	0x3d9c4129	0.07629616
140	0x3acac367	0.0015469611
141	0x3cdb9b4e	0.026807453
142	0x3d8d6038	0.06903118
143	0x3d9194f1	0.071084864
144	0xbd13d961	-0.03609598
145	0x3abc1bd3	0.0014351554
146	0x3daf652c	0.08564219
147	0xbb52966a	-0.003213311
148	0xbd14304a	-0.036178865
149	0xbd13cf68	-0.03608647
150	0x3d2bf295	0.04197939
151	0xbda587b6	-0.080825254
152	0x3cbeb6dd	0.023280555
153	0x3d213eb2	0.03936643
154	0x3b8e538f	0.004343457
155	0xbd4b2b3f	-0.04960179
156	0x3d1412d9	0.036150787
157	0xbd8231bc	-0.06357142
158	0xbd874d92	-0.06606592
159	0xbc13af23	-0.009013924
160	0xbde181c4	-0.11011079
161	0xbe204515	-0.15651353
162	0x3d09bacf	0.03362542
163	0xbdb73108	-0.08944899
164	0x3cde9b5d	0.027173692
165	0xbdb2067a	-0.086926416
166	0xbe1b13fe	-0.15144345
167	0xbbb9947c	-0.0056634527
168	0xbdbb117f	-0.091341965
169	0x3c315084	0.010822419
170	0xbcab000d	-0.020874048
171	0xbcfd3ed9	-0.030913757
172	0xbdb33dd7	-0.087520294
173	0x3e4f014a	0.20215335
174	0xbb9c531c	-0.0047706496
175	0xbd32faf1	-0.043696348
176	0xbab217f4	-0.0013587461
177	0xbc1fbf25	-0.009750162
178	0xbd044f13	-0.032301974
179	0xbd4405bc	-0.04785703
180	0x3d869fde	0.06573461
181	0xbeb96cf0	-0.36215925
182	0x3e43929d	0.19098897
183	0xbdda44ab	-0.106576286
184	0x3d2c50e3	0.042069327
185	0xbc707894	-0.014677186
186	0xbe29a479	-0.16566648
187	0xbd8081e2	-0.06274773
188	0x3ce3cd2f	0.0278078
189	0xbd5c61fb	-0.05380438
190	0x3d1324ac	0.035923645
191	0x3cb30db9	0.02185713
192	0xbd7643b9	-0.06012318
193	0xbd7596d2	-0.059958287
194	0xbd0a5aa5	-0.03377785
195	0x39f4e617	0.00046710737
196	0xbc93a7c8	-0.01802434
197	0x3e0c27f1	0.13687111
198	0xbd3f744f	-0.04674178
199	0x3e6e0e50	0.23247647
200	0xbd6184a5	-0.05505814
201	0xbda9f3fc	-0.082984895
202	0xbdbd30e3	-0.0923784
203	0xbbaf290a	-0.0053454684
204	0x3d98eb05	0.074667014
205	0xbd5e302b	-0.054245155
206	0xbda7e57e	-0.08198069
207	0x3dd0fe78	0.10204786
208	0x3cfe1f11	0.031020673
209	0x3c8b93b1	0.017038198
210	0xbd07378c	-0.033011958
211	0x3cb898d3	0.02253381
212	0xbd03e486	-0.03220036
213	0xbc957c7e	-0.018247839
214	0x3d6b360a	0.057424583
215	0xbc43c449	-0.0119486535
216	0xbd479efc	-0.048735604
217	0xbbc87ba7	-0.006118256
218	0x3d341948	0.043969423
219	0xbc59c531	-0.013291643
220	0x3d0753ad	0.033038784
221	0x3da5baa3	0.08092239
222	0x3cea6622	0.028613154
223	0xbdcc8aa1	-0.09987379
224	0x3ce2b850	0.027675778
225	0x3d5ad600	0.053426743
226	0xbcadbf02	-0.021209244
227	0x3cddb62e	0.02706441
228	0xbe1ef602	-0.15523532
229	0xbc2b41b1	-0.010452674
230	0x3ddd9199	0.10818786
231	0xbd1da75b	-0.03848968
232	0x3bbdd666	0.0057933806
233	0x3d4b35aa	0.049611725
234	0xbc2c418b	-0.010513674
235	0x3bbeb128	0.0058194585
236	0xbd00483a	-0.03131888
237	0x3dbb1661	0.09135128
238	0x3d5fa53d	0.054600943
239	0x3b84215a	0.004032296
240	0x3da9a88a	0.082840994
241	0xbd816bd3	-0.06319394
242	0x3e2caae9	0.16862072
243	0xbd470f37	-0.048598494
244	0xbd4422f6	-0.047884904
245	0x3d896ec3	0.06710579
246	0xbcfea970	-0.031086653
247	0xbe0b54a9	-0.13606514
248	0x3c242e4f	0.010020806
249	0xbcd83b76	-0.02639554
250	0xbc14017c	-0.009033557
251	0xbda98ccd	-0.08278809
252	0xbb161636	-0.0022901422
253	0xbce0f5f7	-0.027461035
254	0x3d6d958a	0.05800394
255	0xbd07153c	-0.032979235

net.3.bias f4 [128]
0	0xbc7ac927	-0.0153067475
1	0xbc08a7db	-0.008340801
2	0xbc090a2c	-0.008364242
3	0xbc4d17d1	-0.012517885
4	0xbc7c09df	-0.015383213
5	0xbc6612b6	-0.014042547
6	0xbcd7a746	-0.02632488
7	0xbaf83e58	-0.0018939478
8	0xba5d735a	-0.00084476697
9	0xbcd1c73a	-0.025607694
10	0xbbaf1bd5	-0.005343894
11	0xbae537fa	-0.0017487996
12	0xbbd3f99d	-0.006468965
13	0xba7ee9cc	-0.00097241695
14	0xbc50d1a6	-0.012745297
15	0xbc2b820c	-0.010468017
16	0xbc2a16f2	-0.010381447
17	0x3b658fab	0.003502826
18	0x3c09b299	0.008404397
19	0xbc742dce	-0.014903499
20	0xbcaec310	-0.021333247
21	0xbd0a9407	-0.033832576
22	0xbb514912	-0.0031934422
23	0xbbd3aa9d	-0.0064595477
24	0xbc0cf6ef	-0.008603795
25	0xbcab67f1	-0.020923587
26	0xba452528	-0.00075204903
27	0xbca14980	-0.019688368
28	0xbc0142e0	-0.007889479
29	0x3c995b06	0.018720161
30	0xbc0ca2ce	-0.008583738
31	0x3c8fbffc	0.0175476
32	0xbc60e8b9	-0.01372736
33	0x397efcc1	0.00024317486
34	0xbbae9024	-0.0053272415
35	0x3c365105	0.011127715
36	0xbc351f51	-0.01105483
37	0xbc2963ca	-0.010338733
38	0xbc7a718c	-0.015285861
39	0xbc81399d	-0.015774542
40	0x3a590e1d	0.0008279996
41	0xbc914874	-0.017734744
42	0xbc9df6c9	-0.019282715
43	0xbc87b0de	-0.016563829
44	0xbc245626	-0.010030305
45	0xbcbe4dae	-0.0232304
46	0xbc9e926c	-0.019356929
47	0xbbcef6d3	-0.006316045
48	0xbc4a6dc6	-0.012355274
49	0xbba8ed10	-0.005155213
50	0xbaa4283d	-0.0012524199
51	0x3cad13a7	0.021127535
52	0xbc0fd194	-0.008777995
53	0xbc85f52d	-0.01635226
54	0xba9c0e21	-0.0011906066
55	0xbc37a733	-0.011209297
56	0xbc127f62	-0.008941503
57	0x38dcddc5	0.00010531725
58	0xbc0e0ff0	-0.008670792
59	0xba15fe29	-0.0005721772
60	0xbc1fde66	-0.009757614
61	0x3bc86886	0.006115976
62	0x3b401972	0.0029312042
63	0x3aa95f4c	0.0012922077
64	0x39bc424f	0.00035907558
65	0xbc9aa4f5	-0.018877486
66	0xbcb1974c	-0.02167859
67	0xbc693cb0	-0.01423566
68	0xbc84bd1a	-0.016203452
69	0xbcc97e0c	-0.024596237
70	0xbba8ce20	-0.005151525
71	0x3b2335b1	0.0024903829
72	0xbb7ba88a	-0.0038400018
73	0xbc172d17	-0.009227059
74	0xbc8f91ed	-0.017525638
75	0xbc77d315	-0.0151260095
76	0x3bfca62f	0.0077102403
77	0xbb9668d5	-0.0045901337
78	0xbacd942c	-0.0015684417
79	0x3b592e0f	0.0033139025
80	0xbc18a07a	-0.009315604
81	0xba1ebea5	-0.000605563
82	0xbc58d814	-0.013235111
83	0x3b1937ad	0.0023379133
84	0xbc1907bf	-0.009340226
85	0xbc935cb3	-0.017988538
86	0xbc793012	-0.015209215
87	0xba3f8f6b	-0.0007307443
88	0xbbb9a08a	-0.0056648897
89	0xbcbe2a4b	-0.023213526
90	0xbbc2d52c	-0.005945822
91	0xbb8539e6	-0.00406574
92	0xb9f65a36	-0.0004698799
93	0xbca7e0dd	-0.020492965
94	0x3c714efd	0.014728305
95	0xbc258290	-0.010101929
96	0xbc71dee4	-0.014762614
97	0xbb9e50d0	-0.004831411
98	0xbcad154a	-0.021128315
99	0xbbb21a97	-0.0054352987
100	0xbc2edc9b	-0.010672714
101	0x3bb795c9	0.0056025726
102	0x3c4b38b4	0.012403656
103	0x3bcba631	0.00621488
104	0xbc1b7b28	-0.009489812
105	0xbbe9fe43	-0.007140906
106	0xbcb857fe	-0.022502895
107	0xbcd86175	-0.026413659
108	0xbbf74576	-0.007546122
109	0xbc2ff675	-0.010739912
110	0xbbaa8469	-0.005203773
111	0x3c3f6847	0.0116825765
112	0xbb981bae	-0.0046419716
113	0x3be426e7	0.0069626453
114	0xbc46fff0	-0.012145981
115	0xbcac2a47	-0.021016253
116	0xbb5d9c25	-0.0033814993
117	0xbcd41e18	-0.025893256
118	0xbc2d631e	-0.010582713
119	0x3aa418c8	0.0012519592
120	0xbb10845a	-0.0022051544
121	0xbc61d782	-0.013784291
122	0xba216012	-0.0006155978
123	0xbc612877	-0.013742558
124	0xbc925a33	-0.017865276
125	0xbc2584ba	-0.010102445
126	0xbb406455	-0.0029356678
127	0xbc1269c9	-0.008936354

net.6.weight f4 [9, 128]
0	0xbce8fc3d	-0.02844059
1	0xbd0b6671	-0.034033243
2	0xbd3c7ea4	-0.04601921
3	0xbcabb305	-0.020959387
4	0x3d0c0440	0.03418374
5	0xbc40bf58	-0.01176437
6	0xbd08b164	-0.033372298
7	0x3e0d255c	0.13783783
8	0x3ca73657	0.020411653
9	0xbb8648e1	-0.0040980433
10	0xbb811235	-0.003938938
11	0xbbeaf7a8	-0.007170636
12	0xbdd31acb	-0.10307845
13	0xbd0cb5da	-0.034353115
14	0xbb8ca2b5	-0.004291857
15	0xbc850292	-0.016236577
16	0xbbd14635	-0.006386543
17	0x3cfc9a31	0.030835243
18	0x3e20e47f	0.15712164
19	0x3cb0803f	0.021545528
20	0x3ca7050f	0.020388154
21	0x3bc183dc	0.0059056114
22	0x3c0a9751	0.008458928
23	0x3c1b1126	0.009464538
24	0xbb0218f3	-0.0019851297
25	0xb836e9af	-4.3609816e-05
26	0x3c8e7f1c	0.017394595
27	0xbd833bc8	-0.06407887
28	0xbcd091b8	-0.02546011
29	0xbceab2a5	-0.028649637
30	0x3e130243	0.14356332
31	0xbc75260d	-0.014962685
32	0x3e0a477a	0.13503829
33	0xbcb8560d	-0.02250197
34	0xbb1766ea	-0.0023102113
35	0xbc3e351b	-0.011609341
36	0xbc8751a6	-0.016518425
37	0xbbd32131	-0.0064431657
38	0x3dfe3233	0.124119185
39	0xbc5c23eb	-0.013436298
40	0x3c8339ce	0.016018774
41	0xbb5e0f92	-0.0033883792
42	0xbb5ecc3d	-0.0033996247
43	0x3c6ee638	0.014581256
44	0x3cd8b3ec	0.026452981
45	0x3cb82ad0	0.022481352
46	0xbc633170	-0.013866767
47	0x3cd710a1	0.026253046
48	0x3c9d944a	0.019235749
49	0x3df6871c	0.12037489
50	0x3cee5b4d	0.02909627
51	0xbc9ccb88	-0.01914002
52	0xbc89bff0	-0.016815156
53	0xbc478353	-0.012177306
54	0x3c20c609	0.00981284
55	0xbddc0a37	-0.10744136
56	0x3d04548a	0.032307185
57	0x3cd67a03	0.026181227
58	0x3c75790e	0.014982475
59	0xbc911b8a	-0.017713327
60	0x3cadc905	0.021214018
61	0xbce74599	-0.028231429
62	0x3c0eddc7	0.008719868
63	0xbc6b5a3b	-0.014364774
64	0x3c52dd8e	0.012870206
65	0xbcf26d78	-0.029593214
66	0xbbd18f6b	-0.0063952706
67	0x3c914d57	0.017737074
68	0xbdddfbfe	-0.10839079
69	0xbc9fc2e1	-0.019502105
70	0x3b5d435d	0.0033762075
71	0xbd625d60	-0.05526483
72	0xbbe5f9b1	-0.007018291
73	0x3c474bf5	0.012164106
74	0xbc2b0635	-0.010438492
75	0xbdc8621e	-0.09784339
76	0xbd252a7a	-0.040323712
77	0x3e230fd5	0.15924008
78	0x3b1578e3	0.002280765
79	0xbd019093	-0.031632017
80	0x3c6fa342	0.014626326
81	0x3ceca691	0.028888019
82	0xbb92025a	-0.0044558467
83	0xbd8edeff	-0.06976127
84	0x3e0e5b80	0.13902092
85	0x3cc5a515	0.024126569
86	0x3cdce6c5	0.026965508
87	0xbcd7e264	-0.026353069
88	0xbd320e3a	-0.0434706
89	0xbc790c2d	-0.015200657
90	0xbc131888	-0.008978017
91	0xbc327d73	-0.010894167
92	0xbc30f52a	-0.010800639
93	0x3c95d9c0	0.018292308
94	0xbc703357	-0.014660678
95	0xbaf9c6f3	-0.0019056484
96	0x3ca752b4	0.020425178
97	0x3e157f1a	0.14599267
98	0x3c990e79	0.018683659
99	0x3e173b89	0.14768805
100	0xbcbfe498	-0.023424432
101	0xbcced1b8	-0.025246486
102	0xbc3f4bc8	-0.0116757825
103	0x3c81247d	0.01576447
104	0xbccb96af	-0.024852125
105	0xbcd13e55	-0.025542418
106	0x3cd921c5	0.02650536
107	0xb9f3d901	-0.00046510252
108	0x3d04a2d3	0.032381844
109	0x3cd76d42	0.026297215
110	0x3c380941	0.011232675
111	0xbc200c67	-0.009768582
112	0x3bb8a4f5	0.005634899
113	0x3c5a22f2	0.013313996
114	0xbd173955	-0.03691991
115	0xbcaae645	-0.020861754
116	0x3cc29921	0.023754658
117	0xbd270824	-0.040779248
118	0xbd4788c2	-0.048714407
119	0x3c8fbab1	0.017545076
120	0xbd358cd8	-0.044323772
121	0x3e11ed42	0.14250663
122	0xbdf065df	-0.1173818
123	0x3cada0d6	0.021194857
124	0xbbb41bf8	-0.005496498
125	0xbd0905d0	-0.03345281
126	0x3bba9f5e	0.0056952676
127	0xbcb5cd13	-0.022192514
128	0x3c46ec46	0.012141293
129	0xbc3718f0	-0.011175379
130	0x3c8386b2	0.016055439
131	0xbc5b2dbc	-0.013377603
132	0xbd10cff5	-0.035354573
133	0xbbeb2e52	-0.0071771527
134	0xbcb15c7c	-0.021650545
135	0x3c889689	0.016673343
136	0x3cd848c5	0.026401887
137	0x3df9388a	0.12168987
138	0xbd9d3ba4	-0.07677391
139	0xba9b3f4d	-0.0011844427
140	0xbd85cf42	-0.06533672
141	0xbe074dca	-0.13213268
142	0xbcace339	-0.021104442
143	0x3d2db02b	0.042404335
144	0x3df00502	0.11719705
145	0xbcf05523	-0.029337471
146	0x3c0d0dd0	0.00860925
147	0xbb204f02	-0.0024461155
148	0xbd8a4517	-0.06751459
149	0x3d1df4c8	0.03856352
150	0xbc8b0e7a	-0.016974676
151	0x3d50755c	0.050893173
152	0x3d64e44b	0.05588178
153	0x3aace0b0	0.0013189521
154	0xbc84dc36	-0.016218286
155	0xbd2e3d61	-0.042539004
156	0xbb076ef4	-0.0020665498
157	0x3c949cf6	0.018141251
158	0x3cd35b2c	0.02580031
159	0x3bd44d75	0.00647896
160	0x3d007762	0.031363852
161	0x3c83397e	0.016018625
162	0x3b657041	0.0035009535
163	0x3ce65b0b	0.028119585
164	0x3d7a2c79	0.06107757
165	0xbd147cc7	-0.03625181
166	0x3c9bd244	0.01902116
167	0xbd999e7e	-0.07500933
168	0xbd4c5b13	-0.049891543
169	0xbbc19d6c	-0.0059086587
170	0x3d4f8bd4	0.05067046
171	0x3bba6809	0.0056886715
172	0xbd6b1b58	-0.057399124
173	0xbcfdc952	-0.030979786
174	0xbc491d33	-0.012275028
175	0xbc6f634d	-0.0146110775
176	0xbcaa4431	-0.02078447
177	0x3cf5720c	0.029961608
178	0x3c51944a	0.0127917025
179	0x3cd841b1	0.026398512
180	0x3c4ad88b	0.012380729
181	0xbb9abb13	-0.004722008
182	0x3cc4b0e2	0.024010126
183	0xbce9efeb	-0.028556785
184	0xbcbf69c4	-0.023365863
185	0x3cb4c823	0.022068089
186	0x3cc8bc66	0.024503898
187	0x3bd6f438	0.006559875
188	0xbb35a124	-0.0027714456
189	0xbe0dfce2	-0.13865998
190	0x3bdb7561	0.0066973423
191	0x3d0afe9b	0.033934217
192	0xbd153ffb	-0.03643797
193	0xbba50c40	-0.0050368607
194	0xbd835003	-0.064117454
195	0xbce09029	-0.02741249
196	0xbca1dd63	-0.019758886
197	0xbd0d03c4	-0.03442742
198	0xbd064e0d	-0.03278928
199	0xbdf04cc4	-0.11733392
200	0xbcda5b95	-0.026654998
201	0xbb7901b2	-0.0037995395
202	0xbc3a4bb2	-0.011370586
203	0xbaace44d	-0.0013190598
204	0x3c43af58	0.011943661
205	0x3cfbc3b3	0.030732965
206	0xbd0ab332	-0.0338623
207	0x3d82df2f	0.06390225
208	0x3d333d07	0.043759372
209	0x3e04c0df	0.129642
210	0x3e0720eb	0.13196151
211	0x3bc680ff	0.006057858
212	0xbc19a378	-0.009377353
213	0x3b5150b0	0.0031938963
214	0xbd1f2f91	-0.038863722
215	0x3d1c8c75	0.038219888
216	0x3dda9f9b	0.106749736
217	0xbbd0ad7d	-0.0063683377
218	0x3d27818e	0.040895037
219	0x3b832e95	0.0040033557
220	0xbd80435a	-0.06262846
221	0xbc8bc2a3	-0.017060583
222	0x3d07d3e8	0.033161074
223	0x3c8e1827	0.017345501
224	0x3b84bdc4	0.004050942
225	0x3c81555f	0.015787778
226	0xbc8dad6b	-0.017294606
227	0x3ce41263	0.027840799
228	0x3d1a27a4	0.03763546
229	0xbc67ac0b	-0.014140139
230	0x3d13af7f	0.036056038
231	0x3cb206a8	0.02173169
232	0x3b47ed9c	0.0030506616
233	0x3cf55536	0.029947858
234	0xbc808f95	-0.015693465
235	0xbd128d55	-0.035779316
236	0x3c97b841	0.018520476
237	0xbc969ec7	-0.018386258
238	0xbca43508	-0.020044819
239	0x3db504e2	0.08838822
240	0x3ca0cd71	0.019629212
241	0xbb41095b	-0.002945504
242	0xbdce5da7	-0.100764565
243	0xbc83e839	-0.016101943
244	0xbca1f4ee	-0.019770112
245	0xbc8d4a79	-0.017247425
246	0x3d9e3606	0.07725148
247	0x3cd19582	0.025583986
248	0x3b443142	0.0029936587
249	0x3c9b4c41	0.01895726
250	0xbcc36327	-0.02385099
251	0x3e109246	0.14118299
252	0xbc0029ac	-0.007822435
253	0xbd4fbf1b	-0.05071936
254	0xbd378bc3	-0.04481102
255	0x3b5b3d4c	0.0033453284

net.6.bias f4 [9]
0	0xbbfccf3e	-0.007715135
1	0xbc3954d2	-0.011311727
2	0x3c22dbdb	0.009940113
3	0x3c1d8d7c	0.009616252
4	0xbc4c505e	-0.012470333
5	0x3bebdfcb	0.007198309
6	0x3cb884f5	0.022524336
7	0x3eb0049a	0.3437851
8	0x3e5a007a	0.21289244

exp_avg f4 [256, 23]
0	0x3824d611	3.9300012e-05
1	0xb90f1e73	-0.00013648886
2	0xb89dc935	-7.523821e-05
3	0xb84d6114	-4.896622e-05
4	0xb974fad3	-0.00023363093
5	0x3919e0b7	0.0001467493
6	0x369e23d9	4.71294e-06
7	0xb94c818d	-0.00019503217
8	0xba04f594	-0.00050719944
9	0x371a1166	9.183166e-06
10	0xb8c1be1c	-9.238368e-05
11	0x374b36ec	1.211253e-05
12	0xb765a25f	-1.3687269e-05
13	0x385923cc	5.177017e-05
14	0x381ae306	3.6927893e-05
15	0xb7850038	-1.5854937e-05
16	0x344ab3b0	1.8878086e-07
17	0x33cbe329	9.494244e-08
18	0xb6e59da7	-6.843085e-06
19	0x35dfc943	1.667337e-06
20	0xb7322a71	-1.0619508e-05
21	0xb846e3e9	-4.7419137e-05
22	0xb7b8c78a	-2.2027427e-05
23	0x390592ea	0.00012738598
24	0xb8edb9b9	-0.00011335634
25	0xb896d4c3	-7.192187e-05
26	0xb8ac121a	-8.204971e-05
27	0xb94c1e59	-0.00019466261
28	0xb878489b	-5.9195427e-05
29	0xb8ac26da	-8.208836e-05
30	0x3917c19c	0.00014472607
31	0xb9974366	-0.0002885118
32	0x3778a296	1.4819807e-05
33	0xb79d54ba	-1.8755312e-05
34	0xb623b765	-2.4395642e-06
35	0xb8b72979	-8.733845e-05
36	0x379d70ff	1.8768476e-05
37	0x37f6a65a	2.9402949e-05
38	0x344884e5	1.8674798e-07
39	0x344ed9b6	1.9264448e-07
40	0x345a0488	2.030448e-07
41	0x382ff922	4.1955274e-05
42	0x3769c9c0	1.3934856e-05
43	0xb71c2cad	-9.3087265e-06
44	0x372e328c	1.0382977e-05
45	0x3912c4bd	0.00013996936
46	0xb7b716e7	-2.1825965e-05
47	0x37eba1a1	2.8089447e-05
48	0x3772a392	1.4462408e-05
49	0x3878369e	5.9178674e-05
50	0x37eaad3b	2.797564e-05
51	0xb753c5cc	-1.2622633e-05
52	0x37484491	1.1936893e-05
53	0xb8b2b1fd	-8.520854e-05
54	0xb86df079	-5.672916e-05
55	0xb846d843	-4.7408288e-05
56	0x36ba5845	5.553508e-06
57	0x38573c23	5.1316e-05
58	0x378be6f0	1.667763e-05
59	0xb7cd1a1d	-2.4450064e-05
60	0xb88954dd	-6.548476e-05
61	0x380908df	3.2671607e-05
62	0xb3f3b6b3	-1.1348802e-07
63	0xb3e6a833	-1.0740805e-07
64	0x367366c3	3.6269637e-06
65	0xb447dba0	-1.8613218e-07
66	0x376a5e6a	1.3969469e-05
67	0xb699d907	-4.5850206e-06
68	0xb7dd1b57	-2.6357984e-05
69	0x3766c404	1.3754707e-05
70	0xb93e5a5e	-0.00018153476
71	0xb7c74b46	-2.37577e-05
72	0xb8679e24	-5.522197e-05
73	0xb96926e4	-0.000222351
74	0x39205922	0.00015291994
75	0x38f0025b	0.000114445305
76	0xb89f9b88	-7.610681e-05
77	0xb96bda11	-0.00022492583
78	0x37cea055	2.4631774e-05
79	0xb8294738	-4.0359067e-05
80	0x35cc4c0b	1.5221316e-06
81	0x381b840d	3.707786e-05
82	0x381c2924	3.7231614e-05
83	0xb5db19c9	-1.6324276e-06
84	0xb70f0df8	-8.526717e-06
85	0x33c21d4a	9.0391566e-08
86	0x346c6a38	2.2017855e-07
87	0xb826a80b	-3.9733986e-05
88	0x382ae62b	4.074552e-05
89	0x36e58f16	6.841389e-06
90	0xb75d1c03	-1.31791485e-05
91	0xb88b28d8	-6.635644e-05
92	0x398a21f5	0.0002634671
93	0xb99a0a52	-0.00029380858
94	0xb88eebeb	-6.815031e-05
95	0xb810112f	-3.434828e-05
96	0xb97a4c60	-0.0002387031
97	0xb92782a8	-0.00015975034
98	0x37dae405	2.6093805e-05
99	0x3968d558	0.00022204721
100	0xb735235b	-1.07966725e-05
101	0xb7a52d97	-1.9690762e-05
102	0xb750d486	-1.2447248e-05
103	0x3833a12c	4.282703e-05
104	0x3815ff2e	3.5762023e-05
105	0x38839e7c	6.276087e-05
106	0xb7bfd8af	-2.2869875e-05
107	0xb6828136	-3.889344e-06
108	0xb4215f10	-1.5028877e-07
109	0x3424e97f	1.5358636e-07
110	0xb83928e4	-4.414552e-05
111	0x384fa315	4.9504528e-05
112	0x3788f91c	1.6328464e-05
113	0x36b2bd1c	5.3268286e-06
114	0xb6d260a2	-6.2697372e-06
115	0x38f9696a	0.0001189288
116	0xb8963518	-7.162447e-05
117	0xb7764d54	-1.4680747e-05
118	0xb906495c	-0.00012806564
119	0xb7ca8383	-2.4141516e-05
120	0xb8f2262c	-0.00011546569
121	0xb885c5d4	-6.3787826e-05
122	0x398b2e58	0.00026546675
123	0x39440fa7	0.00018697848
124	0xb5ca3276	-1.5064859e-06
125	0x379a54b6	1.8397677e-05
126	0x37996ff2	1.829115e-05
127	0xb7d7c361	-2.5720978e-05
128	0x38469696	4.7347123e-05
129	0xb5bfd3d9	-1.4292265e-06
130	0xb7ea3c32	-2.7923004e-05
131	0xb48fd7a0	-2.6792713e-07
132	0xb4d30032	-3.9301955e-07
133	0xb7b35bdc	-2.1381238e-05
134	0xb77f1da4	-1.5206086e-05
135	0xb78f6a16	-1.7096329e-05
136	0x382147de	3.8452323e-05
137	0x3860b431	5.3573578e-05
138	0x39868782	0.00025659433
139	0xb9b89f80	-0.00035214052
140	0xb7cf77d5	-2.4732124e-05
141	0xb8be4ab0	-9.073818e-05
142	0xb98a74e7	-0.0002640851
143	0xb960dff1	-0.0002144573
144	0x38e10b14	0.000107308995
145	0x39d51658	0.00040643173
146	0x38c5a566	9.4245e-05
147	0x36acd658	5.1509523e-06
148	0x380db034	3.378112e-05
149	0x3801a1d7	3.090672e-05
150	0x38a16e67	7.697642e-05
151	0x38afb56f	8.378445e-05
152	0xb6737a1c	-3.6280899e-06
153	0x37958fa7	1.7829077e-05
154	0xb4b02fde	-3.2817383e-07
155	0x348e19e1	2.646839e-07
156	0xb899138a	-7.299248e-05
157	0x3894c248	7.093378e-05
158	0x375eaa72	1.3271916e-05
159	0x3818f721	3.646978e-05
160	0x379b01e6	1.8478324e-05
161	0xb8fbd190	-0.00012007647
162	0x385a3b58	5.203052e-05
163	0x38b5b5be	8.664605e-05
164	0xb5effc74	-1.7880361e-06
165	0x38a9a70a	8.0896614e-05
166	0x37a6806c	1.9848543e-05
167	0x38b4df45	8.624656e-05
168	0xb910068b	-0.00013735348
169	0x394c269b	0.00019469338
170	0xb8a14f7d	-7.691884e-05
171	0x379e1056	1.8842675e-05
172	0x37b34807	2.1372003e-05
173	0x38204633	3.821235e-05
174	0xb6488cf1	-2.988436e-06
175	0xb7ae4021	-2.0772279e-05
176	0x385ae611	5.2189516e-05
177	0xb3958d34	-6.964038e-08
178	0x340c3078	1.3056149e-07
179	0xb7c1a29c	-2.3083114e-05
180	0x381d1443	3.7450587e-05
181	0x3713f762	8.819481e-06
182	0x384f5b5d	4.9437735e-05
183	0xb89eecbe	-7.578124e-05
184	0xb960ae69	-0.00021427278
185	0x39759b0a	0.00023422777
186	0x38890c43	6.534953e-05
187	0x391e012e	0.00015068494
188	0x39916818	0.0002773411
189	0x390fd19f	0.00013715633
190	0xb69f7be5	-4.7529925e-06
191	0xb9b9e25f	-0.0003545461
192	0x38781c22	5.915401e-05
193	0xb83a17b0	-4.4367916e-05
194	0xb7ac7abc	-2.056115e-05
195	0x3720db9f	9.587878e-06
196	0x3892f93a	7.0082446e-05
197	0x38250c36	3.9350438e-05
198	0x36db5aab	6.5372637e-06
199	0x36b71e8e	5.457382e-06
200	0xb4bd3ac0	-3.524674e-07
201	0xb50d4b34	-5.263603e-07
202	0xb788fc8d	-1.6330067e-05
203	0xb8377cf6	-4.374698e-05
204	0xb5410827	-7.1909966e-07
205	0xb8708f8c	-5.7354147e-05
206	0xb91ab9e5	-0.00014755836
207	0x383cff80	4.5060646e-05
208	0xb7fb67a2	-2.996979e-05
209	0xb7c9dad2	-2.4062963e-05
210	0xb867a7a6	-5.5230827e-05
211	0xb8321e78	-4.2466883e-05
212	0xb811feca	-3.4807985e-05
213	0x36e2a433	6.75444e-06
214	0x39263329	0.00015850052
215	0x39598d89	0.00020747459
216	0x38a25233	7.740073e-05
217	0x367f461b	3.8038768e-06
218	0xb8b4c93a	-8.62055e-05
219	0x368218c5	3.8771855e-06
220	0xb88450a1	-6.309269e-05
221	0x3893396f	7.020204e-05
222	0xb63009e7	-2.6231808e-06
223	0x34a45336	3.0607924e-07
224	0x340f8bc8	1.3368765e-07
225	0xb78829c0	-1.6231905e-05
226	0x35e07047	1.6721978e-06
227	0xb76ed07b	-1.4234446e-05
228	0x36618294	3.360362e-06
229	0x378af823	1.656643e-05
230	0xb88f43b3	-6.831381e-05
231	0xb98b842f	-0.0002661063
232	0x392c85b2	0.00016453004
233	0xb9ff0449	-0.00048640583
234	0xb9590843	-0.0002069781
235	0x38262422	3.9611135e-05
236	0x3961e044	0.00021541218
237	0x39fc90be	0.00048173027
238	0x3761213f	1.3418786e-05
239	0xb8bbff41	-8.9643996e-05
240	0x3824996f	3.9243543e-05
241	0x3915a096	0.0001426957
242	0xb78b4c5f	-1.6605654e-05
243	0x398d0051	0.00026893851
244	0xb6363331	-2.714991e-06
245	0x38119b40	3.471528e-05
246	0xb4c84023	-3.729957e-07
247	0x3557bef3	8.037161e-07
248	0xb890ec39	-6.910455e-05
249	0x3888f32f	6.530282e-05
250	0xb649d1e9	-3.0073518e-06
251	0x3975ae31	0.00023429912
252	0x38c4e7be	9.389174e-05
253	0xb994aa73	-0.00028355754
254	0x39f41999	0.00046558378
255	0x388656aa	6.40576e-05

exp_avg_sq f4 [256, 23]
0	0x35b11732	1.3194278e-06
1	0x35ebe2f0	1.7574912e-06
2	0x339dcece	7.3485e-08
3	0x357036b3	8.9486565e-07
4	0x359e4200	1.1791126e-06
5	0x34b5c39e	3.3856207e-07
6	0x34e756c6	4.309024e-07
7	0x363cff8d	2.8162933e-06
8	0x361a0970	2.2953282e-06
9	0x32ffc76d	2.9776595e-08
10	0x3200aa0e	7.489247e-09
11	0x32a54904	1.9241732e-08
12	0x327e9ae2	1.4819962e-08
13	0x330a1d2d	3.2157164e-08
14	0x3316a8ad	3.5078006e-08
15	0x32b244e2	2.0753252e-08
16	0x2ce51f7a	6.512066e-12
17	0x2bac0f10	1.2225516e-12
18	0x3354f3fb	4.9581995e-08
19	0x3346b18c	4.6261945e-08
20	0x30f54560	1.7845814e-09
21	0x346c7c0d	2.2024342e-07
22	0x33140615	3.4464467e-08
23	0x35b6ce4c	1.3620097e-06
24	0x35f28aa8	1.8070759e-06
25	0x33b6c105	8.5101455e-08
26	0x3579b777	9.3026705e-07
27	0x35a3a99f	1.2193813e-06
28	0x34d0defd	3.8905264e-07
29	0x34f5fa3d	4.5816878e-07
30	0x363e6002	2.836809e-06
31	0x361e50d3	2.359088e-06
32	0x3305cca0	3.115258e-08
33	0x31dcaba6	6.422357e-09
34	0x32ded5e1	2.5941462e-08
35	0x329597b4	1.741487e-08
36	0x3334aff5	4.2069548e-08
37	0x330f1951	3.3317807e-08
38	0x32ef02bc	2.7824505e-08
39	0x2d05d07d	7.606468e-12
40	0x2bcdac08	1.4613874e-12
41	0x33841aac	6.1515806e-08
42	0x3357b7dd	5.022581e-08
43	0x311a6459	2.246699e-09
44	0x3477a12c	2.3062302e-07
45	0x3317286c	3.519419e-08
46	0x34939590	2.7489705e-07
47	0x34c71e6b	3.708877e-07
48	0x3296759f	1.7515786e-08
49	0x344ce470	1.9082086e-07
50	0x34880f4f	2.5343112e-07
51	0x3399241e	7.1311874e-08
52	0x33c70bce	9.268807e-08
53	0x3518c1d3	5.6906464e-07
54	0x34f78d29	4.6110043e-07
55	0x31bcce8e	5.4950027e-09
56	0x30b7f9bd	1.3385982e-09
57	0x3173f1f7	3.5498695e-09
58	0x317094c5	3.5009162e-09
59	0x31d40720	6.170822e-09
60	0x31f286cd	7.058452e-09
61	0x31ad1275	5.037061e-09
62	0x2cba310d	5.2918837e-12
63	0x2ab1a162	3.1553498e-13
64	0x325b91d5	1.2780636e-08
65	0x322a08f7	9.897341e-09
66	0x301ba480	5.662244e-10
67	0x334c42b5	4.755812e-08
68	0x31df379b	6.496476e-09
69	0x356ea837	8.8906694e-07
70	0x35a3c6d7	1.2202316e-06
71	0x3346af47	4.625988e-08
72	0x352855c9	6.270971e-07
73	0x35594ac1	8.094758e-07
74	0x346a9361	2.1846564e-07
75	0x34a553cf	3.0794624e-07
76	0x3602b7c0	1.9478466e-06
77	0x35d3dd37	1.5785107e-06
78	0x3296e72e	1.7567427e-08
79	0x31a1bb61	4.707019e-09
80	0x323ff0c9	1.1172411e-08
81	0x321b1239	9.026331e-09
82	0x32aeb6a9	2.033933e-08
83	0x329e0c03	1.8399083e-08
84	0x325bbdce	1.2790634e-08
85	0x2ca271b4	4.6169405e-12
86	0x2b3d1a2d	6.7182615e-13
87	0x330ead50	3.3219578e-08
88	0x330b79c5	3.2474208e-08
89	0x309a5ad5	1.1230791e-09
90	0x3424c6f4	1.5346069e-07
91	0x32a8981b	1.9626944e-08
92	0x34961c20	2.796014e-07
93	0x34ce29cf	3.840091e-07
94	0x329940c0	1.784099e-08
95	0x345d0507	2.0584058e-07
96	0x348bf7e3	2.607113e-07
97	0x339ed680	7.396466e-08
98	0x33d301a4	9.8257516e-08
99	0x351ebc9b	5.9134044e-07
100	0x34ff0bad	4.7505947e-07
101	0x31f6f54d	7.1874298e-09
102	0x30c5b6c1	1.4385578e-09
103	0x31a37b6d	4.7579563e-09
104	0x3167f544	3.3754342e-09
105	0x31fe2314	7.396361e-09
106	0x31ff97fc	7.4387554e-09
107	0x31b6da27	5.321698e-09
108	0x2d2d8ef1	9.865651e-12
109	0x2ab094dc	3.1367172e-13
110	0x324c376d	1.1886965e-08
111	0x3238e066	1.0761232e-08
112	0x30031d86	4.769948e-10
113	0x3354279c	4.939612e-08
114	0x3209e508	8.026525e-09
115	0x3522ca85	6.064441e-07
116	0x355a72b9	8.137827e-07
117	0x332534ad	3.8464965e-08
118	0x34de1aee	4.1370316e-07
119	0x35135d4f	5.489755e-07
120	0x34320ed4	1.6582936e-07
121	0x345706ae	2.0025865e-07
122	0x35acf0ad	1.2885044e-06
123	0x358d19c1	1.0512814e-06
124	0x3251f528	1.2221143e-08
125	0x314c32fd	2.971489e-09
126	0x320a0f7f	8.036181e-09
127	0x31bfb4c7	5.5793836e-09
128	0x32865771	1.5639417e-08
129	0x32500c7c	1.2110032e-08
130	0x3236f753	1.0650029e-08
131	0x2c5ec869	3.1659347e-12
132	0x2b123b40	5.1951846e-13
133	0x32dbc66d	2.5585189e-08
134	0x32b450df	2.0991534e-08
135	0x3085092b	9.679629e-10
136	0x33d72fbf	1.00204026e-07
137	0x32799db8	1.4529569e-08
138	0x35178f3a	5.6460306e-07
139	0x354ac6c4	7.5540106e-07
140	0x33182956	3.5427853e-08
141	0x34d99470	4.0527402e-07
142	0x3507de50	5.0614926e-07
143	0x3432fd3c	1.6669668e-07
144	0x344e1890	1.9194181e-07
145	0x35a07a89	1.1956591e-06
146	0x358a7eba	1.0318684e-06
147	0x327bf2d4	1.4665336e-08
148	0x31462142	2.8831697e-09
149	0x3248846d	1.1671642e-08
150	0x32017d6a	7.537304e-09
151	0x32801a8d	1.4913235e-08
152	0x3296707b	1.7513448e-08
153	0x322c036d	1.0012497e-08
154	0x2be664ce	1.6370462e-12
155	0x2b089207	4.851956e-13
156	0x32d3baf0	2.4648642e-08
157	0x32c2ce5e	2.2678417e-08
158	0x3082061b	9.46048e-10
159	0x33dd9caf	1.0319615e-07
160	0x326cb35c	1.377779e-08
161	0x351c3c4c	5.820227e-07
162	0x354ec643	7.702949e-07
163	0x331c660e	3.64144e-08
164	0x34c99f99	3.755529e-07
165	0x350df679	5.288526e-07
166	0x3429984b	1.5794755e-07
167	0x3448eb66	1.8712089e-07
168	0x35a170b6	1.2028238e-06
169	0x357ebe24	9.4899065e-07
170	0x324e302e	1.2001733e-08
171	0x3148cfab	2.9221876e-09
172	0x3217b48f	8.830411e-09
173	0x31bd671e	5.512347e-09
174	0x32783c80	1.4449256e-08
175	0x32473668	1.1595695e-08
176	0x32407dbc	1.120446e-08
177	0x2b9e875f	1.1264148e-12
178	0x2b1de444	5.6094387e-13
179	0x32de0422	2.584608e-08
180	0x32b15e15	2.0648296e-08
181	0x3090a5a1	1.0524454e-09
182	0x33c3f37d	9.1246854e-08
183	0x324b449b	1.1831754e-08
184	0x35f142d5	1.797535e-06
185	0x361c64ad	2.3304412e-06
186	0x34024db4	1.2135462e-07
187	0x35a6619b	1.2396371e-06
188	0x35d598f5	1.5914253e-06
189	0x350e8c99	5.310372e-07
190	0x351f80d7	5.94196e-07
191	0x3679364c	3.7135496e-06
192	0x36531235	3.1452048e-06
193	0x33420bd3	4.51799e-08
194	0x322867b9	9.802471e-09
195	0x331f8a82	3.7146044e-08
196	0x32cd10cd	2.3872781e-08
197	0x33735d55	5.666273e-08
198	0x3351a013	4.880719e-08
199	0x33276229	3.8971994e-08
200	0x2dff5b91	2.9030807e-11
201	0x2c0b0684	1.9756705e-12
202	0x33b19d8c	8.2708624e-08
203	0x338a45e9	6.438842e-08
204	0x315f734e	3.2516314e-09
205	0x34a128bb	3.0018222e-07
206	0x334a83c7	4.715164e-08
207	0x348cea63	2.624757e-07
208	0x34bb03fb	3.483436e-07
209	0x3291bd9e	1.696645e-08
210	0x343a8415	1.7370651e-07
211	0x347f7527	2.3791345e-07
212	0x3396d1a7	7.023055e-08
213	0x33b84cb2	8.5821185e-08
214	0x351421db	5.518356e-07
215	0x34f989c8	4.6480113e-07
216	0x31d8323f	6.2921397e-09
217	0x30b4b895	1.3149185e-09
218	0x318b002f	4.0454533e-09
219	0x31537737	3.0772307e-09
220	0x31db36c1	6.3799637e-09
221	0x31f130b0	7.0195583e-09
222	0x31ba3bf1	5.420127e-09
223	0x2c66d86d	3.2805106e-12
224	0x2a8e67de	2.529634e-13
225	0x3272f6b0	1.4142344e-08
226	0x3220f361	9.368564e-09
227	0x3032a2ce	6.498738e-10
228	0x33344acb	4.197754e-08
229	0x31c35d8f	5.6858833e-09
230	0x35c0c3e0	1.4362122e-06
231	0x35f84f81	1.8500579e-06
232	0x33d8fa37	1.01037976e-07
233	0x35865a10	1.000999e-06
234	0x35aac400	1.272303e-06
235	0x34e481f5	4.2562866e-07
236	0x34fa3662	4.6605697e-07
237	0x36441103	2.9216178e-06
238	0x36250b33	2.4593435e-06
239	0x33110c03	3.3771368e-08
240	0x320f1e64	8.3306055e-09
241	0x32d0e534	2.4318616e-08
242	0x32a3e05e	1.9077728e-08
243	0x33280e56	3.9128587e-08
244	0x332e3687	4.0562124e-08
245	0x32d06c59	2.4263658e-08
246	0x2d7940b7	1.4168381e-11
247	0x2bc7d436	1.4198701e-12
248	0x33733e31	5.663441e-08
249	0x33640201	5.308721e-08
250	0x3113c8d6	2.1505477e-09
251	0x34883ed1	2.537768e-07
252	0x332b9d4f	3.995711e-08
253	0x355d4e0e	8.24425e-07
254	0x35939cef	1.0998027e-06
255	0x333e28ee	4.4275048e-08
