RefAgent/BC-CAB-256128/checkpoints/agent_3200.pt (torch, 488547 bytes, 18 tensors)

net.0.weight f4 [256, 23]
000000 26 1a 72 bd 31 7c 02 bd ad 49 e1 bd ac b2 ef 3b
       -0.05910697 -0.03185672 -0.11000381 0.0073150005
000010 3c 5b 91 bc dd 2a 67 bc a5 9c 12 bd 9c 52 9f bc
       -0.0177437 -0.0141093405 -0.03579392 -0.01944857
000020 10 86 87 bb 72 34 50 be f8 14 b2 be b1 f0 0a bf
       -0.0041358545 -0.20332506 -0.34781623 -0.54273516
000030 14 87 fe 3d e0 54 3d 3d db 64 fb bd a7 8a 1a bd
       0.12428108 0.04622352 -0.12275096 -0.037729885
000040 8b b2 9d be 25 a5 30 c0 f8 ca b9 3e 16 25 d1 3c
       -0.3080028 -2.7600796 0.36287665 0.02553038
000050 b2 71 96 3f 32 e5 4e 3e 8a 23 06 3e c4 64 b9 3b
       1.1753447 0.20204619 0.13099495 0.005657764
000060 73 fa 5a be 6a 96 9f 3d 8f a9 37 bd 5a d0 80 3d
       -0.21384601 0.07792361 -0.044839438 0.0628974
000070 57 af 9a bd a5 0b 97 bc d5 e1 51 bc 49 0e f2 bb
       -0.07552975 -0.01843817 -0.01281019 -0.007386957
000080 6d a1 07 3c 85 1c 3c bf 63 e5 70 be 38 a7 6a 3e
       0.008278233 -0.7348102 -0.23525004 0.22915351
000090 4f af 83 3d 62 b3 83 be af f9 94 bd 36 de 08 3e
       0.06429922 -0.25722796 -0.07274186 0.13366017
0000a0 a3 d0 b4 3d 0c e6 c1 3d a2 eb b8 be 60 a7 8d 3e
       0.08828857 0.09467706 -0.36117274 0.2766676
0000b0 36 46 2a 3e c0 4f 31 bd 62 6b d3 3d 90 07 1a bc
       0.16628346 -0.043288946 0.10323216 -0.009401217
0000c0 eb 90 1d 3d 68 da e6 3c 9d 12 38 bc ba 5f bf 3d
       0.038468283 0.028180316 -0.0112349065 0.0934443
0000d0 1c c8 1d 3e 75 7d 50 bd 0c 2e a8 bb 44 0f e3 bb
       0.15408367 -0.050900895 -0.0051324423 -0.00692931
0000e0 c6 35 c0 3e 46 62 c7 3e a7 64 a3 be 7e 6d 09 3d
       0.37541026 0.38942164 -0.3191273 0.033551686
0000f0 13 21 10 3e 94 ba 69 3e 90 5d db be b1 0d f4 3c
       0.14075117 0.2282508 -0.4284482 0.029791685
000100 05 38 b3 bd d4 2d 0e be 64 08 aa be 54 e5 ac 3b
       -0.08750919 -0.1388467 -0.33209527 0.0052763615
000110 18 60 d9 bd 34 5e 59 3d 32 c6 9d bc 2e 25 e9 bd
       -0.106140316 0.053068355 -0.019259546 -0.113840446
000120 6e 23 58 3c 52 2d ae 3c 23 a2 f3 3c 1c 1a 07 3d
       0.013192041 0.021261845 0.029740399 0.032983884
000130 fb 18 ba bc 0c 85 19 bc 76 8e 0b 3a f8 07 84 be
       -0.02271699 -0.0093701 0.00053236575 -0.2578733
000140 a5 f5 bc be 5c 9f 0e 3e 12 e4 95 3c 38 10 3d bc
       -0.36906162 0.13927978 0.018297229 -0.011539511
000150 ff 43 dd 3c 19 40 a4 be f7 3f 53 c0 a7 d1 c2 3e
       0.027009962 -0.32080153 -3.300779 0.38050577
000160 3f 78 9e 3e 2f bb 65 3f d8 0b 2e 3e 0b b3 97 3d
       0.30951115 0.89738744 0.16996706 0.074071966
000170 cb 50 3b bd 18 48 d0 bd c1 bf df ba 9c 03 15 be
       -0.045731347 -0.10170001 -0.0017070697 -0.14552158
000180 ca b8 b6 3c 01 db 2c bd 6a ce f2 3c bc 3a b5 bc
       0.022304911 -0.042201046 0.029639442 -0.022122733
000190 40 62 aa bd 48 fc c7 bd da d1 c7 3e be fc 46 3e
       -0.08319521 -0.09764916 0.39027292 0.19432351
0001a0 d4 a0 13 be 39 bb 2f be 55 cd 4e 3e 5c 01 40 bd
       -0.1441682 -0.17161264 0.20195515 -0.046876296
0001b0 8f fe cd bc ca 5b d2 bf 39 6a 4d be 40 4e 53 3e
       -0.025145797 -1.6434262 -0.20060052 0.20635319
0001c0 33 69 cb 3d f6 e7 d4 bc 29 01 4b bd f7 e0 10 be
       0.099321745 -0.025989514 -0.049561653 -0.14148317
0001d0 d0 3c c6 bc c2 de 15 bc f2 45 41 bd 15 a7 6e bd
       -0.02419892 -0.009147348 -0.047185846 -0.05826481
0001e0 ac e1 89 bd 03 5f 2c be f8 7e 69 3c 6d 38 24 3b
       -0.067324966 -0.16833119 0.014251463 0.0025058046
0001f0 a0 7e 2d be 1a 9b 8c 3d d0 d0 8d bd 74 6b 92 be
       -0.16942835 0.06865521 -0.069245934 -0.28597605
000200 cf 29 af bd 52 fa 52 be bf 8c 99 be f7 b8 82 be
       -0.08552896 -0.20603302 -0.29990193 -0.25531742
000210 7c 94 40 3e 23 74 0b be 64 c1 38 be a4 a6 e5 3e
       0.18806642 -0.13618521 -0.18042523 0.448537
000220 df d4 84 3d a1 aa 06 bc 73 4f 42 3b 48 2d 38 bd
       0.064859144 -0.008219392 0.0029649406 -0.04496506
000230 8c ba 77 bc 3a a9 97 bd 96 6b 1e bd c8 7f 70 bc
       -0.01512016 -0.07405324 -0.03867682 -0.014678903
000240 22 af 39 bd 29 0c 31 3d 21 a8 78 bc 6d 62 80 3d
       -0.045333035 0.043224487 -0.015176804 0.06268773
000250 58 e9 05 3f a1 e6 59 3e ba 16 58 be 17 ff 82 be
       0.5230918 0.21279384 -0.2110242 -0.25585243
000260 49 a3 47 3e ea 23 89 be 71 2c d1 3d 39 8f b3 bf
       0.19495882 -0.26785213 0.10213555 -1.4028083
000270 b0 fe e4 bd 6f 93 f0 3e f2 ed 18 3e 3b 22 b1 bd
       -0.1118139 0.46987483 0.14934519 -0.08649107
000280 9a 57 a2 bc 0f fe f5 3d ea 33 7f bd 20 b5 8b bc
       -0.019817162 0.120113485 -0.06230537 -0.01705414
000290 6b ba c3 3c 28 e1 f7 3d e6 10 c0 3d 82 e2 b2 3d
       0.023892602 0.12103492 0.09378223 0.08734609
0002a0 b8 bd 3e bc 26 8e a9 bb ff f3 5e 3e 7b ba eb 3e
       -0.011641912 -0.005174416 0.21772765 0.4604071
0002b0 c7 47 51 3e c8 68 dd 3c 1d 0d a2 3d 8b 18 ad 3e
       0.20437537 0.027027503 0.079126574 0.33807787
0002c0 58 04 bd 3e 79 89 8b 3f 85 57 2a 3e 00 d6 ed bd
       0.36917377 1.0901328 0.16634949 -0.11613083
0002d0 1b d0 8b 3e c1 57 47 be bf 60 43 be 25 55 98 bd
       0.2730721 -0.19467069 -0.19079874 -0.07438115
0002e0 60 39 9c bd b8 3e 8d 3e d5 2b 8e bd af 27 4a 3d
       -0.07628131 0.27586913 -0.06941954 0.04935425
0002f0 82 60 90 bd ed 71 2e 3d 94 18 06 bd bd 00 97 bb
       -0.070496574 0.042589117 -0.032738283 -0.0046082423
000300 57 6e ef 3b 06 34 da bd 1b b3 22 3f 5b 4b c1 3d
       0.0073068547 -0.10654454 0.63554543 0.09438201
000310 a6 27 2f be 32 4e 48 bd 58 59 4e 3e 49 13 6a 3d
       -0.17104968 -0.048902698 0.2015127 0.057147298
000320 2a 12 2f 3d e0 5d 54 bf 2e b1 0e 3d 6b f4 71 3e
       0.042741932 -0.8295574 0.03483694 0.23628394
000330 10 63 d1 bc 2b 38 d2 bd 05 1e 6e 3d 5e a7 db bc
       -0.025559932 -0.102646194 0.058134098 -0.026813205
000340 de a5 88 3c 3d 0a 03 3b 03 c5 dd 3c f4 f1 8f 3c
       0.016680654 0.0019995116 0.027071482 0.017571427
000350 de 06 4d 3b 6c 71 db bd fc 8c d9 3d 57 37 fc 3c
       0.003128461 -0.10714993 0.10622594 0.030788107
000360 c8 b4 99 3d 81 c1 d3 bc 7f 34 0d 3c 34 31 af 3e
       0.075051844 -0.025849106 0.008618473 0.34217227
000370 d1 17 fc bd c7 89 b3 bd 30 57 6c be aa 31 3b 3e
       -0.1230923 -0.08766513 -0.23080134 0.18280664
000380 96 b7 0f 3e 38 d8 83 bc b1 17 80 3e 65 0a af be
       0.14034876 -0.016094312 0.25018075 -0.34187618
000390 78 29 be bd 52 b4 1e 3e d6 c8 5f bc bb ea 9d 3b
       -0.09285253 0.15498474 -0.013658723 0.004819242
0003a0 f2 d4 b9 bd 50 bb 0c be da 7c 3d bd 52 3d 40 bd
       -0.09073819 -0.13743329 -0.046261646 -0.04693348
0003b0 d6 35 fa bd d7 85 01 3d cf 02 d2 3c da 45 f6 3d
       -0.122173 0.03162178 0.025636105 0.12025042
0003c0 95 90 0a 3d d8 f5 d7 bd db 81 e9 be 25 5d d7 bb
       0.03382929 -0.10544938 -0.45606884 -0.006572383
0003d0 a2 37 da bd e3 7f 2d bd bf 44 6b 3d 62 94 8c bf
       -0.10655142 -0.04235829 0.05743861 -1.0982783
0003e0 3e 81 97 be 1c 5d e8 3e 54 8b 9b 3f 4e b2 25 be
       -0.2959079 0.45383537 1.2151895 -0.16181299
0003f0 5d ae d6 bd b9 8c 16 3e 3f 1d c5 3d d0 67 48 3e
       -0.10482476 0.14702119 0.09624719 0.19570851

net.0.bias f4 [256]
000000 3d bb c7 3b 6c 85 e7 bd 41 8d 20 bd 2a bd 52 bd
       0.0060953186 -0.11304745 -0.03919721 -0.051449932
000010 5f af cb bd ef bc c4 3c 7f 44 1e be b0 b9 36 bd
       -0.09945559 0.024015872 -0.15455817 -0.04461068
000020 52 1c 7f 3e d7 ec 3f bd 8b 4e 20 be 2d be 80 3a
       0.24913147 -0.046856727 -0.15654962 0.0009822302
000030 5e 78 2f be 08 af 87 3d 0c 7b 96 bc 5b c0 94 3d
       -0.1713576 0.066251814 -0.01836922 0.072632514
000040 34 b7 bf 3d 19 e9 15 be 31 dd 7a 3c ec 21 95 bd
       0.09361115 -0.14639701 0.015311525 -0.07281861
000050 33 be 48 3e f5 69 51 be dd 47 9b bd e0 27 ee bd
       0.19603805 -0.20450576 -0.07582066 -0.11628699
000060 cf 58 cb 3b 05 12 8e bc b0 ac 7c bd e5 2f 57 be
       0.006205655 -0.017342577 -0.061688125 -0.21014364
000070 44 63 8c be 28 ac 74 3d de 04 8d bd b7 7c 3a 3c
       -0.27419484 0.059734493 -0.06885694 0.011382273
000080 83 9d 44 3d a4 21 be bd 9b 9f 9a 3a 34 c4 bc 3d
       0.048001777 -0.0928376 0.0011796834 0.0921711
000090 1b 13 6a 3e df e8 4e 3d 6f 66 3d bc 4c b2 ef 3d
       0.2285885 0.050515052 -0.011560067 0.11703929
0000a0 15 bf 13 3d 12 5d 7e 3c c0 bf be 3d dd 61 94 bd
       0.036070902 0.015525119 0.09313917 -0.072452284
0000b0 98 64 97 bd 52 c0 ee 3c 9a 0b 92 bd 29 bf 80 3c
       -0.073922336 0.02914444 -0.07131119 0.015716152
0000c0 4d e5 68 be 18 7e 3f bd a4 6e d4 3d 5a 1c fd bc
       -0.22743721 -0.04675111 0.103726655 -0.030897308
0000d0 20 87 c1 3d 00 7c 69 be 01 a1 f9 3d 22 41 88 bd
       0.09449601 -0.22801208 0.12188912 -0.06653048
0000e0 0c ea 5b 3e d1 c3 69 be 2a 97 2a 3c bf 01 98 3e
       0.21476 -0.22828604 0.010412017 0.29688832
0000f0 8f c9 89 bb 8e 8a 71 3b fd 03 ff bc d7 43 e2 bc
       -0.004204936 0.0036856267 -0.031129831 -0.02762024
000100 9e a0 47 3d e4 e5 9d 3d b5 0b 18 3d a7 5d 34 ba
       0.04873716 0.07709864 0.03712054 -0.00068804104
000110 75 17 23 3e 6b 1d 10 3d 9c d6 36 3d d3 92 82 3d
       0.15926917 0.035184305 0.04463826 0.06375661
000120 a3 fc 8a 3d aa 28 e3 bd 67 04 b3 bc ba 78 18 3d
       0.06786468 -0.110917404 -0.021852685 0.03722451
000130 11 f2 2c bd 36 55 cf bc 12 ba e4 bd 5f dd 02 3e
       -0.04222304 -0.025309186 -0.111683026 0.12779759
000140 6d f3 4b 3d 75 45 80 3c 91 a5 f8 3b 27 f1 69 bc
       0.049792696 0.01565812 0.0075880964 -0.014278687
000150 3e a4 05 be c0 ec b2 3d ab 67 2b 3e 00 c2 18 bd
       -0.13050935 0.08736563 0.16738765 -0.037294388
000160 a8 f2 0f be a7 84 ba 3d 7f 35 ac 3c 88 0a c8 3d
       -0.1405741 0.09107333 0.021021603 0.09767634
000170 22 4b 5b 3d 16 fc ec 3d ee ef d2 bd 32 6b e6 3c
       0.05353845 0.11571519 -0.10299669 0.028127287
000180 36 05 92 3d c0 fb 5b 3c bf c0 64 3c f3 79 88 bd
       0.071299 0.013426721 0.01396197 -0.06663885
000190 db 4b 19 be 5d b0 1a 3e e9 96 84 3d d8 af 86 bd
       -0.14970343 0.1510634 0.06474096 -0.06576508
0001a0 39 52 9e bc a4 59 ac 3d 35 54 16 be 18 8b 5f bd
       -0.019326316 0.08415535 -0.1468056 -0.05457601
0001b0 c6 a5 ae 3d 02 d9 e4 bd 30 e8 df bd 91 d9 25 bd
       0.085277125 -0.111742035 -0.10932958 -0.04049069
0001c0 0e 25 b9 3d 3c ac a5 bd 73 50 e1 bc 1f 35 f6 bc
       0.09040271 -0.08089492 -0.027504181 -0.030054627
0001d0 7a 3e e0 bd 08 bd b7 bd 05 0a 82 3d ba 7f 65 3c
       -0.109494165 -0.08971602 0.06349567 0.014007503
0001e0 a8 d1 a5 3d 92 69 58 3e 29 ea b9 bd 68 fd 89 3d
       0.080966294 0.21134022 -0.09077866 0.067377865
0001f0 7a 72 99 bc 46 57 6c bd b6 7a 9f bd e7 5d 7a 3d
       -0.018731344 -0.057700418 -0.07787077 0.06112471
000200 9f 6c 2f 3c 8e 9a cb 3c 66 91 3e 3c 6a 0d e4 3d
       0.01070705 0.02485397 0.011631345 0.11135371
000210 9e 9b 54 3d 53 90 91 3d dd fe 79 3d 4f 7c 36 3c
       0.05190622 0.07107606 0.061034072 0.011138036
000220 c7 4d 36 be 0e 16 13 3d 34 6b 28 bc 78 5e 0d 3d
       -0.17803107 0.035909705 -0.0102794655 0.03451392
000230 07 5b 93 bb 88 16 c1 3d 89 bb 82 3d de b8 58 bc
       -0.0044969353 0.094281256 0.06383426 -0.0132276695
000240 ac ed da bd f2 04 3c bd 5a 29 63 3e 86 bf 8e 3c
       -0.106898636 -0.045903154 0.22183743 0.01742531
000250 9b 0e 67 3e 9d 75 cb 3d a7 4d 3a 3d 7a df 73 3d
       0.22564165 0.09934542 0.04548421 0.059539296
000260 e7 eb fd 3c 48 80 9e bd 4f dc 86 3c 75 d8 fd 3c
       0.030996276 -0.077393115 0.016462473 0.030987004
000270 e2 d4 9d 3d 2f d1 dc bd d3 5b 01 3e 97 d8 d5 3d
       0.0770662 -0.10782086 0.12632684 0.10441702
000280 cc b1 99 bd f4 73 80 3d e8 60 95 3d f6 75 44 be
       -0.07504615 0.06272116 0.07293874 -0.19185624
000290 20 b4 5f bc 91 49 97 bd ae 79 35 bd 7e 30 e0 bd
       -0.013653785 -0.073870786 -0.044305496 -0.10946749
0002a0 5d 3e 15 bd a9 aa cf bd 8d f8 ca 3d 60 b4 c0 bc
       -0.036436427 -0.10139973 0.099106885 -0.02352351
0002b0 a7 21 4f 3e 47 b3 79 3c be ed 4e bc e2 62 bb bc
       0.20227681 0.015240497 -0.012629924 -0.0228743
0002c0 b8 d2 4f bd 10 bc e3 3d f4 70 9b 3d c1 a2 ea 3b
       -0.050738066 0.111198545 0.075899035 0.007160515
0002d0 68 ad 74 3e a7 f4 c4 3d 35 2f 95 bd dd 55 a7 bd
       0.23894274 0.09616976 -0.07284395 -0.08170674
0002e0 5f 12 27 3d 67 f8 da bd 3f 87 e6 bd 9c ba 31 3c
       0.040789004 -0.1069191 -0.11256265 0.010847714
0002f0 8d 11 39 3d cd a3 58 be b6 bd d3 bb 2a 38 7a bc
       0.045182753 -0.21156235 -0.0064618243 -0.01527218
000300 d1 ab a0 3d a7 40 a7 3d 74 f3 1e be f1 96 ad bd
       0.078452714 0.08166628 -0.15522557 -0.084760554
000310 48 95 01 be 46 00 13 3c dd 77 9a 3d 3f 42 97 bc
       -0.12654603 0.008972233 0.07542393 -0.018464206
000320 8a 6c e4 bc e6 7c 0c 3e 42 06 95 3d 0f 44 9e bd
       -0.027883787 0.1371952 0.07276584 -0.07727825
000330 e0 48 b3 bd 44 54 03 3e 36 fc 3b 3e ab 6f 86 bc
       -0.08754134 0.12825114 0.1835793 -0.01641067
000340 f7 cb be 3c ad a3 d2 bc 20 06 84 3d c4 25 6f bd
       0.023290617 -0.025712812 0.06446481 -0.058385625
000350 48 2e 0c 3d 89 84 1c 3d 9d 22 9c bd 1e 26 2f 3c
       0.034223825 0.038212333 -0.076237895 0.01069024
000360 7c 8b 7d bd d6 b1 bf bd c8 17 aa ba 4d 2c 1e 3d
       -0.0619006 -0.093600914 -0.0012977058 0.038616467
000370 5c 32 27 bd c4 8b b4 bd 2e a8 3c 3d 42 f6 d4 bc
       -0.04081951 -0.08815721 0.046058826 -0.025996331
000380 73 11 0e bd 9c 03 0c bc 5f 4a 51 be 8b 42 3b 3d
       -0.03468461 -0.008545782 -0.20438527 0.045717757
000390 52 69 cb 3a 6c 9f 06 3c 1b 4e 9a 3c 0d 5e d2 3d
       0.0015519059 0.00821672 0.018836072 0.10271845
0003a0 d0 4e 94 3d b1 1b c2 bd ec 0f 47 be 93 02 5d 3d
       0.07241595 -0.09477938 -0.19439667 0.053957533
0003b0 53 35 c6 3b 6f 6f 50 3d 79 00 24 3e 07 f3 2e be
       0.006048837 0.05088752 0.16015805 -0.17084895
0003c0 37 af bb 3c de 70 4b 3c b4 c8 3b bd d7 12 0c bd
       0.022910697 0.012417046 -0.045845702 -0.034197655
0003d0 d8 42 77 bc 25 c1 a6 3c f8 58 26 be db 7f 0c be
       -0.01509162 0.02035577 -0.16244876 -0.13720648
0003e0 fc 02 2a bd 37 7d e2 bd c4 93 b0 3d 44 ad 59 3d
       -0.041506752 -0.11059039 0.08621934 0.053143755
0003f0 28 5b 76 3d 46 46 a6 3d e8 22 53 bc 0c f3 38 3e
       0.060145527 0.08118872 -0.01288674 0.18061465

net.3.weight f4 [128, 256]
000000 cf a8 a7 bc 99 4e 33 3d 5e ab c3 3d 06 49 ed bb
       -0.020466236 0.04377613 0.0955417 -0.007241371
000010 45 5b 9c 3d e9 d7 a5 3d 1b 18 56 bd 82 e7 4b 3c
       0.07634596 0.08097822 -0.052269083 0.0124453325
000020 b7 38 10 be ce 48 fe bc f2 45 84 be 80 7c 36 bd
       -0.14084135 -0.031040575 -0.25834614 -0.044552326
000030 12 f7 d6 bb 11 ba 90 bd 1b b6 91 3c da e3 8e bd
       -0.006560215 -0.07066739 0.01778703 -0.06977053
000040 96 ae 51 bc 83 53 b9 be 2e af d6 bc b5 1f d8 bc
       -0.012797972 -0.36196527 -0.026206579 -0.026382307
000050 e0 c3 aa bd 68 ac a4 bc 14 00 ff 3b b0 47 71 3d
       -0.083381414 -0.020101741 0.0077819917 0.058906257
000060 0a 6b 26 bc 23 ff 5e 3c 07 64 1c bd 40 3b b1 be
       -0.010157356 0.013610634 -0.03818133 -0.34615517
000070 53 aa e6 bd 4a 3a 3b 3e aa 39 d0 bd fb 9d 09 be
       -0.112629555 0.18283954 -0.101672485 -0.13439171
000080 1b 61 00 bd 6a 89 dd 3c 67 2a 14 bd ac 16 99 3c
       -0.031342607 0.027043063 -0.03617325 0.018687569
000090 78 81 26 bc a7 59 38 3d 44 68 82 3d 55 ac 48 3c
       -0.010162704 0.045007374 0.06367543 0.012248118
0000a0 64 fa 46 3d 53 48 80 3d 80 f8 f9 3e 24 6b 37 3e
       0.048578635 0.06263795 0.48822403 0.17911965
0000b0 e0 3f 79 3d 04 14 23 3e e9 7f 7f 3d 7b 53 f2 bc
       0.06085193 0.15925604 0.062377844 -0.029580822
0000c0 18 de 20 be 64 e2 fc 3b 17 33 bc 3c 98 30 26 3d
       -0.15709722 0.0077174176 0.02297358 0.040573686
0000d0 0a ef 57 bd ca 1a 5a be 39 f6 a5 bb 65 30 4b bd
       -0.0527182 -0.21299282 -0.0050647524 -0.0496067
0000e0 19 a3 95 3d ef 60 26 be 89 0c 62 bd 25 a6 9a bd
       0.07306499 -0.16247915 -0.055187736 -0.07551221
0000f0 11 9a d7 3b 6f ab e7 3c 0f b1 55 3c 92 c5 2a bb
       0.0065796454 0.028279988 0.013042702 -0.0026057702
000100 c4 bc 18 3d 50 86 36 3d 0a 2b 0e 3d 08 b4 82 bc
       0.037289396 0.044561684 0.034709014 -0.015954986
000110 56 2b c9 bd f8 79 31 bd 7b 84 a3 3d d1 92 c4 3e
       -0.09822719 -0.04332921 0.07984253 0.38393262
000120 fa b1 ec 3c 63 c0 a0 bc 2a a5 46 be 91 55 12 bd
       0.02889346 -0.019622987 -0.19398943 -0.035726134
000130 20 73 17 3d e7 bb 82 bc b3 54 62 3d 6f f2 61 3e
       0.036975026 -0.01595874 0.055256557 0.22065137
000140 7e 0c ef 39 ab 31 9a 3b e9 04 b5 bd 42 83 1a 3b
       0.0004559494 0.004705628 -0.08838827 0.002357677
000150 92 b9 87 bd 85 2b 89 3b 23 5a 9e bd de 67 51 bd
       -0.066271916 0.004186096 -0.07732036 -0.051124446
000160 a4 ca 97 be 54 12 cb bc 7a a9 ad 3c f8 11 af bd
       -0.2964679 -0.024789013 0.021198977 -0.08548349
000170 f3 f6 96 3b 70 e9 97 bd 01 5f 39 3d 58 ab 8e be
       0.0046070754 -0.074175715 0.04525662 -0.278651
000180 a3 91 3a bd 64 be 22 bc 4f 01 e1 3c 51 c2 45 3d
       -0.045549046 -0.009933088 0.027466444 0.048281018
000190 c2 ae fc 3c 18 eb 14 3d 2d 7c b6 3c da aa 9e bd
       0.03084505 0.036357015 0.022276009 -0.07747431
0001a0 23 5b a5 bd 7c c3 d7 bd e0 4e a9 bd ff c5 0b 3d
       -0.080740236 -0.105353326 -0.08266997 0.03412437
0001b0 cd 99 d7 3c 82 86 a9 bc 9f 80 59 3c 08 72 a8 bd
       0.026318455 -0.020694021 0.013275295 -0.08224875
0001c0 b7 ee 1c 3c e9 e1 8b 3c c1 56 44 3c be b9 76 be
       0.009578398 0.017075496 0.011983574 -0.24094293
0001d0 07 01 4e bd 1f d1 96 bd 84 a4 d6 3b 7b f7 c8 bb
       -0.05029395 -0.073641054 0.0065503735 -0.0061330176
0001e0 73 8e 2a bd e1 7d db 3d 7a 33 0d bd df e8 ad bc
       -0.041639756 0.10717369 -0.03447292 -0.021229206
0001f0 6b 99 01 3e 13 8d e0 be d8 f0 c1 bc c5 16 8b bd
       0.1265618 -0.4385763 -0.023674414 -0.06791452
000200 ac 27 47 bd 63 8b d1 bc b6 75 e4 bd c7 87 30 bd
       -0.04862182 -0.02557916 -0.11155264 -0.043098237
000210 0e 06 69 bd 9b a6 11 bc 0e 81 cf bd 07 11 ec 3b
       -0.05689054 -0.0088898195 -0.10132037 0.0072041783
000220 1f eb ed bc fc f0 59 bd e9 5e bc bc d2 b4 00 3e
       -0.029042779 -0.053208336 -0.022994475 0.12568977
000230 06 ae 78 3d 54 46 67 bb b6 bc e0 3d c1 ce a3 3d
       0.060712837 -0.0035289722 0.10973494 0.079984196
000240 a2 d5 d1 bc 55 c0 13 bd 21 6b 98 ba 08 b6 39 bc
       -0.025614563 -0.036072094 -0.0011628607 -0.011334904
000250 1d 3a 23 bd 46 ac e3 bc c2 71 3b 3c 21 49 a1 bd
       -0.039850343 -0.027792107 0.011440696 -0.07875276
000260 35 61 8a 3d a3 69 29 3d 88 36 2e bc 44 11 3a bd
       0.06756822 0.04136051 -0.010633118 -0.045426622
000270 df 53 ab 3c df 25 a5 bd 0b b8 27 bd 87 59 9f bc
       0.020914016 -0.08063864 -0.040947 -0.01945187
000280 3b 8f ba bd e7 71 07 be 46 8d e7 3d 26 e5 2d bd
       -0.0910935 -0.13227044 0.11306243 -0.04245486
000290 e5 8c 29 3d 22 b5 ad bd 87 3f ad bd 67 c5 cd bb
       0.041394133 -0.08481814 -0.084593825 -0.0062796357
0002a0 e0 47 81 bd 53 05 d3 bc 35 1a 32 bd 4d 96 3a bd
       -0.06312537 -0.025759375 -0.043482024 -0.045553494
0002b0 76 1c b0 bd 5c 54 31 3e 12 d5 e5 bc 67 7a 89 bd
       -0.085991785 0.17317337 -0.028055701 -0.067127995
0002c0 33 d7 ed 3b c8 c0 91 bc 54 a1 0d bd 1d 88 78 bd
       0.0072583198 -0.01779212 -0.034577683 -0.060676683
0002d0 4a 8f 19 bc 43 de c2 be af df f3 3d a3 e8 a3 bd
       -0.009372542 -0.38060197 0.11907899 -0.08003356
0002e0 b6 67 0f 3d ae 19 89 3d 6d 55 19 be 93 0f 89 bd
       0.035011016 0.06694351 -0.14973994 -0.06692424
0002f0 b2 f6 33 bc e9 07 34 bd 1d 06 f6 3c 4e 90 12 3d
       -0.01098411 -0.043952856 0.030032212 0.03578215
000300 d9 17 ba bc 1f 08 8b bd 6f 5d 7b bd 8b f9 39 3d
       -0.02271645 -0.06788658 -0.061368402 0.045404
000310 cc a4 2d bc b9 b8 32 3e b0 e2 bd bd 0f cd 91 3e
       -0.010598373 0.17453279 -0.09271753 0.2847676
000320 d7 a3 5d 3d 76 b3 6c bd 80 fb 4d bd 95 58 07 bd
       0.054111328 -0.057788335 -0.050288677 -0.033043463
000330 5c 71 30 3d 77 53 95 bd 40 50 02 be 06 fb 05 3e
       0.043076858 -0.0729131 -0.12725925 0.13084039
000340 d2 66 a7 bc 90 e8 13 3c ab a7 a9 bd cf 7a 18 bc
       -0.02043477 0.009027615 -0.08283933 -0.009306624
000350 4c 28 a4 bc fa 03 9d bc 6c 79 40 3d 2e 7b c2 bc
       -0.020038746 -0.019166935 0.046990797 -0.023740377
000360 05 4a 92 bc 51 25 66 3b 63 56 f0 3b 4b 16 2c bd
       -0.01785756 0.0035117457 0.007334517 -0.042013448
000370 e4 16 4c 3b b4 3c ef 3d 79 f7 8f 3c 7a 5c 95 bd
       0.0031141574 0.116815 0.017574059 -0.07293029
000380 84 ea ce bc a1 68 99 3d 86 d0 70 bd ad 0c 6b 3d
       -0.02525831 0.074906595 -0.058792613 0.057385135
000390 19 f1 dc bd cc 5d 83 3a 56 95 c7 3d a1 db 45 bd
       -0.10788173 0.001002246 0.097452804 -0.048305158
0003a0 e3 13 2b 3c 9e be 35 3d 7e 17 ec bc 66 bd 80 3d
       0.010441753 0.04437124 -0.028819796 0.06286125
0003b0 b5 99 bd bb 7e e7 0d 3d b7 a4 70 3d a0 40 05 3d
       -0.0057861456 0.034644596 0.058750834 0.032532334
0003c0 1b 43 cf 3d 65 fb 8b bc 9b e6 e3 3d 90 15 2d bd
       0.10120221 -0.017087648 0.11127969 -0.04225689
0003d0 18 e1 29 bd 09 f4 a3 3d 7c 70 81 bc 60 e5 e5 bd
       -0.04147443 0.080055304 -0.015800707 -0.112253904
0003e0 60 98 b6 3b 45 6f 0b 3d 28 56 94 bc 93 f0 a1 bc
       0.0055723637 0.03404166 -0.018107489 -0.019768035
0003f0 91 bf 51 bd 8f 79 54 bc 23 b7 58 3d e2 fc 60 bc
       -0.051208083 -0.012968435 0.052909028 -0.013732167

net.3.bias f4 [128]
000000 51 20 81 ba ce 0d 0e bc 06 08 30 3b 43 12 59 bc
       -0.000985155 -0.0086702835 0.002686025 -0.013248983
000010 0e ed 9b bc c8 a2 62 bc d8 0f c3 bb 75 07 85 bb
       -0.019033935 -0.013832755 -0.0059528165 -0.004059727
000020 61 69 8e 3b fa a6 14 bc 92 26 7a bb 04 3d 0e bc
       0.0043460582 -0.009073013 -0.0038169962 -0.008681539
000030 2d de 49 bc 3e 6d 36 bb 10 1d 96 bb dd 8a c4 bb
       -0.012321037 -0.002783611 -0.0045811012 -0.005997999
000040 35 93 6f bb 18 13 c3 bb 19 91 cc bb 3a b3 96 bb
       -0.0036556248 -0.005953204 -0.006242883 -0.004599002
000050 45 ac 21 bc fb d2 8d bc 03 00 92 bc de 76 39 bc
       -0.009867732 -0.017312517 -0.017822271 -0.011319844
000060 f2 fa 2a 3a 9c 1c 6f bc a7 c6 59 bc 9c 39 c4 bc
       0.0006522379 -0.014594223 -0.013291991 -0.023953252
000070 7a c4 6f bb 7d d7 75 3c f6 5c 04 bc ae 23 31 3c
       -0.0036585615 0.01500499 -0.008078804 0.010811729
000080 c1 f1 29 bc 1a b2 43 bc 59 57 c7 bb b0 bc 1d 3c
       -0.01037258 -0.011944318 -0.0060834107 0.009627506
000090 84 bb 2f bb bd 9c 90 bc 75 eb 67 bc 09 42 ec 3a
       -0.002681465 -0.017652864 -0.014155258 0.0018025051
0000a0 63 a6 d2 3b 04 8e f6 3a 34 56 6c 3a 75 10 ae 3b
       0.0064285262 0.0018810635 0.0009015531 0.0053120204
0000b0 f2 0e 46 bc 24 e0 19 bc 0d 63 21 bc 87 71 d8 3b
       -0.012088524 -0.009391818 -0.009850276 0.0066053304
0000c0 a2 22 48 bc 99 3c 9a bb 72 e2 0f bc 76 81 61 3c
       -0.012215288 -0.004706931 -0.008782016 0.013763776
0000d0 4a dc b8 3a 57 7d 83 bc bb 13 dc 3a 27 ee 1f bc
       0.0014103737 -0.016050978 0.0016790548 -0.00976137
0000e0 9a e3 0d bc 11 76 c5 3b 6e 69 cc 3a 95 85 45 bb
       -0.0086602215 0.0060260375 0.0015595385 -0.0030139436
0000f0 32 b1 5e bb 6e 76 8a ba e1 57 59 3b e7 74 84 bb
       -0.0033980128 -0.0010563859 0.0033163952 -0.004042256
000100 90 f1 96 3b fa 59 30 bc 86 42 9c bc fd b2 b5 bb
       0.004606433 -0.01076364 -0.01907469 -0.0055450187
000110 2f a6 97 bc 03 98 80 bc 0b 86 13 3b d9 9a 91 bc
       -0.01851186 -0.015697485 0.0022510316 -0.017774032
000120 17 e8 87 39 7e 68 6a bc 23 ca ed bb 5e 03 98 bc
       0.00025922127 -0.014307139 -0.0072567626 -0.018556293
000130 3d 30 e2 ba 26 58 32 3c c6 4a 17 bb 7f e0 a1 bb
       -0.0017256808 0.010885274 -0.002308534 -0.004940092
000140 7c d5 ea 3a eb d4 c8 bb 4f 34 fb bb 26 5a 6e bc
       0.0017916407 -0.0061288974 -0.007666148 -0.01454786
000150 ee e2 95 bb be d8 1e bc 00 3e 6e bc fd 82 f7 3a
       -0.0045741713 -0.00969523 -0.014541149 0.0018883642
000160 66 db 5e bc 17 f2 3e bc 6b ed 8e bb 44 af 08 bc
       -0.013602113 -0.011654398 -0.0043617985 -0.008342568
000170 1c 8c e2 3b be e8 19 bc b7 bf 7a 3c 91 7e 0a bc
       0.006913675 -0.009393869 0.015304497 -0.008453027
000180 c8 aa c5 38 c7 9a 11 bc 51 f6 18 bc e6 58 67 bc
       9.4255025e-05 -0.008886999 -0.00933607 -0.014120316
000190 04 97 8a 3b 1f 41 07 bc 02 50 c5 3a 71 90 0d 3c
       0.0042294282 -0.008255272 0.0015053751 0.008640395
0001a0 b3 47 78 bb 6a 04 52 bc f5 42 42 bc b0 c0 64 bc
       -0.0037884533 -0.012818435 -0.011856784 -0.013961956
0001b0 f4 73 36 bc 09 6f 57 3b ae 3f 0d bb fa 9f a7 3c
       -0.011136044 0.0032872579 -0.0021552849 0.020462025
0001c0 3d 46 08 bc a6 0c c5 3b 6d b5 da 3b 59 82 a0 bb
       -0.008317527 0.0060134707 0.0066744597 -0.004898351
0001d0 6b 30 77 bc 91 5e 8f bc a8 6e 17 bc a2 89 9e bb
       -0.015087227 -0.017501147 -0.009242691 -0.0048381845
0001e0 e9 c8 bf b8 b1 b8 b9 bb 47 33 69 bc 34 05 c0 bb
       -9.145012e-05 -0.005667769 -0.014233417 -0.0058599953
0001f0 36 18 9e bb 8f 39 4f bc ff 3d cc bb d4 b8 fd bb
       -0.0048246635 -0.012648 -0.0062329764 -0.0077429805

net.6.weight f4 [9, 128]
000000 41 da 56 bc e9 60 fa ba b1 02 1d bd 72 d8 80 bc
       -0.013113559 -0.0019102368 -0.038332645 -0.01572821
000010 3e 99 11 3c 13 98 4f bc 71 5d 21 bb 82 54 17 3e
       0.008886633 -0.012670535 -0.0024622346 0.14778331
000020 3f 15 9a 3c 73 9e 0e 3c ae 25 47 bc 1b 54 b2 bc
       0.018808959 0.008704769 -0.01215498 -0.02176862
000030 67 9f d1 bd 74 a9 16 bd e2 60 6c bc 31 93 a9 3c
       -0.10235482 -0.036782697 -0.014427396 0.02070007
000040 e3 21 16 bc 09 a8 d3 3c fd 23 19 3e 80 42 1e 3c
       -0.009163353 0.025836961 0.14955135 0.0096594095
000050 e4 22 04 3d b8 5e 16 bc b9 01 1e 3b df 36 47 3c
       0.032259837 -0.009177856 0.0024109914 0.012159078
000060 29 51 52 bc cf 18 5b 3b ee e9 d6 3c b8 46 7c bd
       -0.012836733 0.0033431535 0.026234593 -0.06159088
000070 94 b8 d8 bc e3 a0 a7 bc 33 ef 18 3e 99 02 fa bc
       -0.026455201 -0.020462459 0.14934997 -0.030518817
000080 7f 74 17 3e 56 0b 8f bc f3 4d 2d bc 22 be db bb
       0.14790533 -0.01746146 -0.010577667 -0.006706015
000090 d8 1e f0 bc 9c b6 8c b9 58 f6 0b 3e fe ad ba bc
       -0.029311582 -0.00026838935 0.13668191 -0.022788044
0000a0 2c 03 d8 bb 42 0d a2 bb 5f 61 74 bb a2 f6 3f 3c
       -0.006592175 -0.004945428 -0.0037289483 0.011716517
0000b0 4d 06 ca 3c 30 dc 38 3c 45 6d 4c bc 91 4a 7b 3c
       0.024661208 0.011282966 -0.012477224 0.015337602
0000c0 5a 68 62 bc 52 f5 10 3e 15 22 39 3d df 29 b6 bb
       -0.013818825 0.14156082 0.04519852 -0.0055591906
0000d0 dc 7e 89 bc 36 5b 16 bc 7d f6 44 3c b6 ca e4 bd
       -0.016784124 -0.00917702 0.012021658 -0.111714765
0000e0 51 48 18 3c 68 3a a7 3c 1d 63 e9 3c 18 4b a7 bc
       0.009294585 0.020413592 0.028489644 -0.02042155
0000f0 61 4f ec ba 76 77 16 bd 22 4f 66 3c 7e 75 ab bc
       -0.0018029028 -0.03673502 0.014056953 -0.020930048
000100 14 a4 22 3c 86 01 3c bd 57 d5 9c 3c a3 cd 0b 3b
       0.009926815 -0.04589989 0.019144697 0.0021332286
000110 43 99 e0 bd 47 26 ed bb 7a 91 42 3c 1c 08 67 bd
       -0.10966732 -0.007237229 0.011875505 -0.056404218
000120 73 9a 84 3c ee 16 49 3c 58 9e 76 bc 48 f8 a8 bd
       0.016186928 0.012273533 -0.0150524005 -0.08250481
000130 9f 0c 17 bd 76 f3 20 3e 17 c1 d9 3c cf 17 c8 bc
       -0.03687727 0.15717873 0.02658133 -0.024425415
000140 57 ca 64 3c 00 06 ec 3c 4b 03 a2 3c 67 d4 91 bd
       0.013964257 0.028811455 0.01977696 -0.07120591
000150 1d 9a 12 3e cc b6 83 3c 2f 1b e6 3c 5e e0 1c bc
       0.14316602 0.016078375 0.028089134 -0.009574978
000160 31 56 55 bc 6a 3c 6d bc db d2 c9 bc 39 92 e6 bb
       -0.013021038 -0.014479736 -0.024636677 -0.007036474
000170 4c a1 d7 bc d2 25 91 3c bd d1 d0 bc 3a d5 b7 3c
       -0.02632203 0.01771823 -0.025490636 0.022440542
000180 6b 3f 29 3d 4b cf 09 3e 65 1a 74 3c ad ff 0e 3e
       0.041320246 0.13457982 0.014898871 0.1396472
000190 92 3d aa b9 20 60 05 bc 6d 81 7d bc 94 d5 05 3c
       -0.000324708 -0.008140594 -0.015472752 0.008168597
0001a0 b9 27 87 bc fc 6d 8c bc 7d 1f 07 3d 19 6c c4 bb
       -0.016498433 -0.017142288 0.032989014 -0.0059943316
0001b0 24 06 e2 3c 6f 6a e1 3c 38 05 1b 3d 80 dd 07 bd
       0.027590819 0.027516572 0.037846774 -0.033170223
0001c0 be 62 3b 3c 23 0b e1 3c 6e 85 cf bc 6a 48 14 3c
       0.011437116 0.02747113 -0.025332179 0.009050468
0001d0 79 42 a1 3c 95 2d dd bc f0 64 8a bd 12 f7 08 3d
       0.019685017 -0.026999274 -0.067575336 0.03343875
0001e0 29 c5 98 bc aa ef 18 3e 1a b4 e6 bd d5 fe 54 3c
       -0.0186487 0.14935175 -0.112648204 0.01300021
0001f0 cf 6f af bc 98 c9 b1 bc cf 6d 1e 3d 5c e0 92 bc
       -0.02141562 -0.021702573 0.03867894 -0.017929249
000200 03 14 14 3b c2 13 da bb b2 02 86 3c 6b 60 de 3a
       0.0022594936 -0.0066551873 0.016358707 0.0016965991
000210 55 4b 29 bc 43 6b 66 bc a7 6a 85 bc 88 ea 52 3c
       -0.010332902 -0.014063659 -0.016286207 0.012873299
000220 80 fa 72 3c 16 0b f1 3d 24 61 90 bd ac f7 0d bd
       0.014830232 0.117696926 -0.07049778 -0.034660026
000230 8f 11 21 bd 02 90 09 be 76 b8 ef bb b1 9a 8b 3d
       -0.039323386 -0.13433841 -0.0073156906 0.068166144
000240 c1 02 08 3e a9 9a d2 bc 61 c8 09 3d 80 24 97 bc
       0.132823 -0.025708513 0.03363836 -0.018450022
000250 89 d2 da bc 0c d9 83 3c ec 68 1b bc d2 bf 01 3d
       -0.02671172 0.016094707 -0.009485465 0.031677075
000260 00 2b 1b 3d b9 d8 de bb db d4 52 bc 9a 7c f0 bc
       0.037882805 -0.0068007377 -0.0128681315 -0.02935629
000270 6f 62 8f 3c a5 16 dd 3c 1d b8 e1 3c 1b 55 4b 3c
       0.017502991 0.026988337 0.027553612 0.012410427
000280 48 3e 9c 3c e0 d8 09 3c 00 3e fc bb 64 71 1b 3d
       0.019072667 0.008413523 -0.0076978207 0.037949935
000290 ce 6b 86 3d ca 86 84 bc 28 22 20 3c 88 4a 45 bd
       0.06563531 -0.016177554 0.0097737685 -0.04816678
0002a0 f0 1e 95 bd 72 00 02 bd cf e5 0c 3d 0d c2 a5 3c
       -0.072812915 -0.031738706 0.03439885 0.020234132
0002b0 7d 41 87 bd 0c 18 b7 bc d4 32 5e bc aa aa 1b bc
       -0.06604288 -0.022350334 -0.013561923 -0.009501139
0002c0 d4 86 4f bd e0 aa 86 3c 26 3d 95 b9 e9 71 c2 3c
       -0.05066569 0.016438901 -0.00028465054 0.023735957
0002d0 50 f5 a3 3c 3b 3d f6 bb e5 3d 9f 3a 45 cb f5 bc
       0.020014435 -0.0075146235 0.0012149183 -0.030004153
0002e0 7c aa 90 bc 5b 23 e6 3b 28 2a bf 3c e0 66 f6 bb
       -0.017659418 0.0070232577 0.023335531 -0.007519588
0002f0 6f e7 a5 3c b6 7a 0c be 96 44 51 3a 8a 87 66 3c
       0.020251958 -0.13718686 0.00079829374 0.014070401
000300 a3 cb 8b bd cd d9 06 bc 82 1c 4b bd 75 3b 2d bd
       -0.0682595 -0.008230639 -0.049587734 -0.04229303
000310 da 62 fb bc 2d dd 0b bd f5 ad a4 bc 2a 7d 00 be
       -0.030686785 -0.034146477 -0.02010248 -0.12547746
000320 d5 c1 81 bc 67 ca 83 bc 2d a5 ec bb 42 9f 59 3c
       -0.015839497 -0.016087724 -0.007221839 0.013282599
000330 bb b6 6c 3c 0e 89 0c 3c 77 c0 a8 bc 7c 7c 55 3d
       0.014447863 0.008577598 -0.020599587 0.05212067
000340 ba 5a cb 3c 89 3c 05 3e 53 13 04 3e 8b 2c 64 3c
       0.024823535 0.13011374 0.12897997 0.0139266355
000350 b4 a1 da 3c 40 00 8e 3b 71 15 44 bc 83 c6 14 3d
       0.026688434 0.004333526 -0.011968003 0.036322128
000360 ab eb c2 3d a0 df 2d bc 33 c8 ef 3b 81 11 c4 3b
       0.09517606 -0.010612398 0.007317567 0.005983532
000370 be 14 27 bd fe 0b b8 bc cd 20 92 3c 2b df 55 3d
       -0.040791266 -0.022466656 0.017837906 0.052214783
000380 06 0a e7 3c 20 2f fc 3c d9 dd 9c bc 65 2d df 3c
       0.028203022 0.03078419 -0.019148754 0.027243325
000390 06 88 a6 3c 8d e8 50 3c e3 38 ed 3c 3f 27 14 3d
       0.020328533 0.012750757 0.02895779 0.03617024
0003a0 eb 5a 21 bc 8d 65 b0 3c 8f 24 23 bc 1e fa ff bc
       -0.009848337 0.021532798 -0.009957447 -0.031247195
0003b0 fa fd 35 3c ae e6 11 bc 4d 85 cc bc d4 f2 a9 3d
       0.011107916 -0.008905096 -0.024965907 0.08298269
0003c0 a9 28 81 3c 78 1f 8a bc bb a0 ce bd 4f 5e ee ba
       0.015766459 -0.016860709 -0.10089251 -0.0018186065
0003d0 8a 93 dc bc bd 00 8a bc 00 9f 21 3d 1e b5 81 3b
       -0.02692582 -0.016846055 0.039458275 0.0039583584
0003e0 2f 23 89 bc 12 7c e8 3c 1f a1 0a bc 44 76 0a 3e
       -0.01674041 0.028379474 -0.008461266 0.13521677
0003f0 22 6a 5b bc 6f e3 af bd 4f 49 18 bd b7 41 ac 3a
       -0.013392003 -0.085883014 -0.037179288 0.0013142143

net.6.bias f4 [9]
000000 3f ed 02 bb 66 68 81 bc 9a 0c 5b 3c 7a 13 ad 3a
       -0.0019977835 -0.015796851 0.013369704 0.0013204657
000010 ea d7 53 bc de 22 05 3c ac 3f d5 3c 8d 5e ab 3e
       -0.012929896 0.008125989 0.026031338 0.33470574
000020 56 00 4d 3e
       0.2001966

exp_avg f4 [256, 23]
000000 52 07 e2 36 bc d5 74 38 dc cc da b6 28 de c4 38
       6.736177e-06 5.837319e-05 -6.520755e-06 9.387388e-05
000010 68 c2 8c 38 33 9d 25 b9 46 65 67 38 94 d3 81 39
       6.711931e-05 -0.00015794187 5.516901e-05 0.00024762435
000020 93 46 c1 39 6b 4c aa 36 da 41 82 37 c8 11 b0 b8
       0.0003686441 5.075291e-06 1.5527872e-05 -8.395646e-05
000030 42 fa c4 b7 5c 15 86 38 95 3f 94 38 60 90 a1 b8
       -2.3481556e-05 6.3935964e-05 7.069033e-05 -7.70397e-05
000040 fc 58 aa b3 4c 47 0b b4 48 ec 10 b8 53 3c 56 b8
       -7.932428e-08 -1.2971321e-07 -3.455233e-05 -5.1077757e-05
000050 7b c5 64 35 f5 15 51 b8 39 8e 05 b8 1f 8d 38 39
       8.522399e-07 -4.9849932e-05 -3.1842126e-05 0.00017600179
000060 b9 88 c7 37 91 e3 3f b9 0d cd e2 b8 f9 c0 94 b8
       2.3786315e-05 -0.00018299955 -0.000108147135 -7.093134e-05
000070 ab c2 13 35 4b 51 1a b9 7f 8e 39 b9 94 39 e6 39
       5.5045047e-07 -0.00014716868 -0.00017696059 0.00043911918
000080 84 15 f8 36 bc ff f1 37 a1 ae 2d b8 3e f2 20 34
       7.3934807e-06 2.8848524e-05 -4.140905e-05 1.4989288e-07
000090 1b ff fa b6 df 4b 07 38 36 8e b4 b7 8f c5 15 35
       -7.480279e-06 3.225717e-05 -2.1523894e-05 5.579431e-07
0000a0 df a9 12 b4 7a 8e db 37 84 4b ad b8 94 51 38 b8
       -1.3659108e-07 2.617318e-05 -8.263349e-05 -4.3944994e-05
0000b0 4a a8 92 b8 81 35 33 b8 9d 97 75 38 38 ff 15 b9
       -6.993169e-05 -4.2726755e-05 5.8553753e-05 -0.00014304824
0000c0 42 13 16 b8 2d 73 04 b9 7a 7b c5 b8 97 6c 5e 38
       -3.5780722e-05 -0.00012631407 -9.416691e-05 5.3030057e-05
0000d0 49 9f 8e 38 61 5d c6 37 6c de ea 37 70 a6 10 38
       6.800757e-05 2.3646922e-05 2.7998547e-05 3.4487282e-05
0000e0 76 f2 b8 b4 a1 8e 1b b8 17 2a c7 b6 9a 66 77 b7
       -3.4449084e-07 -3.7087713e-05 -5.935562e-06 -1.4746236e-05
0000f0 30 cc 9e 37 dd 4b 1c b8 94 b9 8d b4 03 08 e7 32
       1.893015e-05 -3.726395e-05 -2.6398322e-07 2.6895583e-08
000100 87 81 63 36 09 17 24 38 48 09 b4 36 e4 4c 16 38
       3.390103e-06 3.91221e-05 5.3654985e-06 3.5834397e-05
000110 dd ac 2c b7 7c a1 00 39 f6 37 4d b8 a4 7b 3d b8
       -1.0292247e-05 0.00012267189 -4.8927926e-05 -4.517626e-05
000120 24 64 fa 37 72 59 e2 b7 d3 5a 28 b9 01 7b 58 38
       2.9848954e-05 -2.698295e-05 -0.00016055563 5.161297e-05
000130 b0 66 b4 39 cf 61 bb 39 49 cc 48 36 43 31 d8 36
       0.00034408784 0.00035740293 2.9921232e-06 6.4430365e-06
000140 87 e8 79 b8 40 34 80 b7 38 f3 38 38 c2 15 10 38
       -5.9582784e-05 -1.528312e-05 4.4095534e-05 3.435254e-05
000150 d7 a3 3c b8 bf 86 f2 32 e2 95 75 34 d5 c8 da b7
       -4.497528e-05 2.8233783e-08 2.287193e-07 -2.6081145e-05
000160 10 21 28 b8 f1 0e 44 35 91 36 e5 b7 5f 4e f9 b7
       -4.0085113e-05 7.303743e-07 -2.7324337e-05 -2.9719607e-05
000170 2b c2 6b 37 20 ab b8 b8 f4 7a a8 b7 6b 90 1d b9
       1.40523e-05 -8.805678e-05 -2.0084415e-05 -0.00015026487
000180 16 54 42 b8 32 79 f1 38 34 95 9c 38 3b c3 1a 39
       -4.6331515e-05 0.0001151435 7.466451e-05 0.00014759313
000190 15 43 b1 39 15 00 d8 37 70 0b 6b b7 2c f0 a0 b7
       0.0003381005 2.5749245e-05 -1.40097545e-05 -1.9185325e-05
0001a0 4c 35 37 37 20 b5 10 37 e4 1b b7 b6 9b e0 24 b8
       1.0920059e-05 8.62524e-06 -5.457072e-06 -3.9309827e-05
0001b0 ab 24 db b2 12 ee 16 34 fc 73 ce b7 72 b0 a3 37
       -2.551163e-08 1.4056448e-07 -2.4611123e-05 1.9513278e-05
0001c0 f7 1b 3d b7 5e 6b 70 38 19 b8 51 b7 94 19 a9 b8
       -1.1271789e-05 5.7320452e-05 -1.2500234e-05 -8.063312e-05
0001d0 57 38 3b 39 cc 46 9a b7 41 02 04 39 1d ec 09 39
       0.00017854698 -1.8391198e-05 0.0001258934 0.00013153297
0001e0 ac b6 9a 37 06 c2 13 b9 73 0f b0 b9 67 c9 b6 b9
       1.8443294e-05 -0.00014091292 -0.00033580847 -0.00034863802
0001f0 c1 f5 8b 37 53 60 a0 37 51 0f 47 37 d5 28 1b 37
       1.668453e-05 1.911834e-05 1.186489e-05 9.248227e-06
000200 a0 40 6b 37 f2 65 50 b8 ca 72 e8 b7 ff 41 81 33
       1.4022138e-05 -4.968601e-05 -2.7710008e-05 6.019035e-08
000210 79 3d 87 b4 be db 5d 38 89 a3 b9 b7 09 64 91 b6
       -2.5190437e-07 5.2895157e-05 -2.212987e-05 -4.3329824e-06
000220 4c c5 97 b8 df 40 b2 37 c2 0f 6d b6 78 97 1d 33
       -7.2369905e-05 2.1249461e-05 -3.5324924e-06 3.669217e-08
000230 f1 30 3d 38 66 c3 6b b7 29 ef 7a 38 3a f5 bb 36
       4.510669e-05 -1.4052586e-05 5.982738e-05 5.6015824e-06
000240 d3 7b 2f 38 e4 15 55 39 ef 2d 12 39 22 63 40 b8
       4.183857e-05 0.00020321418 0.00013940757 -4.586869e-05
000250 d2 da 1c b6 5b b4 67 38 5e 64 f5 b6 1b d2 6c 37
       -2.3373182e-06 5.524266e-05 -7.3132533e-06 1.4115615e-05
000260 49 74 ac b8 97 95 85 35 83 b9 5d b4 64 1c e7 b3
       -8.223259e-05 9.952809e-07 -2.0649718e-07 -1.076194e-07
000270 ba a0 e7 36 c9 87 14 36 27 6f 4b 36 a2 3e 52 38
       6.9030475e-06 2.2132756e-06 3.0314056e-06 5.0126233e-05
000280 c5 5e 16 38 5c c1 ee 38 ac 77 25 b9 94 64 bf b7
       3.5851048e-05 0.0001138474 -0.00015780207 -2.281581e-05
000290 da 67 90 b8 ee 40 f9 b8 1e 70 36 b8 b1 84 cf 38
       -6.885799e-05 -0.00011885339 -4.34966e-05 9.895245e-05
0002a0 64 0a 96 39 f3 83 a2 39 d1 68 87 37 c5 6d 64 b6
       0.0002861797 0.00030997358 1.6142063e-05 -3.4038542e-06
0002b0 1d b1 17 37 38 75 b9 b6 82 f7 4b 36 a5 da 9b 37
       9.041539e-06 -5.5270757e-06 3.0393426e-06 1.8579254e-05
0002c0 30 a1 a6 37 e2 da f6 b3 ad 7c ea 34 d4 7b 29 b7
       1.98638e-05 -1.1495082e-07 4.367661e-07 -1.0102016e-05
0002d0 60 74 ed 37 5a 64 5d 37 6a 14 11 38 af 53 28 b6
       2.8306793e-05 1.3195991e-05 3.4589706e-05 -2.508266e-06
0002e0 3b 99 23 b8 f0 f2 83 b9 63 82 6c 39 58 f9 a5 b8
       -3.9004935e-05 -0.0002516727 0.00022555287 -7.914257e-05
0002f0 2e 6b a7 b8 7a 32 95 b8 46 d3 ab 39 12 0e 2e 3a
       -7.983144e-05 -7.114276e-05 0.00032773073 0.000663967
000300 be a2 cf b9 11 4b b5 b7 5f a8 5c b7 43 0e 3b 38
       -0.0003960337 -2.1611837e-05 -1.3152224e-05 4.4597557e-05
000310 c1 32 1f b8 b7 3e 27 b7 4f 27 81 b8 8f 4c d3 37
       -3.7955822e-05 -9.968578e-06 -6.158521e-05 2.518881e-05
000320 27 36 43 b4 f4 d0 03 35 e4 a7 05 b8 fd 29 13 39
       -1.8180491e-07 4.910537e-07 -3.186603e-05 0.00014034654
000330 1c af 51 38 78 fd 4d 39 36 f6 ec 38 2d d6 02 b9
       4.9992566e-05 0.00019644748 0.00011299217 -0.00012477553
000340 2f 7b 67 39 59 81 86 38 cc 53 25 39 f6 ad 3a 39
       0.00022075766 6.413711e-05 0.00015766843 0.00017803148
000350 f7 9b 61 b8 da 7d bc b8 63 15 82 b8 33 ae 9f b9
       -5.3789434e-05 -8.98798e-05 -6.202867e-05 -0.00030456632
000360 e4 de 6b b8 a4 c8 bc 36 fb 8a 97 38 91 2c 0f 37
       -5.623595e-05 5.6261943e-06 7.226128e-05 8.533841e-06
000370 c2 0f b5 37 40 f7 69 b8 c8 bc 7b 38 d5 dd f5 b1
       2.158422e-05 -5.57818e-05 6.001888e-05 -7.155658e-09
000380 e7 c9 a8 b4 11 45 81 37 0b 1a 31 b8 78 db a2 36
       -3.1439342e-07 1.541016e-05 -4.2224343e-05 4.8535258e-06
000390 a4 1d 16 b8 b2 21 12 38 dd 27 4b 39 86 2c 3a b9
       -3.5790392e-05 3.4840494e-05 0.00019374439 -0.00017754929
0003a0 84 2e 89 38 b9 83 a4 39 b0 16 f0 b8 e6 8a d1 b9
       6.541333e-05 0.0003137866 -0.00011448318 -0.00039967074
0003b0 3f d0 7a 38 e3 47 c8 36 07 e1 20 39 60 bc a0 36
       5.979859e-05 5.968833e-06 0.00015342618 4.7903013e-06
0003c0 9a c4 11 38 76 c1 ad b7 f6 1b 82 b8 79 bc 9e 38
       3.4753793e-05 -2.0713294e-05 -6.204091e-05 7.569133e-05
0003d0 56 1a 72 b8 d1 c6 c7 b8 f4 0e 18 35 97 92 b4 34
       -5.7721823e-05 -9.526092e-05 5.664617e-07 3.363427e-07
0003e0 ac 3c 40 b8 7b 3e be b7 3c 0f 2a 37 14 f8 9b b8
       -4.5832872e-05 -2.267886e-05 1.0136337e-05 -7.437184e-05
0003f0 da f0 3a 38 3a f3 e2 38 97 fd 20 b9 b1 cc 18 37
       4.4570166e-05 0.00010821824 -0.00015353259 9.107564e-06

exp_avg_sq f4 [256, 23]
000000 5c 86 bd 35 67 73 f7 35 3c ef 93 33 16 df 70 35
       1.4120701e-06 1.8436521e-06 6.8887374e-08 8.97316e-07
000010 22 f8 a5 35 62 c0 bd 34 12 f8 e8 34 65 dd 44 36
       1.2365674e-06 3.534397e-07 4.3393862e-07 2.9335145e-06
000020 21 b2 19 36 ba 28 be 32 90 0e c8 31 02 25 79 32
       2.2902461e-06 2.2137431e-08 5.8224217e-09 1.4502122e-08
000030 29 b5 47 32 5c 20 db 32 3d 79 d5 32 3c c2 aa 32
       1.1624516e-08 2.550967e-08 2.4851596e-08 1.9878932e-08
000040 a8 bc 2c 2d 38 d4 89 2b 72 75 4c 33 91 9f 3c 33
       9.818958e-12 9.793338e-13 4.7604267e-08 4.3917286e-08
000050 ff 03 c3 30 d8 d2 62 34 54 a6 e4 32 4b 20 bb 35
       1.4189253e-09 2.1124595e-07 2.661833e-08 1.3941984e-06
000060 2f 6d f1 35 4f 6a cc 33 21 09 72 35 40 f9 a4 35
       1.7987676e-06 9.518828e-08 9.016531e-07 1.2291493e-06
000070 5b 5b d4 34 27 da e7 34 38 9f 41 36 d5 a4 19 36
       3.9554547e-07 4.318583e-07 2.8851919e-06 2.2894721e-06
000080 01 a6 e4 32 3f 08 e6 31 65 ad cd 32 50 0f 82 32
       2.6618183e-08 6.6948185e-09 2.3943992e-08 1.5140955e-08
000090 f2 b2 0e 33 8f b2 09 33 1c 48 de 32 7e 69 3a 2d
       3.32247e-08 3.2060196e-08 2.5876993e-08 1.05963e-11
0000a0 bd af bf 2b d1 45 7e 33 ce f0 56 33 60 69 28 31
       1.3620143e-12 5.920248e-08 5.004477e-08 2.4507116e-09
0000b0 4d e1 6f 34 00 55 0c 33 10 b8 81 34 fd ec ab 34
       2.2340573e-07 3.2673597e-08 2.4162046e-07 3.2023664e-07
0000c0 26 25 6e 32 c2 b8 2f 34 16 06 6b 34 80 4c 88 33
       1.386187e-08 1.636536e-07 2.1888295e-07 6.346909e-08
0000d0 ed 09 a7 33 cc fa 01 35 db 23 d7 34 84 77 9e 31
       7.778349e-08 4.84212e-07 4.007296e-07 4.6119926e-09
0000e0 0c d8 95 30 a4 15 50 31 f0 a9 1d 31 54 5f b9 31
       1.0902581e-09 3.0280285e-09 2.2943105e-09 5.395046e-09
0000f0 4c 0a c1 31 7f 27 8a 31 5e 60 d7 2c 81 a7 ad 2a
       5.61821e-09 4.020819e-09 6.1213664e-12 3.0847203e-13
000100 ab 26 30 32 8d 50 0e 32 52 cc f2 2f 39 b8 26 33
       1.025334e-08 8.283803e-09 4.4164722e-10 3.8817436e-08
000110 47 5a ba 31 04 bc 94 35 7a cf c3 35 27 2d 5e 33
       5.423576e-09 1.1081579e-06 1.4589016e-06 5.172947e-08
000120 4b 5e 3d 35 36 70 81 35 b3 65 8e 34 0f 07 b7 34
       7.05452e-07 9.643907e-07 2.6523557e-07 3.4091542e-07
000130 0e f0 1e 36 26 63 f6 35 7d f0 91 32 23 9e 90 31
       2.3683565e-06 1.8357284e-06 1.6989583e-08 4.2089296e-09
000140 08 5e 2b 32 6e 45 18 32 15 08 9f 32 3f 0c 90 32
       9.97489e-09 8.863351e-09 1.8513711e-08 1.6769375e-08
000150 3b 73 6b 32 cb 8a de 2c 6f 0c 43 2b 66 58 23 33
       1.3705001e-08 6.3250286e-12 6.929517e-13 3.8031793e-08
000160 67 e9 19 33 1d e1 9c 30 3f 49 34 34 51 f2 a5 32
       3.5835367e-08 1.1414475e-09 1.6790453e-07 1.931872e-08
000170 49 b7 5a 34 46 54 90 34 bd 4b 7c 32 83 f9 1a 34
       2.0369511e-07 2.6883407e-07 1.4685551e-08 1.443314e-07
000180 69 65 45 34 50 fa 79 33 26 e2 94 33 41 ff dc 34
       1.8383948e-07 5.8202488e-08 6.932923e-08 4.1163915e-07
000190 3b 3f bd 34 09 55 9e 31 ce 16 a5 30 48 e1 56 31
       3.525e-07 4.6080726e-09 1.2011812e-09 3.1269156e-09
0001a0 2d 52 2a 31 e1 3a a6 31 d2 6c c4 31 c4 fc 77 31
       2.4784967e-09 4.8379296e-09 5.716722e-09 3.6086911e-09
0001b0 f7 58 19 2d be 93 8a 2a 19 01 0f 32 4c d0 02 32
       8.716797e-12 2.461624e-13 8.323945e-09 7.614357e-09
0001c0 c5 08 bc 2f 40 c1 16 33 be 1c a9 31 3f a5 20 35
       3.4203232e-10 3.5100356e-08 4.921815e-09 5.984511e-07
0001d0 6c 58 51 35 69 aa 29 33 ce 68 d2 34 a7 9f 0d 35
       7.798724e-07 3.9503366e-08 3.9191804e-07 5.275892e-07
0001e0 c1 bb 27 34 f0 ad 53 34 eb 46 a4 35 35 84 85 35
       1.5621391e-07 1.9714184e-07 1.2239592e-06 9.94775e-07
0001f0 c8 30 46 32 dd 66 43 31 3a 54 02 32 ea b7 b1 31
       1.1536208e-08 2.8434706e-09 7.586147e-09 5.1722866e-09
000200 7f 97 4f 32 ad 04 35 32 10 e0 1e 32 41 a8 81 2c
       1.2083432e-08 1.053665e-08 9.247756e-09 3.6850805e-12
000210 6b 85 f8 2a 5a 64 c9 32 77 a2 ad 32 a2 54 63 30
       4.4146227e-13 2.3445114e-08 2.0213731e-08 8.270239e-10
000220 a4 9c ce 33 2d ae 41 32 aa e9 e5 34 06 24 16 35
       9.621115e-08 1.12736815e-08 4.2824587e-07 5.5931775e-07
000230 36 4a 00 33 92 c6 a0 34 77 48 cd 34 fd f0 05 34
       2.9869817e-08 2.99468e-07 3.823695e-07 1.2474261e-07
000240 bf 6d 1c 34 43 42 6c 35 9b 0b 45 35 1d fe 28 32
       1.4568558e-07 8.8013275e-07 7.3405107e-07 9.836666e-09
000250 47 ec 10 31 0d 3b ee 31 d5 1a a4 31 20 33 36 32
       2.1089066e-09 6.933425e-09 4.7760786e-09 1.0605419e-08
000260 7b d3 2e 32 6c 32 05 32 bc e2 77 2b 8c 40 d0 2a
       1.0176218e-08 7.7530835e-09 8.8066685e-13 3.699301e-13
000270 ca 45 99 32 8e d6 84 32 d3 41 4d 30 c0 76 a1 33
       1.784328e-08 1.546439e-08 7.467211e-10 7.518747e-08
000280 2d 25 19 32 fa b8 ec 34 f3 df 18 35 bf 9a ff 32
       8.914225e-09 4.4093014e-07 5.69503e-07 2.9756277e-08
000290 7a 1e 9a 34 20 6d d0 34 92 e6 04 34 ef b8 18 34
       2.870691e-07 3.8822418e-07 1.2377339e-07 1.4223382e-07
0002a0 14 0f 6c 35 d6 63 4a 35 e8 72 1c 32 d1 1a 21 31
       8.793879e-07 7.5396144e-07 9.106522e-09 2.3443827e-09
0002b0 4d 29 df 31 65 43 93 31 85 7a 2d 32 2c 61 11 32
       6.4948495e-09 4.285925e-09 1.0097783e-08 8.462205e-09
0002c0 4c 5e ef 31 af 94 04 2c 7b ac d3 2a 76 fa a1 32
       6.966536e-09 1.8840864e-12 3.7600812e-13 1.8856763e-08
0002d0 59 d5 80 32 6d 56 4c 30 85 37 96 33 48 59 0b 32
       1.499818e-08 7.4337586e-10 6.995018e-08 8.111165e-09
0002e0 3b d1 cf 35 9f 8b 08 36 1e fd f2 33 44 2b 91 35
       1.5483596e-06 2.034685e-06 1.1315045e-07 1.0815934e-06
0002f0 f0 7d b8 35 63 c0 f1 34 7a e3 0c 35 20 84 5f 36
       1.3745721e-06 4.5029728e-07 5.2485086e-07 3.3306496e-06
000300 3a 39 36 36 fc dd 07 33 32 a4 01 32 5e 2d e2 32
       2.7153424e-06 3.163403e-08 7.546122e-09 2.6330493e-08
000310 30 28 98 32 bc 4c 2b 33 df ff 13 33 1b a4 08 33
       1.7713404e-08 3.988383e-08 3.4458818e-08 3.181422e-08
000320 12 90 93 2d 98 41 df 2b a6 38 98 33 50 42 81 33
       1.6775945e-11 1.5863309e-12 7.088356e-08 6.019093e-08
000330 88 df 4f 31 17 b0 8f 34 b3 42 1e 33 7d 8f 81 34
       3.0249527e-09 2.6763948e-07 3.6847904e-08 2.4132524e-07
000340 be d6 a6 34 e6 ec 8e 32 fa ca 25 34 f7 52 65 34
       3.1076155e-07 1.6638705e-08 1.5440665e-07 2.135747e-07
000350 31 2a 9a 33 52 a8 a3 33 7c 6f 04 35 90 22 d5 34
       7.1788584e-08 7.620896e-08 4.9336063e-07 3.969949e-07
000360 2f cd bd 31 73 1b 9e 30 81 ac 79 31 b8 5a 31 31
       5.5239506e-09 1.1503815e-09 3.6332326e-09 2.5808458e-09
000370 7d b5 a9 31 55 2e ca 31 d4 4c 9b 31 af 8a 89 2c
       4.93918e-09 5.884241e-09 4.519828e-09 3.909171e-12
000380 cf 78 91 2a 0d c4 4e 32 58 9d 18 32 ce bc 2b 30
       2.5841002e-13 1.2035355e-08 8.88334e-09 6.2477745e-10
000390 ec a8 22 33 03 18 b9 31 69 60 d3 35 f5 94 04 36
       3.7872198e-08 5.3869385e-09 1.5748784e-06 1.9756237e-06
0003a0 8d 61 f2 33 8e f7 88 35 32 8b b6 35 e5 64 f9 34
       1.12867475e-07 1.0204838e-06 1.3600568e-06 4.6453275e-07
0003b0 da 68 04 35 b9 a8 4d 36 d3 bc 2b 36 96 b2 09 33
       4.932641e-07 3.064559e-06 2.5590896e-06 3.206022e-08
0003c0 8d 7e ff 31 4c 5c da 32 6b 55 8f 32 27 d6 28 33
       7.435864e-09 2.5420512e-08 1.6686235e-08 3.931032e-08
0003d0 82 74 3c 33 fe 72 d6 32 ba 18 cf 2d 47 e0 be 2b
       4.3878124e-08 2.4965171e-08 2.3544156e-11 1.3562561e-12
0003e0 75 43 7d 33 a0 92 62 33 da de 27 31 3e 66 89 34
       5.8967505e-08 5.275308e-08 2.4428375e-09 2.559263e-07
0003f0 97 de 2b 33 b6 9e 94 35 74 a6 c3 35 5a c7 69 33
       4.0016484e-08 1.107305e-06 1.4577076e-06 5.443085e-08
