RefAgent/BC-CAB-256128/checkpoints/agent_700.pt (torch, 488547 bytes, 18 tensors)

net.0.weight f4 [256, 23]
0	0x3bb9c05c	0.005668683
1	0xbd2cc237	-0.042177405
2	0x3d5dbfd3	0.054138016
3	0x3d646276	0.055757962
4	0xbccdf515	-0.025141278
5	0x3d207f18	0.039183706
6	0xbd8e8395	-0.06958691
7	0xbd087e79	-0.03332374
8	0x3c8d29b1	0.017231794
9	0xbe31e33f	-0.17371844
10	0xbee2a04d	-0.44262925
11	0xbf011e32	-0.504367
12	0x3e7849fa	0.2424697
13	0x3dd3aa25	0.10335187
14	0xbdf0bdcc	-0.11754951
15	0xbce42316	-0.027848762
16	0xbdb9613d	-0.0905175
17	0xbff4a1a4	-1.9111829
18	0x3eb0e88b	0.34552416
19	0xbd8c7b42	-0.06859447
20	0x3f593951	0.8485308
21	0x3e172346	0.1475955
22	0x3e1c3706	0.15255365
23	0x3be25613	0.0069072335
24	0xbe4bfe6c	-0.19921273
25	0x3e400c52	0.187547
26	0xbd015af5	-0.031580884
27	0x3d5ab726	0.05339732
28	0xbcf6201e	-0.030044612
29	0xbdd19c39	-0.10234875
30	0xba621fa6	-0.0008625932
31	0x3c554e73	0.013019192
32	0xbd1fd3bb	-0.03902028
33	0xbf1f7bb7	-0.6229815
34	0xbe2ea5ec	-0.17055482
35	0x3e36292f	0.17789148
36	0x3d4ada52	0.049524613
37	0xbe8166bd	-0.25273696
38	0xbdb77689	-0.08958156
39	0x3d918ce3	0.0710695
40	0x3e90c732	0.28276974
41	0x3e361537	0.1778153
42	0xbebaf536	-0.36515206
43	0x3e1dad10	0.1539805
44	0x3dbdaaa9	0.092610665
45	0xbda9a5e0	-0.08283591
46	0x3e225273	0.15851764
47	0x3d43260b	0.047643702
48	0x3d7d6a28	0.061868817
49	0x3ca84d59	0.020544695
50	0xbd834c45	-0.06411032
51	0x3dea12c2	0.11429359
52	0x3e06a90a	0.13150421
53	0xbd6fc9c7	-0.05854204
54	0xbd6afd5f	-0.05737054
55	0x3c07ee43	0.008296552
56	0x3e91559b	0.28385624
57	0x3e73239b	0.23744051
58	0x3c862212	0.016373668
59	0x3d0f1c82	0.034939297
60	0x3e87701c	0.2645272
61	0x3ea96613	0.3308569
62	0xbd02fa5a	-0.031977035
63	0xbf046583	-0.51717395
64	0xbdb44c7a	-0.08803649
65	0x3ddd130b	0.10794648
66	0xbe964c0c	-0.29354894
67	0x3dbeed9b	0.093226634
68	0xbcdecd1b	-0.027197411
69	0x3dd284e3	0.102792524
70	0xbd5cbda5	-0.053891797
71	0xbbed6b8a	-0.0072454857
72	0x3b1311f9	0.0022441132
73	0x3d87b604	0.066265136
74	0x3d652f1c	0.05595313
75	0xbc8cfa78	-0.017209277
76	0xbd2b690b	-0.041848224
77	0xbd060da5	-0.032727856
78	0x3d9ae8f4	0.075639635
79	0xbe298ba3	-0.16557173
80	0xbe9d06d0	-0.3066926
81	0x3e402ce7	0.18767129
82	0xbcf5c9da	-0.030003477
83	0x3d73a91c	0.059487447
84	0x3ceb2266	0.028702926
85	0x3d5efb61	0.054438952
86	0xc00c0c65	-2.1882565
87	0x3e858d17	0.26084206
88	0x3ea99dbb	0.3312815
89	0x3f613922	0.879778
90	0x3e25c7cb	0.16189496
91	0x3e300032	0.17187575
92	0xbdc9f89a	-0.0986187
93	0xbe072078	-0.1319598
94	0xbcb4974c	-0.0220448
95	0xbe01e239	-0.12683953
96	0xbca46cd5	-0.020071426
97	0xbd92a5d1	-0.07160533
98	0xbc6b40b3	-0.014358687
99	0xbccd45fe	-0.025057789
100	0xbd648e28	-0.055799633
101	0x3e1627fe	0.14663693
102	0x3f1f3ea2	0.62204945
103	0x3dfe389f	0.12413143
104	0xbe58de02	-0.2117844
105	0xbdbf493f	-0.093401425
106	0x3e75d18f	0.24005722
107	0x3e47e40d	0.19520588
108	0xbd7222d8	-0.05911526
109	0xbf9234b8	-1.1422338
110	0xbd5b9a30	-0.05361384
111	0x3e90c95b	0.28278622
112	0x3ec9510c	0.39319646
113	0xbd07bf3c	-0.03314136
114	0xbc95548f	-0.018228797
115	0xbdddfea1	-0.10839582
116	0xbc9d8f37	-0.01923333
117	0x3bb86c5a	0.005628151
118	0xbd2d433f	-0.04230046
119	0xbdeeb46d	-0.11655507
120	0xbd8296aa	-0.06376393
121	0xbe161655	-0.14656956
122	0xbab9fe6e	-0.0014190206
123	0x3c87ab3d	0.016561145
124	0xbe472072	-0.1944597
125	0x3d91262d	0.070873596
126	0xbccf72e5	-0.02532334
127	0xbeb69e89	-0.35667828
128	0xbdb7d56d	-0.089762546
129	0xbe55d881	-0.20883371
130	0xbe45dd15	-0.19322617
131	0xbdb0bbbe	-0.08629559
132	0x3b92d5e1	0.0044810628
133	0x3bb1555e	0.005411788
134	0xbe0e1d1c	-0.13878292
135	0x3eaf9cfd	0.3429946
136	0x3e038a3f	0.12845705
137	0xbe6b3e88	-0.22973073
138	0xbd004f08	-0.03132537
139	0xbdd1019e	-0.102053866
140	0xbd701389	-0.05861238
141	0xbd86f1a4	-0.06589058
142	0x3b00f2bc	0.001967593
143	0xbc7c1f75	-0.015388359
144	0x3d1fbba0	0.038997293
145	0x3c955edd	0.01823371
146	0xbbda6068	-0.0066643246
147	0x3ce5fa9f	0.028073607
148	0x3ed6d029	0.4195569
149	0x3e2218d2	0.1582978
150	0xbe61b4a9	-0.22041573
151	0xbe63fa9d	-0.2226357
152	0x3e7d62f0	0.24744773
153	0xbe579f9d	-0.21056981
154	0x3e5cdf3e	0.21569535
155	0xbfa6204e	-1.2978609
156	0x3b850f4c	0.0040606614
157	0x3ed623d4	0.4182421
158	0x3e85a008	0.26098657
159	0xbda37505	-0.07981304
160	0x3da6d8bd	0.08146808
161	0x3db349c4	0.08754304
162	0xbddf2862	-0.10896374
163	0xbd3633b7	-0.044482913
164	0x3d189ebf	0.037260767
165	0x3e255b50	0.16148114
166	0x3dcb49bb	0.09926172
167	0x3d7b8f83	0.06141616
168	0xbbca20d3	-0.0061684637
169	0xbba8e468	-0.0051541813
170	0x3e590c6b	0.21196143
171	0x3ea93f47	0.3305609
172	0x3e982a4f	0.2971978
173	0xbdc88929	-0.09791786
174	0x3d8c80c4	0.068604976
175	0x3ea10994	0.3145262
176	0x3e8cdc58	0.2751186
177	0x3efa4dcc	0.4888748
178	0xbcdb5bd9	-0.026777195
179	0xbe2fdebe	-0.17174813
180	0x3e5c3091	0.21502902
181	0xbe819642	-0.2530995
182	0xbe274599	-0.16335143
183	0xbdc73b88	-0.097281516
184	0xbdf76472	-0.12079705
185	0x3e61c030	0.2204597
186	0xbd78442d	-0.060611892
187	0x3c9b9b5c	0.01899498
188	0xbdc3ef81	-0.09567166
189	0x3d31f01d	0.04344188
190	0xbdb480f1	-0.08813656
191	0x3c03c200	0.008041859
192	0x3c28f240	0.010311663
193	0xbd2248d0	-0.03962022
194	0x3f0361dc	0.51321197
195	0x3d07af50	0.033126175
196	0xbe40082c	-0.18753117
197	0xbc4180a5	-0.011810456
198	0x3e5fb518	0.21846426
199	0x3c8fefa0	0.017570317
200	0x3da0ca4e	0.078510866
201	0xbf98f322	-1.1949198
202	0x3d5ca1db	0.053865295
203	0x3e785c5d	0.24253984
204	0x3ea3762a	0.3192609
205	0xbdf138d9	-0.11778421
206	0x3df85d0e	0.12127124
207	0xbd37bb4c	-0.044856355
208	0xbd19d46e	-0.037556104
209	0x3daa3b45	0.08312086
210	0x3d5039e8	0.050836474
211	0x3c8f505f	0.017494379
212	0x3cbf9e7b	0.023390999
213	0xbdf5518f	-0.11978447
214	0x3e0b4929	0.13602127
215	0x3c831698	0.016001984
216	0x3cce0acc	0.025151633
217	0x3db6d6e3	0.08927705
218	0xbcad584a	-0.021160264
219	0x3e8df5d7	0.27726623
220	0xbdf02c87	-0.11727243
221	0x3e074f44	0.13213831
222	0xbddadfdb	-0.10687228
223	0x3e2ab523	0.1667066
224	0x3d271162	0.040788062
225	0x3d5506c0	0.05200839
226	0x3e353685	0.17696579
227	0xbeabeb32	-0.33577877
228	0xbe32e9f4	-0.17472059
229	0xbcda47db	-0.026645591
230	0xbd44ebc7	-0.048076417
231	0x3d6d6bcd	0.057964135
232	0xbe2e7153	-0.17035417
233	0xbe45fbe0	-0.19334364
234	0xbd12998e	-0.035790972
235	0xbdf0ed76	-0.11764042
236	0xbdae22cd	-0.085027315
237	0x3d857cff	0.06517982
238	0x3cb38a07	0.021916403
239	0x3e154f74	0.1458109
240	0xbceea61a	-0.029131938
241	0x3c94de2b	0.018172344
242	0xbeee2d67	-0.46519014
243	0xbdeb68ee	-0.11494623
244	0xbe0866ab	-0.13320415
245	0xbe45bb3b	-0.19309704
246	0x3dd2526c	0.10269627
247	0xbf28a501	-0.65876776
248	0xbe38a940	-0.18033314
249	0x3ec3dc1f	0.38253877
250	0x3f8bd710	1.0925007
251	0xbdbf8c00	-0.09352875
252	0xbe0cf2b8	-0.13764465
253	0x3e2a881a	0.16653481
254	0x3ddecbdf	0.10878729
255	0x3e79d064	0.24395901

net.0.bias f4 [256]
0	0x3d0b6d06	0.03403952
1	0xbd77731b	-0.060412508
2	0xbda163f8	-0.07880396
3	0xbce7e273	-0.028306222
4	0xbdd6351e	-0.1045935
5	0xbc81e1af	-0.015854685
6	0xbe16d56c	-0.14729851
7	0xbd066588	-0.03281167
8	0x3e6e54f2	0.23274592
9	0xbca4ea64	-0.020131297
10	0xbe21814e	-0.15771982
11	0x3b6025e3	0.003420227
12	0xbe1dc99c	-0.15408939
13	0x3db47bd3	0.0881268
14	0xbd484c98	-0.04890117
15	0x3d341c17	0.0439721
16	0x3d99c002	0.07507326
17	0xbe04e3d0	-0.12977529
18	0x3c90f3c4	0.017694362
19	0xbdb5d883	-0.08879187
20	0x3e3123a0	0.17298746
21	0xbe5200bb	-0.20508091
22	0xbdbaeb5a	-0.09126921
23	0xbe03fc84	-0.12889296
24	0xbb1eb144	-0.0024214545
25	0xbd1b7941	-0.037957434
26	0xbda9af20	-0.082853556
27	0xbe51e438	-0.20497215
28	0xbe5ec973	-0.21756534
29	0x3d0ad5a8	0.033895165
30	0xbd8573b8	-0.06516212
31	0x3c491e6f	0.012275322
32	0x3d802b9d	0.062583186
33	0xbdcdd4d9	-0.10050363
34	0x3c43cbad	0.011950416
35	0x3dc0b72b	0.094099365
36	0x3e60c009	0.21948256
37	0x3d6bfdb9	0.057615016
38	0xbc18177f	-0.009282946
39	0x3e21440a	0.15748611
40	0x3c6f86e8	0.0146195665
41	0x3b8e792c	0.004347941
42	0x3dccc15b	0.09997817
43	0xbd957ab7	-0.072987966
44	0xbd9ee09f	-0.07757687
45	0xba806c25	-0.0009797855
46	0xbd9967a5	-0.07490472
47	0x3c1d0a18	0.009584926
48	0xbe12a16c	-0.1431939
49	0xbd53d062	-0.0517124
50	0x3dc76611	0.097362645
51	0xbc9e16ec	-0.01929804
52	0x3dd9df18	0.10638255
53	0xbe35178f	-0.17684768
54	0x3de45d3f	0.11150598
55	0xbdd2ed1e	-0.10299133
56	0x3e409dad	0.18810149
57	0xbe830e39	-0.2559679
58	0xbc9cda8d	-0.019147182
59	0x3e929b43	0.2863408
60	0x3c72fa41	0.014830173
61	0x3c209198	0.009800337
62	0xbcb2fdf4	-0.02184961
63	0xbc8c738f	-0.017144946
64	0x3d863d80	0.06554699
65	0x3de83091	0.11337388
66	0x3d2fc660	0.042913795
67	0x3bc13de4	0.0058972705
68	0x3e190c12	0.1494601
69	0x3d401a0a	0.046899833
70	0x3d17d477	0.037067857
71	0x3d8dbe68	0.06921083
72	0x3d95f56d	0.07322202
73	0xbdf98df4	-0.121852785
74	0xbd07e23b	-0.033174735
75	0x3d6ac5d2	0.057317562
76	0xbd591d77	-0.053006615
77	0xbd288d51	-0.041150395
78	0xbe12708c	-0.14300746
79	0x3de64d0a	0.11245163
80	0x3cc8a295	0.024491588
81	0x3c865321	0.01639706
82	0x3b166d46	0.0022953316
83	0xbd45fe3b	-0.048338156
84	0xbdc5ea66	-0.096638486
85	0x3de52514	0.11188713
86	0x3e211224	0.15729576
87	0xbdab8dc1	-0.08376647
88	0xbe1df97d	-0.15427203
89	0x3dc186a1	0.094495066
90	0x3d24af29	0.04020611
91	0x3de72bd9	0.1128766
92	0x3d1c8c08	0.03821948
93	0x3e07ba66	0.13254699
94	0xbded14ec	-0.11576256
95	0x3c5c376d	0.013440949
96	0x3dbf03ec	0.0932692
97	0xbcc62bf0	-0.024190873
98	0xbc42a822	-0.011880906
99	0xbdf251ab	-0.11831983
100	0xbe00a8a6	-0.12564334
101	0x3e15d86f	0.14633344
102	0x3d1d8a8e	0.038462214
103	0xbd5d4a72	-0.054026075
104	0xbd8954d8	-0.06705636
105	0x3d8e291e	0.06941436
106	0xbe07e38a	-0.13270393
107	0xbd62e3a3	-0.055392873
108	0x3db18b4a	0.086691454
109	0xbdce24d7	-0.100656204
110	0xbe0abdfd	-0.13549037
111	0xbdc2ffb0	-0.09521425
112	0x3d9e3fc4	0.07727006
113	0xbdf4f60a	-0.11960991
114	0xbd04fbae	-0.032466583
115	0xbd372a1b	-0.04471789
116	0xbdf5dab9	-0.12004609
117	0xbdcbbdbc	-0.09948298
118	0x3d8b06a7	0.06788378
119	0x3cc966b3	0.024585104
120	0x3da4819d	0.08032534
121	0x3e39fb5c	0.18162292
122	0xbda3ef4c	-0.08004627
123	0x3d360d86	0.04444649
124	0xbc44cbd0	-0.012011483
125	0xbce0120f	-0.027352361
126	0xbdb52043	-0.08844044
127	0x3d4928f9	0.04911134
128	0x3b8e9d53	0.0043522506
129	0x3cd53e4b	0.02603068
130	0x3cc7d0f5	0.02439163
131	0x3e3985c8	0.1811744
132	0x3db04d1e	0.08608459
133	0x3db32623	0.087475084
134	0x3d82464f	0.063610666
135	0xba3c65e6	-0.0007186815
136	0xbe358e87	-0.17730151
137	0x3c877ca3	0.016538924
138	0xbd65f66b	-0.056143206
139	0x3d36ea5f	0.044657107
140	0xbc04f809	-0.008115777
141	0x3dbdc1c8	0.092654765
142	0x3d6e8f5e	0.058242194
143	0x3c6cc578	0.014451377
144	0xbdc8849a	-0.09790917
145	0xbd31e004	-0.04342653
146	0x3e369eaa	0.17833963
147	0x3d52279d	0.05130731
148	0x3e2ff72f	0.17184137
149	0x3dacfc07	0.08446508
150	0x3cf27e9f	0.029601393
151	0x3d2ce670	0.04221195
152	0x3cbc3076	0.022972327
153	0xbdf49def	-0.11944186
154	0x3bc55983	0.0060226335
155	0x3c9225d8	0.01784031
156	0x3d3b1873	0.045677613
157	0xbdbb831f	-0.09155869
158	0x3e11216f	0.1417291
159	0x3dddec8f	0.108361356
160	0xbd14479b	-0.0362011
161	0x3d8358ee	0.06413446
162	0x3dabce1b	0.08388921
163	0xbe21deff	-0.15807723
164	0xbce14b8f	-0.02750185
165	0xbd8ca4a2	-0.06867339
166	0xbd3f8e25	-0.04676642
167	0xbdd6ff6f	-0.10497939
168	0xbd2d7b06	-0.042353652
169	0xbdc448ce	-0.09584199
170	0x3dd4c811	0.10389722
171	0xbd6165bf	-0.055028673
172	0x3e309600	0.1724472
173	0x3a81519d	0.0009866242
174	0x3bc5c3bb	0.006035296
175	0xbbcbc8fd	-0.006219028
176	0xbda6735b	-0.08127471
177	0x3e09330b	0.13398378
178	0x3dc5764b	0.09641703
179	0xbb88338b	-0.004156535
180	0x3e80d56c	0.25162828
181	0x3de0965d	0.109661795
182	0xbd9c5acd	-0.076345064
183	0xbdb8ae89	-0.09017665
184	0x3d1f8c4c	0.038952157
185	0xbdce9e61	-0.10088802
186	0xbdd176ee	-0.10227762
187	0x3c5eae76	0.013591399
188	0x3d82264c	0.06354961
189	0xbe2a7baa	-0.16648737
190	0xbca4aebc	-0.020102851
191	0xbc902bfb	-0.017599097
192	0x3dc5d868	0.09660417
193	0x3dc34b33	0.095358275
194	0xbe15fcf8	-0.14647281
195	0xbd8cc05d	-0.06872628
196	0xbe14538d	-0.14484997
197	0x3a04ef0a	0.000507102
198	0x3df9b511	0.12192739
199	0xbd194502	-0.037419327
200	0xbd27c9c4	-0.040963903
201	0x3e1b6d37	0.15178381
202	0x3d4203df	0.047366973
203	0xbd8f6357	-0.070013694
204	0xbde0ed17	-0.10982721
205	0x3dc0e87e	0.09419344
206	0x3e238ca5	0.1597162
207	0xbc1b3aaa	-0.009474436
208	0x3c834892	0.016025815
209	0x3a098a93	0.00052467844
210	0x3d074d42	0.033032663
211	0xbc91fe3c	-0.017821424
212	0x3cc05963	0.023480123
213	0x3d9e2502	0.077219024
214	0xbd4241fb	-0.047426205
215	0x3d1b1336	0.037860118
216	0xbd30d7e7	-0.04317465
217	0xbdeadb29	-0.11467583
218	0x3a65af02	0.0008761735
219	0x3ca679fc	0.020321839
220	0xbcb985f5	-0.022646884
221	0xbdeccb5f	-0.115622275
222	0x3d1e80ab	0.038696926
223	0x3bec0692	0.0072029317
224	0xbc4748f3	-0.012163389
225	0x3bc506a0	0.0060127527
226	0xbe51cefe	-0.20489118
227	0x3dc4768f	0.09592926
228	0xbb822244	-0.00397137
229	0x3c628895	0.013826509
230	0x3ce3617f	0.02775645
231	0x3e055784	0.13021666
232	0x3d65fe18	0.056150526
233	0xbdd856c8	-0.10563427
234	0xbe16a671	-0.1471193
235	0x3d4d60c0	0.050141096
236	0x3be0ca33	0.0068600415
237	0x3da48a24	0.08034161
238	0x3e1ee42c	0.15516728
239	0xbe2449bf	-0.16043757
240	0x3d04c55f	0.03241479
241	0x3b8f6312	0.004375824
242	0xbd3e107a	-0.046402432
243	0xbc362ad4	-0.011118609
244	0xbc46dd1b	-0.012137677
245	0x3d08ffe9	0.03344718
246	0xbe0dd486	-0.13850603
247	0xbdc17ab7	-0.09447234
248	0xbd85597a	-0.06511207
249	0xbdea88a3	-0.11451843
250	0x3d92d747	0.07169967
251	0x3db0f3e0	0.086402655
252	0x3d78ee14	0.060773924
253	0x3dd3703f	0.103241436
254	0x3c986927	0.018604828
255	0x3e3b85d5	0.18312772

net.3.weight f4 [128, 256]
0	0xbc8b31d4	-0.016991533
1	0x3e2b1464	0.16706997
2	0x3d8e6c18	0.06954211
3	0xbc159f80	-0.009132266
4	0xbd9c3cb0	-0.07628763
5	0x3d468a77	0.048471894
6	0xbd13730a	-0.03599838
7	0x3d37b3b5	0.044849116
8	0xbe3c1da8	-0.18370688
9	0x3cb79cee	0.022413697
10	0xbdfd50a4	-0.123688966
11	0x3d220aa0	0.039560914
12	0x3d71c004	0.05902101
13	0xbc890423	-0.016725605
14	0x3b4412ee	0.002991851
15	0xbe98f3c8	-0.2987349
16	0xbcb87466	-0.02251644
17	0xbef36a36	-0.4754197
18	0xbd9cc616	-0.076549694
19	0xbda57427	-0.08078795
20	0xbe2b49eb	-0.16727416
21	0xbbdf3f4c	-0.0068129655
22	0xbc1b5634	-0.009481002
23	0x3cc6915f	0.02423924
24	0x3d552a70	0.052042425
25	0xba09a182	-0.0005250202
26	0xbdb89d0b	-0.090143286
27	0xbebecce0	-0.37265682
28	0xbda178f3	-0.07884397
29	0x3e4d5ee7	0.20055734
30	0xbde3b92a	-0.111193016
31	0xbde6b162	-0.11264302
32	0x3d81439b	0.06311723
33	0x3dd6b647	0.104839854
34	0xbd77330e	-0.060351424
35	0x3d7a019c	0.06103669
36	0x3e03f459	0.1288618
37	0x3dbd455f	0.09241747
38	0x3df77bc1	0.12084151
39	0x3c7a0e52	0.015262203
40	0xbd8eab06	-0.06966214
41	0x3cd42ce7	0.025900317
42	0x3e40c45e	0.18824908
43	0x3eb1a826	0.346986
44	0x3d98de86	0.07464318
45	0x3cac1f45	0.021011004
46	0x3d458b2f	0.04822844
47	0xbd60f3f6	-0.05492016
48	0xbdf37778	-0.11888021
49	0x3b2dd80e	0.0026526484
50	0x3da23080	0.07919407
51	0x3d93f3fe	0.07224272
52	0xbdab55e4	-0.08365992
53	0xbe455f65	-0.19274671
54	0xbdbeda02	-0.093189254
55	0xbe1a7c1b	-0.15086405
56	0x3d28089f	0.041023847
57	0xbe83e2b6	-0.25758904
58	0xbe252bab	-0.1612994
59	0x3cc0afdd	0.023521358
60	0x3d6a9582	0.057271488
61	0x3d0bea47	0.03415897
62	0xbdafba16	-0.08580415
63	0xbdc98e8c	-0.09841642
64	0x3c723504	0.014783148
65	0x3daaac00	0.08333588
66	0x3e03343f	0.12812899
67	0xbdae0d91	-0.08498681
68	0xbe2a1b01	-0.16611864
69	0xbd270e1c	-0.04078494
70	0xbcf0226f	-0.029313294
71	0x3e8e84ff	0.27835843
72	0x3d80464b	0.06263407
73	0x3c735663	0.014852139
74	0xbeaabd5a	-0.3334759
75	0xbc3655e8	-0.01112888
76	0x3c6e2ed0	0.014537528
77	0xbd23e03a	-0.04000876
78	0x3da615f6	0.081096575
79	0x3e5a16bb	0.21297733
80	0xbc86f870	-0.016475886
81	0xbd80d29a	-0.06290169
82	0xbe088d7d	-0.13335223
83	0xbc6baa07	-0.014383799
84	0xbd330155	-0.043702442
85	0x3e0015ca	0.12508312
86	0xbdccfed3	-0.10009541
87	0xbe058cda	-0.13042012
88	0xbec831a4	-0.39100373
89	0xbcb33b8a	-0.021878976
90	0xbd9e87f7	-0.07740777
91	0x3cb81ba0	0.02247411
92	0x3c018577	0.007905356
93	0xbddbfce6	-0.10741596
94	0x3d1708a7	0.036873486
95	0xbded7bf9	-0.115959115
96	0xbd290ae8	-0.041270167
97	0x3c498479	0.01229965
98	0xbd2602a9	-0.04052988
99	0x3dbbcb5d	0.09169648
100	0x3d0ffcab	0.035153072
101	0x3d95eafd	0.07320211
102	0xbc18bb1b	-0.009321953
103	0xbd6e2b0a	-0.058146514
104	0xbdc28afb	-0.09499165
105	0xbdc6487f	-0.09681796
106	0xbd1bc14d	-0.038026143
107	0x3cc85151	0.024452837
108	0x3dbec5d5	0.09315077
109	0xbd87e0d7	-0.06634682
110	0xbe397c21	-0.18113758
111	0x3d625bad	0.05526321
112	0x3d443ba3	0.047908437
113	0x3d0f5ab3	0.034998607
114	0x3cb29db4	0.021803714
115	0xbe22a606	-0.15883645
116	0xbd798648	-0.060919076
117	0xbd13d2e4	-0.036089793
118	0x3d693927	0.05693927
119	0xbcc59624	-0.024119444
120	0xbde18284	-0.11011222
121	0x3d950679	0.07276625
122	0xbd8e5d5b	-0.069514
123	0xbc2ead38	-0.010661416
124	0x3db882cd	0.09009323
125	0xbe4d6d02	-0.20061114
126	0xbd3e6ddd	-0.046491493
127	0xbe538a4f	-0.2065823
128	0xbc6f1251	-0.014591769
129	0x3c556497	0.013024471
130	0xbe037b44	-0.12839991
131	0x3d82f78c	0.06394872
132	0xbdb87b7a	-0.09007926
133	0x3d9fce40	0.07803011
134	0xbcfbe82f	-0.030750362
135	0x3bed812e	0.0072480654
136	0xbcdcce8d	-0.02695396
137	0xbded1770	-0.11576736
138	0xbd051a8c	-0.03249602
139	0x3e01f94a	0.12692752
140	0x3d2395f6	0.039937936
141	0x3d743ce7	0.059628394
142	0x3df8f402	0.12155916
143	0x3de85b96	0.11345594
144	0xbd68762a	-0.056753315
145	0x3cc20398	0.023683354
146	0x3e05da7e	0.1307163
147	0x3bb026dc	0.005375726
148	0xbde33faa	-0.11096127
149	0xbd776b5b	-0.060405117
150	0x3d012e2e	0.03153818
151	0xbd8eae0a	-0.06966789
152	0x3d7da682	0.061926372
153	0x3db6e0c0	0.089295864
154	0xbb03dc54	-0.002012034
155	0xbd3c7acc	-0.046015546
156	0x3d91c37d	0.071173646
157	0x3d4ddd39	0.050259802
158	0xbd8fd4b3	-0.07022991
159	0xbdd2407d	-0.102662064
160	0xbd88fe0f	-0.06689083
161	0xbe420bf1	-0.18949868
162	0x3db929a3	0.09041145
163	0xbe04ff02	-0.12987903
164	0x3e1c3f41	0.15258504
165	0xbcb03dad	-0.021513784
166	0xbdde5493	-0.10855975
167	0x3d0d4faa	0.0344998
168	0xbe08854b	-0.13332097
169	0x3d89db8f	0.067313306
170	0xbd2e39d2	-0.04253561
171	0x3ce0bc53	0.02743355
172	0xbda21129	-0.07913429
173	0x3e83e4a5	0.2576038
174	0xbd29cbb0	-0.041454017
175	0xbdc41e37	-0.095760755
176	0xbda6b70d	-0.08140383
177	0xbb8b3f16	-0.004249464
178	0xbd824bb3	-0.06362095
179	0xbdf07679	-0.11741347
180	0x3d693fd6	0.056945644
181	0xbeba2842	-0.3635884
182	0x3e50c756	0.2038854
183	0xbdb11284	-0.0864611
184	0x3d9b70e9	0.07589895
185	0x3c149e09	0.009070882
186	0xbd9c528a	-0.076329306
187	0xbdc4e715	-0.09614388
188	0xbd2a9bde	-0.041652553
189	0x3ce402b6	0.027833324
190	0x3e4b3ef5	0.19848235
191	0x3d875c91	0.066094525
192	0xbdfdc26d	-0.123905994
193	0xbe215ae1	-0.15757324
194	0xbd85eb44	-0.06539014
195	0x3cf7446f	0.030183999
196	0xbdc639e3	-0.0967901
197	0x3dc90713	0.098158024
198	0xbc2f97a3	-0.010717305
199	0x3e5fe702	0.21865466
200	0xbdade723	-0.084913515
201	0xbd5d1f33	-0.053984832
202	0xbd64fe13	-0.055906367
203	0xbbc046b6	-0.0058678044
204	0x3dd06dc9	0.1017719
205	0xbd18aceb	-0.037274282
206	0xbe49a834	-0.1969307
207	0x3dbf9426	0.09354429
208	0xbd0f84bd	-0.0350387
209	0xbcb0f0da	-0.021599222
210	0x3da63196	0.081149265
211	0x3d45d25a	0.04829631
212	0xbd457678	-0.048208684
213	0x3da3b00b	0.07992562
214	0x3df3ad32	0.11898269
215	0xbce55582	-0.027994875
216	0xbda46959	-0.08027906
217	0xbe172e11	-0.14763667
218	0x3d5e57b7	0.05428287
219	0xbc3dc4cf	-0.011582567
220	0x3d22881b	0.03968058
221	0x3c888dae	0.01666912
222	0x3b40900a	0.002938273
223	0xbd613f27	-0.054991867
224	0xb924498f	-0.00015667662
225	0x3d6cb7f9	0.057792637
226	0xbd5dd698	-0.05415973
227	0xbcabd66c	-0.020976268
228	0xbe1c3afd	-0.15256877
229	0xbe0178b4	-0.12643701
230	0x3e1b0f8e	0.15142652
231	0xbd062188	-0.03274682
232	0x3e054832	0.13015822
233	0x3d1d70c0	0.038437605
234	0x3c75a16d	0.0149921
235	0x3cfb57b2	0.030681465
236	0xbd89b88f	-0.06724655
237	0x3dc98691	0.0984012
238	0x3cee31b7	0.02907644
239	0x3c81a7e1	0.015827121
240	0x3e001ef9	0.12511815
241	0xbdb9c44e	-0.09070645
242	0x3e5123a3	0.2042375
243	0xbd25c765	-0.04047336
244	0xbd95790a	-0.07298477
245	0x3de667be	0.11250256
246	0xbcdd4ff8	-0.027015671
247	0xbe1f7d43	-0.15575127
248	0x3cbaed5f	0.022818265
249	0x3c7d32c3	0.015453997
250	0xbd42be60	-0.047544837
251	0xbe1ce770	-0.15322661
252	0xbd70d109	-0.0587931
253	0xbbb93322	-0.0056518475
254	0xbd79eaa3	-0.061014783
255	0xbe432f49	-0.19061007

net.3.bias f4 [128]
0	0xbc92398a	-0.017849702
1	0xbcf08362	-0.029359523
2	0xbcb25019	-0.02176671
3	0xbcb34acc	-0.021886252
4	0xbca8d6e3	-0.020610278
5	0xbc341091	-0.010990278
6	0xbce915c6	-0.028452765
7	0xbc90a286	-0.017655622
8	0xbcfd63d8	-0.030931398
9	0xbd21daab	-0.03951518
10	0xbccc50ef	-0.024940936
11	0xbce4f577	-0.027949078
12	0xbc659bbd	-0.014014182
13	0xbc940e4e	-0.018073227
14	0xbcf88704	-0.030337818
15	0xbcf4b9bb	-0.02987372
16	0xbd322cf9	-0.04349992
17	0xbc6db26d	-0.014507872
18	0xbc8126a1	-0.01576549
19	0xbb3ced19	-0.0028827845
20	0xbcc91b99	-0.024549292
21	0xbc3fb8c8	-0.01170177
22	0xbc9ef306	-0.019402992
23	0xbcd56dc0	-0.02605331
24	0xbc667fb8	-0.014068536
25	0xbcb82323	-0.022477692
26	0xbbdf35f8	-0.0068118535
27	0xbcecb2f0	-0.028893918
28	0x3b46b1eb	0.003031845
29	0x3c60e13a	0.013725573
30	0xbc817b0c	-0.015805744
31	0x3a8b1dbd	0.0010613721
32	0xbaae727f	-0.0013309269
33	0xbc1022f3	-0.008797395
34	0xbd0a047b	-0.03369568
35	0x3a2ec1f6	0.00066664757
36	0xbbbb9528	-0.005724568
37	0xba686140	-0.0008864589
38	0xbc3268bb	-0.0108892275
39	0xbc688af9	-0.01419329
40	0xbc06f835	-0.008237888
41	0xbbe37a8b	-0.0069420985
42	0xbce2e3c6	-0.027696501
43	0xbc3f3815	-0.011671086
44	0xbcb1a240	-0.021683812
45	0xbc830bf5	-0.015996912
46	0xbd051f28	-0.032500416
47	0xbd2b9ef4	-0.041899636
48	0xbc8b5ffa	-0.017013539
49	0xbcbd971d	-0.023143345
50	0xbcd71485	-0.026254902
51	0xbc036fe8	-0.008022286
52	0xbcfc0c1c	-0.030767493
53	0xbcf9c069	-0.030487256
54	0xbccb35f4	-0.024806
55	0xbc8a6c49	-0.016897338
56	0xbc8b9203	-0.017037397
57	0xbcedb3a3	-0.029016322
58	0xbcbc3173	-0.022972798
59	0xbca4c3f9	-0.020112978
60	0xbbaa7522	-0.0052019516
61	0xbc5b1111	-0.013370768
62	0xbc8e5605	-0.017375002
63	0xbce8de67	-0.028426362
64	0xbc824bd3	-0.015905296
65	0xbcda3eea	-0.026641328
66	0xbc24bd44	-0.01005489
67	0xbc0c0f44	-0.0085485615
68	0xbc4049a9	-0.011736312
69	0xba38c4f3	-0.00070483907
70	0xbc918fa2	-0.017768685
71	0x3bcb975a	0.006213111
72	0xbcfb1f69	-0.030654626
73	0xbc5cd4c8	-0.013478465
74	0xbc5660c3	-0.013084593
75	0xbb19f5a5	-0.0023492363
76	0xbbb00970	-0.005372219
77	0xbd0264af	-0.0318343
78	0xbcb87a21	-0.022519173
79	0xbcbf463e	-0.023348924
80	0x3b1a0e6e	0.0023507136
81	0x3b29a5ce	0.002588618
82	0xbce67a06	-0.028134357
83	0xbc23f3a8	-0.010006823
84	0xbd2776b8	-0.040884703
85	0x3a5ed557	0.0008500418
86	0x3c8920c3	0.016739255
87	0xbd04046d	-0.032230783
88	0xbd0791d5	-0.03309806
89	0xbc4493c0	-0.011998117
90	0xbc8591a7	-0.016304804
91	0xbb918340	-0.004440695
92	0xbc9cd96e	-0.019146647
93	0xbcd80769	-0.026370721
94	0xbd09a676	-0.033606015
95	0xbcb9ca82	-0.022679571
96	0xbd78202f	-0.060577568
97	0xbcdb89b4	-0.02679906
98	0xbcd1620c	-0.025559448
99	0xbcaed12d	-0.021339977
100	0xbd08f9f9	-0.033441518
101	0xbca01ecb	-0.019545933
102	0xbcb14cf4	-0.02164314
103	0xbc62554a	-0.01381428
104	0xbbce3c12	-0.006293782
105	0xbc68bccb	-0.014205168
106	0xbcf022a4	-0.029313393
107	0xbc6e4e5f	-0.014545052
108	0xbc503e8f	-0.012710228
109	0xbc70b3f9	-0.014691346
110	0xbb2fc4b8	-0.0026820134
111	0xbc0d79aa	-0.008634964
112	0xbcb9d57a	-0.022684801
113	0xbc9ba2b7	-0.018998487
114	0xbcad39fa	-0.02114581
115	0xbc787576	-0.015164724
116	0xbb8383f3	-0.0040135323
117	0xbc9c1b07	-0.019055856
118	0xbd16fdc5	-0.036863107
119	0xbcdf30dd	-0.02724498
120	0xbbd8a007	-0.0066108736
121	0xbc992113	-0.018692529
122	0xbc3edc52	-0.011649208
123	0xbc95e585	-0.01829792
124	0xbd056d94	-0.032575205
125	0xbd02e605	-0.031957645
126	0xbc605a45	-0.013693397
127	0xbc2f83ad	-0.010712546

net.6.weight f4 [9, 128]
0	0xbc9cff24	-0.01916463
1	0xbdcb0d7f	-0.099146836
2	0xbd119292	-0.03554017
3	0xbcb01c6c	-0.021497928
4	0x3c81aab7	0.015828473
5	0xb9fefa97	-0.0004863336
6	0xbd16f5d8	-0.03685555
7	0x3e0dd06f	0.13849042
8	0x3d1192ee	0.035540514
9	0x3cd41f35	0.025893787
10	0xbcc0ec68	-0.023550227
11	0x3c85a0ba	0.016311992
12	0xbdca4d59	-0.09878034
13	0xbdbc70c9	-0.092011996
14	0xbc63c97b	-0.013903017
15	0xbcbeea28	-0.023305014
16	0x3c707840	0.014677107
17	0x3cf49e36	0.029860597
18	0x3e03a989	0.12857641
19	0xbb423ccb	-0.0029638286
20	0x3cbb6a19	0.02287774
21	0x3c68d934	0.0142119415
22	0x3d08e108	0.03341773
23	0xbc8b0eb6	-0.016974788
24	0x3c42863d	0.011872825
25	0xbc5cc793	-0.013475317
26	0x3ce88b9e	0.028386887
27	0xbd72348e	-0.05913215
28	0xbd0832b4	-0.03325148
29	0xbd07d9ad	-0.033166576
30	0x3e074ac9	0.13212122
31	0xbcd992f4	-0.02655933
32	0x3e1a8d00	0.1509285
33	0xbcacdadf	-0.02110046
34	0x3cc8dabe	0.024518367
35	0xbceb50fe	-0.028725144
36	0x3b92be6f	0.004478268
37	0xbc82dc79	-0.01597427
38	0x3e06e9af	0.1317508
39	0xbc888448	-0.01666464
40	0xba021528	-0.0004962259
41	0x3d8ab7dd	0.067733504
42	0xbc90a6a0	-0.017657578
43	0x3c8680f4	0.016418912
44	0x3bf07973	0.0073386966
45	0x3d76b808	0.0602341
46	0xba7fe74f	-0.00097619457
47	0x3c50110a	0.012699375
48	0x3b4275f7	0.0029672363
49	0x3d9c161b	0.07621404
50	0x3d211ee7	0.03933611
51	0xbd01555b	-0.031575542
52	0xbc6e927a	-0.01456129
53	0xbcf8c4e0	-0.030367315
54	0x3cd6e138	0.02623044
55	0xbd99a632	-0.07502402
56	0x3ba4691e	0.0050174138
57	0x3c78b640	0.015180171
58	0x3ce9f3b0	0.028558582
59	0xbc872164	-0.016495414
60	0x3c97d70f	0.018535165
61	0xbceee40d	-0.029161477
62	0x3cba6da0	0.022757351
63	0xbc8708a5	-0.016483614
64	0x3cb046b6	0.021518093
65	0xbcb9d94f	-0.022686629
66	0x3b3bc1ba	0.0028649406
67	0xba89420d	-0.0010471955
68	0xbdeaa8d1	-0.114579804
69	0x3c916d9b	0.01775246
70	0xbcdedf0b	-0.027205965
71	0xbd08d6b0	-0.033407867
72	0x3b9eba91	0.004844018
73	0xbccf9abd	-0.02534234
74	0xbc0480cf	-0.008087351
75	0xbdb6ca35	-0.08925287
76	0xbcde1ea0	-0.027114213
77	0x3e05af04	0.13055044
78	0xbc124159	-0.008926713
79	0xbd3bb304	-0.04582502
80	0x3c307b59	0.010771596
81	0x3d1fd33a	0.0390198
82	0x3d27f0c5	0.0410011
83	0xbdadcd0c	-0.08486375
84	0x3e04e9b5	0.12979777
85	0x3c159e46	0.009131974
86	0x3c8aa3a6	0.016923737
87	0x3b238b83	0.0024954982
88	0xbca04476	-0.019563895
89	0xbcad48f3	-0.021152949
90	0xbc8523cf	-0.016252426
91	0xbc08767a	-0.008329028
92	0xbc8e16e1	-0.017344894
93	0x3d0bbabd	0.034113634
94	0xbc6e85a3	-0.014558229
95	0xbb7f1ce6	-0.0038927137
96	0x3d3d17d9	0.04616532
97	0x3de9599e	0.11394046
98	0x3ced5e7c	0.028975718
99	0x3def52d1	0.11685718
100	0x3ce1368e	0.027491834
101	0xbd363a43	-0.044489156
102	0xbcd98ff0	-0.026557893
103	0xbab428c0	-0.0013745055
104	0x3bffbb54	0.0078043137
105	0xbd17d63a	-0.037069537
106	0xbc67499b	-0.01411667
107	0xbcabd3d4	-0.020975031
108	0x3cd909ee	0.026493993
109	0x3c02cf8a	0.0079840515
110	0x3d15e2ff	0.036593433
111	0x3c3a4a55	0.011370261
112	0x3cf7dac9	0.030255692
113	0x3c85ed88	0.016348615
114	0xbd9e2814	-0.07722488
115	0x3d1a8746	0.037726663
116	0x3d0a6b99	0.03379402
117	0xbd076463	-0.03305472
118	0xbd6efc89	-0.058346305
119	0x3ca86eee	0.020560708
120	0xbc721b8d	-0.014777076
121	0x3daac2db	0.08337947
122	0xbe050cc3	-0.1299315
123	0xba366b2f	-0.00069587206
124	0xbc6ccb14	-0.0144527145
125	0xbcda96c5	-0.02668322
126	0xbc0d4f83	-0.008624914
127	0xbcc450d9	-0.023964332
128	0x3cb9c061	0.022674741
129	0x3be07cfa	0.006850836
130	0x3d4a463f	0.0493834
131	0xbb996945	-0.0046817386
132	0xbd1a1fd7	-0.03762802
133	0xbc8b1ebc	-0.016982429
134	0xbcf74bb3	-0.030187463
135	0x3cb1f8da	0.021725107
136	0xbca7fd81	-0.020506622
137	0x3dc355f0	0.09537876
138	0xbdaa4c91	-0.08315385
139	0x3cc22256	0.023698013
140	0xbd8378fb	-0.064195596
141	0xbdb2e278	-0.08734602
142	0xbb65a2c6	-0.0035039647
143	0x3d9aecd5	0.075647034
144	0x3db39f04	0.08770564
145	0xbcba2d45	-0.022726664
146	0xbb3e798a	-0.0029064142
147	0x3c6a4a3c	0.014299925
148	0xbd2bf30b	-0.04197983
149	0x3cc23102	0.02370501
150	0xbab77b61	-0.0013998562
151	0x3d82a968	0.06379968
152	0x3da1b6e3	0.07896211
153	0xbbb1005a	-0.0054016532
154	0xbcce3040	-0.025169492
155	0xbc043457	-0.008069119
156	0x3c8ccd5f	0.017187772
157	0x3ccbe7e4	0.024890848
158	0x3cb4b861	0.022060575
159	0xb9a3094d	-0.00031096712
160	0x3cb992e3	0.022653049
161	0xbb081cd3	-0.0020769134
162	0x3d07a2a9	0.03311411
163	0x3d1f1a68	0.038843542
164	0x3d8f1337	0.06986087
165	0xbd6ecda7	-0.058301594
166	0x3d1a4022	0.037658818
167	0xbd94d8d0	-0.07267916
168	0xbd071e0d	-0.032987643
169	0x3d9c2568	0.07624322
170	0x3d901e41	0.070370205
171	0x3ce251f9	0.027626978
172	0xbd85a6a0	-0.06525922
173	0xbc641d50	-0.013923004
174	0xbc4215cd	-0.011846018
175	0xbce0f16a	-0.027458865
176	0xbd02d086	-0.031937145
177	0xbc5c9662	-0.013463588
178	0x3d08dc6f	0.033413347
179	0x3c9cbd74	0.019133307
180	0x3c784785	0.01515377
181	0xbc2d2214	-0.010567207
182	0x3d833ac9	0.06407697
183	0xbd089c89	-0.03335241
184	0xbd65d5fd	-0.05611228
185	0x3cc18680	0.023623705
186	0x3d1582ae	0.03650158
187	0xbd2a2487	-0.04153874
188	0x3cc34c56	0.02384011
189	0xbdb8fad8	-0.0903222
190	0x3c28b00b	0.010295878
191	0x3cb3ccf6	0.021948319
192	0xbc9e524d	-0.019326353
193	0xbd11e520	-0.0356189
194	0xbd7b41c5	-0.06134202
195	0xbd63991f	-0.05556595
196	0xba0e1b1f	-0.00054209115
197	0xbd133d66	-0.035947226
198	0xbd7d16bc	-0.06178926
199	0xbdeb6545	-0.11493925
200	0xbd2adb32	-0.041712947
201	0xbbe399d7	-0.0069458294
202	0x3995dde2	0.0002858481
203	0x3a5f9542	0.0008529016
204	0x3c97f14d	0.018547678
205	0x3d46e9a7	0.048562672
206	0xbd41c269	-0.047304545
207	0x3d46edb9	0.048566554
208	0x3d045ab6	0.03231307
209	0x3db71f82	0.089415565
210	0x3de2be98	0.11071509
211	0xbb288d2e	-0.0025718915
212	0x3bd0f40f	0.0063767503
213	0x3c361ab8	0.011114769
214	0xbb901195	-0.004396627
215	0x3cbe233d	0.023210162
216	0x3dcca336	0.099920675
217	0xbc1ebeef	-0.009689077
218	0x3cceedab	0.025259813
219	0xba214516	-0.0006151957
220	0xbd861e0b	-0.06548699
221	0xbc82a79d	-0.015949065
222	0x3c93c94b	0.01804032
223	0x3d883faa	0.06652768
224	0x3b6c1ab5	0.003602666
225	0x3cfa64ed	0.030565703
226	0xbbb65b3c	-0.005565075
227	0x3ca2fe89	0.019896762
228	0x3d7293a8	0.059222847
229	0xbb062a9a	-0.002047217
230	0x3caf0849	0.021366255
231	0x3ced526e	0.02896997
232	0x3c56fb32	0.013121413
233	0x3ce298b0	0.027660698
234	0xbc5a52e4	-0.013325427
235	0xbc8ff07e	-0.01757073
236	0x3d80f8a7	0.06297427
237	0xbcd31dc3	-0.025771027
238	0xbc9d93a5	-0.019235441
239	0x3dc57218	0.09640902
240	0x3c236352	0.00997241
241	0xbcde66c1	-0.027148606
242	0xbd99466e	-0.074841365
243	0xbc8d7fb8	-0.017272815
244	0xbc969532	-0.018381689
245	0xbcf4dee5	-0.02989144
246	0x3d22f575	0.039784867
247	0x3c877915	0.016537229
248	0x3c319a3e	0.010839997
249	0x3c00a086	0.007850772
250	0xbcc7e959	-0.024403261
251	0x3dde5599	0.1085617
252	0xbc7b5c4f	-0.015341832
253	0xbd74b11b	-0.059739213
254	0xbc3cbe11	-0.011519925
255	0xbcc67107	-0.024223818

net.6.bias f4 [9]
0	0x3cdec1fd	0.02719211
1	0xbca6d092	-0.020363126
2	0xbb6bab56	-0.0035960278
3	0x3b832f9c	0.004003478
4	0xbbe68e6f	-0.0070360224
5	0x3bb7840a	0.005600457
6	0x3bb61b25	0.005557435
7	0x3ebe5727	0.37175867
8	0x3e7336b2	0.23751333

exp_avg f4 [256, 23]
0	0x3860c2ee	5.3587304e-05
1	0x38a3401f	7.784389e-05
2	0xb8d8682c	-0.00010319086
3	0x3a135de8	0.0005621598
4	0xb93f8ff4	-0.00018268806
5	0xb99490da	-0.00028336683
6	0xb8fde772	-0.0001210709
7	0x39de31b2	0.00042380166
8	0xba4ea749	-0.0007883204
9	0x38c048b1	9.168813e-05
10	0xb6195cd1	-2.2852803e-06
11	0x37ef1928	2.8502734e-05
12	0x3777967c	1.4757385e-05
13	0x38928878	6.987242e-05
14	0xb8ea1340	-0.00011161575
15	0x3852fb58	5.0301984e-05
16	0x35ce431c	1.5367727e-06
17	0x35d524f0	1.5880487e-06
18	0x38663f10	5.4895005e-05
19	0xb9052c65	-0.00012700407
20	0x37da8727	2.605056e-05
21	0xb9b524ed	-0.00034550522
22	0x3818b9c7	3.6412643e-05
23	0x3a368154	0.00069620204
24	0xb9041eb2	-0.00012599936
25	0xb9abed70	-0.00032792566
26	0x3a2725be	0.00063761685
27	0xb9539f98	-0.00020181981
28	0xba49ccb1	-0.0007698043
29	0xb9f5b732	-0.00046866533
30	0x382e579e	4.1566433e-05
31	0xb9ffa9fc	-0.00048764038
32	0x391afe4c	0.00014781317
33	0x39187e0b	0.00014542804
34	0xb7ecf4c6	-2.8247374e-05
35	0x3876d115	5.8845693e-05
36	0x3914f420	0.00014205324
37	0xb7d1da52	-2.5016405e-05
38	0xb8894cbb	-6.546961e-05
39	0x3511ba06	5.428741e-07
40	0x34e7f807	4.3207567e-07
41	0xb78507d0	-1.5858473e-05
42	0xb93ac45f	-0.00017811496
43	0xb80ae086	-3.3110868e-05
44	0xb9c37334	-0.0003727913
45	0x39945e48	0.00028299005
46	0xb99014e7	-0.00027481394
47	0xb8857d70	-6.365299e-05
48	0x38d34181	0.00010073465
49	0xb992f51e	-0.00028029917
50	0x379ae4e6	1.846482e-05
51	0x39e16ea0	0.00042997766
52	0x397a5c00	0.0002387613
53	0x38c8ff20	9.584264e-05
54	0x399485a6	0.00028328336
55	0x37edc619	2.8344848e-05
56	0xb84a9d49	-4.8307036e-05
57	0xb7391436	-1.1031565e-05
58	0x3888bb4a	6.519871e-05
59	0xb82b9d86	-4.0916282e-05
60	0x36f5285f	7.306269e-06
61	0xb72f1ee4	-1.0438005e-05
62	0xb4436db3	-1.8200699e-07
63	0xb58d19ea	-1.0512861e-06
64	0xb7dfdfc0	-2.6687863e-05
65	0x389fd846	7.621995e-05
66	0x374260f6	1.1585877e-05
67	0x38c88073	9.560669e-05
68	0xb907e09b	-0.00012958275
69	0xb78449d7	-1.577001e-05
70	0xb9128368	-0.00013972598
71	0x37b9fc7d	2.2171293e-05
72	0x3902baa0	0.0001246729
73	0xb9941b7a	-0.0002824923
74	0xb8ab0c7a	-8.156239e-05
75	0x391d3b18	0.00014994701
76	0x3a168b40	0.0005742796
77	0x389a09d2	7.3451214e-05
78	0x3820ab0b	3.830627e-05
79	0xb87c01f1	-6.008329e-05
80	0x380a8c01	3.3032153e-05
81	0x38ceba7c	9.857581e-05
82	0xb8326844	-4.2535612e-05
83	0xb8f3721b	-0.00011608397
84	0x38ed60b4	0.00011319053
85	0x35aa8e11	1.2707334e-06
86	0x35b087dc	1.3152562e-06
87	0xb732fafa	-1.0668062e-05
88	0x36884a3a	4.061757e-06
89	0x37ffc852	3.049165e-05
90	0xb8b7ea24	-8.769732e-05
91	0xb8d6567b	-0.000102204234
92	0xb9b6a096	-0.0003483339
93	0x390998d7	0.00013122275
94	0x39074728	0.00012901111
95	0xb77cabb1	-1.50603455e-05
96	0x391168d6	0.00013867332
97	0x39abb101	0.0003274754
98	0x3903b5e4	0.00012560893
99	0xb8118fb9	-3.4704546e-05
100	0x39be9a1c	0.00036354444
101	0xb67b3cce	-3.7437308e-06
102	0xb82eb28b	-4.1651114e-05
103	0x37ea4599	2.7927383e-05
104	0x38ba79e9	8.891879e-05
105	0xb8a21c48	-7.73003e-05
106	0xb848f3a4	-4.7910624e-05
107	0x3715780c	8.909043e-06
108	0x343bdd1f	1.7496176e-07
109	0x33b221f1	8.294945e-08
110	0x3720e702	9.590529e-06
111	0x3865714b	5.4703367e-05
112	0x37ebf29c	2.8127157e-05
113	0x382f18e1	4.174642e-05
114	0xb8f0c273	-0.00011480311
115	0x39e25dcc	0.00043175963
116	0xb9250dc3	-0.00015740753
117	0xb91a6441	-0.00014723932
118	0x38605891	5.3488246e-05
119	0xb86274f0	-5.3991505e-05
120	0xb9b075df	-0.00033657157
121	0xb94b83ff	-0.00019408761
122	0xb728a7ac	-1.00526195e-05
123	0x38da712f	0.00010416132
124	0xb6fa66a1	-7.462528e-06
125	0x37ede705	2.8360178e-05
126	0xb784d443	-1.5834468e-05
127	0xb68811ae	-4.055174e-06
128	0xb757fe52	-1.2874212e-05
129	0x37fab3b1	2.9885998e-05
130	0xb829f195	-4.051773e-05
131	0xb4caa2bf	-3.7743845e-07
132	0x340fa3fa	1.3377567e-07
133	0x37877001	1.614541e-05
134	0x36ec1c8b	7.036671e-06
135	0xb708b4a5	-8.148291e-06
136	0xb801ba8d	-3.0929736e-05
137	0x38d7ab3f	0.00010283896
138	0xb9405578	-0.00018342386
139	0x377dcbcf	1.5127428e-05
140	0x392794ad	0.00015981747
141	0xb8e3b0ac	-0.00010857111
142	0x390b4922	0.00013283317
143	0x38fa69b4	0.00011940618
144	0x393d26e7	0.00018038937
145	0x38faec44	0.00011964937
146	0x3a49d6e3	0.0007699562
147	0xb897b8a3	-7.234632e-05
148	0xb75306f1	-1.2578196e-05
149	0x3893b96d	7.0440445e-05
150	0x38ae79dc	8.3196646e-05
151	0xb8fa2152	-0.00011927135
152	0xb8b26e6d	-8.50827e-05
153	0x38f1a4f6	0.00011522502
154	0xb488182a	-2.5349556e-07
155	0x34e36a2f	4.2359304e-07
156	0x3843f68f	4.672125e-05
157	0x38fa6d76	0.00011941318
158	0x3817797e	3.6114354e-05
159	0x393cb236	0.00017995466
160	0xb854419f	-5.0605853e-05
161	0xba004ce3	-0.00048942695
162	0x38da44de	0.000104078776
163	0x3927aeb8	0.00015991449
164	0xb9a97a31	-0.00032325232
165	0x390bd907	0.00013336922
166	0x3a1a2353	0.00058798975
167	0x397b9064	0.00023991015
168	0x38227f3a	3.87423e-05
169	0x3910e5e4	0.00013818551
170	0xb78815ac	-1.6222555e-05
171	0xb86e8a41	-5.687238e-05
172	0x37c9ff5d	2.407998e-05
173	0x37ecbe74	2.8222079e-05
174	0xb8b0b083	-8.425212e-05
175	0xb5028caa	-4.8633467e-07
176	0x38222ecb	3.866739e-05
177	0xb50c6d79	-5.231337e-07
178	0xb580bbd3	-9.591407e-07
179	0x370771ce	8.073124e-06
180	0x384a2e7c	4.8203845e-05
181	0xb5c11544	-1.438581e-06
182	0x3939008e	0.00017643181
183	0xb918cae9	-0.0001457144
184	0xb85c655f	-5.2546497e-05
185	0xb956eb03	-0.00020496179
186	0x392a22f3	0.00016225483
187	0xba55180e	-0.00081288896
188	0xb922bc78	-0.00015519734
189	0x3970656f	0.0002292597
190	0x39c2940e	0.00037112873
191	0x39cc449d	0.00038961033
192	0x3a03eff9	0.0005033012
193	0xb926bce8	-0.00015901367
194	0xb8f5d6fc	-0.00011722554
195	0x388e5107	6.78618e-05
196	0xb90a4046	-0.0001318465
197	0xb8c9e62e	-9.627301e-05
198	0x37bb0526	2.2294535e-05
199	0x38ad9ea2	8.2788305e-05
200	0x34a837cb	3.1333033e-07
201	0x35cc7d4f	1.5235654e-06
202	0x37f647c2	2.93589e-05
203	0x393bb479	0.00017900941
204	0x375a6631	1.3017606e-05
205	0x39eb36a1	0.00044863395
206	0xb91a5d57	-0.00014721356
207	0xb8876d83	-6.4577e-05
208	0xb77889ac	-1.4814006e-05
209	0x39120cf2	0.00013928468
210	0xb8b2ccd3	-8.525853e-05
211	0xb7739d7c	-1.4520596e-05
212	0xb8f42c1f	-0.00011643045
213	0x3912e954	0.00014010567
214	0x3909b05e	0.0001313104
215	0x39a9e917	0.00032407857
216	0xb87c4c1a	-6.0152357e-05
217	0x37b0642c	2.1027481e-05
218	0x382a6264	4.0622792e-05
219	0xb7f595c6	-2.927602e-05
220	0xb6991c45	-4.5630463e-06
221	0xb88ab91d	-6.614833e-05
222	0x3883f98f	6.293051e-05
223	0x3498c3df	2.845472e-07
224	0x3546b8bf	7.402959e-07
225	0xb80cfa85	-3.3611916e-05
226	0x3804579a	3.1552838e-05
227	0x36879341	4.040456e-06
228	0x3912a740	0.0001398595
229	0xb6f383e9	-7.2573207e-06
230	0x3a13b4fe	0.0005634575
231	0xb9b27f5d	-0.000340457
232	0xb8d3f979	-0.00010107732
233	0x37fc8bed	3.0105899e-05
234	0xb998c96e	-0.00029141776
235	0xba25c420	-0.00063234754
236	0xb89d41bc	-7.4985874e-05
237	0x3a17d5b8	0.00057920394
238	0x3a56537f	0.0008175894
239	0xb7c6f094	-2.3715467e-05
240	0x37b75f50	2.1859683e-05
241	0x3804ce8e	3.166362e-05
242	0x37a47c42	1.9608186e-05
243	0xb89c690e	-7.4582276e-05
244	0x38aeea5d	8.34062e-05
245	0x38384ad0	4.3938693e-05
246	0x35909101	1.0771038e-06
247	0x3630600f	2.6281957e-06
248	0xb819a12e	-3.6628153e-05
249	0x37189e61	9.0967815e-06
250	0x3636c7c2	2.7236388e-06
251	0x38862636	6.396735e-05
252	0x3927d07e	0.0001600403
253	0xb7829ac0	-1.5569269e-05
254	0x37d93839	2.5894597e-05
255	0x381914a3	3.6497262e-05

exp_avg_sq f4 [256, 23]
0	0x36305c95	2.6279934e-06
1	0x3669842e	3.4796644e-06
2	0x346a7b3f	2.1837785e-07
3	0x3608f82f	2.041004e-06
4	0x3620a407	2.3937334e-06
5	0x354447e5	7.312031e-07
6	0x3574ea3f	9.1237956e-07
7	0x36b09875	5.262957e-06
8	0x368e58f0	4.2422835e-06
9	0x338ffe4d	6.7052135e-08
10	0x32848843	1.5428787e-08
11	0x332e65de	4.060518e-08
12	0x3334db50	4.210898e-08
13	0x3397298f	7.039045e-08
14	0x339450ef	6.906509e-08
15	0x3359404c	5.0582727e-08
16	0x2e5ac0a5	4.9738564e-11
17	0x2c48d2c7	2.8538714e-12
18	0x33ed0ced	1.1038524e-07
19	0x33ede774	1.10782736e-07
20	0x3191c2c3	4.2421973e-09
21	0x350c930a	5.2368034e-07
22	0x339a974c	7.1987046e-08
23	0x3643b742	2.9163934e-06
24	0x3683afe2	3.9245797e-06
25	0x34811c04	2.4048506e-07
26	0x36197979	2.2869483e-06
27	0x3636987b	2.7208869e-06
28	0x356bc026	8.7823935e-07
29	0x3589a0f0	1.0254134e-06
30	0x36c05b64	5.732685e-06
31	0x36aa3224	5.072232e-06
32	0x33ac816f	8.032918e-08
33	0x32c12762	2.2486066e-08
34	0x33796536	5.806688e-08
35	0x33504fd0	4.8501363e-08
36	0x33cbbc01	9.487122e-08
37	0x33e960c0	1.0867507e-07
38	0x33958399	6.962291e-08
39	0x2dc9e47f	2.2952527e-11
40	0x2c9c9c11	4.4511135e-12
41	0x34166010	1.4004786e-07
42	0x34082ca2	1.2682224e-07
43	0x31e013f6	6.5215273e-09
44	0x351d7d55	5.866944e-07
45	0x33ba3b96	8.6721386e-08
46	0x35204419	5.970374e-07
47	0x3566a15a	8.5916474e-07
48	0x3320e133	3.745772e-08
49	0x3503ba52	4.9072435e-07
50	0x351d975a	5.8707303e-07
51	0x341878d4	1.420006e-07
52	0x346b43de	2.191077e-07
53	0x35a36bec	1.2175856e-06
54	0x3583c71d	9.81821e-07
55	0x326a2346	1.3628613e-08
56	0x316ad43e	3.4172127e-09
57	0x31ff957c	7.438471e-09
58	0x320158f0	7.52901e-09
59	0x32771df1	1.43841e-08
60	0x326525fc	1.3338191e-08
61	0x3232a857	1.039924e-08
62	0x2df661bf	2.801037e-11
63	0x2b59f1f7	7.742968e-13
64	0x32e65a10	2.681648e-08
65	0x32db1d63	2.5508319e-08
66	0x3075c9c4	8.9417207e-10
67	0x3400e5f4	1.2004585e-07
68	0x3266cd90	1.34345015e-08
69	0x35b7b3b5	1.3686864e-06
70	0x35fce845	1.8843062e-06
71	0x33e13310	1.0486667e-07
72	0x359a0563	1.1475462e-06
73	0x35aca13b	1.2861923e-06
74	0x34c2d921	3.6293298e-07
75	0x3508fcd2	5.103185e-07
76	0x3639b597	2.7672847e-06
77	0x361f43fb	2.3732416e-06
78	0x33095383	3.197375e-08
79	0x320bffce	8.149028e-09
80	0x32ae7ead	2.0313871e-08
81	0x32977f43	1.7636586e-08
82	0x33157527	3.4798315e-08
83	0x330ecd6e	3.324879e-08
84	0x32f10fd9	2.80633e-08
85	0x2dc6f2d0	2.2617824e-11
86	0x2c07db15	1.9306269e-12
87	0x33773c5f	5.7564076e-08
88	0x3380469c	5.973308e-08
89	0x31174808	2.2014337e-09
90	0x349c150a	2.9072572e-07
91	0x3300e794	3.001294e-08
92	0x353c7724	7.020883e-07
93	0x358ba1ab	1.0403359e-06
94	0x333ec408	4.441611e-08
95	0x351f3427	5.930801e-07
96	0x353e8a6c	7.0981946e-07
97	0x343a4e4f	1.7351088e-07
98	0x34909d03	2.693633e-07
99	0x35c6c0fe	1.4808318e-06
100	0x35a17a2d	1.2030993e-06
101	0x328eac00	1.6609192e-08
102	0x318e927c	4.1493973e-09
103	0x3230705e	1.0270098e-08
104	0x322b2e6b	9.964064e-09
105	0x3299bb87	1.7896822e-08
106	0x329af164	1.8037731e-08
107	0x3264a4d3	1.3308823e-08
108	0x2e118f7f	3.3096633e-11
109	0x2b83bd6f	9.360688e-13
110	0x331e93ce	3.692167e-08
111	0x33093d16	3.1953356e-08
112	0x30ad2969	1.2599176e-09
113	0x341cdfbd	1.4610028e-07
114	0x32759c45	1.42964085e-08
115	0x35415e34	7.2035186e-07
116	0x3585a3b7	9.95692e-07
117	0x3350da98	4.8627584e-08
118	0x3512ed5f	5.473466e-07
119	0x353aecad	6.963481e-07
120	0x34493aba	1.8740948e-07
121	0x34823e07	2.4259518e-07
122	0x35c22d3b	1.446729e-06
123	0x35a31d87	1.215304e-06
124	0x32998e0e	1.7876143e-08
125	0x317e2e6f	3.698826e-09
126	0x323f786c	1.1145044e-08
127	0x320fb507	8.364856e-09
128	0x3294cc54	1.7322385e-08
129	0x32966cff	1.7511864e-08
130	0x32723ed5	1.410054e-08
131	0x2d13921a	8.388424e-12
132	0x2b629052	8.0491614e-13
133	0x332dfa2e	4.050724e-08
134	0x32f9286a	2.9005793e-08
135	0x30eb20ee	1.710786e-09
136	0x341015c9	1.341897e-07
137	0x32843e4d	1.5395154e-08
138	0x354284cf	7.2463894e-07
139	0x358a3512	1.0297247e-06
140	0x33737d45	5.669178e-08
141	0x3526a8e4	6.208559e-07
142	0x353cda68	7.035328e-07
143	0x34550277	1.9838068e-07
144	0x3498a606	2.8433004e-07
145	0x35d25be2	1.5672961e-06
146	0x35b2dc18	1.3326089e-06
147	0x32ad2c8d	2.016011e-08
148	0x31a26a82	4.726929e-09
149	0x327af408	1.46074015e-08
150	0x32397ea9	1.07972165e-08
151	0x32ca016c	2.3516542e-08
152	0x32c487d4	2.287917e-08
153	0x3286ff67	1.5715797e-08
154	0x2c997fdc	4.362717e-12
155	0x2b52ddde	7.491489e-13
156	0x332353f3	3.8027746e-08
157	0x3311c7a5	3.394202e-08
158	0x30c40336	1.426179e-09
159	0x342b44ca	1.5950641e-07
160	0x329fc58f	1.8599875e-08
161	0x35c10651	1.4381459e-06
162	0x3606d1ef	2.0089753e-06
163	0x33ef441f	1.1141696e-07
164	0x3599ba91	1.1453686e-06
165	0x35b775c2	1.3668835e-06
166	0x34c3e1e0	3.6485926e-07
167	0x35102a71	5.370594e-07
168	0x36475501	2.970279e-06
169	0x3623bb75	2.4398007e-06
170	0x332ab22a	3.974325e-08
171	0x322145d5	9.387311e-09
172	0x32d63469	2.4936712e-08
173	0x32ab87e4	1.9968816e-08
174	0x332911cc	3.9364565e-08
175	0x3311c56a	3.393999e-08
176	0x32ef6845	2.7870678e-08
177	0x2d272f61	9.503371e-12
178	0x2bd98696	1.5456132e-12
179	0x33912616	6.7590165e-08
180	0x3388d7e3	6.372263e-08
181	0x314adba0	2.9519711e-09
182	0x349c101f	2.9068994e-07
183	0x331d4a88	3.6622197e-08
184	0x360d3207	2.1039757e-06
185	0x363e66ba	2.8372e-06
186	0x34226c09	1.5126729e-07
187	0x35cefbcd	1.542148e-06
188	0x3604b00e	1.977201e-06
189	0x351d3408	5.8562773e-07
190	0x353b8c4f	6.9867104e-07
191	0x3690e633	4.318333e-06
192	0x367100b7	3.5912215e-06
193	0x335eb23a	5.18505e-08
194	0x3280ed2b	1.5009013e-08
195	0x3311fbde	3.3989515e-08
196	0x3304d36c	3.0925932e-08
197	0x338211fd	6.056869e-08
198	0x339616b3	6.989048e-08
199	0x334ff74c	4.842086e-08
200	0x2d6b5621	1.3377328e-11
201	0x2c46b596	2.8238293e-12
202	0x33e543de	1.06759884e-07
203	0x33c00b6f	8.9427765e-08
204	0x31a2a434	4.7334883e-09
205	0x34cf0a61	3.8564306e-07
206	0x3361baed	5.2556903e-08
207	0x34f5cabd	4.5782318e-07
208	0x352cc40a	6.436027e-07
209	0x32fc9e34	2.9408604e-08
210	0x34b70367	3.4088882e-07
211	0x34f36d51	4.5341815e-07
212	0x33ebaf65	1.0974944e-07
213	0x341e0664	1.4717222e-07
214	0x3581c147	9.6675e-07
215	0x353c9fc4	7.026795e-07
216	0x322cec3a	1.0065429e-08
217	0x313a526b	2.7113412e-09
218	0x3205be79	7.784927e-09
219	0x31c76d5b	5.8040945e-09
220	0x3233bb39	1.0461741e-08
221	0x32635afd	1.3233827e-08
222	0x32171508	8.794139e-09
223	0x2d03e876	7.498105e-12
224	0x2b127e86	5.2045206e-13
225	0x32dda088	2.5800787e-08
226	0x329fda39	1.8609272e-08
227	0x30843ba9	9.62122e-10
228	0x33b05243	8.210602e-08
229	0x322d391f	1.0082913e-08
230	0x35c231d8	1.4468633e-06
231	0x360182dc	1.9298668e-06
232	0x33e480ca	1.0640504e-07
233	0x35930bf8	1.0955837e-06
234	0x35b5ec38	1.35543e-06
235	0x34e7bb99	4.3163598e-07
236	0x35073124	5.036293e-07
237	0x3642a8b3	2.9006449e-06
238	0x361e8e55	2.3626683e-06
239	0x3338a53c	4.2991118e-08
240	0x32243815	9.558808e-09
241	0x32f32bed	2.8308898e-08
242	0x32a43b99	1.9119215e-08
243	0x3339bf4f	4.3247663e-08
244	0x33280e09	3.9128313e-08
245	0x32f219fc	2.8184324e-08
246	0x2e29149e	3.8444463e-11
247	0x2bfd49d9	1.7997228e-12
248	0x3384ce0b	6.184208e-08
249	0x33753c37	5.7098273e-08
250	0x3112e617	2.1376587e-09
251	0x34932a26	2.741155e-07
252	0x33358009	4.2258794e-08
253	0x35c386a0	1.4567813e-06
254	0x3605d79c	1.9944046e-06
255	0x33df3cf6	1.03953354e-07
