RefAgent/BC-CAB-256128/checkpoints/agent_5400.pt (torch, 488547 bytes, 18 tensors)

net.0.weight f4 [256, 23]
0	0xbdc4d7a8	-0.09611446
1	0xbcf0ddc7	-0.029402627
2	0xbe1328ee	-0.14371082
3	0xbc7c1242	-0.015385212
4	0xbc756d76	-0.014979711
5	0xbd363210	-0.044481337
6	0xbcb33a33	-0.021878337
7	0xbcc030dd	-0.0234608
8	0xbc6d68d3	-0.014490324
9	0xbe3fc791	-0.18728472
10	0xbea65d25	-0.3249294
11	0xbf0739d8	-0.5282264
12	0x3d864de3	0.065578245
13	0x3d802918	0.06257838
14	0xbdefb847	-0.1170507
15	0xbb0e0db5	-0.002167565
16	0xbeb3006d	-0.34961262
17	0xc03b2c43	-2.9245765
18	0x3e9e762a	0.30949527
19	0x3db0308a	0.08603008
20	0x3f900873	1.1252578
21	0x3e2f1460	0.17097616
22	0x3de2c318	0.110723674
23	0x3c74c6d8	0.014939986
24	0xbe469983	-0.19394498
25	0x3d6d360b	0.057912868
26	0xbd259273	-0.040422868
27	0x3d87824b	0.06616648
28	0xbd938b48	-0.072043
29	0x3b5d4ba2	0.0033767004
30	0xbcb6b021	-0.022300782
31	0xbc4b0e29	-0.012393513
32	0x3c899886	0.016796362
33	0xbf376703	-0.7164156
34	0xbe6301ab	-0.22168605
35	0x3e8cc3f8	0.27493262
36	0x3d7c9640	0.061666727
37	0xbe7f0888	-0.24905598
38	0xbd301fa4	-0.042998925
39	0x3ddb9796	0.10722272
40	0x3e1ac9c4	0.1511603
41	0x3d483325	0.0488769
42	0xbe9fa0a5	-0.3117725
43	0x3e8539ee	0.2602076
44	0x3e3f57dd	0.18685861
45	0xbcf55046	-0.029945504
46	0x3d646c68	0.055767447
47	0xbd16c73c	-0.0368111
48	0x3c5095ef	0.012731059
49	0x3d311965	0.04323711
50	0xbc3dc839	-0.011583381
51	0x3d874c2e	0.06606327
52	0x3de50ac5	0.11183695
53	0xbd4795ff	-0.04872703
54	0x3b8f9414	0.004381666
55	0xbde8ffd9	-0.11376924
56	0x3e8dcbab	0.2769445
57	0x3e9be70c	0.30449712
58	0xbe913dd4	-0.28367484
59	0xbbbcd14b	-0.0057622544
60	0x3e1023aa	0.14076105
61	0x3e5c5044	0.21514994
62	0xbed4dbce	-0.41573948
63	0x3f59aaf4	0.8502648
64	0xbcc47f4e	-0.023986485
65	0xbe493a69	-0.19651188
66	0xbe0cb9b5	-0.13742717
67	0xbd0971c4	-0.03355576
68	0xbdbf2224	-0.09332684
69	0x3ca78bd1	0.020452412
70	0xbcb939ee	-0.02261063
71	0xbdc86580	-0.097849846
72	0x3c04bb5a	0.008101309
73	0x3c93bb7a	0.018033732
74	0x3c6ac1a2	0.014328392
75	0x3c8e15a3	0.017344302
76	0xbc24d6bf	-0.010060965
77	0xbc503911	-0.012708918
78	0xbc01fda8	-0.0079340115
79	0xbe7afa3f	-0.24509524
80	0xbeb6b6e5	-0.35686412
81	0x3dd98563	0.106211446
82	0xbc3f2b5b	-0.011668052
83	0xbc0ff74a	-0.008786986
84	0xbd13727b	-0.03599785
85	0xbe12f5ab	-0.14351527
86	0xc0466270	-3.0997581
87	0x3edb95d9	0.42887762
88	0x3e905949	0.2819312
89	0x3f441ef5	0.76609737
90	0x3e2e8a93	0.1704505
91	0x3d8c6d55	0.06856791
92	0xbc1f476a	-0.009721616
93	0xbd90b450	-0.07065642
94	0x3c52696a	0.0128425155
95	0xbdf8deaf	-0.121518485
96	0x3cc7b807	0.024379743
97	0xbd8140ef	-0.06311213
98	0x3d3b2ca7	0.04569688
99	0xbceef0ea	-0.029167611
100	0xbd90cc6c	-0.070702404
101	0xbd2572d3	-0.040392708
102	0x3ead1c10	0.33810472
103	0x3e2a23b4	0.16615182
104	0xbc0ee3bc	-0.008721288
105	0xbe44134a	-0.19147983
106	0x3e3c8520	0.18410158
107	0x3c82d8a2	0.01597244
108	0xbddd2952	-0.10798897
109	0xbfbbf4e5	-1.4684111
110	0xbe7bb003	-0.24578862
111	0x3e09724d	0.13422509
112	0xbd634808	-0.055488616
113	0x3b042afb	0.002016722
114	0xbc04a8ef	-0.0080969175
115	0xbdfac681	-0.12244893
116	0xbc341318	-0.01099088
117	0xbd2c7e00	-0.04211235
118	0xbd6e6e7d	-0.05821084
119	0xbce09a38	-0.027417287
120	0xbd71a475	-0.05899473
121	0xbe19eea2	-0.15032437
122	0x3c208952	0.009798365
123	0xbb98b87b	-0.0046606637
124	0xbe42b30e	-0.19013616
125	0x3d836825	0.06416348
126	0xbd0cdd75	-0.034390885
127	0xbe7862bd	-0.24256416
128	0xbd973481	-0.07383061
129	0xbe4d2d92	-0.20036915
130	0xbe83c172	-0.25733525
131	0xbe83aa3a	-0.2571581
132	0x3f2cb3ea	0.6746203
133	0xbe2132b4	-0.15741998
134	0xbe44d24f	-0.19220851
135	0x3eaec126	0.34131736
136	0x3cf22553	0.029558813
137	0xbc912940	-0.017719865
138	0x3c0c8e38	0.0085788295
139	0xbc40ca43	-0.011766973
140	0xbce1906f	-0.027534692
141	0xbda9b72c	-0.082868904
142	0xbd0b0beb	-0.033946913
143	0xbcc1b255	-0.023644606
144	0xbd74fd0d	-0.05981164
145	0x3d29e477	0.041477647
146	0xbc8799f6	-0.016552906
147	0x3da66d09	0.081262656
148	0x3f07b984	0.5301745
149	0x3dede7ef	0.116165034
150	0xbe54ffab	-0.20800655
151	0xbe66a31f	-0.22523163
152	0x3e0834ff	0.13301466
153	0xbe7fc063	-0.24975733
154	0xbdde264b	-0.108471476
155	0xbf9fd145	-1.2485739
156	0xbdc14e15	-0.09438721
157	0x3ee6cb37	0.45076916
158	0x3dff4d70	0.12465942
159	0xbd28673e	-0.041114084
160	0x3cc438a3	0.023952788
161	0x3de43576	0.11143009
162	0xbd2bc30d	-0.04193406
163	0xbc60df59	-0.013725125
164	0x3d43f5bc	0.047841772
165	0x3d749c85	0.05971958
166	0x3db8a2aa	0.09015401
167	0x3dea68fc	0.114458054
168	0xbc1fe16e	-0.0097583365
169	0x3c1bbd50	0.009505585
170	0x3e4daecd	0.20086212
171	0x3e7db9b1	0.24777867
172	0x3e4b9f40	0.19884968
173	0x3d2e0420	0.042484403
174	0x3dc7bfaa	0.09753354
175	0x3e97efee	0.2967524
176	0x3ea8e510	0.3298726
177	0x3f45cc0f	0.77264494
178	0xbe6668c5	-0.22500904
179	0xbd05ee7b	-0.032698136
180	0x3e6cf188	0.23139012
181	0xbe8c9116	-0.27454442
182	0xbe250d0f	-0.16118263
183	0xbce1dbd8	-0.02757065
184	0xbd5c22fc	-0.0537443
185	0x3e84d201	0.2594147
186	0xbd2d2cac	-0.04227893
187	0x3d629aea	0.05532352
188	0xbd5530fe	-0.052048676
189	0x3d4fe7d5	0.0507582
190	0xbc434ed7	-0.011920652
191	0x3b52dff5	0.0032176946
192	0x3b1cb752	0.0023912978
193	0xbd4ee33c	-0.050509676
194	0x3f1de6f6	0.61680543
195	0x3de9db51	0.114187844
196	0xbe032aa8	-0.12809241
197	0xbd9e6c2e	-0.077354774
198	0x3e503f92	0.2033675
199	0x3cd29ec1	0.025710465
200	0x3d7074be	0.058705084
201	0xbf12fb5f	-0.5741481
202	0x3d6a704e	0.05723601
203	0x3e6a5c22	0.22886708
204	0xbe0ae99c	-0.13565677
205	0xbdbdcf73	-0.092680834
206	0x3d3f9511	0.04677302
207	0xb9a8eb90	-0.00032218965
208	0x3cb46bd0	0.022024065
209	0x3cbfb7a6	0.023403
210	0x3b1e55f7	0.0024160126
211	0xbbf2baa4	-0.007407503
212	0x3b78ac5c	0.003794453
213	0xbd9c514d	-0.076326944
214	0x3d8e3cdb	0.06945201
215	0x3c1b8350	0.009491757
216	0x3d893221	0.066990145
217	0x3d08db2a	0.033412136
218	0xbd592ee0	-0.05302322
219	0x3e760215	0.24024232
220	0xbdc70a28	-0.09718734
221	0xbd62060c	-0.055181548
222	0xbe7ab81a	-0.24484292
223	0x3db2133c	0.08695075
224	0xbef27eb0	-0.4736228
225	0x3d0bc508	0.03412345
226	0x3e8f3db4	0.27976763
227	0xbe8f2acc	-0.2796234
228	0x3b88a56a	0.0041701095
229	0x3e10d4c9	0.14143671
230	0x3b82f64c	0.003996646
231	0x3be6bccd	0.00704155
232	0xbd84949e	-0.06473659
233	0xbe1405f1	-0.14455391
234	0xbd268404	-0.040653244
235	0xbd7b37bd	-0.061332453
236	0xbde6438f	-0.112433545
237	0x3c7061a0	0.014671713
238	0x3b941310	0.004518874
239	0x3dfc82f7	0.12329667
240	0x3d8887f0	0.06666553
241	0xbd7d4449	-0.0618327
242	0xbee9e32c	-0.4568113
243	0xbcd02c1d	-0.02541166
244	0xbd83ed91	-0.064417966
245	0xbd041713	-0.032248568
246	0x3c53b22b	0.0129208965
247	0xbf88b499	-1.0680114
248	0xbe9bfd55	-0.30466715
249	0x3edafca7	0.42770883
250	0x3f8bd1ea	1.0923436
251	0xbe2010dc	-0.15631431
252	0xbde28789	-0.110610075
253	0x3dffc56c	0.12488827
254	0x3d907af3	0.07054701
255	0x3e2fdfa9	0.17175163

net.0.bias f4 [256]
0	0x3c512fc9	0.0127677405
1	0xbdff35b8	-0.12461418
2	0xbc90ecd3	-0.017691052
3	0xbd2f3816	-0.042778097
4	0xbd97e801	-0.07417298
5	0x3d367720	0.0445472
6	0xbdfd8468	-0.1237877
7	0xbd82b30d	-0.063818075
8	0x3e6a37d4	0.22872859
9	0xbd38a509	-0.045079265
10	0xbe142dda	-0.14470616
11	0xba600df3	-0.00085470005
12	0xbe3055e1	-0.1722026
13	0x3cd5b9ff	0.026089666
14	0xbc35f6fa	-0.011106247
15	0x3d6cc609	0.05780605
16	0x3db6796b	0.089098774
17	0xbe0ccb17	-0.13749348
18	0x3b773eb1	0.0037726576
19	0xbd1ae35e	-0.03781449
20	0x3e4370f2	0.19086054
21	0xbe3a215e	-0.18176791
22	0xbd17c1e3	-0.03705014
23	0xbdcbd3b0	-0.099524856
24	0xbb25d78e	-0.0025305483
25	0xbbfc7c22	-0.0077052275
26	0xbd16bed6	-0.03680309
27	0xbe35781c	-0.177216
28	0xbe8de264	-0.27711785
29	0x3d83dfb9	0.06439156
30	0xbd895528	-0.067056954
31	0x3bdbfd33	0.0067135333
32	0x3d347845	0.04406001
33	0xbdb2037a	-0.08692069
34	0xbb1ffc27	-0.002441177
35	0x3d9f36ba	0.0777411
36	0x3e50b74c	0.20382422
37	0x3d0a6146	0.033784173
38	0xbb98b4ed	-0.00466024
39	0x3d846036	0.06463663
40	0x3d091be3	0.03347386
41	0x3bc64352	0.0060505057
42	0x3db2deeb	0.087339245
43	0xbd6c5bf5	-0.057704885
44	0xbd519e09	-0.051176105
45	0x3d28086b	0.041023653
46	0xbd4843fa	-0.048892953
47	0x3c5cb5f0	0.013471112
48	0xbe7c9a33	-0.24668197
49	0xbd2781cc	-0.04089527
50	0x3dbd5f35	0.09246675
51	0xbd25b687	-0.040457275
52	0x3d825c92	0.06365313
53	0xbe5cec7b	-0.21574585
54	0x3dd1e89e	0.10249446
55	0xbd1defef	-0.038558897
56	0x3e5a1fa9	0.2130114
57	0xbe4cbd26	-0.1999403
58	0x3ac57f57	0.0015067857
59	0x3e974161	0.29542068
60	0xbc99cc85	-0.01877428
61	0x3c1edcdb	0.009696211
62	0xbd08e3cd	-0.033420373
63	0xbd2a4ae6	-0.041575335
64	0x3d056a09	0.032571826
65	0x3d7756df	0.06038558
66	0x3cd81a19	0.026379632
67	0x3ba93579	0.005163845
68	0x3e1082a5	0.14112337
69	0x3ca9b599	0.020716475
70	0x3d6fdbc7	0.058559205
71	0x3d7cf3c7	0.06175592
72	0x3d764e81	0.06013346
73	0xbd87e167	-0.06634789
74	0xba34a870	-0.0006891554
75	0x3b17e28b	0.0023175802
76	0xbc918d49	-0.017767565
77	0xbcd88053	-0.026428377
78	0xbd92e484	-0.07172492
79	0x3df82ef9	0.12118334
80	0x3d893d96	0.067012
81	0x3c832042	0.016006593
82	0x3aaf3445	0.0013367018
83	0x3c6df16b	0.014522891
84	0xbdf85df2	-0.12127294
85	0x3d8436d4	0.0645577
86	0x3e347fcd	0.17626877
87	0xbc5fca9d	-0.013659147
88	0xbe07fb11	-0.13279368
89	0x3db31b60	0.08745456
90	0x3c76b6de	0.015058247
91	0x3d6d698d	0.05796199
92	0x3d411111	0.047135416
93	0x3dbca625	0.09211377
94	0xbda4b07a	-0.08041473
95	0x3c7bb96d	0.015364033
96	0x3d248a30	0.04017085
97	0x3ccc05b6	0.024905067
98	0x3c91b71f	0.017787514
99	0xbd0df449	-0.034656797
100	0xbe197d19	-0.14989127
101	0x3e0f7905	0.14011009
102	0x3d8e3758	0.0694415
103	0xbd5594f3	-0.052144002
104	0x3cdcf8b5	0.026974062
105	0x3dc58169	0.09643824
106	0xbe02e1e6	-0.12781486
107	0xbd5f6657	-0.05454096
108	0x3da35770	0.07975662
109	0xbdec0f4f	-0.115263574
110	0xbdc48acc	-0.09596786
111	0xbce16df0	-0.027518243
112	0x3da28a47	0.079365306
113	0xbd3ca2fe	-0.04605388
114	0xbbc2cf02	-0.0059450874
115	0xbce82f2a	-0.028342802
116	0xbdbbe44d	-0.09174404
117	0xbdb14bf1	-0.08657063
118	0x3d807564	0.062723905
119	0x3c446cd7	0.01198884
120	0x3d7ae3a4	0.06125225
121	0x3e591912	0.2120097
122	0xbdbab2eb	-0.09116157
123	0x3d8bc059	0.06823797
124	0xbc3c9988	-0.011511214
125	0xbd822b9d	-0.06355975
126	0xbd814427	-0.06311827
127	0x3d775ddb	0.060392242
128	0x3cc66a6d	0.02422067
129	0x3cf758ac	0.03019365
130	0x3b7d20ae	0.0038624215
131	0x3d8e6b9d	0.06954119
132	0x3cedec16	0.029043239
133	0x3d7dd610	0.061971724
134	0x3d5d8934	0.054085925
135	0x3c4b49f8	0.012407772
136	0xbe24e5a5	-0.16103227
137	0x3d70c7e5	0.058784384
138	0x3bd739bc	0.006568162
139	0x3cd76de8	0.026297525
140	0xbc5e6897	-0.013574741
141	0x3dbe4e49	0.092922755
142	0x3d4bb385	0.04973175
143	0xbc952c7f	-0.018209694
144	0xbdccc4ca	-0.09998472
145	0xbd18fc59	-0.037350032
146	0x3e5a76b5	0.21334346
147	0x3ae7f46a	0.0017696742
148	0x3e721576	0.23640999
149	0x3db3c1d9	0.08777208
150	0x3d1896df	0.037253257
151	0x3d8cf570	0.06882751
152	0x3cade29d	0.021226222
153	0xbd461513	-0.04835994
154	0x3c96ed40	0.018423676
155	0x3cbc8cf1	0.023016425
156	0x3da9885c	0.082779616
157	0xbdc62f0f	-0.096769445
158	0x3dc9143d	0.09818313
159	0x3deae4e7	0.11469441
160	0xbda2dcab	-0.07952245
161	0x3d54bb73	0.051936578
162	0x3d592263	0.05301131
163	0xbe338089	-0.17529501
164	0xb9f9fc91	-0.00047681158
165	0xbd92c6a3	-0.07166793
166	0xbcff0ff9	-0.031135546
167	0xbdb9da5b	-0.09074851
168	0xbcd614a6	-0.026132893
169	0xbdc96053	-0.098328255
170	0x3dc3576a	0.09538157
171	0xbc4e18c1	-0.012579144
172	0x3e409e02	0.18810275
173	0x3cc03a31	0.023465248
174	0xbc3c9a51	-0.011511401
175	0xbce956e2	-0.028483812
176	0xbc6c1798	-0.014409922
177	0x3daf1545	0.08548979
178	0x3d70f73b	0.058829527
179	0x3c8d3e01	0.01724148
180	0x3e540bf2	0.20707682
181	0x3d8dd90d	0.06926165
182	0xbda13811	-0.07872022
183	0xbd960d47	-0.07326751
184	0x3cf85326	0.030313086
185	0xbdbda100	-0.09259224
186	0xbdde5aa9	-0.10857136
187	0x3ba6b28b	0.005087202
188	0x3cf1f14c	0.029534005
189	0xbe577df2	-0.21044138
190	0xbcabd32d	-0.02097472
191	0xbc196f6c	-0.009364944
192	0x3d60bce1	0.05486763
193	0x3d93dd63	0.072199605
194	0xbdf88db0	-0.121364
195	0xbdaad970	-0.08342254
196	0xbdccb803	-0.09996035
197	0x3cd35550	0.025797516
198	0x3d591635	0.052999694
199	0x3babff1c	0.0052489173
200	0xbbb7247f	-0.0055890675
201	0x3de8f064	0.11373976
202	0x3d825bca	0.063651636
203	0xbd664881	-0.05622149
204	0xbd2a3ad5	-0.041560013
205	0x3e014f31	0.12627865
206	0x3e2c0acd	0.16800995
207	0x394a3536	0.00019284044
208	0x3cf7ed76	0.030264597
209	0xbd34b0c3	-0.044113886
210	0x3d4b6abb	0.049662333
211	0xbda1d531	-0.07901991
212	0x3d1e5e02	0.03866387
213	0x3cf8ef6d	0.030387605
214	0xbda65287	-0.081212096
215	0xbc71714b	-0.014736484
216	0xbd60c340	-0.054873705
217	0xbd9a1a83	-0.07524588
218	0xba88a5bf	-0.0010425373
219	0x3d158cb5	0.03651114
220	0xbd51b722	-0.05120004
221	0xbd81e15d	-0.06341813
222	0x3d1d4aeb	0.038401525
223	0xbd03208e	-0.03201347
224	0xbbaeb06b	-0.0053310893
225	0xbc84601b	-0.016159108
226	0xbe46b3c0	-0.19404507
227	0x3a8bce8e	0.0010666416
228	0x3cbda503	0.023149973
229	0x3bf34d02	0.0074249515
230	0x3cc83ea8	0.02444394
231	0x3d6e7b19	0.058222864
232	0x3d94c6ab	0.072644554
233	0xbd9a3e23	-0.07531383
234	0xbe39194a	-0.18076053
235	0x3d33531d	0.043780435
236	0x3bbbbc80	0.005729258
237	0x3cc3cf66	0.023902606
238	0x3e2d61bf	0.16931818
239	0xbe2108b0	-0.1572597
240	0x3c45c8ab	0.012071769
241	0x3cb5deaa	0.022200901
242	0xbd12544d	-0.035724927
243	0xbd546aa9	-0.05185953
244	0xbc61a154	-0.013771374
245	0x3d34fe0d	0.044187594
246	0xbe0c1767	-0.13680802
247	0xbe05386e	-0.13009807
248	0xbcf6a8e9	-0.03010984
249	0xbddc1996	-0.10747068
250	0x3d9f1276	0.07767193
251	0x3c659cc1	0.014014424
252	0x3d2c3bae	0.042049102
253	0x3d584b4c	0.052806184
254	0xbd0e39f2	-0.03472323
255	0x3e15e7fe	0.14639279

net.3.weight f4 [128, 256]
0	0xbc3f1f8c	-0.011665236
1	0x3de77f22	0.113035455
2	0x3d8c2de2	0.06844689
3	0xbcb50daa	-0.022101242
4	0x3c3bf31e	0.011471538
5	0x3d11a1be	0.03555464
6	0xbd1779c0	-0.036981344
7	0xbd68416f	-0.056703027
8	0xbdaa4acc	-0.083150476
9	0xbd80917e	-0.062777504
10	0xbe436ba6	-0.19084033
11	0xbca666ce	-0.020312693
12	0xbc99543b	-0.018716922
13	0xbd072922	-0.03299821
14	0x3c37f4ce	0.0112278
15	0xbd8db892	-0.069199696
16	0xbc12a521	-0.008950503
17	0xbe9e873e	-0.30962557
18	0x3d33970a	0.043845214
19	0xbc54726d	-0.012966734
20	0xbc9b1d93	-0.018935
21	0x3c31af05	0.010844951
22	0xbb5d656e	-0.003378238
23	0x3ba25e6f	0.004955105
24	0x3d7a7a39	0.061151717
25	0x3c9952d0	0.018716246
26	0x3cdf5aec	0.027265035
27	0xbe98c9ec	-0.29841554
28	0xbbc2f8f2	-0.0059500868
29	0x3e83eab6	0.25765008
30	0xbd7d2dc8	-0.06181124
31	0xbd94ba52	-0.072621
32	0x3cca6309	0.024705427
33	0xbc097df1	-0.008391843
34	0xbd51daa9	-0.05123392
35	0xbdbdab48	-0.09261185
36	0xbac636b9	-0.001512251
37	0x3d5111dc	0.051042423
38	0x3d9dd96c	0.077074856
39	0xbcb27e4a	-0.021788735
40	0x3c91be6c	0.017790996
41	0x3c21566b	0.009847264
42	0x3eb9de5e	0.36302465
43	0x3dea5132	0.11441268
44	0x3c9c4044	0.019073613
45	0x3e4dcd02	0.20097736
46	0x3dc5f6b6	0.09666197
47	0x3c09f0da	0.00841924
48	0xbdc269b7	-0.0949282
49	0xbce05cec	-0.027388059
50	0x3ce4d170	0.027931899
51	0x3cff70fc	0.031181805
52	0x3ac5bb62	0.0015085752
53	0xbe542f06	-0.20721063
54	0xbcd414ae	-0.025888767
55	0x3c1d3083	0.009594086
56	0x3c1da446	0.009621685
57	0xbded5b21	-0.11589647
58	0xbe21459a	-0.15749207
59	0xbd4a8a89	-0.049448524
60	0xbd11cc83	-0.03559543
61	0xbbe882d2	-0.007095673
62	0xbc9a69e8	-0.018849328
63	0x3cfe6417	0.031053586
64	0x3cdea0a4	0.027176209
65	0x3cdcfe4a	0.026976723
66	0x3c0ff794	0.008787055
67	0x3c84b3a5	0.016198942
68	0xbd84e55d	-0.0648906
69	0xbcc1c1c5	-0.023651967
70	0x3e0763ca	0.1322166
71	0x3ea05977	0.31318256
72	0x3d9a73df	0.07541632
73	0x3c800ef3	0.015632128
74	0xbc788fef	-0.015171035
75	0x3c804cf3	0.015661692
76	0x3d0d88d0	0.034554303
77	0xbc81d523	-0.015848702
78	0x3d03f4bd	0.032215822
79	0x3e5b94ae	0.21443436
80	0x3d6190d7	0.05506977
81	0xbd269aaa	-0.040674843
82	0xbddc48fc	-0.10756108
83	0xbc1c2915	-0.009531279
84	0x3c00daa3	0.007864627
85	0x3be8e0e2	0.0071068862
86	0xbd8c0ebf	-0.0683875
87	0xbc072b19	-0.008250021
88	0xbe86b833	-0.26312408
89	0xbd958524	-0.07300785
90	0x3cd1dd0a	0.025618095
91	0xbd66b33a	-0.056323268
92	0xbcccc09b	-0.024994185
93	0xbd547a40	-0.0518744
94	0x3db74095	0.08947865
95	0xbe87bd90	-0.26511812
96	0xbd066651	-0.03281242
97	0xbc6b345c	-0.014355745
98	0xbd79fdae	-0.061032943
99	0x3d6ffd05	0.058590908
100	0x3d85cd44	0.06533292
101	0xbc266680	-0.010156274
102	0x3cb0506f	0.021522729
103	0xbd3c0e7c	-0.04591225
104	0xbc6fc48b	-0.014634262
105	0xbdf09c6e	-0.117485866
106	0xbdb1c40c	-0.08679971
107	0x3d0df71f	0.0346595
108	0x3c9bef0c	0.019034885
109	0xbc3604d3	-0.011109549
110	0x3c3c9ece	0.011512471
111	0xb98041d3	-0.00024463105
112	0x3d85f102	0.06540109
113	0x3d9a892f	0.07545697
114	0x3d865121	0.06558443
115	0xbe5d0dba	-0.21587268
116	0xbd4d66fb	-0.050147038
117	0xbd1ab60c	-0.03777127
118	0xbcc8dd67	-0.024519635
119	0x3c8f84ae	0.017519321
120	0xbc4d74b5	-0.012540032
121	0x3d04e115	0.032441217
122	0x3b0a6e4f	0.0021122878
123	0x3cb0706d	0.021537984
124	0x3db089bf	0.08620023
125	0xbea42fbb	-0.32067665
126	0xbc46f75a	-0.012143934
127	0xbd379c7a	-0.044826962
128	0xbb8a1c8a	-0.004214828
129	0xbb52e15a	-0.0032177777
130	0xbdcfa8bf	-0.10139608
131	0xbbe44d74	-0.006967241
132	0xbd58dd8f	-0.05294567
133	0x3c65ea26	0.014032876
134	0xbd987066	-0.07443313
135	0xbbeaa6d7	-0.007161002
136	0xbbcf8375	-0.0063328096
137	0x3d221a89	0.039576087
138	0x3cf499f7	0.029858572
139	0x3e217846	0.15768537
140	0x3dab882f	0.08375584
141	0x3a7e7b97	0.00097077474
142	0x3d11da28	0.03560844
143	0x3ca106a7	0.019656492
144	0x3c39cfd2	0.011341052
145	0x3b098f9f	0.0020990146
146	0xbb9e7463	-0.0048356517
147	0x3d5d85e6	0.054082774
148	0xbdc77eb1	-0.09740961
149	0xbc8f6b5b	-0.017507246
150	0xbc1654c4	-0.009175483
151	0xbd82104f	-0.06350767
152	0x3c95edd1	0.018301876
153	0x3c0face1	0.008769245
154	0x3cdb9bcb	0.026807686
155	0x3b8c7904	0.004286887
156	0x3ccd2b48	0.025045052
157	0xbc2fc6e6	-0.010728573
158	0xbcedb102	-0.029015068
159	0xbc6d2960	-0.014475197
160	0xbcd8695a	-0.026417423
161	0xbdc2c3ef	-0.095100276
162	0x3e05924e	0.13044092
163	0xbc7a1a3c	-0.015265044
164	0x3cb555f4	0.022135712
165	0xbc395325	-0.011311327
166	0xbd0d93ab	-0.034564655
167	0xbd1da610	-0.038488448
168	0xbd5bf238	-0.053697795
169	0xbcdb9380	-0.026803732
170	0xbda4bf73	-0.080443285
171	0xbc5bbde6	-0.013411975
172	0x3c5d351a	0.01350143
173	0x3e50a4dd	0.2037539
174	0x3c5beb4d	0.013422799
175	0xbe02fc0a	-0.12791458
176	0x3d1afc16	0.037838064
177	0xbd9ff965	-0.0781124
178	0xbcb55290	-0.022134095
179	0xbcfff6f4	-0.031245686
180	0x3c3eec9f	0.011653095
181	0xbe961947	-0.2931616
182	0x3d8734e6	0.066018865
183	0x3d1b71a6	0.03795018
184	0x3c468165	0.012115811
185	0x3cd4e44c	0.025987767
186	0xbe0bb797	-0.13644253
187	0xbd383689	-0.044973884
188	0xbc5bfdb2	-0.013427185
189	0x3b08798a	0.0020824396
190	0xbc0fa706	-0.008767849
191	0x3d5ddccd	0.05416565
192	0x3c4dd0fc	0.012562033
193	0xbde216e8	-0.11039525
194	0xbbc03c2d	-0.0058665485
195	0x3d010ce0	0.03150642
196	0x3ceba49d	0.028765017
197	0x3e3314fd	0.17488475
198	0xbd8e5c15	-0.06951157
199	0x3e93c179	0.28858545
200	0xbdc7915f	-0.09744524
201	0xbd47be6a	-0.048765577
202	0xbc1b056e	-0.009461744
203	0xbd0c0c5e	-0.03419148
204	0x3d7a3c5b	0.061092716
205	0xbd44734c	-0.04796152
206	0xbdf16656	-0.11787097
207	0x3e02939b	0.1275162
208	0xbd16a829	-0.036781464
209	0x3cfa0ad2	0.030522738
210	0x3c05b1ac	0.008160036
211	0x3d1447b5	0.036201198
212	0xbc820eb2	-0.015876148
213	0x3cb96fe9	0.02263637
214	0x395ce713	0.00021066917
215	0x3cc9b015	0.024620095
216	0xbc72da66	-0.014822578
217	0x3d37e750	0.04489833
218	0xbc5df549	-0.01354725
219	0xbd4e7b4f	-0.050410565
220	0x3d589084	0.052872196
221	0x3db46dd2	0.08810009
222	0x3aded167	0.0016999663
223	0x3cd72572	0.026262973
224	0xbd373bf8	-0.044734925
225	0x3d22049d	0.03955518
226	0xbe191b7b	-0.14951889
227	0x3ca8dc1f	0.020612774
228	0xbd57ad07	-0.052655246
229	0xbd6a4af5	-0.05720039
230	0x3e0166ac	0.12636822
231	0xbc40a9a9	-0.0117592
232	0x3d8ccbf1	0.06874836
233	0x3ca4dcea	0.020124871
234	0x3d01d3fa	0.031696297
235	0x3d666f1b	0.056258302
236	0xbcaa91bd	-0.020821447
237	0x3cb38182	0.02191234
238	0x3d1bfeb0	0.038084686
239	0x3d77079a	0.060309984
240	0x3e11604a	0.14196888
241	0xbd875de2	-0.066097036
242	0x3da9846d	0.08277211
243	0xbd351ce1	-0.044216994
244	0xbd5a9925	-0.053368706
245	0x3e22aff7	0.15887438
246	0xbd81ad6a	-0.06331904
247	0xbcde8ec8	-0.027167693
248	0x3d12675d	0.035743106
249	0xbb91556c	-0.004435232
250	0xbd9046ec	-0.07044777
251	0xbc8fa721	-0.017535748
252	0xbd56a9d3	-0.05240805
253	0x3c3e9ea5	0.0116345035
254	0x3d055edf	0.03256118
255	0x3c6c6e49	0.014430591

net.3.bias f4 [128]
0	0x3ae26b88	0.0017274478
1	0xbb98565f	-0.004648968
2	0xbb36de51	-0.0027903507
3	0xbc1faa2c	-0.009745162
4	0xbbc4115d	-0.005983515
5	0xbc8608df	-0.016361652
6	0xbc75fa6d	-0.015013319
7	0xbb07ee8b	-0.0020741548
8	0x3bd7bb03	0.006583573
9	0xbac003ec	-0.0014649606
10	0xbc0f566b	-0.008748631
11	0xbb95f2b8	-0.0045760535
12	0xbbdb556a	-0.0066935318
13	0xbb9ee26f	-0.0048487703
14	0xbbdbfa18	-0.006713163
15	0xbba0846d	-0.004898599
16	0x3c15d1a3	0.00914422
17	0xbc23c65c	-0.009996023
18	0xbc20e63f	-0.00982052
19	0xbbb5eee0	-0.0055521578
20	0xbba187f9	-0.0049295393
21	0x3ab57727	0.0013844714
22	0xbb55f570	-0.0032647513
23	0x3bc3f1f9	0.005979773
24	0xbc174e69	-0.009235003
25	0xbc37fa65	-0.011229132
26	0xbb42eba7	-0.002974251
27	0xbba070e1	-0.0048962687
28	0xbb86a85b	-0.004109425
29	0x394fcaaf	0.00019816564
30	0xbbc663f8	-0.0060543977
31	0xbb856271	-0.004070573
32	0xbba1f93b	-0.0049430407
33	0xba95fc3c	-0.001144297
34	0x3bb91ce6	0.005649197
35	0x3c0d83c3	0.0086373715
36	0xba1124b7	-0.0005536782
37	0xbb6f8398	-0.0036546942
38	0xbbf21896	-0.007388185
39	0x3bafaa83	0.0053609028
40	0x3bb046e7	0.005379546
41	0x3b8d2628	0.004307527
42	0xbbdcbdc6	-0.00673649
43	0x3b111dee	0.0022143084
44	0xbbc90350	-0.006134428
45	0xbc130cb8	-0.0089752
46	0xbc0cdfc2	-0.00859827
47	0xbbfbaa1a	-0.00768019
48	0x3ad6e190	0.0016394127
49	0x3b90795e	0.0044089993
50	0x3b1f89d6	0.0024343631
51	0xb95a4133	-0.00020814389
52	0xb9bd90cb	-0.00036156768
53	0xbc414d68	-0.01179824
54	0x3b231991	0.0024887065
55	0xbc5f4c05	-0.013628964
56	0xbb8bad15	-0.0042625763
57	0x3c0fd847	0.008779592
58	0x3bd70829	0.006562252
59	0x3c488d97	0.012240789
60	0xbc4910cc	-0.012272071
61	0x3b8c7a97	0.004287075
62	0x3c487192	0.0122341085
63	0x3c219a00	0.009863377
64	0xbbeee590	-0.0072905496
65	0x3a3eaad9	0.0007273383
66	0xba5e6607	-0.0008483831
67	0xbbbce468	-0.005764533
68	0xbc2653a7	-0.01015178
69	0xbbd485bf	-0.0064856703
70	0xbbfb1d6f	-0.007663421
71	0xbb8731b6	-0.004125799
72	0xbc2b56a7	-0.010457671
73	0xba50bcab	-0.0007962684
74	0xbc4d8aaa	-0.012545267
75	0xbbaf8434	-0.005356336
76	0x3b57705d	0.003287337
77	0xbc471ae5	-0.012152408
78	0xbab9891a	-0.0014155239
79	0x3a1bf47e	0.0005949213
80	0xbbb41375	-0.0054954835
81	0x3ae70672	0.0017625822
82	0xbc0a80e4	-0.0084535815
83	0x3bdcc687	0.0067375335
84	0xbafb311e	-0.0019164418
85	0xbc9c75f4	-0.019099213
86	0xbb9757fa	-0.004618642
87	0x3b67d17d	0.0035372667
88	0x3b92c859	0.0044794497
89	0xbc0c5714	-0.008565683
90	0xbb2041f8	-0.0024453383
91	0xbc57a963	-0.013162944
92	0x3ae4c7d8	0.0017454578
93	0xbbc50533	-0.0060125827
94	0x3bdd6c67	0.0067573073
95	0xbbb14a69	-0.0054104817
96	0xbba6085e	-0.0050669154
97	0xbc11bb24	-0.008894715
98	0xbaa488f7	-0.0012553026
99	0xbc199312	-0.009373443
100	0x3c9fb7ce	0.019496825
101	0xbb386e39	-0.002814187
102	0x3c82a040	0.015945554
103	0x3c65ee58	0.014033876
104	0x3a57b7dc	0.00082289963
105	0x3b168429	0.0022966957
106	0xbb12c5e7	-0.002239579
107	0x3b633c09	0.0034673235
108	0xbae8b461	-0.0017753952
109	0xbc556119	-0.013023638
110	0xbc18ab14	-0.009318132
111	0xbc47cfeb	-0.012195568
112	0x3b50d486	0.0031864955
113	0xbc153ad9	-0.009108269
114	0x3c3f00be	0.011657892
115	0xbc9aea6a	-0.018910605
116	0xbb1e07c5	-0.0024113518
117	0xbbdd20d6	-0.006748299
118	0x3c125dfe	0.008933542
119	0x3a2a852c	0.00065048295
120	0x3bf170bf	0.0073681767
121	0xbb4cd253	-0.0031253293
122	0xbc504fa8	-0.012714304
123	0xbaa4c9e1	-0.0012572372
124	0x3be8fb2d	0.0071100206
125	0xbb9156a9	-0.0044353795
126	0xbc1c057d	-0.009522793
127	0xbbf5bb54	-0.007499138

net.6.weight f4 [9, 128]
0	0xbc95719c	-0.01824265
1	0x3b9885ab	0.0046546063
2	0xbd26594e	-0.04061251
3	0xbce059ec	-0.027386628
4	0x3d0a3616	0.033742987
5	0xbd0d932e	-0.03456419
6	0xbcafaa1f	-0.021443425
7	0x3e19806d	0.14990397
8	0x3c060e7b	0.008182163
9	0x3c353bfb	0.011061664
10	0xbbf6cbe4	-0.00753163
11	0xbc90859a	-0.017641831
12	0xbe0b1b1d	-0.13584562
13	0xbd1e42a0	-0.038637757
14	0xbc9ba038	-0.018997297
15	0xbc5d6587	-0.013512976
16	0x3c81a7da	0.015827108
17	0x3c880cf9	0.016607748
18	0x3e1d3e23	0.15355735
19	0x3d39ae37	0.04533216
20	0x3cfc309b	0.030784896
21	0xbc870582	-0.016482119
22	0x3cceb73b	0.025233855
23	0x3c8d4a92	0.017247472
24	0x3bc13344	0.005896004
25	0xbcbc08e4	-0.022953458
26	0x3d1910d1	0.037369553
27	0xbdf2df2b	-0.11858972
28	0xbcf9abd4	-0.030477442
29	0xbc29e520	-0.010369569
30	0x3e1e0faf	0.1543567
31	0xbc51fd3d	-0.012816724
32	0x3e23c411	0.15992762
33	0xbcc36b9c	-0.023855023
34	0xbb6cf473	-0.0036156445
35	0xbcba380b	-0.022731801
36	0x3a410b9b	0.0007364095
37	0x3c9099a1	0.017651381
38	0x3e22864e	0.15871546
39	0xbc5d3ad3	-0.013502794
40	0xbc87bee8	-0.016570523
41	0x3baf2722	0.005345241
42	0x3bfde5f9	0.007748362
43	0xbbd06be0	-0.006360516
44	0x3cf52db0	0.029929012
45	0x3c2c048d	0.010499132
46	0xbc69c4c5	-0.014268105
47	0x3caeb8be	0.021328326
48	0x3be4c767	0.0069817784
49	0x3e22944e	0.15876886
50	0x3c7472b8	0.014919929
51	0xbca07a3e	-0.01958954
52	0xbcde096e	-0.027104106
53	0xbc9d0393	-0.019166743
54	0x3b815355	0.0039467015
55	0xbe034ad1	-0.12821509
56	0xbb229caa	-0.0024812617
57	0x3c69af73	0.014263022
58	0x3ce26e9b	0.027640631
59	0xba66a99b	-0.0008799077
60	0x3c0ec35a	0.008713568
61	0xbd293a67	-0.041315462
62	0x3c69a79b	0.014261152
63	0xbd00c1c4	-0.03143479
64	0xbb908119	-0.004409921
65	0xbd2e050f	-0.042485293
66	0xbb1f08a6	-0.002426663
67	0xb908e76d	-0.00013056184
68	0xbdfc00a9	-0.123048134
69	0xbc9e02f3	-0.019288516
70	0x3c3df433	0.011593866
71	0xbca43bda	-0.02004807
72	0xbc420f51	-0.011844472
73	0x3cee1bcf	0.029065995
74	0xbc61f88d	-0.013792169
75	0xbde86da3	-0.113490365
76	0xbd41a9b1	-0.04728097
77	0x3e210723	0.15725379
78	0xbc2b6656	-0.0104614105
79	0x3bab2008	0.0052223243
80	0x3b2caacf	0.0026346927
81	0x3ca83fa1	0.020538153
82	0x3c07c057	0.0082856035
83	0xbd6286e2	-0.055304416
84	0x3e1ec4f1	0.15504815
85	0x3b186fb2	0.0023259935
86	0x3cddebdf	0.027090011
87	0xbcb78028	-0.022399977
88	0xbcbd1130	-0.023079485
89	0xbcc6e35c	-0.024278335
90	0xbc9f441c	-0.019441657
91	0xbbe3daba	-0.0069535645
92	0xbcb4f598	-0.022089764
93	0x3d0b3805	0.03398897
94	0xbd0a35f5	-0.033742864
95	0xbbf3fcf0	-0.007445924
96	0x3cfe776f	0.03106281
97	0x3e1f3e96	0.15551218
98	0x3cd1d2b6	0.02561317
99	0x3e240402	0.16017154
100	0x3b9fc637	0.004875924
101	0xbc53869a	-0.0129105095
102	0xbd357a72	-0.044306226
103	0x3c7aaf57	0.015300593
104	0xbc9e80f6	-0.019348603
105	0xbcf671dd	-0.030083591
106	0x3d1844b4	0.037174895
107	0xbc8c9196	-0.017159265
108	0x3ba2545e	0.004953905
109	0x3c13b7c6	0.009015983
110	0x3cedf665	0.029048154
111	0x3c8ced1c	0.017202906
112	0x3ced15f9	0.028941141
113	0x3d164e6a	0.036695875
114	0xbcdc18cd	-0.026867295
115	0xbb9ef218	-0.004850637
116	0x3d164b39	0.03669283
117	0xbcbe7b57	-0.023252172
118	0xbcf1ed81	-0.029532196
119	0x3c9bf65a	0.019038368
120	0xbca52e89	-0.020163791
121	0x3e20ea6b	0.15714423
122	0xbe07c59f	-0.1325898
123	0x3cb39028	0.021919325
124	0xbc085eb8	-0.008323364
125	0xbbc04b83	-0.0058683767
126	0x3c097b86	0.008391267
127	0xbd0dfde1	-0.034665946
128	0x3c93323d	0.017968291
129	0xbc76b316	-0.015057346
130	0x3c90f4e6	0.017694902
131	0xbc6d28e7	-0.014475084
132	0xbcfbf5ff	-0.030756949
133	0xbd0954cd	-0.033528138
134	0xbc3d16bf	-0.011541068
135	0x3c4dacdc	0.01255342
136	0x3b8d035d	0.0043033794
137	0x3e119c32	0.1421974
138	0xbd17a7b7	-0.03702518
139	0xbcbbb77c	-0.02291464
140	0xbd0e6223	-0.03476156
141	0xbe12793b	-0.14304058
142	0xbc5d29bc	-0.01349872
143	0x3d09cd95	0.033643324
144	0x3dfcc187	0.123416
145	0xbcb831c4	-0.022484668
146	0x3c83b7dd	0.016078884
147	0xbc60cedb	-0.013721193
148	0xbce4ebe4	-0.027944513
149	0x3c55830c	0.013031732
150	0xbceb333b	-0.028710952
151	0x3d007b70	0.03136772
152	0x3d83be26	0.06432752
153	0xbc048d26	-0.008090293
154	0xbc5c0c39	-0.0134306485
155	0xbd3f4a37	-0.046701636
156	0xba1d378f	-0.00059973536
157	0x3d29dee9	0.04147235
158	0x3c698d80	0.014254928
159	0x3cec6492	0.02885655
160	0x3ba542fe	0.0050433865
161	0x3d0279b5	0.03185435
162	0xbc5d621c	-0.013512161
163	0x3cd0865f	0.025454698
164	0x3da5171a	0.08061047
165	0xbd3e9a13	-0.046533655
166	0x3cac05f2	0.020998929
167	0xbd35e44f	-0.044407185
168	0xbd1707a5	-0.036872525
169	0xbd0b29e9	-0.033975516
170	0x3c8b8ee6	0.017035913
171	0x3d23f41b	0.04002772
172	0xbcfb88d0	-0.030704886
173	0xbd050257	-0.032472935
174	0xbc77b85c	-0.015119638
175	0xbc234525	-0.009965216
176	0xbcaef3d8	-0.021356508
177	0x3c7a734d	0.015286279
178	0xbb5d3a54	-0.003375669
179	0x3cbb63dd	0.022874767
180	0x3c446fc3	0.011989537
181	0xbc70e97f	-0.014704107
182	0xbb8ea73d	-0.0043534325
183	0xbd29bf3b	-0.041442137
184	0xbd015410	-0.03157431
185	0x3c77c436	0.015122464
186	0x3c6e19e3	0.014532539
187	0x3d258a8b	0.040415328
188	0x3c9135ae	0.017725792
189	0xbe05f552	-0.13081864
190	0xbc0172cb	-0.007900904
191	0x3c894921	0.016758503
192	0xbd1be6b9	-0.03806183
193	0x3bd214f4	0.006411189
194	0xbd3b6ef1	-0.0457601
195	0xbcca0c44	-0.024664052
196	0xbd3bd350	-0.04585582
197	0x3a32d09a	0.0006821245
198	0xbcd13f74	-0.025542952
199	0xbe151223	-0.145577
200	0xbce06ade	-0.027394708
201	0xbca1d39b	-0.019754222
202	0xbc91ecbe	-0.017813083
203	0xbc8cf21f	-0.017205296
204	0x3c8a6be7	0.016897155
205	0x3ce84ee0	0.028357923
206	0xbc817e3e	-0.015807267
207	0x3d31374c	0.043265626
208	0x3cd2814e	0.025696423
209	0x3e124fc7	0.14288245
210	0x3e1c08aa	0.1523768
211	0x3c5db78a	0.013532529
212	0x3cc73a20	0.024319708
213	0x3c72dc79	0.014823073
214	0xbcb82702	-0.022479538
215	0x3c8aa23e	0.016923066
216	0x3de04e53	0.10952439
217	0xbb9b75dd	-0.004744275
218	0x3c1a9a4d	0.009436202
219	0xbcb89b26	-0.022534918
220	0xbd2efffe	-0.042724602
221	0xbbb21284	-0.005434336
222	0x3c9fb8f5	0.019497374
223	0x3d03021e	0.03198444
224	0x3ca8f6b2	0.020625446
225	0x3cb51548	0.022104874
226	0xbbcc28ca	-0.0062304484
227	0x3ccc812d	0.02496394
228	0x3c8cb62e	0.017176714
229	0xbc475c5f	-0.012168019
230	0x3c5e4cc8	0.013568111
231	0x3c8fc8b8	0.017551765
232	0x3c309040	0.010776579
233	0x3ce1c3d9	0.027559208
234	0x3bc9e832	0.006161713
235	0xbc91ac8f	-0.017782478
236	0x3c353cb2	0.011061834
237	0xbc53ba26	-0.012922799
238	0x39c18aee	0.0003691534
239	0x3e0402fb	0.12891762
240	0xbb8ada1f	-0.004237428
241	0xbc21294e	-0.009836508
242	0xbe0af646	-0.13570508
243	0x3c877433	0.0165349
244	0xbca90d13	-0.020636117
245	0xbbfd5b36	-0.0077318205
246	0x3d6a003f	0.05712914
247	0x3cf930b1	0.030418726
248	0xbca661a7	-0.020310236
249	0x3c87a107	0.016556276
250	0xbcfb3b0b	-0.030667802
251	0x3e0c6bda	0.13713017
252	0xbaeda476	-0.0018130678
253	0xbc501ddb	-0.012702431
254	0xbd17c716	-0.037055098
255	0xbb26a1f6	-0.0025426126

net.6.bias f4 [9]
0	0xbc1963b3	-0.009362149
1	0xbc469245	-0.012119834
2	0x3c4d1b71	0.01251875
3	0xb8aeabe8	-8.3289866e-05
4	0xbc58c9bb	-0.01323169
5	0x3a432ea7	0.00074456114
6	0x3d066999	0.03281555
7	0x3ea3d3d4	0.3199755
8	0x3e3e6da4	0.18596512

exp_avg f4 [256, 23]
0	0xb93f2830	-0.0001823015
1	0x38c202e5	9.25118e-05
2	0x38530dd9	5.0319217e-05
3	0xb6f19f13	-7.2008784e-06
4	0x3833b48d	4.2845077e-05
5	0x3977708f	0.00023597687
6	0x37a1a51f	1.9269586e-05
7	0x38de52b4	0.000106011896
8	0xb7aa5911	-2.0307054e-05
9	0xb8508969	-4.9719038e-05
10	0x37853ccc	1.5883146e-05
11	0xb827c245	-3.999683e-05
12	0x38119d4c	3.4717188e-05
13	0xb833b261	-4.2843054e-05
14	0x371ae226	9.23177e-06
15	0xb7eac5f9	-2.7987162e-05
16	0x32082657	7.924959e-09
17	0xb504c4e3	-4.946034e-07
18	0xb6ff840f	-7.614966e-06
19	0xb5e84852	-1.7306395e-06
20	0xb6b682ea	-5.439263e-06
21	0xb7504e37	-1.2415977e-05
22	0xb90998e3	-0.00013122293
23	0xb8868a74	-6.415407e-05
24	0x38cd75b2	9.797084e-05
25	0x38513a9d	4.988407e-05
26	0xb89b8f8e	-7.417715e-05
27	0x38934123	7.021639e-05
28	0x38dfeffe	0.00010678171
29	0xb5503f59	-7.757822e-07
30	0x390e5454	0.0001357359
31	0x3986f8f0	0.00025743945
32	0xb77a12af	-1.4905511e-05
33	0xb63ceda1	-2.8152501e-06
34	0xb7d5b800	-2.547726e-05
35	0xb782050c	-1.5499558e-05
36	0xb73674d8	-1.087525e-05
37	0x376fbcee	1.4289499e-05
38	0xb6a1f60b	-4.826817e-06
39	0xb3df273a	-1.0391382e-07
40	0xb449c257	-1.8790284e-07
41	0x36f0a4c9	7.171741e-06
42	0x37fed48b	3.0378133e-05
43	0x371233fa	8.71438e-06
44	0x3880c599	6.140321e-05
45	0xb841b071	-4.617911e-05
46	0xb7b3788d	-2.1394599e-05
47	0x379a5957	1.8399833e-05
48	0xb6d6a8e8	-6.3973603e-06
49	0x383d47ec	4.5128094e-05
50	0xb8003ee3	-3.0576146e-05
51	0xb729700c	-1.0099273e-05
52	0x35550859	7.936083e-07
53	0xb8a16053	-7.69502e-05
54	0x38138d7c	3.51793e-05
55	0x3753922f	1.2610616e-05
56	0xb780ea4c	-1.5367892e-05
57	0x36b6567f	5.434092e-06
58	0x3602a667	1.9468368e-06
59	0x37806bdb	1.5309013e-05
60	0x3769b67f	1.3930373e-05
61	0xb74ad85b	-1.2090512e-05
62	0xb40d079d	-1.3134418e-07
63	0x33e72a90	1.0764518e-07
64	0xb7b623db	-2.1712787e-05
65	0xb6e9adc2	-6.964169e-06
66	0xb6057a13	-1.98896e-06
67	0xb807d956	-3.2388918e-05
68	0x37203e7b	9.5512905e-06
69	0xb9634d06	-0.000216771
70	0x396271cc	0.00021595432
71	0x384baff7	4.856285e-05
72	0x38be0b3e	9.062e-05
73	0x393a24c7	0.00017752043
74	0x38e86830	0.000110820285
75	0xb8b10522	-8.440974e-05
76	0xb8f857c8	-0.00011841912
77	0xb8b34467	-8.548126e-05
78	0x36e4500d	6.8042486e-06
79	0x380e4146	3.391623e-05
80	0xb896d4a9	-7.1921684e-05
81	0x36ea1e48	6.9772686e-06
82	0xb856b57e	-5.1190604e-05
83	0x381142dd	3.4632965e-05
84	0xb7cfc2bd	-2.4767005e-05
85	0x33d01481	9.6894844e-08
86	0xb4d3f366	-3.9478908e-07
87	0x3724a8c9	9.81446e-06
88	0xb834315d	-4.2961317e-05
89	0xb73c9b4e	-1.1241833e-05
90	0xb83ebb6a	-4.5474073e-05
91	0xb8921174	-6.9650734e-05
92	0x372f7cc1	1.0459859e-05
93	0x388bf965	6.67449e-05
94	0xb7d6bd74	-2.5599009e-05
95	0x38f2017c	0.00011539736
96	0x37e054d9	2.6742391e-05
97	0xb751d6f3	-1.25074175e-05
98	0xb8da8cf6	-0.00010421306
99	0xb7c5ac99	-2.3564602e-05
100	0xb9373b4d	-0.00017474331
101	0x37ed4dcf	2.8288834e-05
102	0x37092180	8.173636e-06
103	0x36cb5704	6.0600014e-06
104	0x37dec392	2.6555532e-05
105	0x387c330f	6.0129034e-05
106	0xb73a15f6	-1.1091577e-05
107	0xb7fd3f25	-3.0189354e-05
108	0x33a5c7d9	7.719763e-08
109	0xb37f6e81	-5.9472317e-08
110	0x37b61cca	2.1709497e-05
111	0xb72d91e9	-1.0345576e-05
112	0x371f3353	9.489088e-06
113	0xb8880c78	-6.487308e-05
114	0x37e5d23c	2.7396825e-05
115	0xb8835e84	-6.264172e-05
116	0xb844d48e	-4.6928e-05
117	0x386332b1	5.4168228e-05
118	0xb8782757	-5.9164446e-05
119	0xb85a11c4	-5.1991796e-05
120	0x38eb574b	0.00011221933
121	0x38ff030c	0.00012159915
122	0xb7d41df0	-2.528631e-05
123	0x381fb51f	3.8077236e-05
124	0xb88c5275	-6.691079e-05
125	0xb7d05e48	-2.4839435e-05
126	0x388a1828	6.584852e-05
127	0xb6f9c769	-7.4439927e-06
128	0xb7b9cfc5	-2.2150469e-05
129	0xb7f5ddcc	-2.9309558e-05
130	0x37a7710d	1.9960595e-05
131	0xb483023e	-2.4402283e-07
132	0x33ddd2db	1.0329469e-07
133	0xb76b4a66	-1.4024414e-05
134	0x380fe6d9	3.430885e-05
135	0x36aecd5b	5.2095106e-06
136	0x38714765	5.752537e-05
137	0xb7bf78ad	-2.2825168e-05
138	0x382a0d82	4.054374e-05
139	0xb87c6015	-6.0170965e-05
140	0xb7bd275f	-2.254889e-05
141	0xb728181b	-1.0019193e-05
142	0xb899832b	-7.3200405e-05
143	0x37d49d2e	2.5345562e-05
144	0x36d1892c	6.2446543e-06
145	0xb888be89	-6.520475e-05
146	0xb90d67f0	-0.00013485528
147	0xb5dcf263	-1.6461821e-06
148	0xb71c084e	-9.300258e-06
149	0x37f96d06	2.9733881e-05
150	0xb7abcb66	-2.0479503e-05
151	0x36b3e5b0	5.361355e-06
152	0x372b2e9c	1.0203246e-05
153	0xb7369154	-1.0881882e-05
154	0x33965042	6.999518e-08
155	0x33a8504c	7.8377155e-08
156	0x37bb5e24	2.2335975e-05
157	0x372c41e4	1.026734e-05
158	0x36e654f9	6.8644263e-06
159	0x37825f40	1.5541562e-05
160	0x36201ecf	2.385979e-06
161	0x38c258de	9.267194e-05
162	0xb89d0011	-7.486356e-05
163	0xb8154f10	-3.5598e-05
164	0xb8b2b90b	-8.522168e-05
165	0xb812edc4	-3.503055e-05
166	0xb8c04ed1	-9.169954e-05
167	0xb78f4941	-1.708104e-05
168	0x391b4d67	0.00014810787
169	0x38b40950	8.5848034e-05
170	0x38684962	5.5381453e-05
171	0x37e3f0f3	2.717271e-05
172	0xb82d6ac4	-4.1345847e-05
173	0x370b2924	8.294624e-06
174	0x382bca2f	4.0957875e-05
175	0x36b8746b	5.49718e-06
176	0xb7daa719	-2.6065436e-05
177	0x3479213a	2.320202e-07
178	0x32193b88	8.919308e-09
179	0x35c3ef59	1.4598292e-06
180	0xb62496e3	-2.4525732e-06
181	0xb635d4c8	-2.7094957e-06
182	0x370a4fde	8.2440365e-06
183	0x378eaf0c	1.7009232e-05
184	0x392c023d	0.00016404032
185	0xb97465a1	-0.00023307513
186	0xb85e5e8a	-5.301697e-05
187	0xb3d4d4ab	-9.9107034e-08
188	0xb941fc26	-0.00018499847
189	0xb8f85510	-0.00011841406
190	0x38ab17be	8.158338e-05
191	0x376afc97	1.40062975e-05
192	0xb8df1324	-0.00010637034
193	0x380f04ad	3.409821e-05
194	0x37b873a0	2.1988351e-05
195	0x3800a4e3	3.067114e-05
196	0x3872ce72	5.7889563e-05
197	0x356fa3ff	8.9273084e-07
198	0xb79023b5	-1.7182765e-05
199	0xb7766299	-1.4685699e-05
200	0x33a03e3d	7.461902e-08
201	0x33c702c2	9.267161e-08
202	0xb8526112	-5.0158305e-05
203	0xb772fac6	-1.4482712e-05
204	0xb6dd5c58	-6.5970635e-06
205	0xb8393abe	-4.4162145e-05
206	0xb72b451e	-1.0208487e-05
207	0xb8943075	-7.066216e-05
208	0x388c37b6	6.686097e-05
209	0x3812f50e	3.5037338e-05
210	0x379d9d06	1.8788978e-05
211	0x38c68773	9.466605e-05
212	0x389a7c32	7.3664254e-05
213	0xb7ecfd3a	-2.825131e-05
214	0xb8753278	-5.8459555e-05
215	0xb9212459	-0.00015367697
216	0xb39c60be	-7.2819134e-08
217	0x378d5aef	1.6850854e-05
218	0x36570603	3.2040996e-06
219	0x3701de84	7.740808e-06
220	0xb7426fc0	-1.158932e-05
221	0xb8142faa	-3.533034e-05
222	0xb6928dfa	-4.3676673e-06
223	0x346094e6	2.0915795e-07
224	0x334abdd0	4.7204423e-08
225	0x380b58f0	3.3223012e-05
226	0xb6424e11	-2.8953693e-06
227	0x36ce8d6a	6.155741e-06
228	0x378ac6f4	1.6543527e-05
229	0xb61c240d	-2.3266796e-06
230	0xb92854f8	-0.00016053382
231	0x36e8d276	6.9386397e-06
232	0x3782a493	1.5573843e-05
233	0xb90e0610	-0.00013544434
234	0xb85017d4	-4.9613256e-05
235	0x39497645	0.00019212913
236	0x3800c1a8	3.0697935e-05
237	0xb987bda5	-0.00025890503
238	0xb8dde2ca	-0.00010580344
239	0xb86c1f86	-5.6296143e-05
240	0xb825c6fe	-3.952439e-05
241	0x388b03f5	6.6287736e-05
242	0xb8892771	-6.5400156e-05
243	0x3729f7e7	1.0130904e-05
244	0x3878e397	5.9339767e-05
245	0xb85cd41e	-5.2649637e-05
246	0x34473bf7	1.8555134e-07
247	0x3386f965	6.285226e-08
248	0x37f25bc1	2.8891374e-05
249	0x380d8085	3.3736713e-05
250	0xb73d363a	-1.12779035e-05
251	0x389c2614	7.445752e-05
252	0xb827ad72	-3.9977436e-05
253	0x39c369f3	0.00037272237
254	0xb9c90c08	-0.00038346671
255	0xb7b53c86	-2.1605065e-05

exp_avg_sq f4 [256, 23]
0	0x359be3aa	1.1614659e-06
1	0x35c54927	1.4698934e-06
2	0x33894e76	6.3938316e-08
3	0x35344a7e	6.7163626e-07
4	0x35852531	9.920096e-07
5	0x34a1aef6	3.0115888e-07
6	0x34b2b9ab	3.3290175e-07
7	0x361d36c5	2.3426703e-06
8	0x35f2092a	1.8033072e-06
9	0x32a68402	1.9384974e-08
10	0x31a5d012	4.825787e-09
11	0x32574bde	1.2531897e-08
12	0x321bc2f4	9.066515e-09
13	0x32c452bc	2.2855026e-08
14	0x32b59d55	2.114272e-08
15	0x328d0b91	1.641982e-08
16	0x2d1a1fa9	8.7609165e-12
17	0x2b8ff4b6	1.0228682e-12
18	0x332171e5	3.758932e-08
19	0x3317c157	3.533327e-08
20	0x30a4223b	1.1942299e-09
21	0x342da28f	1.6171019e-07
22	0x32c03d7d	2.2379703e-08
23	0x35a3f9a1	1.2217098e-06
24	0x35d10f48	1.5576161e-06
25	0x33a086c9	7.475098e-08
26	0x354342b3	7.274022e-07
27	0x358d3ac7	1.0522425e-06
28	0x34b24819	3.3207542e-07
29	0x34cad231	3.7778366e-07
30	0x36285d11	2.5088123e-06
31	0x35fd8a32	1.8890189e-06
32	0x32b2fdc6	2.083733e-08
33	0x31a0fa48	4.6850666e-09
34	0x3287438b	1.5746783e-08
35	0x3256f5d0	1.2512331e-08
36	0x32d2d34d	2.4543306e-08
37	0x32cd8156	2.3923956e-08
38	0x32b204bf	2.0724086e-08
39	0x2d167007	8.551388e-12
40	0x2baa718e	1.2110744e-12
41	0x33558148	4.9710508e-08
42	0x3328e846	3.93268e-08
43	0x310010fd	1.8636108e-09
44	0x343fca70	1.7861908e-07
45	0x32cb05ad	2.3634891e-08
46	0x34548d3d	1.9795421e-07
47	0x348c187e	2.6094853e-07
48	0x3259e5f2	1.2683346e-08
49	0x34137038	1.3731267e-07
50	0x343f69f2	1.7826804e-07
51	0x3373ebd9	5.679235e-08
52	0x338f40e6	6.6707614e-08
53	0x34d57b97	3.9764265e-07
54	0x34b4c9d0	3.367445e-07
55	0x318c739d	4.08768e-09
56	0x309b8dc9	1.1318032e-09
57	0x3146ce3c	2.8930023e-09
58	0x3118573d	2.21685e-09
59	0x31bb9214	5.4590235e-09
60	0x31b8e405	5.3810276e-09
61	0x316d1103	3.449771e-09
62	0x2d1db63c	8.964881e-12
63	0x2aa47441	2.921292e-13
64	0x322484ee	9.576281e-09
65	0x31ebad4d	6.859102e-09
66	0x2fefb8ce	4.3605158e-10
67	0x330ffd4f	3.3525165e-08
68	0x31b0509d	5.131439e-09
69	0x357207f5	9.0163604e-07
70	0x359a09a5	1.1476701e-06
71	0x334e715f	4.8066223e-08
72	0x350b6541	5.192888e-07
73	0x354e6083	7.6881423e-07
74	0x34737052	2.2672e-07
75	0x348c31fe	2.6113406e-07
76	0x35f92d22	1.8565081e-06
77	0x35bc3d7d	1.4024987e-06
78	0x32711f9a	1.4035232e-08
79	0x3173aa07	3.5457803e-09
80	0x32157457	8.699394e-09
81	0x31f6751c	7.172856e-09
82	0x3294a6f8	1.7305396e-08
83	0x32657f54	1.3358505e-08
84	0x3239f345	1.082373e-08
85	0x2c97eaae	4.317733e-12
86	0x2b42067f	6.893166e-13
87	0x32f8a135	2.8944308e-08
88	0x32e7e6fe	2.6996982e-08
89	0x30667b12	8.3848406e-10
90	0x340687ad	1.2529081e-07
91	0x328a5daa	1.6107908e-08
92	0x3428cfc3	1.5721803e-07
93	0x3452ccc6	1.963227e-07
94	0x322b92e2	9.986907e-09
95	0x33c985cb	9.384129e-08
96	0x34138eb6	1.374236e-07
97	0x3346f1b5	4.63203e-08
98	0x333d9d02	4.414779e-08
99	0x34a6ddc0	3.1081254e-07
100	0x3487ff6c	2.5331553e-07
101	0x319b7ce9	4.5252944e-09
102	0x308d228b	1.0268918e-09
103	0x314e5459	3.0024891e-09
104	0x310ad4ec	2.0202675e-09
105	0x319de2ae	4.595072e-09
106	0x318fa9ee	4.1811665e-09
107	0x31613aa9	3.2775154e-09
108	0x2dfb3717	2.8559861e-11
109	0x2a81f20c	2.3082957e-13
110	0x31cda46e	5.9849787e-09
111	0x31b02e4c	5.1275375e-09
112	0x2f896dd8	2.4998204e-10
113	0x32c05c85	2.2393815e-08
114	0x319f6b4a	4.6397064e-09
115	0x34fe589d	4.7375661e-07
116	0x3523c26a	6.100514e-07
117	0x32e2a779	2.638602e-08
118	0x3492e836	2.7363575e-07
119	0x34df42aa	4.158549e-07
120	0x34014c41	1.2041802e-07
121	0x3415d356	1.395359e-07
122	0x35813054	9.625314e-07
123	0x354d7936	7.6544836e-07
124	0x3201236a	7.5168405e-09
125	0x30f8ddac	1.8107378e-09
126	0x31b6d501	5.321113e-09
127	0x3185ee4c	3.8979007e-09
128	0x322ad9d9	9.944835e-09
129	0x31d94f40	6.324541e-09
130	0x31c68f7a	5.77887e-09
131	0x2c4f0112	2.9417063e-12
132	0x2af1f4f4	4.298017e-13
133	0x32955e1c	1.7388679e-08
134	0x3270b993	1.4012033e-08
135	0x3023579f	5.942357e-10
136	0x338b89ef	6.497782e-08
137	0x321d0ce9	9.141538e-09
138	0x34ab4626	3.1902272e-07
139	0x34dd5b5c	4.123093e-07
140	0x32a90613	1.9676952e-08
141	0x34551ace	1.9846922e-07
142	0x34979d57	2.8240422e-07
143	0x33c103fe	8.987989e-08
144	0x33d364cb	9.843787e-08
145	0x3533d5ab	6.6993624e-07
146	0x350e7949	5.3075615e-07
147	0x31ea63f2	6.821659e-09
148	0x30d45be6	1.5451149e-09
149	0x31b8ed04	5.3820504e-09
150	0x315b66bc	3.1927092e-09
151	0x31ee5705	6.9366046e-09
152	0x31f4cba1	7.1244846e-09
153	0x31d146be	6.090743e-09
154	0x2d029c3b	7.424335e-12
155	0x2ab72257	3.2531158e-13
156	0x32629349	1.318842e-08
157	0x32395d7f	1.0789676e-08
158	0x3005aefe	4.8633797e-10
159	0x334e4aec	4.8031254e-08
160	0x31e7e80e	6.7493664e-09
161	0x34e44e1a	4.2525136e-07
162	0x3512c897	5.4681135e-07
163	0x32c93470	2.3423326e-08
164	0x3482a57b	2.433479e-07
165	0x34c79919	3.7178032e-07
166	0x33ed2962	1.10437e-07
167	0x3405d5e4	1.2464403e-07
168	0x35669068	8.5891816e-07
169	0x35394a0f	6.902564e-07
170	0x31e0e96c	6.545795e-09
171	0x30d75c1a	1.5669486e-09
172	0x3199980c	4.470172e-09
173	0x3181bf3f	3.7761363e-09
174	0x320f2327	8.331688e-09
175	0x31d00278	6.0538774e-09
176	0x31c1094b	5.6180958e-09
177	0x2b91957a	1.0344358e-12
178	0x2af05112	4.2688818e-13
179	0x328a64c6	1.611114e-08
180	0x3259639d	1.2653712e-08
181	0x30140727	5.385225e-10
182	0x337bcdee	5.8627784e-08
183	0x320660f1	7.8218685e-09
184	0x35c18c7f	1.442051e-06
185	0x35f5c7dc	1.8312089e-06
186	0x33be3473	8.857105e-08
187	0x3568bfe0	8.670595e-07
188	0x35a71abe	1.2450253e-06
189	0x34d4fa8a	3.9670368e-07
190	0x34ef079b	4.4522753e-07
191	0x36447b8f	2.9278197e-06
192	0x36126fe5	2.1820827e-06
193	0x32e8f567	2.711995e-08
194	0x31b9bc95	5.405648e-09
195	0x329ff58f	1.8621703e-08
196	0x326841b4	1.35191165e-08
197	0x32fe3601	2.959405e-08
198	0x32fd7108	2.9504477e-08
199	0x32c9aa71	2.3476987e-08
200	0x2cd434f1	6.03128e-12
201	0x2bd5e618	1.5198424e-12
202	0x3380ca93	5.9973125e-08
203	0x3345ce4f	4.6055273e-08
204	0x31145e1b	2.1590327e-09
205	0x3460f067	2.0949084e-07
206	0x330429af	3.0771556e-08
207	0x3438d1ca	1.7212656e-07
208	0x346a6341	2.1829057e-07
209	0x325bd055	1.2794847e-08
210	0x33f06294	1.1193802e-07
211	0x34223792	1.5107642e-07
212	0x3361095f	5.2395418e-08
213	0x336d14a5	5.519964e-08
214	0x34bcc0d2	3.5158024e-07
215	0x349d1165	2.9256185e-07
216	0x319429c9	4.3121173e-09
217	0x3091d384	1.0610255e-09
218	0x31514585	3.045302e-09
219	0x3107bb01	1.9751385e-09
220	0x31af308a	5.0986886e-09
221	0x31acfea8	5.03481e-09
222	0x318b3048	4.0509214e-09
223	0x2cb32ef2	5.092698e-12
224	0x2a74b075	2.1732774e-13
225	0x3218f3cd	8.902998e-09
226	0x31cf6265	6.035679e-09
227	0x2ff27eca	4.4109633e-10
228	0x32ed8f0e	2.7655485e-08
229	0x318ed429	4.1568637e-09
230	0x3594f66d	1.1098579e-06
231	0x35bb5fea	1.39605e-06
232	0x339b7f5b	7.240916e-08
233	0x353634f5	6.7877346e-07
234	0x35815ee7	9.638869e-07
235	0x34ad8fb8	3.232833e-07
236	0x34b9a7f5	3.458114e-07
237	0x3613ba6d	2.201322e-06
238	0x35f96615	1.8581655e-06
239	0x32b7a87e	2.1380625e-08
240	0x31c67fdf	5.7770957e-09
241	0x327bfeda	1.4668069e-08
242	0x322c3845	1.0024512e-08
243	0x32c921c7	2.341484e-08
244	0x32db56c8	2.5534419e-08
245	0x3299b60b	1.7894328e-08
246	0x2e0d607a	3.2145377e-11
247	0x2ba1819f	1.1475715e-12
248	0x3338ef38	4.3058407e-08
249	0x3313a68a	3.437757e-08
250	0x30c9e5de	1.4690007e-09
251	0x343309df	1.6674265e-07
252	0x32d474f3	2.473323e-08
253	0x35aa9362	1.2708881e-06
254	0x35d504d7	1.5871145e-06
255	0x3397a40d	7.061326e-08
