RefAgent/BC-CAB-256128/checkpoints/agent_4700.pt (torch, 488547 bytes, 18 tensors)

net.0.weight f4 [256, 23]
000000 a2 df a8 bd 87 04 0d bd b1 dc 10 be aa 00 76 bc
       -0.082457796 -0.034428146 -0.14146687 -0.015014807
000010 fa d5 6c bc 80 6a ed bc 67 ee c3 bc 76 38 82 bc
       -0.014455313 -0.028981447 -0.02391739 -0.015896063
000020 d3 8a 97 bc 9b 84 3f be 2f 3f 93 be d7 b4 0a bf
       -0.018498814 -0.18702929 -0.28759143 -0.5418219
000030 de 33 ba 3d 3c 01 73 3d 5c ca 00 be 62 e3 3a 3b
       0.09091924 0.05932735 -0.12577194 0.0028516878
000040 84 11 97 be 36 20 3b c0 28 61 ad 3e c6 13 a1 3d
       -0.2950555 -2.923841 0.33863187 0.078650996
000050 74 8f 92 3f 5c 4d 39 3e ac 2f e6 3d a7 4a 62 3c
       1.1450028 0.18095917 0.112395614 0.013811744
000060 1c c1 49 be 9b 88 85 3d 6e b9 02 bd 92 0a 8a 3d
       -0.19702572 0.06520196 -0.03191512 0.067402974
000070 d3 73 72 bd 5f 88 ce 3b d3 a1 7e bc a5 3d 4b bc
       -0.05919249 0.006302878 -0.015541512 -0.012404834
000080 1f 25 d1 3b 0c 3f 3c bf 3e c2 57 be b9 68 77 3e
       0.006382599 -0.735337 -0.21070191 0.24161042
000090 4c 57 b5 3d 6c b5 88 be e9 73 6d bc ce 1f 22 3e
       0.08854541 -0.26700914 -0.014492967 0.15832445
0000a0 39 b9 36 3e 84 7f 8e 3d 82 50 a7 be f6 91 84 3e
       0.17844094 0.069579154 -0.3267861 0.2589261
0000b0 ea 5f 46 3e df ee 19 bd fd 80 93 3d 90 6e fd bc
       0.19372526 -0.03758132 0.07202337 -0.03093651
0000c0 08 c1 07 3d 0f ea 3e 3d 02 7f 8b bc 21 d6 a9 3d
       0.033143073 0.046609934 -0.017028335 0.08292795
0000d0 a6 1c f9 3d 5f 4f 48 bd 37 70 6e bc 15 cd f0 bd
       0.121636674 -0.04890382 -0.014553121 -0.11757866
0000e0 1a 41 91 3e b8 f5 a2 3e 4b 7f a8 be 39 b4 3b 3c
       0.2836998 0.31828094 -0.32909617 0.011456543
0000f0 ea 55 21 3e d3 ac 6c 3e 95 2e d8 be f6 df 38 3f
       0.1575543 0.23112802 -0.4222304 0.7221674
000100 d6 11 14 bd 21 49 23 be 55 4f 36 be 44 9e 10 bc
       -0.036149822 -0.15945865 -0.178037 -0.008826796
000110 7d 08 c7 bd 68 2c 04 3d 07 88 9b bc e7 96 d0 bd
       -0.09718416 0.03226891 -0.018985761 -0.10185032
000120 0c 7f 9e 3c 30 e9 9b 3c 56 7a e3 3b 8b b1 8c 3c
       0.01934769 0.01903209 0.006942074 0.017174503
000130 61 04 3c bc 1b f2 6d bc ec fb 1c 3d a0 a3 61 be
       -0.011475653 -0.0145230545 0.03832619 -0.22035074
000140 eb 51 c0 be 89 e4 e2 3d 04 9a 12 3b c1 44 f8 3b
       -0.37562498 0.11078746 0.0022369632 0.0075765555
000150 3c 7f dc bc 78 22 73 be 2c 5c 4b c0 23 3c d4 3e
       -0.026916139 -0.23743618 -3.1775007 0.4145213
000160 0f 8a 93 3e 6f 66 48 3f de 9b 29 3e c4 54 7f 3d
       0.28816268 0.782813 0.16563365 0.0623367
000170 9c af f0 bc 54 36 93 bd ef db 10 3d 21 3d 14 be
       -0.029380612 -0.07188097 0.035365995 -0.14476444
000180 ef 4f 9f 3c 92 a2 8d bd 26 96 55 3d 7a 4e 9e bc
       0.019447295 -0.069157735 0.052145146 -0.01932453
000190 73 4e 88 bd 01 81 38 bd 06 a5 bb 3e 40 01 1a 3e
       -0.06655588 -0.045044903 0.3664934 0.1503954
0001a0 80 6b 76 bd 2f 32 31 be 42 ea 31 3e 7b 48 12 3d
       -0.060161114 -0.173043 0.17374519 0.035713654
0001b0 f0 93 43 bd f6 00 c4 bf 97 d1 78 be 90 4f 20 3e
       -0.047748506 -1.5312793 -0.24298702 0.1565535
0001c0 6a 73 fe bb ea 00 3b 3c 54 e1 ea bc fa f1 04 be
       -0.0077652233 0.011413792 -0.028671898 -0.12982932
0001d0 03 7f 8a bc d4 92 55 bc a5 e0 3e bd 8d 9c 1a bd
       -0.016906267 -0.013035495 -0.046600956 -0.037746955
0001e0 d4 ff 4f bd 7c 79 19 be 95 f6 62 3c cb 84 10 bb
       -0.050781086 -0.14987749 0.013852735 -0.0022051807
0001f0 8f 30 3a be 93 5a 2d 3d 17 d0 53 bd ba 67 86 be
       -0.18182586 0.042322706 -0.05171212 -0.26251012
000200 ae 02 ae bd f6 83 64 be 29 29 95 be af c5 9b be
       -0.08496605 -0.22315964 -0.29132965 -0.30424258
000210 97 a3 08 3f f2 43 24 be e3 ec 3f be 32 b4 d8 3e
       0.5337462 -0.16041544 -0.18742709 0.42324978
000220 21 40 2e 3d 08 8f 89 bc c5 d4 2e 3b 2b 32 9d bc
       0.042541627 -0.016791835 0.0026677113 -0.019188961
000230 8d 51 68 bc 94 66 a2 bd a1 c7 3f bd 43 1a ae bc
       -0.0141795995 -0.079297215 -0.04682124 -0.021252757
000240 f1 c2 34 bd 4b b1 09 3d e6 0a 86 bc 2a 7d 89 3d
       -0.044131223 0.033616345 -0.016362619 0.06713326
000250 77 19 08 3f 11 c4 37 3e 26 93 36 be 75 ea 61 be
       0.53163856 0.17945887 -0.1782957 -0.22062095
000260 df dd 25 3e 58 42 79 be 89 66 77 bd cf 9d 9d bf
       0.16197918 -0.24341714 -0.06040052 -1.2313784
000270 0a 5b d9 bd eb 29 f4 3e 48 6c 43 3e 7a 88 4a bd
       -0.106130674 0.4768823 0.19084275 -0.04944656
000280 f9 d4 33 3c 4a d8 f9 3d 46 cf 51 bd ff 4e e6 bc
       0.01097607 0.12199457 -0.051223062 -0.02811384
000290 35 f6 e8 3c 7e 13 a1 3d 61 0c ce 3d bb c4 cc 3d
       0.028437713 0.07865046 0.10060955 0.09998461
0002a0 3c ac 5e bc 15 b0 23 bc 8b 69 33 3e b0 13 ad 3e
       -0.013590869 -0.009990712 0.1752073 0.33804083
0002b0 e0 07 51 3e 15 8b 26 3d 1f b7 61 3d 23 5d b1 3e
       0.2041316 0.040659983 0.05510628 0.3464137
0002c0 93 21 b9 3e 23 bb 78 3f 3d d2 2e be 82 34 82 bd
       0.36158428 0.9716055 -0.17072387 -0.06357671
0002d0 ce 73 83 3e 5f 5a 7d be 49 bc 15 be 7f 9b 4d bd
       0.2567429 -0.24741505 -0.14622606 -0.05019712
0002e0 f2 6f 68 bd d6 90 86 3e 2b 64 5b bd d9 51 47 3d
       -0.056747384 0.26282376 -0.053562324 0.04866204
0002f0 1d ef 74 bd 1f e5 28 3d 39 97 ff bc b6 1c cd 3b
       -0.05979835 0.041234132 -0.031200038 0.006259526
000300 eb f4 a0 3b 4b dd 24 bd a4 af 22 3f 38 45 07 3e
       0.004912009 -0.040250104 0.63549256 0.13209999
000310 fc bf 01 be 12 cf 59 bd 0c 3e 64 3e 87 70 79 3c
       -0.12670892 -0.053175993 0.22289294 0.0152245825
000320 fc 7e ed bc bc 69 0f bf 13 24 81 3d e9 df 55 3e
       -0.028991215 -0.5602071 0.06305709 0.20886196
000330 a6 aa ca bd c3 f1 c6 bd 16 6d a1 3d fb f0 e7 bb
       -0.0989583 -0.09714081 0.078821346 -0.0070782877
000340 c5 2f c0 3c 4f 60 a3 bb af d6 35 3b 64 c7 e0 bb
       0.023460278 -0.004985846 0.002774637 -0.0068597067
000350 2a 24 f2 3b 60 f8 b6 bd 9d 87 9c 3d 33 95 b9 3c
       0.007389565 -0.089340925 0.07643054 0.022654152
000360 53 af 18 3d bf e8 47 bd c7 5f f0 bb 3a 12 a3 3e
       0.037276577 -0.04880595 -0.0073356363 0.31849843
000370 0c 01 98 bd c7 b4 b6 bd 67 e1 5e be 7b 62 72 3d
       -0.07422075 -0.08921199 -0.21765672 0.05917595
000380 74 ad 32 be 3b 08 c3 3c 9e 72 80 3e 29 4c 86 be
       -0.1744898 0.023807636 0.25087446 -0.2622998
000390 c2 1d d7 bc 55 5d 14 3e 9d 96 b0 3a 50 c4 1c 3c
       -0.026259307 0.14488728 0.0013472621 0.009568289
0003a0 84 1d 89 bd 1b 7e 0d be b2 6d 1a bd ed 05 66 bd
       -0.06695083 -0.13817637 -0.03770227 -0.056157995
0003b0 42 d2 f2 bd 00 1f c7 3c 10 68 87 3c c7 7b f9 3d
       -0.1185651 0.024306774 0.016529113 0.12181812
0003c0 2d 68 0c 3d e1 ba a1 bd 38 95 f2 be e3 c4 d9 bc
       0.034279037 -0.078969724 -0.4737947 -0.02658314
0003d0 f9 3c bb bd be 9d 91 bd 07 57 4f 3d 6e ec 8a bf
       -0.09142489 -0.07110165 0.050620105 -1.0853403
0003e0 2d 80 9d be 9a 1a d5 3e 87 72 87 3f ac d2 1f be
       -0.30761853 0.41621858 1.0581826 -0.15607709
0003f0 13 51 f9 bd 8b 7b ff 3d 0d 76 a4 3d c2 59 3e 3e
       -0.12173667 0.12474736 0.08030329 0.18588927

net.0.bias f4 [256]
000000 2b 98 10 3c e2 a1 02 be 1f e4 de bc ad 79 52 bd
       0.008825342 -0.12757066 -0.027208386 -0.05138557
000010 f4 c5 a6 bd 72 6e 29 3d 07 db 09 be 9d 99 5c bd
       -0.08143225 0.041365094 -0.13462459 -0.053857435
000020 b4 b0 71 3e 08 ed 43 bd 40 f2 18 be 94 6e 89 3a
       0.23602563 -0.047833472 -0.14936161 0.0010485225
000030 8d e7 30 be 46 35 3d 3d c1 db 6b bc 05 6a 7a 3d
       -0.1727583 0.046193384 -0.014395655 0.061136264
000040 6d 00 b7 3d 8e 6a 12 be df 49 bd 3b 16 04 54 bd
       0.08935628 -0.1429846 0.0057766284 -0.05176171
000050 ed dc 43 3e e3 09 3b be ab 1c 3d bd 3c 59 e4 bd
       0.19127245 -0.1826549 -0.046169918 -0.111498326
000060 a4 63 ef 3a ba 4e 12 bc f9 4f 30 bd e5 f8 43 be
       0.0018263948 -0.008929903 -0.043045018 -0.19137914
000070 b9 26 8d be ba 5d 75 3d a2 f0 84 bd 92 2c 4f 3c
       -0.27568606 0.059903838 -0.064912096 0.012644904
000080 53 c4 44 3d 3d e6 b6 bd 1d 65 f9 bb 42 11 a7 3d
       0.048038792 -0.08930633 -0.0076109306 0.081575885
000090 f9 6c 5a 3e 69 d1 2e 3d 00 df 06 bc 0a d2 a8 3d
       0.21330632 0.042680178 -0.008231878 0.08243187
0000a0 a8 06 2c 3d d4 9f 4f 3c 02 ff b3 3d 2e 96 73 bd
       0.041998535 0.012672383 0.08788873 -0.059469394
0000b0 e4 df 6a bd d2 ac 15 3d 04 af 84 bd bc 3f 79 3c
       -0.057342425 0.036541767 -0.06478694 0.015212949
0000c0 1f 9b 7c be 54 65 2a bd a6 d7 c1 3d 3d ad 1b bd
       -0.24668549 -0.04160054 0.0946496 -0.03800701
0000d0 a1 aa 8a 3d ff fc 5d be f5 0c e5 3d 4e 49 36 bd
       0.06770826 -0.21678542 0.11184112 -0.044503503
0000e0 2b cd 57 3e 3f b5 51 be 7a 49 85 3a 7f 80 98 3e
       0.21074359 -0.20479296 0.0010168992 0.29785535
0000f0 5f 36 88 bc 87 a3 cc 3b 68 06 04 bd 25 ff 2d bd
       -0.016627489 0.00624508 -0.032232672 -0.042479653
000100 6c 86 17 3d 50 09 8b 3d 30 9e ee 3c 01 38 02 bb
       0.03699343 0.067888856 0.029128164 -0.0019869807
000110 e3 72 17 3e 95 d4 a6 3c 6c 95 59 3d af d5 81 3d
       0.1478992 0.020365039 0.053121015 0.06339585
000120 82 6c 82 3d 8c be b2 bd 38 5e 13 bc c4 7e 76 3c
       0.063683525 -0.0872775 -0.0089946315 0.015044872
000130 2f b4 fa bc 28 e0 cc bc 19 89 b2 bd 81 20 f3 3d
       -0.030603496 -0.02500923 -0.087175556 0.11871434
000140 62 6e 80 3d c0 00 9b 3c 0c fc 35 3b 00 72 dc 3b
       0.06271054 0.018921256 0.002776864 0.006727457
000150 56 c8 01 be 87 e6 95 3d dd 9d 30 3e 4e fd 8e bc
       -0.12674078 0.0731936 0.1724772 -0.01745477
000160 aa 2d 06 be ce 38 b8 3d a7 b6 8f 3c 64 2c 98 3d
       -0.13103357 0.0899521 0.01754315 0.07430342
000170 1d be 47 3d d2 38 cc 3d 54 11 ba bd 62 3e a8 3c
       0.04876529 0.09971775 -0.09085336 0.020537559
000180 49 f1 32 3d 2f 19 85 3c 54 14 a3 3c 7a d9 32 bd
       0.04368714 0.01624736 0.019907154 -0.043664433
000190 20 03 1e be cc 26 13 3e 82 bb 96 3d 34 fa 72 bd
       -0.1543088 0.14370269 0.07359983 -0.059320644
0001a0 8e a1 5e 3c 32 f0 bf 3d 50 99 07 be 3b b8 6b bd
       0.013588322 0.093719855 -0.13242078 -0.057548743
0001b0 38 da ab 3d ce 9d ea bd 88 9e ce bd 17 1c 03 bd
       0.08391231 -0.1145588 -0.10088831 -0.03200921
0001c0 18 29 a8 3d 28 6a 76 bd 06 a2 7d bc f0 80 e0 bc
       0.08210963 -0.060159832 -0.015480524 -0.027405232
0001d0 63 fa c5 bd 73 d9 ae bd bc ca 6a 3d 3a 6e 7e 3c
       -0.09666898 -0.08537569 0.05732225 0.01552921
0001e0 9b 51 81 3d 6b dc 58 3e 16 c8 c3 bd 6d bf 87 3d
       0.06314393 0.21177833 -0.09559648 0.066283084
0001f0 21 ad 57 bc 5d 09 80 bd 21 78 a2 bd 2a a3 6b 3d
       -0.013163836 -0.06251786 -0.07933069 0.057528652
000200 fb 06 91 3c a5 69 ce 3c 00 60 bd 3b fc a1 a5 3d
       0.017703524 0.02519686 0.0057792664 0.08087537
000210 c9 8d 0a 3d 69 43 80 3d 26 40 6b 3d 2b 7f 2d 3c
       0.033826623 0.062628575 0.057434224 0.010589401
000220 22 b3 28 be 63 f9 55 3d f8 be d6 3b 8f 9b 08 3d
       -0.16474584 0.052239787 0.006553527 0.033351477
000230 17 4a 83 bc 02 e3 bd 3d 30 eb 53 3d c8 87 27 bc
       -0.01602654 0.09271814 0.051737964 -0.010225244
000240 9c 92 d1 bd e3 09 0b bd 32 49 65 3e 53 99 5d 3b
       -0.10233042 -0.033944976 0.22391203 0.0033813312
000250 c1 c9 6f 3e de 3b c1 3d 3a 88 07 3d e8 22 89 3d
       0.23416807 0.09435247 0.0330889 0.06696111
000260 69 f1 bf 3c 2c 85 65 bd d2 64 8e 3c 8f 74 b9 3c
       0.023430543 -0.056035206 0.01738206 0.022638587
000270 7e c0 a3 3d 25 41 d1 bd 3a 0a dc 3d 2c b7 de 3d
       0.07995699 -0.102175035 0.10744138 0.10874781
000280 74 42 a7 bd b5 8e 68 3d c9 40 74 3d 7b 59 32 be
       -0.08166972 0.05677672 0.059632096 -0.17416947
000290 ff 23 b9 bb 6d c7 9a bd 44 99 1d bd a4 8b ce bd
       -0.005650043 -0.07557569 -0.038476244 -0.10085228
0002a0 ab 84 fa bc e4 0b cf bd a7 7d c6 3d 42 77 81 bc
       -0.03058084 -0.1010969 0.09691935 -0.015803937
0002b0 78 a7 47 3e a6 fd bb 3c 57 5d 9b bc ee 0c be bc
       0.19497478 0.022948097 -0.018965406 -0.023199525
0002c0 b2 69 b7 bc 6b 17 c4 3d 46 41 85 3d bc 94 6b 3c
       -0.022389267 0.09574779 0.065065905 0.014378723
0002d0 1f fc 5b 3e 26 ab 9c 3d 49 04 a0 bd 5f d8 97 bd
       0.21482895 0.076498315 -0.07813317 -0.074143164
0002e0 de 5c 14 3d a3 13 cd bd d6 55 e3 bd a0 1d 50 3c
       0.036221378 -0.10013511 -0.11100356 0.012702376
0002f0 a0 b0 09 3d ac 37 57 be 02 b4 69 bc cb 42 58 bc
       0.03361571 -0.21017331 -0.014264109 -0.013199518
000300 db 3e 5c 3d 8a 9d 9c 3d 35 90 05 be e7 dc af bd
       0.05377088 0.07647236 -0.13043292 -0.08587056
000310 61 eb e3 bd 0e 6e c3 3c 3f 4b 5c 3d 81 6c 7b bb
       -0.11128879 0.02385619 0.053782698 -0.0038364234
000320 f6 59 30 bc 66 50 ff 3d 6c 03 7d 3d 94 28 79 bd
       -0.010763636 0.12466507 0.06177084 -0.060829714
000330 17 69 56 bd d7 e9 fe 3d ad df 34 3e a7 87 02 bb
       -0.052346315 0.12446945 0.1766345 -0.001991728
000340 ed 55 d7 3c d6 f1 30 bd b0 1f 6c 3d d0 f8 94 bd
       0.02628609 -0.043199383 0.057647407 -0.0727402
000350 1b bf 16 3d 0a 55 07 3d a0 be 9e bd 54 6a 3f bc
       0.036803346 0.033040084 -0.077512026 -0.011683065
000360 f8 4f 7c bd d8 c1 b1 bd 7d 16 cd 3a 0a 28 17 3d
       -0.0615997 -0.08679551 0.0015646961 0.03690342
000370 0a 6a 42 bd 71 82 97 bd 4f ff 1f 3d f8 21 07 bd
       -0.047464408 -0.073979266 0.03906184 -0.03299138
000380 7f 29 6b bc 27 28 a6 bc c4 db 4d be 96 78 96 3b
       -0.014353155 -0.020282818 -0.20103365 0.0045920117
000390 7b ce a3 3c 1e a4 6e 3b fd 7a 9f 3c e1 02 91 3d
       0.019995918 0.003641374 0.019467825 0.07080627
0003a0 d5 6e 9b 3d 3d 44 a9 bd bd 7f 3a be 02 4b 4f 3d
       0.07589499 -0.082649685 -0.18212791 0.050608642
0003b0 9c 45 f2 3b d2 d9 f0 3c d0 25 2a 3e 10 a8 27 be
       0.007393552 0.02940074 0.16615987 -0.16372705
0003c0 e0 a7 46 3c 75 ed 9d 3c 17 83 2e bd 06 fc 2d bd
       0.012124985 0.019278267 -0.042605486 -0.042476676
0003d0 29 85 8d bc 56 96 30 3d bf 38 16 be cb 4d 07 be
       -0.01727541 0.04311212 -0.14670084 -0.1321327
0003e0 8e 40 0e bd 55 be e7 bd 4e 3b ae 3d 75 9d 03 3d
       -0.034729533 -0.113156 0.08507405 0.032132585
0003f0 77 bf 3c 3d f2 03 74 3d 0c 92 00 bd b7 05 1d 3e
       0.046081033 0.059574075 -0.03138928 0.15334211

net.3.weight f4 [128, 256]
000000 25 03 25 bd cb e7 cb 3d c1 11 d5 3d 89 63 b1 bc
       -0.040286202 0.099563204 0.10403777 -0.021653907
000010 ae f1 2a 3a 57 a5 cd 3d 92 65 ef bc fa 6b 50 bd
       0.00065209984 0.10041302 -0.029223237 -0.050884224
000020 77 f3 7b bd 4c 83 75 bd 11 88 4f be 4f 1e ca bc
       -0.061511483 -0.059939668 -0.20266749 -0.024672655
000030 65 75 1c bd 2a 95 93 bd 05 9f 27 3b b2 a6 46 bd
       -0.038197894 -0.07206185 0.002557696 -0.048498817
000040 f6 6a 65 bc 83 b8 9b be e8 9e 85 bb b6 60 4a bc
       -0.014002552 -0.3041421 -0.004077781 -0.012352159
000050 b4 75 83 bd bd 9f b0 3b 0a 53 9f 3c 42 e5 60 3c
       -0.064189345 0.005390136 0.019448776 0.013726534
000060 ca bf 14 3d 91 02 40 bd 96 a1 a3 3b b2 3e a5 be
       0.036315717 -0.046877448 0.004993628 -0.32274395
000070 7e b3 73 bd 7b 2a 6f 3e bc 50 b9 bd 80 03 cc bd
       -0.05949735 0.23356049 -0.09048602 -0.09961605
000080 73 12 7b bc 42 5f aa bc ba 3a ac bc b8 18 68 bd
       -0.015324223 -0.020797376 -0.021024097 -0.0566642
000090 e3 13 26 3c ec 44 71 3d d7 60 8a 3c 03 39 75 bb
       0.010136577 0.05890362 0.01689188 -0.0037418015
0000a0 60 fa 35 3d 83 2c 12 bb df 66 cc 3e 9d ed 14 3e
       0.04442823 -0.0022304363 0.39922234 0.14543767
0000b0 39 ec 7d 3c 60 57 37 3e c1 cf 97 3d a8 e1 1e 3d
       0.015498214 0.17904425 0.07412673 0.03878942
0000c0 87 b9 f6 bd 29 c6 ef bc 9b eb 0b bc 9f 5a 8e 3c
       -0.12047105 -0.029269295 -0.008540059 0.017377196
0000d0 de 4f 5e bc 7b f1 15 be 67 0f a7 3b eb 45 36 bd
       -0.0135688465 -0.14642899 0.0050982716 -0.044500273
0000e0 7a f0 e6 3c 66 1d f4 bd e3 0b d1 bd 72 d0 05 bc
       0.02819084 -0.1191967 -0.10207345 -0.008167373
0000f0 f4 5d d7 bc 0b 0e 11 bd 62 2e 0b bd 30 5d 3b bc
       -0.026289918 -0.035413783 -0.03397978 -0.011435792
000100 0b 28 8a 3d 5a 2b 30 3d a9 4d 93 3c d3 21 7e bc
       0.06745919 0.043010093 0.017981367 -0.015510994
000110 e8 25 5c bd fe 22 c3 bc 00 7a 90 3d 16 0d b3 3e
       -0.053747088 -0.023820397 0.0705452 0.3497092
000120 d5 ab 5e 3d 9a 00 a7 bc e4 0c a9 bd 5f a4 94 3b
       0.05436309 -0.020386029 -0.08254412 0.004536196
000130 44 95 18 bc c8 07 8e bc fc 96 dd 3c 41 d9 19 3e
       -0.009312931 -0.017337695 0.027049534 0.15024282
000140 8a 65 f1 3c 4a fd 31 bd ed 54 a1 bd e2 a5 7f 3b
       0.029467363 -0.043454446 -0.078775264 0.0039008786
000150 a9 7e ab bc 49 c0 13 3c c7 95 89 bd cd b4 cc 3b
       -0.02093442 0.009018012 -0.06718021 0.006247139
000160 ff e6 89 be cb 6e ae bd bb 36 99 3b 37 1e aa bd
       -0.2693405 -0.08517226 0.004675714 -0.08306544
000170 f6 e4 4e bc 8a 20 50 bd 45 50 4b 3d d9 20 76 be
       -0.012627831 -0.05081228 0.049637098 -0.24035968
000180 10 80 03 bd 94 48 d5 bc 17 6f 6a bc f4 ac 50 3d
       -0.03210455 -0.026035585 -0.014308712 0.05094619
000190 0b be 06 3d db 60 82 ba d9 18 3e 3d 76 d5 e8 bc
       0.032896083 -0.0009947078 0.046410415 -0.028422099
0001a0 79 f2 26 bd 1f 65 02 be 3b 9f 53 bd 12 a0 10 3d
       -0.040758584 -0.12733887 -0.051665526 0.035308905
0001b0 0a f5 08 3d 06 71 30 3c 00 66 28 3c ba 40 7e bc
       0.033436812 0.010769134 0.010278225 -0.015518362
0001c0 c4 fd 55 3d 30 0e 94 3d 9b 74 53 3c 6d 47 57 be
       0.052243963 0.072292686 0.012906219 -0.2102334
0001d0 4c a1 3c bd a7 61 ab bc 0c 2f a3 39 df 17 9d bc
       -0.046052262 -0.020920588 0.00031124835 -0.019176422
0001e0 62 3c 2d bc fd 73 8b bc 10 fd f9 bc e8 1e be 3c
       -0.010573478 -0.017023081 -0.030516177 0.023208097
0001f0 ac 76 ce 3d 74 5f ac be 80 98 f7 bc ac ab 2d bd
       0.100812286 -0.33666575 -0.030224085 -0.042400047
000200 b3 51 9b 3c 0c ad 26 bd 6c 71 0d be 4a 16 eb bb
       0.018959856 -0.040692374 -0.13812798 -0.007174288
000210 3a 36 62 bc 29 b0 6d 3a a0 a7 98 bd e2 60 76 3c
       -0.013806874 0.00090670824 -0.07453847 0.015037747
000220 c9 7a d9 bc 3f e8 21 3c 9c 2f bc 3b 22 da ee 3d
       -0.026547806 0.009882032 0.00574298 0.11662699
000230 cd e4 3d 3d 0e 01 fc 3b 0e 74 75 3d f4 5c 9c 3c
       0.04636078 0.0076905554 0.05992513 0.019087292
000240 1c 77 70 bc 34 cd 83 3c d2 29 b9 bc a5 af 89 3d
       -0.014676835 0.01608906 -0.02260295 0.06722955
000250 e0 32 65 bd 37 be 00 bd 4d f0 f6 3b 3a c7 4a bd
       -0.05595672 -0.031431403 0.0075359703 -0.049506404
000260 0a c3 d5 3c a0 b7 19 3c c9 69 50 3b 4a 34 d2 ba
       0.026093978 0.0093821585 0.0031801334 -0.0016037312
000270 74 a0 62 3d 5a ba 0c bd 1d bc 3f bd 55 b7 e6 bc
       0.0553288 -0.034357406 -0.04681026 -0.028163591
000280 e0 cf 61 bd 1d 8d 3e bd 1c 61 da 3d 47 9a 63 bc
       -0.055129886 -0.046521295 0.106630534 -0.013891763
000290 86 d2 9e 3c cd 15 66 bd 27 a4 83 bd 24 e8 b9 3b
       0.019387495 -0.056173135 -0.06427794 0.0056734253
0002a0 81 13 88 bd e3 7f c5 bc bb 7d 01 bd 5a 7f 2c bd
       -0.06644345 -0.024108833 -0.031614047 -0.04211364
0002b0 a3 fb 47 3c 76 c8 29 3e 70 83 81 bc 47 f9 33 bd
       0.012205991 0.16580376 -0.015809745 -0.0439389
0002c0 0d 78 51 3d d3 ba 6d bd 7b 3c d0 bc db f3 67 bd
       0.05113988 -0.058039498 -0.025419464 -0.056629043
0002d0 40 54 83 3c a4 6d 9b be 43 6b a3 3d 73 c2 64 3c
       0.016031384 -0.30357087 0.07979443 0.013962376
0002e0 fa 26 47 3c 68 d2 b1 3c a6 2a e8 bd b8 39 25 bd
       0.012155289 0.021706775 -0.113362595 -0.040338248
0002f0 21 d2 9d bc 8a 2e d7 bb 3f 3b 74 bc 77 35 77 3c
       -0.019265236 -0.006566827 -0.0149067035 0.015088431
000300 40 09 fe bc 7f fb e0 bd 11 6c 01 bd 2a 7a d5 3c
       -0.03101027 -0.10985469 -0.0315972 0.026059229
000310 03 ef 2e 3d fc f3 20 3e 94 41 9e bd b5 f0 7d 3e
       0.042708408 0.15718073 -0.07727352 0.24798854
000320 11 b8 1d bd 6d f1 45 bd 1d b7 d2 bc 40 e0 f1 bc
       -0.038505618 -0.048325945 -0.02572208 -0.029525876
000330 50 3c e7 3c 07 14 de bc eb d5 9d bd bc cf fe 3d
       0.028227001 -0.02710916 -0.07706817 0.12441966
000340 16 08 c4 bc f3 a1 16 3c 0d 72 a0 bd 7c 9a ca bc
       -0.023929637 0.009193885 -0.078342535 -0.024731867
000350 6e 05 0b bd 8f d4 21 bc 7f f6 95 3c 61 13 ae 3c
       -0.033940725 -0.009877338 0.018306015 0.021249475
000360 ed f4 0d bd cb 27 16 3d 21 e6 9c bc 77 1a 67 bd
       -0.034657408 0.036659043 -0.019152703 -0.056421723
000370 3e e1 18 3d 6b b3 dc 3d d2 42 11 3d e2 93 09 bd
       0.037324183 0.10776409 0.035464115 -0.033588298
000380 b8 d5 5c bd 0b 75 61 3d 7e 67 1b be ee 39 9f 3c
       -0.053914756 0.05504326 -0.15176198 0.019436803
000390 9f 65 ae bd 8d 24 43 bd a8 9c 39 3d dc 3b 5d bd
       -0.085154764 -0.04764228 0.045315415 -0.054012164
0003a0 d0 75 b6 3d cb 6e 74 3d a6 4d a0 39 6a bf db 3d
       0.0890919 0.059675973 0.0003057543 0.10729869
0003b0 2a 38 a3 bc c4 dd e1 3b 00 b7 ea 3c d8 c2 e5 bb
       -0.019924242 0.0068928916 0.028651714 -0.0070117526
0003c0 53 07 93 3d 5a 9e 62 bd fe be 9a 3d ef e0 67 bd
       0.07179131 -0.055326797 0.0755596 -0.056610998
0003d0 ab f2 70 bc 47 57 a2 3d e6 d6 24 bd 39 3d a0 bc
       -0.014706294 0.07926803 -0.040244006 -0.019560443
0003e0 26 0b 91 3b ec cf 1c bd 70 cb 58 bc cb b6 5b bc
       0.004426378 -0.038284227 -0.013232097 -0.01341028
0003f0 12 fc 5d bd 24 6a 11 3c df 64 55 3c db 5e 26 3d
       -0.05419547 0.008875404 0.013024538 0.040617805

net.3.bias f4 [128]
000000 f2 c9 8d ba 52 f6 a8 3b 84 ca a8 bb 65 08 06 bc
       -0.0010817631 0.005156317 -0.005151095 -0.008180712
000010 cf 3c 19 bc a0 ea 56 bc 92 2f 13 bc 6b d5 19 bc
       -0.009352877 -0.013117462 -0.00898351 -0.009389262
000020 fa cb c7 3b 53 b7 f4 bb cc d2 82 bc e8 76 4f bc
       0.006097314 -0.007468143 -0.015969656 -0.012662627
000030 fa fe 89 bc 42 57 4d bb 73 18 50 bb 33 90 87 39
       -0.016845215 -0.0031332527 -0.0031752854 0.00025856643
000040 fb 53 e1 39 70 15 15 bc 68 34 95 bb 15 e8 05 bc
       0.00042977915 -0.009099349 -0.0045533665 -0.008173008
000050 74 b4 b6 bb 50 d0 1f bc b2 22 30 ba e6 8a 01 bc
       -0.005575711 -0.009754255 -0.0006719037 -0.007906651
000060 f0 f0 50 bb ae bb 99 bb 31 d4 1a bc f8 23 c4 bb
       -0.0031881891 -0.0046915626 -0.009450004 -0.005985733
000070 d6 b2 d2 b9 6d cd 68 3c 0f 99 d8 bb f8 0e 6e bb
       -0.00040187564 0.014209134 -0.006610043 -0.003632484
000080 64 e3 42 39 a0 cb 18 3c 0b d8 c7 bc 9f 22 e2 3a
       0.00018585991 0.009325892 -0.02439501 0.001725275
000090 02 5a b7 bb 88 1a 13 bb 0e 7c 40 3b e6 04 38 bc
       -0.0055954466 -0.0022446234 0.0029370817 -0.011231637
0000a0 cb d8 25 3b e3 0d fd bb 96 9e 82 b9 88 84 b8 ba
       0.002530622 -0.0077226027 -0.00024913688 -0.0014077583
0000b0 15 7a 1c bc 01 d8 c1 b8 6e 86 3c bc 21 dc 50 3a
       -0.009550591 -9.243191e-05 -0.01150666 0.0007967372
0000c0 e4 9d 07 3c f3 65 45 bc 10 0b 12 3b 54 f0 8d 3b
       0.00827739 -0.012048232 0.0022284426 0.004331628
0000d0 2c d7 4c bc d1 e2 e0 bb b4 97 42 bb 3c 1c 5e bc
       -0.012502473 -0.006862976 -0.0029692473 -0.013556536
0000e0 77 e8 1a bc 8c 9f 1d bc b4 a5 74 3b ea 91 95 3b
       -0.009454838 -0.0096205585 0.0037330212 0.0045645135
0000f0 f3 79 a5 bc 88 7c ec 3a c9 03 cd 3b 42 c8 0e 3b
       -0.020199751 0.0018042484 0.0062565547 0.0021786843
000100 7a 11 b1 3a e4 fd 19 bb 95 3b 40 ba 07 df 4d 3a
       0.0013509237 -0.0023497278 -0.0007333097 0.0007853363
000110 e9 8b 22 bc 7a 72 17 bc 66 ca a0 3a 02 38 47 bc
       -0.0099210525 -0.009243602 0.0012267351 -0.012159349
000120 8d 37 a5 bc 77 2c 8b bc dc 2a 8b bb 06 d4 5c bc
       -0.02016809 -0.016988976 -0.0042470526 -0.013478285
000130 ed e2 32 ba 2f f4 c1 ba a4 f2 bf bb 59 7e 51 bb
       -0.0006823976 -0.0014797504 -0.0058577824 -0.0031966178
000140 1c 96 a4 bb bb 94 49 bb db 34 26 bc 31 df 94 3b
       -0.0050227772 -0.0030758816 -0.010144438 0.004543208
000150 4e 6c fa ba ff 4d 38 bc 56 e9 b4 bb 79 f9 fb 3b
       -0.0019105764 -0.0112490645 -0.00552098 0.0076896516
000160 ce 47 b0 3b 40 65 63 bc 3a 3f fa bb 5c b7 f4 bb
       0.0053796535 -0.01387912 -0.0076369317 -0.007468147
000170 d0 31 fc bb e8 3d 3c bc a0 d0 f3 3b 61 c5 37 bb
       -0.007696368 -0.011489369 0.0074406415 -0.002804123
000180 89 b9 87 3a 32 13 61 bb 40 60 1d bc da f2 c8 bb
       0.0010354976 -0.0034343717 -0.009605467 -0.006132466
000190 b1 02 ef 3b 97 e4 33 bc 27 59 76 3c c8 6f 1b 3b
       0.007294022 -0.010979793 0.015035904 0.002371775
0001a0 b9 01 bc 3b 1b 59 13 bc c6 9b 4c bb ea d1 3b bb
       0.00573751 -0.008993412 -0.0031220778 -0.0028659054
0001b0 3f 60 f9 ba c6 c2 66 bb 3c 5d 29 bb a4 47 7a bc
       -0.0019025876 -0.003521131 -0.0025842926 -0.0152758695
0001c0 89 ae 5f ba fd 63 c5 b9 0e 32 9e ba ea c0 3f bc
       -0.00085327827 -0.00037649265 -0.0012069361 -0.011703709
0001d0 dd c7 91 bb f9 86 66 bb ad 71 9f 3c 95 dc 17 3c
       -0.0044488744 -0.0035175665 0.019463385 0.009268899
0001e0 2e ad 20 bc 86 99 e0 3a 36 a1 f2 b8 83 8d e5 bb
       -0.009806914 0.0017135597 -0.00011569487 -0.007005395
0001f0 51 a1 d0 3a f3 45 1b bc 74 e4 45 ba f7 b0 a8 bb
       0.0015917217 -0.009477126 -0.0007548996 -0.005148049

net.6.weight f4 [9, 128]
000000 2f 6f 2d bc 1d 60 29 bc 17 4c 16 bd 5f b5 70 bc
       -0.01058559 -0.010337857 -0.03669366 -0.01469168
000010 4f d3 0c 3d fd cb 8a bc 21 63 6b bc 6b 94 12 3e
       0.034381207 -0.016942972 -0.014366896 0.1431443
000020 92 91 89 3c 37 de 3a 3c e8 f3 23 bd 77 97 97 bc
       0.016793046 0.011405519 -0.04002753 -0.018504841
000030 3e f4 f1 bd 94 9a de bc 15 ed 73 bc a5 f2 7e 3c
       -0.118141636 -0.027173318 -0.014888068 0.015560781
000040 f3 5f 7d 3c c3 a5 0b 3d b3 18 18 3e 82 0b 9b 3c
       0.015464771 0.03409363 0.14853172 0.018926386
000050 f2 95 1f 3d fe df 8e bc 0b cb 03 3d 25 e1 2d bb
       0.03896136 -0.017440792 0.03217606 -0.0026531902
000060 48 a2 1c 3b 4d 9c a4 bb 29 a7 12 3d aa 1d ba bd
       0.0023900438 -0.0050235153 0.035803948 -0.09087689
000070 a9 2d f4 bc eb c9 9a bc 7c 00 1c 3e 93 f6 9c bc
       -0.029806929 -0.01889511 0.1523456 -0.019160544
000080 99 c7 1b 3e 92 ab fa bc ba 0b da 3a 5f 30 a9 bc
       0.15212859 -0.03059939 0.0016635575 -0.020652948
000090 a7 83 12 bc b5 c3 be 3a cc 8d 1e 3e 87 c2 e5 bc
       -0.008942521 0.0014554175 0.15483779 -0.02804686
0000a0 cb 73 80 bc 92 65 a9 3c 0c dc 7b 3c 28 39 2a bc
       -0.015680214 0.020678315 0.0153722875 -0.010389604
0000b0 86 dc 5e 3d 07 df 7b 3c c8 e1 30 bc 86 ba 00 3d
       0.054409526 0.015372998 -0.010796018 0.031427883
0000c0 43 94 c3 bb b6 64 16 3e e0 89 e3 3c 24 8a be bc
       -0.005968602 0.14686856 0.027775705 -0.02325923
0000d0 bb 58 db bc 55 9e 2b bb 24 df 94 3c dd 5a ec bd
       -0.026775708 -0.0026186903 0.018172808 -0.11540768
0000e0 b0 60 6e 3b fa 63 f1 3c c4 6f 21 3c e2 bc 13 bd
       0.0036373548 0.029466618 0.009853307 -0.036068805
0000f0 58 ba 3d 3c f4 a3 3f bd 47 28 3d 3c 16 26 ec bc
       0.011580072 -0.046787217 0.011545247 -0.028826755
000100 c9 6e e4 bb 7c 3b 1a bd d2 ba eb 3c 8d c2 e5 3c
       -0.0069712144 -0.037654385 0.028775606 0.02804687
000110 cb 86 0a be 75 2e 30 bd c1 92 07 3c 34 b3 13 bd
       -0.13527982 -0.043013055 0.008274735 -0.036059573
000120 87 c8 b1 39 be f2 04 3d dc 88 d5 ba e8 01 e1 bd
       0.00033909475 0.03245806 -0.0016291398 -0.10986692
000130 39 d4 41 bd ff e4 23 3e b1 b3 c5 bb 25 b2 3d bc
       -0.047321532 0.16005324 -0.006033384 -0.0115781175
000140 52 db 6a 3b 02 82 99 ba 9c 59 68 3c aa e2 90 bd
       0.0035836291 -0.0011711719 0.014181521 -0.07074483
000150 a0 fd 15 3e 79 87 1a 3c 83 7b 02 3d 07 24 5c bc
       0.14647532 0.009431713 0.03185607 -0.013436324
000160 9d ad 56 bc 5b 87 94 bc 6f ba e2 bc 01 9c c3 3a
       -0.013102916 -0.018130949 -0.02767679 0.0014923812
000170 0c 06 13 bd 0f ec c5 3c 30 62 b2 bc c6 5a a9 bb
       -0.03589444 0.024160413 -0.021775335 -0.0051682917
000180 5d 35 c4 3c 05 00 1d 3e e2 49 e8 3c 11 d1 1b 3e
       0.023951227 0.15332039 0.028355543 0.15216471
000190 96 f8 90 ba 4f 93 96 bb 8f 41 28 bd 42 ff a5 3b
       -0.0011060413 -0.0045951973 -0.041078147 0.0050658295
0001a0 ca 51 b5 bc 51 cb 02 bd 36 b7 01 3d 34 ef 8a bb
       -0.022133727 -0.03193218 0.031668864 -0.004239941
0001b0 3a 3c d3 3c 5a b4 03 3d 21 2e 00 3d 15 47 b4 3c
       0.025785554 0.03215442 0.031293992 0.02200655
0001c0 ed 34 06 3c 37 6b 02 3d b8 0a b3 bc 1b 5c be ba
       0.008191329 0.03184053 -0.021855697 -0.0014523299
0001d0 49 1b e1 3c 96 08 00 bd fd 59 22 bd a5 cf 82 3c
       0.02747883 -0.03125819 -0.0396366 0.015968153
0001e0 99 41 01 bc 64 7a 1e 3e 73 99 f9 bd 34 4b c7 3c
       -0.007889175 0.15476376 -0.12187471 0.024327852
0001f0 d4 3f 88 bb dc f8 05 3c cf 7b ea 3b 5c 8f 8e bc
       -0.0041579995 0.0081770085 0.0071558724 -0.017402343
000200 fb 6e 8d bb ac 90 b2 bc 27 87 16 3c 0e bf 48 bb
       -0.0043162084 -0.0217975 0.009187496 -0.0030631456
000210 06 18 02 bc 07 bc 4f bc 0f 26 f8 bb f3 36 af 3c
       -0.007940298 -0.012679107 -0.0075728963 0.021388507
000220 78 2f 03 3d b7 59 0d 3e 86 41 7f bd 68 69 67 bc
       0.03202769 0.13803755 -0.062318347 -0.014124252
000230 92 8a 43 bd d4 2c 1f be 40 c8 04 3b c6 22 42 3d
       -0.047739573 -0.15544444 0.002026096 0.047396444
000240 e9 68 08 3e 84 ff d0 bc c3 f7 08 3d 3d 69 98 bc
       0.1332127 -0.025512464 0.03343941 -0.018604869
000250 c2 e2 f1 bc 48 ac 3e 3c cf 8c 89 38 83 4c df 3c
       -0.029527072 0.011637755 6.558897e-05 0.027258163
000260 4e 07 68 3d 00 0f 4c bc 97 76 59 bc c7 ea 1e bd
       0.05664759 -0.012454748 -0.013272903 -0.03879812
000270 7a 75 c3 bb 7b da 9d 3c de d8 07 3d ec eb 34 3c
       -0.005964932 0.019269219 0.033165805 0.011042576
000280 30 c2 d8 3c ce 67 f1 3c 13 20 55 3c 79 53 b7 3c
       0.026459783 0.029468443 0.013008135 0.02237867
000290 33 38 64 3d 44 0b 1d bd ef ad 76 3c f0 51 69 bd
       0.05571766 -0.03834082 0.015056117 -0.056962907
0002a0 4a a2 04 bd 26 56 25 bc a5 1e c6 3c 27 c7 2f 3d
       -0.032381333 -0.01009134 0.024184534 0.042914536
0002b0 05 e4 c5 bc bf e8 4b bd e0 ec 3e bc c2 72 46 bc
       -0.02415658 -0.04978251 -0.011653155 -0.012112321
0002c0 45 fd 1a bd 4b 46 13 3d b5 f9 1c 3d 25 f9 b3 3c
       -0.037839193 0.03595571 0.038324077 0.021969387
0002d0 da 96 0d 3d df 93 ac bc 5a 53 c2 3c 1c 62 b2 bc
       0.03456769 -0.021066604 0.023721386 -0.021775298
0002e0 2d f4 fc bc 73 54 e0 3c 97 29 17 3d 3d 9b b8 3c
       -0.03087815 0.027384019 0.036904898 0.02253496
0002f0 94 41 e5 bb 67 df 12 be a7 fd 9e ba de ed ea 3c
       -0.006996343 -0.14343034 -0.0012130038 0.028677877
000300 54 7d 28 bd 7c d3 94 3b ec 9c 4d bd 6c 8c be bc
       -0.041135147 0.0045418125 -0.05019848 -0.023260318
000310 56 11 0d bd e8 f9 24 bc 35 62 02 bd 6d 2e 1c be
       -0.03444036 -0.010069348 -0.03183194 -0.15252085
000320 6d 0c 9c bc 74 55 01 3a 29 4f bb b9 dc 09 f5 bb
       -0.019048894 0.0004933693 -0.00035726398 -0.007477982
000330 02 f4 17 3c e0 c6 c5 3c 65 c7 9a bc 94 e4 01 3d
       0.009274485 0.024142683 -0.018893907 0.03171213
000340 4e a9 0c 3d df 0c 0d 3e 7e 2a 09 3e 81 c8 bb 3b
       0.03434115 0.13774441 0.13395116 0.005730689
000350 53 97 86 3c d4 1e 36 bc 4f bc 2c bc 65 45 b2 3c
       0.016429579 -0.011115748 -0.010542943 0.021761606
000360 72 a0 ca 3d 4b 63 a0 bb 0b 62 19 3c e5 85 4f 3b
       0.09893884 -0.004894649 0.009361754 0.00316655
000370 3a f7 6b bd e7 98 2e bc 4b 52 9a 3c e8 d0 31 3d
       -0.05760882 -0.010656572 0.018838068 0.04341212
000380 f3 ee c6 3c 39 5a c8 3c e1 0c f2 ba 37 1c cc 3c
       0.024283862 0.024457084 -0.0018466973 0.024915798
000390 1f 6f 54 3d ab bc 51 bb 5b 2d 54 3c db de 21 3d
       0.051863786 -0.0032003324 0.012950267 0.039519172
0003a0 bd ec b7 3b 6f b2 4a 3c 47 74 25 bc ae 06 9c 3c
       0.005612938 0.012371643 -0.010098523 0.019046154
0003b0 dd c3 59 3c 8c 3c 03 bc 01 6e 96 ba dd 08 00 3e
       0.013291326 -0.008010041 -0.0011476876 0.12503381
0003c0 f5 59 19 bb 4d 94 16 bc 73 92 fa bd bb 0b b1 3c
       -0.0023399566 -0.009190631 -0.12234964 0.021612039
0003d0 bd b1 6c bc d4 89 ab bc a8 39 8a 3d 76 a9 c3 3c
       -0.014446673 -0.020939745 0.06749278 0.023884516
0003e0 22 93 88 bc 6b f2 e0 3c 28 73 02 bd 43 d0 13 3e
       -0.01667172 0.027459344 -0.031848103 0.14434914
0003f0 76 2a c8 ba 7d ee 6c bd 58 32 43 bc 91 c5 a2 3c
       -0.0015271443 -0.057844628 -0.011913858 0.019869598

net.6.bias f4 [9]
000000 60 22 84 bb ef e9 7b bc a8 4e ac 3c d7 95 bd 3b
       -0.004032418 -0.015375598 0.0210336 0.0057856846
000010 a0 69 74 bc 38 6f 19 3b 66 22 e2 3c 70 fa a6 3e
       -0.014917761 0.0023412239 0.027604293 0.32612944
000020 7e 66 48 3e
       0.19570348

exp_avg f4 [256, 23]
000000 63 94 35 b9 3d 39 67 39 bd 1e a4 b7 ac ae d4 b8
       -0.00017316783 0.000220512 -1.9564637e-05 -0.00010141483
000010 77 0a 52 39 a0 a1 c9 38 7d 01 01 b9 d0 2b 1d b8
       0.00020031059 9.614532e-05 -0.00012302953 -3.747252e-05
000020 5c 83 98 b8 af 72 80 36 e4 44 36 37 b5 2e 6b 38
       -7.2723924e-05 3.828048e-06 1.0864085e-05 5.6071865e-05
000030 3d b1 2c 38 40 ee da 38 70 d6 51 b8 1f 59 1a 38
       4.117306e-05 0.000104394276 -5.0029194e-05 3.679946e-05
000040 c0 b8 c9 34 42 1b 23 35 c7 60 d6 38 56 7d 62 b8
       3.757359e-07 6.07619e-07 0.000102223414 -5.3999327e-05
000050 95 c5 cb b7 b4 ca 0d b8 ac aa 45 38 cc 24 84 39
       -2.4291492e-05 -3.38058e-05 4.712741e-05 0.00025204418
000060 01 0a 90 b9 64 ee 78 b8 25 30 b2 b8 6e 6c 9e b9
       -0.00027473274 -5.9349826e-05 -8.496669e-05 -0.00030216895
000070 5f fe 06 b9 8d 16 78 37 ac 47 ef 39 13 36 70 b9
       -0.00012873996 1.4787202e-05 0.00045639032 -0.00022908328
000080 fe 9a fc 38 a0 8e 9b 37 c5 71 82 37 dc b1 8d b7
       0.00012045166 1.8543855e-05 1.5550186e-05 -1.6891332e-05
000090 9b d1 eb 37 af da 3f 38 85 03 d7 b8 29 ee 69 35
       2.8111788e-05 4.5741614e-05 -0.000102526545 8.714583e-07
0000a0 40 99 12 35 45 75 a3 37 d0 37 2b b8 a5 60 4f b7
       5.4612246e-07 1.9485722e-05 -4.0821556e-05 -1.2360663e-05
0000b0 ad a2 c3 37 a7 a9 8f 38 04 f5 b8 b7 b5 e0 83 37
       2.3321563e-05 6.8503716e-05 -2.2048604e-05 1.5721054e-05
0000c0 e1 f8 75 36 f3 ae 1f 39 b4 4e 82 b8 56 26 0a 37
       3.6652712e-06 0.00015228595 -6.213543e-05 8.234367e-06
0000d0 be e4 e4 b8 4d a1 19 b9 14 0b 02 ba f8 41 35 38
       -0.00010914494 -0.00014651306 -0.0004960757 4.32152e-05
0000e0 9f 83 b2 b7 eb 9a 56 b7 6a ae 18 37 56 db a2 b8
       -2.1280544e-05 -1.2791464e-05 9.100515e-06 -7.7656165e-05
0000f0 6e 46 ad b6 b7 c1 a3 37 4a 05 57 b4 3d 9e 99 33
       -5.164001e-06 1.952132e-05 -2.002536e-07 7.153401e-08
000100 d5 f8 e5 b7 9d fc 0f 35 31 27 97 b6 b7 c2 63 b8
       -2.7414799e-05 5.363925e-07 -4.504713e-06 -5.430236e-05
000110 70 ff c5 37 bc 4e 57 38 13 c1 8b b8 95 8d fa b7
       2.3603177e-05 5.133332e-05 -6.6639994e-05 -2.9868252e-05
000120 45 f1 76 b9 55 08 9e b8 9b 3e f9 37 3e dc 1e 38
       -0.00023550268 -7.535579e-05 2.9712266e-05 3.7875252e-05
000130 53 ce 8e 38 90 28 b3 39 18 c9 42 37 f7 a5 c8 37
       6.8095185e-05 0.00034171762 1.1610122e-05 2.3919141e-05
000140 98 4d 2d 37 f5 d1 66 37 25 d3 a7 38 e7 d0 e5 b6
       1.032967e-05 1.3757953e-05 8.002509e-05 -6.8490513e-06
000150 65 9c d5 37 fa d1 b6 34 c7 c7 38 34 a8 8b 8a 35
       2.5464406e-05 3.405292e-07 1.7209014e-07 1.0322447e-06
000160 0b 1f 3e 36 0c 7d e0 b6 6d 7e 42 38 c4 d9 b2 b7
       2.8330276e-06 -6.6902776e-06 4.6370948e-05 -2.1320659e-05
000170 fd e8 5b 39 68 c2 c5 b8 3e 4b d1 b8 79 70 fc 38
       0.00020972262 -9.429903e-05 -9.9799116e-05 0.00012037246
000180 99 69 24 b9 9f b9 13 b9 9b c4 06 b9 81 14 45 39
       -0.00015679597 -0.00014088162 -0.00012852477 0.00018795022
000190 17 c2 5d b9 1d 6a d5 37 4c 9d 1b b8 da 19 5c 35
       -0.00021148506 2.5440992e-05 -3.7101374e-05 8.1994006e-07
0001a0 3e 4b da 37 7b 9f 18 b8 4e e1 43 38 42 85 6b 38
       2.6022662e-05 -3.638815e-05 4.6701454e-05 5.6152472e-05
0001b0 51 de 7c b2 13 e6 d7 34 16 f6 ff b5 99 04 01 37
       -1.47188794e-08 4.0214272e-07 -1.9070601e-06 7.69007e-06
0001c0 c0 0c 31 35 62 5e 80 b8 a7 af 8e 36 0a b3 18 37
       6.595619e-07 -6.121096e-05 4.2523784e-06 9.101592e-06
0001d0 be f6 36 38 cd f3 a0 b5 b7 38 c8 38 1a fb 83 38
       4.3621978e-05 -1.1991884e-06 9.547307e-05 6.293338e-05
0001e0 92 66 c1 b8 79 28 8f b8 8d fd 6b 38 7f 0f 6c b9
       -9.222062e-05 -6.82631e-05 5.6264504e-05 -0.00022512487
0001f0 0f ce 86 37 38 ad 71 b7 3a 79 b5 b7 5e 35 36 37
       1.6069998e-05 -1.440505e-05 -2.1633332e-05 1.0860471e-05
000200 06 30 61 b8 0f 77 83 37 d5 61 3c b7 58 da 71 33
       -5.3688906e-05 1.5671858e-05 -1.12284515e-05 5.6310768e-08
000210 23 af 9c 34 06 ad 5b b7 e5 2a b3 b7 a1 d6 17 b7
       2.9184693e-07 -1.3093702e-05 -2.1358437e-05 -9.050274e-06
000220 6e c3 ab b7 ed d0 52 38 7a 7a 5c 39 f4 b5 64 b7
       -2.0475793e-05 5.026248e-05 0.00021026461 -1.3632223e-05
000230 cd 6a 00 b9 fd c6 27 39 70 25 a3 b8 54 06 74 b9
       -0.00012246818 0.0001600049 -7.779419e-05 -0.00023272011
000240 e4 c7 de b8 22 1f 52 38 1f 03 94 37 a6 b9 11 b8
       -0.000106230174 5.0096896e-05 1.7644428e-05 -3.4743593e-05
000250 df 67 8e b7 57 8f f9 b7 67 fc cf 36 ae 93 54 b8
       -1.6976088e-05 -2.9749861e-05 6.1984642e-06 -5.0682276e-05
000260 65 02 1a 38 ba 18 38 38 8b 3c 0e b4 14 5d f4 b3
       3.671869e-05 4.3892047e-05 -1.3246806e-07 -1.1379066e-07
000270 05 a8 0c 38 9e d6 8e b7 83 ae 96 b6 9c 10 aa b8
       3.353508e-05 -1.7027658e-05 -4.490664e-06 -8.1093254e-05
000280 17 7b 0b b8 d6 b9 0b b9 34 43 09 39 b8 8d d6 37
       -3.325482e-05 -0.00013325302 0.00013090373 2.557678e-05
000290 de e3 17 39 96 dd 69 38 8b 15 c8 38 6f 01 c9 b8
       0.0001448537 5.5757897e-05 9.540756e-05 -9.584694e-05
0002a0 c0 cb b7 b9 53 33 b8 b8 0f c6 80 b5 12 0c d3 36
       -0.00035056286 -8.7833636e-05 -9.594386e-07 6.289695e-06
0002b0 69 be 07 38 80 10 fd 35 ea d4 e6 37 5b cf 4d b8
       3.236384e-05 1.8854771e-06 2.7517282e-05 -4.9068924e-05
0002c0 e4 e6 ef 37 a7 5a eb b3 9b 6e f6 b1 47 d9 c6 36
       2.8598537e-05 -1.095953e-07 -7.1721167e-09 5.9261542e-06
0002d0 0e c8 b5 36 c7 39 94 37 b2 06 91 b8 da b1 6f b8
       5.41751e-06 1.766988e-05 -6.915386e-05 -5.7147678e-05
0002e0 03 fd 10 ba 78 3b 0e 3a 56 f9 34 39 af 95 b0 39
       -0.0005530866 0.00054257317 0.00017259023 0.0003368086
0002f0 15 b1 0c 3a f0 a1 5e 39 6e 84 fe b8 17 00 4b ba
       0.00053669635 0.00021231896 -0.00012136331 -0.0007743849
000300 c0 70 d7 b8 38 0c 17 b9 f0 fd ca b7 40 4c 23 38
       -0.00010273 -0.00014405034 -2.4198525e-05 3.893324e-05
000310 0f 12 bc 37 c4 1a 93 37 d9 65 d6 b8 14 3a 0f 39
       2.2419756e-05 1.753623e-05 -0.00010223286 0.00013659179
000320 81 a6 83 b5 d1 bc d1 33 72 e5 8a b7 12 7c e2 37
       -9.80872e-07 9.7666664e-08 -1.6557726e-05 2.6999074e-05
000330 95 35 02 38 f9 43 c3 b8 f9 8c 51 b8 e9 06 96 38
       3.1044317e-05 -9.3109855e-05 -4.9960774e-05 7.1538445e-05
000340 75 85 61 b8 8a 8f 12 b8 ff 46 9d b8 4f fe 57 b7
       -5.3768472e-05 -3.4942794e-05 -7.4995674e-05 -1.28742095e-05
000350 23 b9 4b b8 6b bf ac 38 ca 51 b0 38 c1 f0 5d 39
       -4.8571394e-05 8.2372535e-05 8.4075684e-05 0.0002116589
000360 53 4a 52 b8 99 da f8 36 04 4d ad 34 47 6d be b7
       -5.013712e-05 7.416424e-06 3.2279797e-07 -2.2700651e-05
000370 71 19 7c 37 d2 5f 9a b6 f2 75 92 b5 4b 91 c1 33
       1.5026294e-05 -4.6007126e-06 -1.0912174e-06 9.0136915e-08
000380 d1 77 b9 b4 c3 bf f0 37 b6 f0 07 b7 fe 3a 93 36
       -3.4546113e-07 2.8699526e-05 -8.102672e-06 4.387809e-06
000390 cb 5a 86 37 c3 52 a1 b7 a0 a5 1a 39 4a 47 29 b7
       1.6016324e-05 -1.9231235e-05 0.00014748285 -1.0089783e-05
0003a0 e6 02 d9 b7 f8 23 d1 b7 04 a2 99 37 c5 b4 77 b9
       -2.5869766e-05 -2.493149e-05 1.8314466e-05 -0.00023623098
0003b0 8f 93 24 b8 22 04 0d b9 b0 0e 06 3a a3 51 c7 b7
       -3.923807e-05 -0.00013448347 0.0005113883 -2.3760664e-05
0003c0 99 27 41 38 60 ed 15 38 40 be f5 b5 c5 bf a2 38
       4.6051664e-05 3.574544e-05 -1.8309292e-06 7.760482e-05
0003d0 4e 82 14 b8 98 9d 9a 37 3d 7c 58 35 db 85 68 35
       -3.5407305e-05 1.8431616e-05 8.064706e-07 8.662152e-07
0003e0 56 4c ac 37 34 a4 0f b7 2e 79 33 b6 e3 71 24 38
       2.0539544e-05 -8.561696e-06 -2.6743614e-06 3.9206712e-05
0003f0 ac 1b 83 38 57 3b 68 b8 bf 15 fa 38 43 3a 58 37
       6.251721e-05 -5.5368375e-05 0.000119249795 1.2888168e-05

exp_avg_sq f4 [256, 23]
000000 68 82 95 35 42 2b c1 35 4d db 94 33 e1 3a 3f 35
       1.1139318e-06 1.439221e-06 6.9316776e-08 7.1238725e-07
000010 de 2b 81 35 c5 22 9a 34 10 7b c2 34 02 54 1a 36
       9.624016e-07 2.8710033e-07 3.6224856e-07 2.2996687e-06
000020 91 dd fe 35 22 27 a0 32 34 14 8f 31 d3 4c 55 32
       1.8988959e-06 1.8644247e-08 4.1641446e-09 1.24157e-08
000030 78 3b 32 32 1f eb ae 32 3c af b2 32 66 0c 86 32
       1.0374485e-08 2.0363187e-08 2.0801615e-08 1.5605291e-08
000040 c8 ab 9d 2d d5 6b 95 2b 99 4c 26 33 84 43 1a 33
       1.792512e-11 1.0617016e-12 3.8719552e-08 3.5917324e-08
000050 56 ec a8 30 79 43 3a 34 0f 47 ba 32 f8 be af 35
       1.229078e-09 1.7347146e-07 2.1685564e-08 1.3094095e-06
000060 f0 4d e4 35 f9 07 a9 33 33 a6 59 35 b9 92 9b 35
       1.7010007e-06 7.871126e-08 8.108065e-07 1.1591102e-06
000070 7b 3f bf 34 37 f8 da 34 c9 e3 33 36 18 77 10 36
       3.562271e-07 4.0786264e-07 2.6805667e-06 2.1526994e-06
000080 ac 54 e1 32 cd be b9 31 4d d5 9f 32 af 3e 75 32
       2.6231952e-08 5.4059e-09 1.8607034e-08 1.42751295e-08
000090 5c e0 ef 32 90 9e fc 32 fa 08 bd 32 21 42 5e 2e
       2.7925289e-08 2.9408767e-08 2.2006578e-08 5.053569e-11
0000a0 d6 31 cb 2b 35 a0 77 33 2b f1 3b 33 af 7d 30 31
       1.443785e-12 5.7654876e-08 4.375867e-08 2.5682814e-09
0000b0 fd 1f 52 34 3a 99 f9 32 d9 4b 77 34 9e 05 a5 34
       1.9569411e-07 2.9057095e-08 2.3031261e-07 3.0737732e-07
0000c0 64 40 79 32 e0 bc 27 34 ee 2a 60 34 b0 94 8b 33
       1.4508348e-08 1.56218e-07 2.0877243e-07 6.499738e-08
0000d0 eb ed a7 33 17 99 07 35 48 17 d8 34 a6 42 99 31
       7.8198205e-08 5.0514194e-07 4.0250075e-07 4.460463e-09
0000e0 e6 14 ae 30 9b a6 56 31 dd 30 19 31 6c 09 c3 31
       1.2666106e-09 3.1235803e-09 2.2292206e-09 5.676318e-09
0000f0 41 bc c0 31 ca e0 88 31 8a a9 34 2d 0f d7 c4 2a
       5.6093374e-09 3.9836765e-09 1.0269461e-11 3.496582e-13
000100 60 73 3b 32 81 88 08 32 92 71 06 30 f7 76 23 33
       1.0911066e-08 7.947279e-09 4.891031e-10 3.8059593e-08
000110 e0 c8 b1 31 ba 05 5d 35 f0 d3 8e 35 c8 70 49 33
       5.174215e-09 8.233725e-07 1.0641506e-06 4.6901533e-08
000120 ea 72 09 35 93 d9 3e 35 dc a0 60 34 ca 9a 8c 34
       5.12037e-07 7.109713e-07 2.0920146e-07 2.6189656e-07
000130 50 e2 e8 35 12 a1 b9 35 a2 c9 3b 32 10 13 4c 31
       1.7351213e-06 1.3830452e-06 1.0930679e-08 2.9696743e-09
000140 e4 d7 f3 31 44 43 c7 31 6f bc 66 32 4b 19 56 32
       7.0967747e-09 5.7993095e-09 1.3430607e-08 1.246219e-08
000150 6c 3d 32 32 36 4e e2 2c c9 59 26 2b a2 71 f1 32
       1.0374929e-08 6.4319895e-12 5.909965e-13 2.8107767e-08
000160 f4 16 e6 32 f8 0a 65 30 94 c9 06 34 45 5a 67 32
       2.6785962e-08 8.33253e-10 1.2553056e-07 1.3466495e-08
000170 26 99 38 34 1a 74 6e 34 4f e8 5a 32 f8 d2 00 34
       1.719205e-07 2.2207715e-07 1.2742091e-08 1.1997679e-07
000180 fa 2f 24 34 13 a3 55 33 bc 6c 76 33 f7 82 bf 34
       1.5291144e-07 4.9741242e-08 5.737523e-08 3.5671812e-07
000190 0f af 9c 34 5d 82 98 31 fe 55 84 30 85 01 59 31
       2.9184636e-07 4.438603e-09 9.628705e-10 3.157852e-09
0001a0 38 89 02 31 d5 90 88 31 24 e3 9b 31 7c c8 61 31
       1.899549e-09 3.9745864e-09 4.5369166e-09 3.2855771e-09
0001b0 5c 5c 27 2d 3a 1c 8e 2a b0 c8 ff 31 18 46 c7 31
       9.513359e-12 2.5243853e-13 7.4442923e-09 5.799631e-09
0001c0 4a 47 a4 2f 08 5a f7 32 c0 69 95 31 0c 81 0e 35
       2.988208e-10 2.8795526e-08 4.348493e-09 5.308691e-07
0001d0 f4 20 37 35 e0 97 17 33 ee 58 b4 34 b2 c9 f7 34
       6.8220766e-07 3.5295557e-08 3.3592318e-07 4.6154088e-07
0001e0 5e a4 16 34 ef d9 37 34 61 6f 93 35 39 51 6b 35
       1.4029635e-07 1.7122487e-07 1.0984769e-06 8.7662517e-07
0001f0 3a 21 22 32 8a 75 10 31 f9 b1 d0 31 ea f6 91 31
       9.437196e-09 2.1021571e-09 6.07383e-09 4.2481263e-09
000200 67 e8 2e 32 76 87 24 32 7f d5 04 32 a9 b6 be 2c
       1.0180975e-08 9.576857e-09 7.731955e-09 5.420404e-12
000210 c5 98 04 2b c9 20 b0 32 e3 31 95 32 63 83 3e 30
       4.710783e-13 2.0504006e-08 1.7368569e-08 6.930831e-10
000220 22 ae b2 33 b8 b3 26 32 ee 73 be 34 27 22 fa 34
       8.3204455e-08 9.703335e-09 3.5474608e-07 4.6590978e-07
000230 27 b2 c6 32 73 52 82 34 80 f8 a8 34 73 54 cd 33
       2.3131248e-08 2.4274377e-07 3.1473246e-07 9.5614176e-08
000240 ca e8 ff 33 eb f0 49 35 b2 ce 23 35 f6 cb 06 32
       1.1916707e-07 7.5228917e-07 6.1023013e-07 7.846202e-09
000250 65 31 ef 30 e4 d3 b2 31 ef a2 7f 31 28 df fe 31
       1.7403577e-09 5.204571e-09 3.72e-09 7.417743e-09
000260 9b 9f 12 32 5d ad cd 31 da ed 2e 2c ca 5a b7 2a
       8.534609e-09 5.9859944e-09 2.4858921e-12 3.2570328e-13
000270 1f 11 8b 32 a7 d6 54 32 9d 54 1c 30 8c 25 7e 33
       1.6189516e-08 1.238883e-08 5.687271e-10 5.9173132e-08
000280 04 5c ee 31 34 d7 0c 35 d5 cc 35 35 cf 26 17 33
       6.9371726e-09 5.2467226e-07 6.7725824e-07 3.5192723e-08
000290 1a 4c ae 34 55 cc f8 34 13 0a 11 34 40 32 34 34
       3.2465397e-07 4.634227e-07 1.3507842e-07 1.6782087e-07
0002a0 1d 8d 93 35 0f 79 62 35 bf b3 17 32 99 38 0c 31
       1.0993423e-06 8.4367724e-07 8.830226e-09 2.0404853e-09
0002b0 cd 4f de 31 4a 5e a0 31 d9 bc 22 32 c8 73 30 32
       6.4701227e-09 4.6673323e-09 9.47258e-09 1.0270874e-08
0002c0 8c ff f9 31 f6 5e 80 2c 22 1c 0c 2b b0 a6 b2 32
       7.275906e-09 3.6485216e-12 4.9777034e-13 2.0797728e-08
0002d0 c1 4f 92 32 58 6a 52 30 43 93 aa 33 3c d8 1f 32
       1.7032905e-08 7.654868e-10 7.9430286e-08 9.304184e-09
0002e0 be 59 be 35 6b 7e f6 35 66 35 bb 33 2a ac 72 35
       1.4182222e-06 1.8365221e-06 8.717579e-08 9.0402557e-07
0002f0 4c 03 a7 35 a0 88 d0 34 f2 92 ea 34 54 84 44 36
       1.2443429e-06 3.8842427e-07 4.3692813e-07 2.92833e-06
000300 18 73 21 36 fe a8 07 33 39 5b d7 31 16 2b bf 32
       2.4057863e-06 3.1585834e-08 6.2676944e-09 2.225492e-08
000310 ec f5 91 32 71 da 05 33 de ef 1b 33 d0 d6 e3 32
       1.6992054e-08 3.1165147e-08 3.6306908e-08 2.6523963e-08
000320 43 0f 12 2e 38 84 e1 2b 2e 59 84 33 c5 18 4d 33
       3.3210112e-11 1.602391e-12 6.162951e-08 4.775281e-08
000330 14 82 4c 31 77 22 67 34 a0 ba 09 33 24 9c 36 34
       2.9759848e-09 2.152609e-07 3.2067533e-08 1.7006874e-07
000340 b1 71 6f 34 a7 aa 52 32 1c d3 f7 33 96 c0 24 34
       2.229997e-07 1.2262411e-08 1.15402344e-07 1.5343753e-07
000350 a7 fa 56 33 7b 83 79 33 b3 f8 bd 34 6e a0 a9 34
       5.0053725e-08 5.809441e-08 3.5384946e-07 3.159543e-07
000360 9d 44 8b 31 e2 2d 91 30 c8 1f 3a 31 12 06 14 31
       4.053233e-09 1.0563179e-09 2.7084628e-09 2.1540285e-09
000370 9a 47 a4 31 09 08 b4 31 43 b5 80 31 14 22 97 2c
       4.7811684e-09 5.239603e-09 3.7458974e-09 4.2954616e-12
000380 5f 12 8c 2a 11 60 1d 32 d5 26 d3 31 fc 15 f5 2f
       2.4881743e-13 9.160446e-09 6.145323e-09 4.458086e-10
000390 9c bd f3 32 33 3f 8c 31 eb b7 97 35 05 bb c2 35
       2.8375148e-08 4.081721e-09 1.1303904e-06 1.4508556e-06
0003a0 76 aa 99 33 07 66 3f 35 01 c6 84 35 80 5b ab 34
       7.1556244e-08 7.1301514e-07 9.892393e-07 3.1917807e-07
0003b0 15 0c be 34 50 10 1d 36 e5 e5 fb 35 18 3c be 32
       3.539905e-07 2.3404318e-06 1.8767865e-06 2.2146239e-08
0003c0 c6 d7 b9 31 57 2e 94 32 d2 f7 31 32 38 78 ef 32
       5.4087392e-09 1.725054e-08 1.0359104e-08 2.7877931e-08
0003d0 d0 a2 ed 32 4f 2b 9a 32 f9 d4 d8 2d db 70 a0 2b
       2.766447e-08 1.7947654e-08 2.4650936e-11 1.1400007e-12
0003e0 52 82 41 33 7c 1a 1b 33 18 7b d2 30 70 f9 37 34
       4.505484e-08 3.6112837e-08 1.5314496e-09 1.7133948e-07
0003f0 db 10 f6 32 46 f3 a1 35 3c 97 cc 35 33 d9 9c 33
       2.8645834e-08 1.2066237e-06 1.5243199e-06 7.3038244e-08
