RefAgent/BC-CAB-256128/checkpoints/agent_5500.pt (torch, 488547 bytes, 18 tensors)

net.0.weight f4 [256, 23]
0	0xbdc22048	-0.094788134
1	0xbcf2a473	-0.029619431
2	0xbe209863	-0.15683131
3	0xbc63aded	-0.013896448
4	0xbc39ed5d	-0.011348096
5	0xbd37ade0	-0.044843554
6	0xbc8ed406	-0.017435085
7	0xbc927615	-0.017878572
8	0xbc7caed1	-0.015422539
9	0xbe3e1635	-0.18563159
10	0xbe9acde1	-0.30235198
11	0xbf07fa1f	-0.5311603
12	0x3db6e58b	0.089305006
13	0x3d8acaba	0.06776948
14	0xbddb27c0	-0.10700941
15	0xbc4e217f	-0.012581228
16	0xbeb86cfb	-0.36020645
17	0xc036f7b2	-2.8588681
18	0x3e97ab6d	0.29622975
19	0x3dab6476	0.08368771
20	0x3f930b41	1.148781
21	0x3e2b6366	0.16737136
22	0x3dd501be	0.10400723
23	0x3c7f265a	0.015573109
24	0xbe4713f9	-0.19441213
25	0x3d48e007	0.049041774
26	0xbd2e96cd	-0.042624284
27	0x3d822b6a	0.06355937
28	0xbd8b816d	-0.068117954
29	0x3b97c809	0.0046320003
30	0xbccd4d7b	-0.02506136
31	0xbc903ac9	-0.017606156
32	0xbba6cb20	-0.0050901324
33	0xbf349ca5	-0.7055152
34	0xbe5b89c3	-0.2143927
35	0x3e837598	0.25675654
36	0x3d941534	0.07230607
37	0xbe86c6cd	-0.26323548
38	0xbd22fa32	-0.039789386
39	0x3d5360dd	0.051606048
40	0x3dde5d08	0.10857588
41	0x3d475a7f	0.04867029
42	0xbe9c4fcc	-0.3052963
43	0x3e887a58	0.2665584
44	0x3e425ecd	0.18981476
45	0xbcbfb5be	-0.023402091
46	0x3d38d813	0.04512794
47	0xbd25ca9c	-0.040476426
48	0x3d305ef1	0.043059293
49	0x3d005e13	0.031339716
50	0xbc5222b3	-0.012825656
51	0x3d8e60c8	0.06952053
52	0x3df672d4	0.120336205
53	0xbd255659	-0.04036555
54	0xbba06187	-0.0048944387
55	0xbdd42d3e	-0.10360192
56	0x3e7686c6	0.2407485
57	0x3e951916	0.29120702
58	0xbe96bb2a	-0.2943967
59	0xbc871b60	-0.016492546
60	0x3e2d2267	0.16907655
61	0x3e5d0fd6	0.21588072
62	0xbec03b3a	-0.37545186
63	0x3f519af3	0.8187706
64	0xbd5cc331	-0.053897087
65	0xbe556a02	-0.2084122
66	0xbe16e383	-0.14735226
67	0xbceaf5f3	-0.02868173
68	0xbddc6303	-0.107610725
69	0x3c9eb2d5	0.019372383
70	0xbcbf8d55	-0.023382822
71	0xbdcc5681	-0.09977437
72	0x3c8a3e0e	0.016875293
73	0x3cb2dcfc	0.02183389
74	0x3c18034b	0.009278129
75	0x3c9b91e9	0.018990474
76	0xbb5bd9c3	-0.0033546544
77	0xbc03aa00	-0.008036137
78	0xbc804f71	-0.01566288
79	0xbe6e940f	-0.23298667
80	0xbeba4c89	-0.36386517
81	0x3de83866	0.11338882
82	0x3b6ae5bf	0.0035842506
83	0xbc8ba3e3	-0.01704592
84	0xbd62f11a	-0.055405714
85	0xbe1c31f0	-0.15253425
86	0xc0407bcc	-3.007556
87	0x3ed2ce73	0.41173133
88	0x3e8f69dd	0.28010455
89	0x3f4a5497	0.79035324
90	0x3e2c6510	0.16835427
91	0x3d93831a	0.0720274
92	0xbc8eab39	-0.01741563
93	0xbd936fc3	-0.07199051
94	0x3d136a20	0.03598988
95	0xbe03113a	-0.1279954
96	0x3cd2dae5	0.025739143
97	0xbd504f30	-0.05085677
98	0x3d7fb71c	0.062430486
99	0xbcd34bc8	-0.025792971
100	0xbda588ec	-0.080827564
101	0xbd61a5d7	-0.055089798
102	0x3e9ac972	0.30231816
103	0x3e42f749	0.19039644
104	0xbce154d3	-0.027506268
105	0xbe150ab1	-0.1455486
106	0x3e2d63ec	0.16932648
107	0x3b5f1573	0.0034039884
108	0xbdf99cc9	-0.121881075
109	0xbfc017f7	-1.5007313
110	0xbe82304c	-0.25427473
111	0x3e12af7a	0.14324751
112	0xbd2c87ed	-0.042121816
113	0x3c84abc8	0.016195193
114	0xbc183c27	-0.009291685
115	0xbdfbd429	-0.12296326
116	0xbc4dae89	-0.012553819
117	0xbca36c73	-0.019949174
118	0xbd6c56da	-0.057700016
119	0xbcebac3c	-0.028768651
120	0xbd6cd7e9	-0.057823095
121	0xbe11c0bc	-0.14233679
122	0x3c30ae65	0.010783766
123	0xbb9c73d0	-0.004774548
124	0xbe47495d	-0.1946158
125	0x3d76f6f5	0.06029411
126	0xbd29f19a	-0.041490175
127	0xbe80fd85	-0.2519342
128	0xbd8722d2	-0.06598438
129	0xbe5343fb	-0.20631401
130	0xbe767ab8	-0.24070251
131	0xbe8ab099	-0.27087858
132	0x3f339a7e	0.7015761
133	0xbe27f0bd	-0.16400428
134	0xbe41ac6f	-0.18913434
135	0x3ec1026f	0.3769717
136	0x3d0ed355	0.03486951
137	0xbc97516e	-0.018471446
138	0x3bd46a4a	0.006482397
139	0xbc061394	-0.008183379
140	0xbcb1e101	-0.021713736
141	0xbd95b07c	-0.07309052
142	0xbcfb0ad5	-0.030644814
143	0xbc5fe927	-0.013666428
144	0xbd84324e	-0.06454907
145	0x3d211c47	0.039333608
146	0xbc59a55f	-0.013284056
147	0x3dc6fc1b	0.09716054
148	0x3f0a0373	0.53911513
149	0x3e02aca7	0.12761174
150	0xbe4cbeb4	-0.19994622
151	0xbe56af44	-0.20965296
152	0x3de9c739	0.11414952
153	0xbe76a713	-0.24087171
154	0xbe139de3	-0.14415698
155	0xbf98991e	-1.1921728
156	0xbdd03028	-0.10165435
157	0x3ee94b12	0.45565087
158	0x3e0e4983	0.1389523
159	0xbd217018	-0.03941354
160	0x3c8ca9d6	0.017170828
161	0x3ddae09e	0.106873736
162	0xbd1fbfcd	-0.039001275
163	0xbbbdd3e9	-0.005793084
164	0x3d099b25	0.033595223
165	0x3d78c545	0.060735006
166	0x3dbdbc4c	0.092644304
167	0x3de3fe27	0.1113246
168	0xbb9304b6	-0.0044866456
169	0x3c2414da	0.010014737
170	0x3e4871d0	0.19574666
171	0x3e737930	0.23776698
172	0x3e508c6f	0.20366071
173	0x3d63079d	0.055427182
174	0x3dacfc32	0.0844654
175	0x3e9f2926	0.3108608
176	0x3eaeec7b	0.34164795
177	0x3f4b4deb	0.7941577
178	0xbe974e83	-0.29552087
179	0xbc411f9f	-0.011787324
180	0x3e7c62cb	0.24647062
181	0xbe87bb02	-0.26509863
182	0xbe13f7f1	-0.14450051
183	0xbc91e6e3	-0.01781029
184	0xbd5ac331	-0.053408805
185	0x3e831d83	0.25608453
186	0xbd4d6420	-0.050144315
187	0x3d53bfcc	0.051696584
188	0xbd49747b	-0.04918335
189	0x3d3bcfc3	0.045852434
190	0xbc805842	-0.015667085
191	0x3a1ca2f0	0.00059752073
192	0x3aec1528	0.0018011676
193	0xbcb43f08	-0.022002712
194	0x3f1f83a1	0.62310225
195	0x3dfb6684	0.12275413
196	0xbde9d61b	-0.114177905
197	0xbd84eb3f	-0.06490182
198	0x3e415b5d	0.18882509
199	0x3c3fc29d	0.011704114
200	0x3e0330d6	0.12811598
201	0xbf096443	-0.5366861
202	0x3d8c87bc	0.06861827
203	0x3e6c05f9	0.23049153
204	0xbe0a548a	-0.13508812
205	0xbdd2e5fd	-0.10297773
206	0x3d248153	0.040162396
207	0x3af66b26	0.0018800243
208	0x3cd460cd	0.025925064
209	0x3c49e074	0.01232158
210	0x3c090221	0.008362324
211	0xbbbe62db	-0.0058101243
212	0x3c238f66	0.009982919
213	0xbda8afd4	-0.082366616
214	0x3d871154	0.06595102
215	0x3aad4dbb	0.0013222018
216	0x3d5f2476	0.05447813
217	0x3d372ff0	0.04472345
218	0xbd05d399	-0.0326725
219	0x3e87c3a4	0.2651645
220	0xbda726ff	-0.08161735
221	0xbd9c283a	-0.0762486
222	0xbe8484fe	-0.25882715
223	0x3d69f9e1	0.05712307
224	0xbee04f20	-0.43810368
225	0x3d52487d	0.05133866
226	0x3e9a6bdf	0.30160424
227	0xbe8e5bc8	-0.278044
228	0x3b9863cb	0.004650568
229	0x3df4aae0	0.11946654
230	0x3c06bb76	0.008223405
231	0x3bfd023c	0.0077212136
232	0xbd74cf66	-0.059768103
233	0xbe10c163	-0.14136271
234	0xbcf61804	-0.030040748
235	0xbd80c3d8	-0.06287354
236	0xbdd52c51	-0.10408843
237	0x3cd08b67	0.025457097
238	0x3c0ab269	0.008465388
239	0x3dc6f267	0.09714203
240	0x3dabd4e7	0.08390217
241	0xbd60b918	-0.05486402
242	0xbeeb127e	-0.45912546
243	0xbcc00d50	-0.023443848
244	0xbda13b52	-0.078726426
245	0xbcde65a1	-0.02714807
246	0xbcb12562	-0.02162427
247	0xbf7a6483	-0.9780962
248	0xbea16713	-0.31523952
249	0x3edcbc1f	0.43112275
250	0x3f8e020c	1.1094375
251	0xbe175d00	-0.1478157
252	0xbdddd558	-0.10831708
253	0x3dfae4b9	0.12250657
254	0x3d8e7eb0	0.069577575
255	0x3e3a2ff2	0.18182352

net.0.bias f4 [256]
0	0x3c3fcc2b	0.011706392
1	0xbdfc78e4	-0.123277456
2	0xbc4eefe1	-0.012630434
3	0xbd2c6d72	-0.042096563
4	0xbd900aae	-0.07033287
5	0x3d3bf9cb	0.045892518
6	0xbdff79e8	-0.12474424
7	0xbd8807c5	-0.06642107
8	0x3e6ca2ce	0.2310898
9	0xbd4867a4	-0.048926964
10	0xbe14ab1d	-0.145184
11	0x39305a84	0.00016818388
12	0xbe332c3b	-0.17497341
13	0x3ccac3d1	0.024751576
14	0xbc0ff2f6	-0.008785954
15	0x3d764ae4	0.060130015
16	0x3db48aa9	0.0881551
17	0xbe0faec1	-0.14031507
18	0x3ba27a42	0.004958422
19	0xbd1d5a9f	-0.0384165
20	0x3e4027d0	0.18765187
21	0xbe3937e7	-0.18087731
22	0xbd069136	-0.032853328
23	0xbdd48137	-0.10376208
24	0xb9fcc191	-0.00048209404
25	0xbb9e8389	-0.0048374576
26	0xbd121d68	-0.035672575
27	0xbe36e972	-0.1786249
28	0xbe8e6b62	-0.27816302
29	0x3d904dca	0.07046087
30	0xbd8eec65	-0.069786824
31	0x3c08dbbc	0.00835317
32	0x3d2c5809	0.042076144
33	0xbdb2f834	-0.08738747
34	0xbba69504	-0.005083682
35	0x3da13c7a	0.07872863
36	0x3e4f104d	0.20221062
37	0x3d0925b3	0.03348322
38	0xbbcb9c2b	-0.006213685
39	0x3d8886c5	0.0666633
40	0x3d0ad109	0.033890758
41	0x3c19f0ba	0.009395773
42	0x3db8aeff	0.09017753
43	0xbd77df26	-0.060515545
44	0xbd4e64d1	-0.050389115
45	0x3d25b9a6	0.04046025
46	0xbd488f9e	-0.04896509
47	0x3c274f93	0.010211843
48	0xbe808a2d	-0.2510542
49	0xbd3b2451	-0.04568893
50	0x3dbe9920	0.0930655
51	0xbd2a470d	-0.041571666
52	0x3d7e6555	0.062108357
53	0xbe5dc6f9	-0.21657933
54	0x3ddbb0bf	0.10727071
55	0xbd0a2a78	-0.033731908
56	0x3e581262	0.21100762
57	0xbe510363	-0.20411448
58	0xbb3df529	-0.0028985238
59	0x3e960775	0.29302564
60	0xbc871b16	-0.016492408
61	0x3c17ccad	0.009265107
62	0xbd03d689	-0.03218702
63	0xbd3dd47a	-0.04634521
64	0x3d103c2e	0.03521364
65	0x3d6fee3f	0.05857682
66	0x3cbf67b1	0.023364874
67	0x3b5531b8	0.0032530855
68	0x3e0de065	0.13855131
69	0x3c91eef3	0.017814135
70	0x3d695ef2	0.056975313
71	0x3d7e0049	0.06201199
72	0x3d7caa7a	0.061686017
73	0xbd8b8d03	-0.06814005
74	0x3a372fce	0.00069880194
75	0x3bb03712	0.0053776586
76	0xbc8e1ea8	-0.017348602
77	0xbcb4385d	-0.021999532
78	0xbd92e48d	-0.07172499
79	0x3dfb30bd	0.122651555
80	0x3d940102	0.07226755
81	0x3c8dd768	0.017314628
82	0x3b3638e0	0.0027804896
83	0x3c9e2a33	0.019307232
84	0xbdec1ea2	-0.1152928
85	0x3d83ea69	0.064411946
86	0x3e3576c5	0.17721088
87	0xbc6b4b6f	-0.0143612465
88	0xbe0618e9	-0.1309544
89	0x3db0ac75	0.086266436
90	0x3c632dc1	0.013865889
91	0x3d72a155	0.05923589
92	0x3d379a05	0.04482462
93	0x3dc03360	0.09384799
94	0xbda337bf	-0.07969617
95	0x3c5712cb	0.013127039
96	0x3d2367ee	0.039894037
97	0x3cca0678	0.024661288
98	0x3c997b37	0.018735511
99	0xbd181970	-0.037133634
100	0xbe1a88be	-0.15091226
101	0x3e104cb9	0.14091767
102	0x3d8ed5d2	0.06974377
103	0xbd46dc96	-0.04855021
104	0x3ccb0d50	0.024786621
105	0x3dc2afe6	0.09506206
106	0xbe00f872	-0.12594774
107	0xbd4d8513	-0.050175738
108	0x3da9d938	0.08293384
109	0xbde3ab43	-0.1111665
110	0xbdc31db3	-0.09527149
111	0xbcd49c6a	-0.02595349
112	0x3da2e7b3	0.07954349
113	0xbd4bc92c	-0.0497524
114	0xbc17eaa0	-0.009272248
115	0xbd02773f	-0.031852003
116	0xbdab6b16	-0.083700344
117	0xbdaa5851	-0.08317626
118	0x3d81acb0	0.06331766
119	0x3c069213	0.008213538
120	0x3d865d7e	0.06560801
121	0x3e597029	0.21234192
122	0xbdc15b33	-0.09441223
123	0x3d865ad1	0.065602906
124	0xbbe9d2d9	-0.0071357307
125	0xbd801c0e	-0.06255351
126	0xbd81cdda	-0.06338091
127	0x3d6585a5	0.056035656
128	0x3ce0191d	0.027355725
129	0x3d0626a9	0.032751713
130	0xbbb1457d	-0.005409895
131	0x3d8b5d95	0.06804959
132	0x3cebf473	0.028803086
133	0x3d802966	0.06257896
134	0x3d6c58f4	0.05770202
135	0x3c6883dc	0.014191594
136	0xbe22e5ca	-0.1590797
137	0x3d78013a	0.060548045
138	0x3c204bdf	0.009783714
139	0x3cf0b9fe	0.029385563
140	0xbc22ba5f	-0.00993213
141	0x3db49882	0.08818151
142	0x3d388c12	0.045055456
143	0xbc2e46fd	-0.010637042
144	0xbdcb9a93	-0.09941592
145	0xbd16a532	-0.036778636
146	0x3e607c3f	0.21922396
147	0x3adb40eb	0.0016727721
148	0x3e7398a4	0.23788697
149	0x3db79bf7	0.08965295
150	0x3d20820d	0.039186526
151	0x3d8d7144	0.06906369
152	0x3cac2fd1	0.021018894
153	0xbd45bb33	-0.04827423
154	0x3c8d0b4b	0.017217299
155	0x3d01c0f8	0.03167817
156	0x3da5ca82	0.08095266
157	0xbdc3b7ea	-0.09556563
158	0x3dc40fbe	0.09573315
159	0x3de82acc	0.11336288
160	0xbda27e6e	-0.07934271
161	0x3d553728	0.052054554
162	0x3d5deb42	0.054179437
163	0xbe2ff113	-0.17181806
164	0xbb078f9e	-0.0020684968
165	0xbd8e414b	-0.069460474
166	0xbcdcb1bd	-0.026940221
167	0xbdb8b07f	-0.09018039
168	0xbcb7201a	-0.022354174
169	0xbdcc776c	-0.099837154
170	0x3dc26282	0.09491445
171	0xbc41b4e5	-0.011822914
172	0x3e4235f7	0.18965898
173	0x3cd51b88	0.026014104
174	0xbc69f20b	-0.014278899
175	0xbcee63d9	-0.029100345
176	0xbc86fa51	-0.016476782
177	0x3db332cd	0.08749924
178	0x3d802e9b	0.06258889
179	0x3c834441	0.016023757
180	0x3e57079d	0.20998998
181	0x3d88e479	0.06684203
182	0xbd9ca688	-0.07648951
183	0xbd94dc82	-0.07268621
184	0x3d02b485	0.031910438
185	0xbdb688f9	-0.08912844
186	0xbdddf12f	-0.10837018
187	0x3bff1f09	0.007785682
188	0x3cee6c78	0.029104456
189	0xbe577833	-0.21041946
190	0xbcb0428b	-0.021516105
191	0xbbf9ee72	-0.007627302
192	0x3d5a3c3b	0.053280097
193	0x3d9660f6	0.073427126
194	0xbdf4729f	-0.11935925
195	0xbda9c840	-0.08290148
196	0xbdca7407	-0.09885412
197	0x3cdcc240	0.026948094
198	0x3d56d27f	0.05244684
199	0x3c36ac59	0.011149489
200	0xbb3e5707	-0.0029043572
201	0x3defd86f	0.11711203
202	0x3d807060	0.06271434
203	0xbd5fbd12	-0.05462367
204	0xbd1dfc01	-0.038570408
205	0x3e004abf	0.12528513
206	0x3e2d0a49	0.16898455
207	0x3b526154	0.003210147
208	0x3d0aaa85	0.033854026
209	0xbd482420	-0.048862576
210	0x3d623fd7	0.055236664
211	0xbda037e2	-0.07823159
212	0x3d1b26c4	0.037878767
213	0x3cfbb9fd	0.030728335
214	0xbda61dee	-0.081111774
215	0xbc2ddc01	-0.010611535
216	0xbd684782	-0.05670882
217	0xbd95e57a	-0.0731916
218	0xbb4aaf59	-0.003092727
219	0x3d116ddd	0.035505164
220	0xbd456541	-0.048192266
221	0xbd838ef0	-0.064237475
222	0x3d1e7f77	0.03869578
223	0xbcf6f134	-0.030144311
224	0xbba41f69	-0.005008627
225	0xbc95c65f	-0.018283067
226	0xbe4b0422	-0.19825795
227	0x377fd8b6	1.5249641e-05
228	0x3cc63535	0.024195293
229	0x3bc8f85d	0.006133123
230	0x3cc74004	0.024322517
231	0x3d6695d3	0.056295227
232	0x3d970b07	0.0737515
233	0xbd9efe98	-0.07763404
234	0xbe3bdf30	-0.18346858
235	0x3d2c436d	0.04205649
236	0x3c2adbfc	0.010428425
237	0x3cc4c6b2	0.024020527
238	0x3e2f4bed	0.17118807
239	0xbe22fa86	-0.1591588
240	0x3c4b6aa4	0.012415562
241	0x3cb154b5	0.021646837
242	0xbd18e814	-0.037330702
243	0xbd62746b	-0.055286806
244	0xbc915705	-0.01774169
245	0x3d32c556	0.043645225
246	0xbe0c579d	-0.13705297
247	0xbe07c13b	-0.13257305
248	0xbcf2c464	-0.029634662
249	0xbdd5c781	-0.10438443
250	0x3d9fcf4e	0.07803212
251	0x3cc04642	0.023471002
252	0x3d26c41e	0.040714376
253	0x3d4b6194	0.049653605
254	0xbd17115a	-0.036881782
255	0x3e1248c3	0.14285569

net.3.weight f4 [128, 256]
0	0xbc98a945	-0.018635402
1	0x3e04576c	0.12923974
2	0x3d71932e	0.058978252
3	0xbc57ba83	-0.013167026
4	0x3b27213a	0.0025501982
5	0x3d5cda0e	0.05391889
6	0xbc932468	-0.017961696
7	0xbd04912a	-0.032365
8	0xbda0ec8e	-0.07857619
9	0xbd8ac057	-0.06774967
10	0xbe3e6773	-0.1859415
11	0xbc464d9f	-0.012103467
12	0x3b841f0f	0.004032023
13	0xbcc2e69d	-0.023791606
14	0x3c26f129	0.010189333
15	0xbdadb115	-0.08481041
16	0xbd255a75	-0.04036947
17	0xbea5a641	-0.32353404
18	0x3cb0dca6	0.021589588
19	0xbc483c04	-0.01222134
20	0xbd5e103a	-0.054214694
21	0x3c89b2f8	0.016808972
22	0x3941404f	0.00018429871
23	0xbbed66e2	-0.0072449306
24	0x3d2d3b35	0.042292792
25	0xbb3ee5a2	-0.002912857
26	0x3cf0506c	0.029335223
27	0xbea0a06c	-0.31372392
28	0xbd0e16c6	-0.034689687
29	0x3e86877f	0.2627525
30	0xbd97271c	-0.073805064
31	0xbdbe1719	-0.09281749
32	0x3c8944ea	0.016756494
33	0xbd3d87ca	-0.046272077
34	0xbd583ae6	-0.052790545
35	0xbda445e0	-0.0802114
36	0xbc0838c6	-0.008314317
37	0x3d725dc7	0.059171464
38	0x3d981694	0.074261814
39	0xbcd1d6d4	-0.025615133
40	0x3cee52c0	0.029092193
41	0x3c74bdf5	0.014937867
42	0x3eb6c3c9	0.35696247
43	0x3db274e3	0.087137006
44	0x3bfaae8d	0.0076502026
45	0x3e4a4506	0.19752893
46	0x3db72241	0.0894208
47	0x3cb8fb89	0.022580879
48	0xbda7f93f	-0.08201837
49	0xbd42d9c0	-0.047570944
50	0x3cda607b	0.026657334
51	0x3d4aedc8	0.049543172
52	0xbc135ac4	-0.008993808
53	0xbe411e7f	-0.1885929
54	0xbc57d1a9	-0.0131725455
55	0xbc5a1a2a	-0.013311902
56	0x3c7c5f99	0.015403652
57	0xbdf1c313	-0.118047856
58	0xbe2cfd8c	-0.16893595
59	0xbd114bc4	-0.035472646
60	0xbbecc460	-0.007225558
61	0x3c571bcc	0.013129186
62	0x3bcb5f98	0.006206464
63	0x3d12f18c	0.03587489
64	0x3d0afdcb	0.033933442
65	0xbbac7b37	-0.005263712
66	0x3c244519	0.01002624
67	0x3cdbdc28	0.026838377
68	0xbda7ba91	-0.081898816
69	0xbbf57603	-0.0074908747
70	0x3e0d89d8	0.13822114
71	0x3ea21baa	0.3166173
72	0x3daefdfc	0.085445374
73	0x3d028abd	0.031870592
74	0xbc9267db	-0.017871788
75	0x3d10956b	0.035298746
76	0x3cc67287	0.024224533
77	0xbba45550	-0.005015053
78	0x3ce34f8d	0.027747894
79	0x3e576d5b	0.2103781
80	0x3dabbac0	0.08385229
81	0xbd4babbe	-0.049724333
82	0xbdca5a1d	-0.09880469
83	0xbd025b51	-0.031825367
84	0x3b06a081	0.0020542445
85	0x3c359e70	0.011085138
86	0xbdba5f78	-0.091002405
87	0x3c869640	0.016429067
88	0xbe7d1ea9	-0.24718727
89	0xbdb0ccf2	-0.0863284
90	0xbb24bb30	-0.0025135987
91	0xbd80e406	-0.06293492
92	0xbc3631c1	-0.011120261
93	0xbd6e14b8	-0.058125228
94	0x3d8a343e	0.06748246
95	0xbe79813f	-0.2436571
96	0xbd59fd83	-0.053220283
97	0xbceac7b0	-0.028659672
98	0xbd419b15	-0.04726704
99	0x3d4827fb	0.048866253
100	0x3d810e22	0.06301524
101	0xbc7c0ef5	-0.015384425
102	0x3ca1b5eb	0.019740066
103	0xbd5e0e89	-0.05421308
104	0x3c2a52ec	0.010395747
105	0xbde24d90	-0.1104995
106	0xbd908a79	-0.070576616
107	0x3c7f98b3	0.015600371
108	0x3d060e6d	0.0327286
109	0xbb869bd4	-0.0041079316
110	0x3ca11315	0.01966242
111	0xbbd88532	-0.006607675
112	0x3d105894	0.035240725
113	0x3d94063f	0.07227754
114	0x3d28e2b1	0.041231815
115	0xbe6b5b4a	-0.22984043
116	0xbd791ccf	-0.06081849
117	0xbd6208e9	-0.05518428
118	0xbcc590c5	-0.024116883
119	0x3d01104f	0.031509694
120	0xbc69a0db	-0.014259542
121	0x3cafed6f	0.021475522
122	0xbd0eedd9	-0.034894798
123	0x3d24f428	0.040271908
124	0x3dd3c8f6	0.10341065
125	0xbea4a898	-0.32159877
126	0xbc50e7a7	-0.012750543
127	0xbd5edf60	-0.054412246
128	0x3c280391	0.010254757
129	0xbc387727	-0.011258877
130	0xbdf611bd	-0.12015102
131	0xbc2561d8	-0.010094129
132	0xbd3a7ca6	-0.04552903
133	0x3c80a328	0.015702799
134	0xbd730fca	-0.05934123
135	0x3c1a9715	0.009435435
136	0x3c647f5c	0.0139463805
137	0x3d4dc72f	0.050238784
138	0x3d1ace09	0.037794147
139	0x3e1bfc8d	0.15233059
140	0x3dc67807	0.09690862
141	0xbcc9403d	-0.024566764
142	0x3d2c118a	0.042008914
143	0x3cd1cb22	0.025609557
144	0x3d027fa0	0.031859994
145	0xbc98e6bc	-0.01866471
146	0x3bda4158	0.0066606216
147	0x3d1fb5f1	0.038991872
148	0xbdd8ef32	-0.10592498
149	0x3ba3098a	0.0049755024
150	0x3a885bb2	0.0010403304
151	0xbd8f0596	-0.06983487
152	0x3ca21a42	0.019787911
153	0x3caff634	0.021479703
154	0x3c5dd350	0.01353915
155	0x3a8f7098	0.001094359
156	0x3d0b2963	0.033975016
157	0xbd0fd21a	-0.035112478
158	0xbd174059	-0.0369266
159	0xbc87ddf7	-0.016585333
160	0xbd1f5a66	-0.03890457
161	0xbdd6031c	-0.10449812
162	0x3e0749fc	0.13211817
163	0xbc461ea7	-0.012092269
164	0x3ccc21a1	0.02491838
165	0xbb298773	-0.0025868088
166	0xbd058694	-0.032599047
167	0xbd02214b	-0.031770032
168	0xbda718e1	-0.08159042
169	0xbd20abde	-0.039226405
170	0xbd9554b9	-0.0729155
171	0xbc881211	-0.016610177
172	0x3b8699da	0.004107696
173	0x3e4d8214	0.20069152
174	0x3bfface3	0.007802592
175	0xbdf503ef	-0.11963641
176	0x3cd605e2	0.026125852
177	0xbd8478e4	-0.064683706
178	0xbce4a23a	-0.027909387
179	0xbcda8498	-0.026674554
180	0x3bc036aa	0.0058658915
181	0xbe8f4dec	-0.27989137
182	0x3d90fcde	0.070794806
183	0x3d1aaf6b	0.037764948
184	0x3b923150	0.004461445
185	0x3c40c55c	0.011765804
186	0xbe0c3a78	-0.13694179
187	0xbd6be0ba	-0.057587363
188	0xbd01569d	-0.03157674
189	0x3ca5ff33	0.02026329
190	0xbd221abe	-0.039576285
191	0x3d4698fe	0.04848575
192	0x3bfe57ba	0.0077619227
193	0xbdfdefc5	-0.12399248
194	0xbcd4fe55	-0.026000181
195	0x3c811227	0.015755726
196	0x3c92a42d	0.01790055
197	0x3e43b6d6	0.19112715
198	0xbdb29d5a	-0.08721419
199	0x3e8f0c39	0.27939013
200	0xbd97ac92	-0.07405962
201	0xbd387e92	-0.04504258
202	0x3c0e5afc	0.008688685
203	0xbc91e856	-0.017810982
204	0x3d4af2da	0.049548008
205	0xbd4b2ab4	-0.04960127
206	0xbdf8eab4	-0.12154141
207	0x3dec5f22	0.11541583
208	0xbcdb5523	-0.026773995
209	0x3ca41c3e	0.020032998
210	0x3c8fe681	0.017565968
211	0x3d0d60a8	0.034516007
212	0x3ca1783a	0.019710649
213	0x3cccd7c9	0.025005238
214	0x3c0e33dd	0.008679357
215	0x3d328e22	0.04359258
216	0xbccc3152	-0.024925862
217	0x3d69ead1	0.057108704
218	0xbd3289c6	-0.043588422
219	0xbd3ac3c7	-0.045596864
220	0x3d3893dd	0.04506289
221	0x3dbac511	0.09119619
222	0x3ca35b7c	0.019941084
223	0x3c279a4a	0.0102296565
224	0xbc6fe726	-0.014642512
225	0x3d719848	0.058983117
226	0xbe3dd1da	-0.18537083
227	0x3c3a8d9a	0.0113862995
228	0xbd78c269	-0.06073228
229	0xbd3b3b9d	-0.04571115
230	0x3ddd175f	0.10795473
231	0x379572ff	1.7815733e-05
232	0x3d7e4cab	0.062084835
233	0x3bced863	0.0063124164
234	0x3c093b09	0.0083758915
235	0x3d8e7473	0.06955805
236	0xbd16844a	-0.036747254
237	0xbaad5f49	-0.001322725
238	0x3c3a1a5f	0.011358826
239	0x3d61580f	0.05501562
240	0x3e0c8cc4	0.13725573
241	0xbd8944bf	-0.067025654
242	0x3da925ae	0.0825914
243	0xbd482734	-0.048865512
244	0xbd808a14	-0.06276336
245	0x3e0d5752	0.13802841
246	0xbd810412	-0.062996045
247	0xbd3185e0	-0.043340564
248	0x3c399a39	0.011328273
249	0x3c4d2012	0.012519853
250	0xbd6cd257	-0.057817783
251	0x3bc93230	0.006140016
252	0xbd874306	-0.066045806
253	0x3c3d63e5	0.011559461
254	0x3ce7da6e	0.028302398
255	0x3c0ef708	0.008725889

net.3.bias f4 [128]
0	0xbb829ffc	-0.003986357
1	0x3b092f89	0.0020932874
2	0x3b8e5e1e	0.0043447157
3	0xbc69cd67	-0.014270163
4	0x3bca954d	0.006182349
5	0xbc818673	-0.01581118
6	0xbc66d2c4	-0.014088336
7	0xbb93d2e7	-0.0045112255
8	0x394c0951	0.00019458427
9	0xbc43ce13	-0.011950987
10	0x3a4589f1	0.00075355085
11	0xbc3617f1	-0.0111141065
12	0xbbb6b251	-0.005575456
13	0xbc0e20e8	-0.008674838
14	0xbbf682f1	-0.0075229337
15	0xbb98a7f6	-0.0046586944
16	0xbb548998	-0.0032430645
17	0xbc90715e	-0.017632183
18	0xbb83698d	-0.0040103854
19	0x3b122033	0.0022297024
20	0xbadf8c5c	-0.001705538
21	0xbc35fd50	-0.011107758
22	0x3b310308	0.0027009863
23	0xbb39a8ef	-0.0028329452
24	0x3aa9e597	0.00129621
25	0xbc19e952	-0.009394007
26	0xbad96d97	-0.0016588446
27	0xbc312e56	-0.01081427
28	0x3c0fe832	0.008783387
29	0x3b99b2f5	0.004690523
30	0x3b103c0d	0.002200845
31	0xbba35094	-0.004983971
32	0x3b515793	0.0031943067
33	0x3ba213d4	0.0049462114
34	0xbc30a653	-0.010781842
35	0x3b494593	0.0030711635
36	0xba913010	-0.0011076946
37	0xbbf1e5d6	-0.007382135
38	0xbb89bbcd	-0.004203296
39	0x3b24f1d4	0.0025168555
40	0xba370230	-0.0006981222
41	0x3bef1b35	0.0072969445
42	0xbba48b54	-0.005021492
43	0xba91144b	-0.001106867
44	0xbb84ed55	-0.0040566125
45	0xbb4ab732	-0.0030931947
46	0xbc20f3b6	-0.00982373
47	0xbb204203	-0.0024453409
48	0xbc15e708	-0.00914932
49	0x3ab26523	0.0013610463
50	0x3bc642a5	0.006050425
51	0x3b81f04c	0.003965413
52	0xbb240b92	-0.002503131
53	0xbb95ba67	-0.00456934
54	0xbbb028f4	-0.0053759757
55	0xbbe1a442	-0.006886036
56	0xbc06bcf6	-0.008223763
57	0x3b8cb30f	0.0042938064
58	0xb9e50b8d	-0.0004368689
59	0xbbc1c99c	-0.0059139263
60	0xbba40ef9	-0.0050066677
61	0x3b0093bb	0.0019619304
62	0xba7246fd	-0.00092421455
63	0xbb86c5a3	-0.0041129156
64	0x3b86208f	0.0040932368
65	0x3bddc2ac	0.0067675915
66	0xbbd8ce5a	-0.006616396
67	0xbc0a6d7e	-0.0084489565
68	0xbb903b95	-0.004401634
69	0xbc19fab1	-0.009398148
70	0xbc04c8c3	-0.008104506
71	0xbb797288	-0.003806265
72	0x3a2118a7	0.0006145336
73	0x3bd0757e	0.0063616624
74	0xbc3aac1c	-0.011393573
75	0xbba817d9	-0.005129796
76	0x3b83df4b	0.0040244213
77	0xbbacc51f	-0.005272522
78	0x3bda1c8f	0.0066562365
79	0xbb274d17	-0.0025528127
80	0xba0e3341	-0.00054245075
81	0xbbc2e423	-0.005947606
82	0xbbe98385	-0.007126274
83	0x3bfaa1ae	0.0076486683
84	0xbbfedad7	-0.0077775526
85	0xbc03879e	-0.008027939
86	0xbbd5255b	-0.0065046973
87	0xbb6f2d0d	-0.0036495358
88	0x3a34b29b	0.00068930694
89	0x3beffeb4	0.007324064
90	0x39e48561	0.00043586924
91	0xbbb24d11	-0.005441316
92	0x3a4aaa6c	0.00077310833
93	0xbb22e606	-0.0024856343
94	0x39946330	0.0002830266
95	0xbc59196d	-0.013250691
96	0x3baa8372	0.005203658
97	0x3b8b7e9d	0.004257037
98	0xbae917ed	-0.001778362
99	0x3b92683b	0.0044679916
100	0x3b1269ee	0.002234097
101	0xbbdcbd36	-0.006736423
102	0x3b8dfe3c	0.0043332856
103	0xba76c82f	-0.0009413985
104	0x3b9e2dfc	0.004827259
105	0x3b527282	0.003211171
106	0x3ab22d4d	0.0013593823
107	0xbc61cc41	-0.013781608
108	0x3c2c5b0d	0.010519755
109	0xbc085d3c	-0.00832301
110	0xbc17e6ed	-0.009271366
111	0x3b525ce1	0.0032098817
112	0x3ba6bc0f	0.0050883363
113	0xbc0ee29b	-0.008721019
114	0x3be0f699	0.006865334
115	0xbb3f37dd	-0.0029177584
116	0x3b5f6eee	0.003409322
117	0x3b677c82	0.0035322015
118	0x3c187982	0.0093063135
119	0x3c1a8682	0.009431483
120	0x3c275d65	0.010215138
121	0xb8b1eb18	-8.483807e-05
122	0xbb6f6ac6	-0.0036532148
123	0xbb801d9e	-0.0039097806
124	0xbbf834f8	-0.0075746737
125	0xbc3a8e09	-0.011386403
126	0xbc740bd0	-0.014895394
127	0xbb9e8dda	-0.0048386874

net.6.weight f4 [9, 128]
0	0xbc88d1fc	-0.01670169
1	0xbb47e423	-0.003050097
2	0xbd31f5f9	-0.04344747
3	0xbd078fb0	-0.033096015
4	0x3d0105ce	0.031499676
5	0xbd1f35fc	-0.038869843
6	0xbcb00d4c	-0.021490715
7	0x3e1aa1b1	0.15100743
8	0x3c95a523	0.01826722
9	0x3c9866eb	0.018603763
10	0xbce3ae6c	-0.027793132
11	0xbc914029	-0.01773079
12	0xbe0c12ee	-0.13679096
13	0xbd442424	-0.04788603
14	0xbb1c079d	-0.0023808249
15	0x3c778510	0.015107408
16	0x3adc6831	0.001681572
17	0x3cad0745	0.02112163
18	0x3e1d3573	0.1535242
19	0x3cf1eb34	0.029531099
20	0x3cb1e379	0.021714913
21	0xbc39f137	-0.011349014
22	0x3cf2d755	0.029643694
23	0x3bd48422	0.006485478
24	0x3b84c4e9	0.004051794
25	0xbca9c854	-0.020725407
26	0x3cebe770	0.028796881
27	0xbdfd28b2	-0.12361278
28	0xbc2bdace	-0.010489179
29	0xbcb09f22	-0.021560255
30	0x3e22bead	0.1589305
31	0xbc512ed2	-0.0127675105
32	0x3e18d903	0.14926533
33	0xbcd80e50	-0.026374012
34	0xba74f892	-0.0009344901
35	0xbcb00353	-0.02148596
36	0x3c8f4ead	0.01749357
37	0x3c71f6e5	0.014768337
38	0x3e1c7d26	0.15282115
39	0xbcec17f9	-0.028820025
40	0x3b230fd9	0.0024881272
41	0xbba27576	-0.00495785
42	0xbb100328	-0.0021974538
43	0xbb908949	-0.004410897
44	0x3ce93d74	0.028471686
45	0xbb88496c	-0.004159143
46	0xbcbf20f1	-0.023331137
47	0x3cc79729	0.024364071
48	0xbb345b5d	-0.0027520277
49	0x3e120c77	0.14262567
50	0x3c1bb69a	0.009503985
51	0xbc3b8f78	-0.01144778
52	0xbcc685ae	-0.024233665
53	0xbc6b7840	-0.014371932
54	0xbc816cf9	-0.015799033
55	0xbe09918a	-0.13434425
56	0x3b84441a	0.0040364387
57	0x3d1c2552	0.03812153
58	0x3c7ca58d	0.01542033
59	0xbc4c7f2e	-0.012481494
60	0x3bbcc963	0.005761312
61	0xbd534c6b	-0.05158655
62	0x3cc09458	0.023508236
63	0xbcc3c9f5	-0.023900012
64	0x3b77a1e3	0.00377857
65	0xbd16ed28	-0.036847264
66	0xbc546464	-0.012963388
67	0xbb0f2b18	-0.0021845754
68	0xbe0f086c	-0.13968056
69	0xbd2cc1b5	-0.04217692
70	0x3cbc1ca7	0.022962881
71	0xbd1ebc17	-0.038753595
72	0xbb05659f	-0.002035476
73	0x3c99b121	0.01876122
74	0xbc805bc8	-0.015668765
75	0xbdea55aa	-0.114421204
76	0xbd33284d	-0.043739606
77	0x3e1fb3e3	0.15595965
78	0xbc587a1d	-0.013212708
79	0xbbc18657	-0.005905907
80	0x3c226f3c	0.009914216
81	0x3cb1f54c	0.021723412
82	0x3d13ac3f	0.03605294
83	0xbd79b0b2	-0.060959525
84	0x3e2277be	0.1586599
85	0x3bab6e4b	0.005231654
86	0x3c8bd702	0.017070297
87	0xbcd4fbeb	-0.02599903
88	0xbc4e8c42	-0.012606682
89	0xbcb1dea6	-0.021712612
90	0xbcb0e708	-0.02159454
91	0xbc739fb0	-0.014869615
92	0xbcef5e27	-0.0292197
93	0x3cead2a1	0.028664889
94	0xbcd291b5	-0.025704244
95	0x3bd4465c	0.006478114
96	0x3d11fbdf	0.035640594
97	0x3e27eca7	0.1639887
98	0x3cfd6ded	0.030936206
99	0x3e2a1b24	0.16611916
100	0x3c71ae5d	0.014751044
101	0xbc94f319	-0.018182324
102	0xbccfcbe2	-0.025365774
103	0x3c40fa7d	0.011778471
104	0xbbac1cb7	-0.0052524465
105	0xbd086374	-0.03329797
106	0x3d00a7ff	0.031410214
107	0xbbaece53	-0.0053346544
108	0x3c316254	0.010826666
109	0x3ccef7b9	0.025264608
110	0x3ccb322e	0.024804201
111	0x3bf7eeed	0.007566324
112	0x3c548218	0.01297047
113	0x3cb18920	0.021671832
114	0xbd36aa4d	-0.044596005
115	0xbaf5cfed	-0.0018753983
116	0x3ca6e38b	0.020372173
117	0xbcceb535	-0.02523289
118	0xbd01aaf5	-0.031657178
119	0x3c30b3a8	0.010785021
120	0xbc0073b1	-0.007840083
121	0x3e1d0ad4	0.15336162
122	0xbe02d4c8	-0.12776482
123	0x3cdfeb60	0.027333915
124	0xbc6112b3	-0.013737368
125	0x3bb5d1ed	0.0055487067
126	0x3bb4792e	0.00550761
127	0xbcf7a017	-0.030227704
128	0x3cc3a6f3	0.023883319
129	0xbcc00d16	-0.02344374
130	0x3ce0f06b	0.02745839
131	0x3a9c2966	0.0011914193
132	0xbc6ecf6f	-0.014575823
133	0xbcc7421d	-0.024323517
134	0xbc9b7599	-0.018976973
135	0x3d018f5c	0.03163086
136	0x3c8b9760	0.017039955
137	0x3df7f8a6	0.12107973
138	0xbd3c0c5a	-0.045910217
139	0xbbd2a63c	-0.006428508
140	0xbd11ce30	-0.035597026
141	0xbe20117d	-0.15631671
142	0xbc1844ab	-0.0092937155
143	0x3ca7fcc7	0.020506276
144	0x3e07cc79	0.13261594
145	0xbc0f9711	-0.008764044
146	0x3d1480bc	0.036255583
147	0xbcac5e67	-0.021041108
148	0xbcde671c	-0.027148776
149	0x3c839a6e	0.016064849
150	0xbc7bd9ae	-0.015371723
151	0x3cf59c12	0.029981647
152	0x3d492285	0.049105186
153	0xbbdc2bac	-0.0067190733
154	0xbbb2be14	-0.005454788
155	0xbd5d03b9	-0.05395863
156	0x3c9177be	0.017757293
157	0x3d07f28d	0.0331903
158	0x3cae987b	0.021312943
159	0x3d0a9e03	0.033842098
160	0x3cca354e	0.02468362
161	0x3ce88487	0.028383506
162	0xbc9c3ba5	-0.01907141
163	0x3cfcb077	0.030845864
164	0x3d73384e	0.05937987
165	0xbd1b0473	-0.03784604
166	0x3c4a6ed4	0.012355525
167	0xbd5b18f5	-0.053490598
168	0xbd632753	-0.055457424
169	0xbcf17cbe	-0.029478427
170	0x3c56749d	0.013089326
171	0x3c965592	0.01835135
172	0xbd0c2d4c	-0.034222886
173	0xbcf869eb	-0.030323943
174	0xbc736de9	-0.014857748
175	0xba44db67	-0.00075095
176	0xbc88adbd	-0.016684407
177	0x3c6fe4cd	0.014641953
178	0x3ca169c8	0.01970376
179	0x3d27ad1f	0.040936586
180	0x3d2b838a	0.041873492
181	0xbac0f831	-0.0014722404
182	0x3c5a4b48	0.0133236125
183	0xbd0ce0b0	-0.034393966
184	0xbd35d4cc	-0.044392392
185	0x3d03f4b3	0.032215785
186	0x3d0b2259	0.033968303
187	0x3d7c5220	0.061601758
188	0x3b3a69f6	0.0028444505
189	0xbe28e9f9	-0.16495503
190	0x3aa728bf	0.0012753232
191	0x3c728e43	0.014804426
192	0xbd65dd98	-0.05611953
193	0x3c3397a2	0.010961445
194	0xbd67db95	-0.056605894
195	0xbc3aae41	-0.011394084
196	0xbd08964a	-0.03334645
197	0xbc5e7827	-0.013578451
198	0xbcbacca3	-0.022802657
199	0xbe1d4b58	-0.15360773
200	0xbcbc9009	-0.0230179
201	0xbc898f0a	-0.01679184
202	0xbc27ed56	-0.010249456
203	0xbcbafbf4	-0.022825219
204	0x3cc911ca	0.024544615
205	0x3ca7956c	0.020456992
206	0x3c11185c	0.008855905
207	0x3d4b2d2d	0.04960363
208	0x3cd2938f	0.025705127
209	0x3e0b8fa9	0.13629021
210	0x3e0faa7f	0.14029883
211	0x3cead3ca	0.028665442
212	0x3c9cc1e5	0.019135425
213	0xbb91228b	-0.0044291667
214	0xbc4040c9	-0.011734196
215	0x3cd7a9e8	0.026326135
216	0x3decc50b	0.115610205
217	0xbbdc7d25	-0.0067287856
218	0x3c991205	0.01868535
219	0xbce7a5e8	-0.028277352
220	0xbd177459	-0.036976192
221	0xbc083b86	-0.008314973
222	0x3c52a000	0.01285553
223	0x3d093d31	0.033505622
224	0x3d551809	0.052024875
225	0x3ca1957b	0.019724598
226	0x3c6adf8e	0.014335526
227	0x3cd85f24	0.026412554
228	0x3ce628f2	0.028095696
229	0xbb967797	-0.004591893
230	0x3cb33a0a	0.021878261
231	0x3cc09f70	0.023513526
232	0x3d1028fc	0.035195336
233	0x3cada543	0.021196967
234	0xbc468c96	-0.012118479
235	0x3a14cad3	0.0005675975
236	0x3cb04ce7	0.021521045
237	0xbb9c50c5	-0.0047703707
238	0xb8e73fce	-0.00011026823
239	0x3e0aa468	0.13539279
240	0xbc150e86	-0.009097701
241	0x3c1802f7	0.009278051
242	0xbe1ad3a0	-0.15119791
243	0xbbe67fcc	-0.0070342775
244	0x3be3800f	0.006942756
245	0xbca43948	-0.020046845
246	0x3d52d96c	0.05147688
247	0x3d32196f	0.043481287
248	0x3b1811c6	0.0023203953
249	0x3ce1c501	0.02755976
250	0xbcb0e0e9	-0.02159162
251	0x3e0973e0	0.13423109
252	0xbbf024a0	-0.007328585
253	0xbd126dfd	-0.035749424
254	0xbd451ec8	-0.04812506
255	0xbb8315a8	-0.0040003844

net.6.bias f4 [9]
0	0xbbd5a57f	-0.006519973
1	0xbcaebacb	-0.021329304
2	0x3c55c8cc	0.013048362
3	0xbba8bd28	-0.0051495023
4	0xbc5d3652	-0.0135017205
5	0xb9dd62b9	-0.0004222596
6	0x3cdd66ac	0.027026497
7	0x3ea2b666	0.31779784
8	0x3e473070	0.19452071

exp_avg f4 [256, 23]
0	0x39377314	0.0001749511
1	0xb98adb0f	-0.00026484623
2	0x3742cece	1.1611452e-05
3	0xb9895fe0	-0.0002620211
4	0xb9022dd7	-0.00012414843
5	0xb859d542	-5.1935443e-05
6	0x373fd0bd	1.1433088e-05
7	0x39b5e367	0.00034692438
8	0x3a1dfbe6	0.00060266105
9	0x38d1a0d7	9.995855e-05
10	0xb70c43b3	-8.360413e-06
11	0xb86222f2	-5.3915144e-05
12	0x388b27c8	6.635446e-05
13	0xb8bcf971	-9.011001e-05
14	0x379848dc	1.815374e-05
15	0x3857b8ac	5.1431984e-05
16	0xb70938ba	-8.179044e-06
17	0x34714c26	2.2472577e-07
18	0xb8ecc50e	-0.00011290061
19	0x3853a6bd	5.0461607e-05
20	0x3505fd93	4.991536e-07
21	0x38ff07f3	0.00012160828
22	0x38cb06df	9.681074e-05
23	0x37eac635	2.7987271e-05
24	0xb84b582f	-4.84811e-05
25	0xb8b01fd8	-8.398265e-05
26	0xb89bd8bf	-7.431348e-05
27	0xb81029a8	-3.437107e-05
28	0x39265405	0.00015862293
29	0xb8acd6a4	-8.241579e-05
30	0xb67edcf5	-3.7977563e-06
31	0x3920c863	0.00015333439
32	0x38086edd	3.2528176e-05
33	0x37357dcf	1.0817733e-05
34	0xb86ad338	-5.598666e-05
35	0x3795adcc	1.7843115e-05
36	0x38175179	3.6077083e-05
37	0xb78cd53f	-1.6788601e-05
38	0xb6704a01	-3.5805863e-06
39	0xb623fa49	-2.4434578e-06
40	0x347d4e58	2.3590962e-07
41	0xb6e24575	-6.7434107e-06
42	0xb8501926	-4.9614486e-05
43	0xb65ab425	-3.258939e-06
44	0xb801b363	-3.0923064e-05
45	0x34ec2103	4.3982445e-07
46	0x3897f915	7.246636e-05
47	0xb89b30af	-7.400044e-05
48	0xb7559892	-1.2731312e-05
49	0xb7c51da0	-2.3498025e-05
50	0xb8be8ebf	-9.0864945e-05
51	0xb7aac91f	-2.0359234e-05
52	0x38cba7dd	9.711061e-05
53	0x38fec16f	0.000121476936
54	0xb6c8d501	-5.9852614e-06
55	0x3782cfc7	1.5593962e-05
56	0xb65ac1f2	-3.2597422e-06
57	0xb77cbf52	-1.5064916e-05
58	0xb7b73875	-2.184159e-05
59	0x353f6724	7.1303134e-07
60	0x3801e043	3.0964857e-05
61	0xb82f6f22	-4.1826752e-05
62	0x36ee6942	7.1052064e-06
63	0xb35152d8	-4.873695e-08
64	0x37185423	9.079496e-06
65	0x37aa02ff	2.0266974e-05
66	0x357e84a0	9.481537e-07
67	0x37028185	7.77876e-06
68	0xb6a753cc	-4.986743e-06
69	0x390a2ec4	0.00013178127
70	0xb922bd02	-0.00015519935
71	0xb693f9e1	-4.410031e-06
72	0xb968743b	-0.00022168543
73	0xb86a0b68	-5.580057e-05
74	0xb80cd635	-3.3578097e-05
75	0xb84672a5	-4.731365e-05
76	0x390df4d5	0.00013538015
77	0x39fd169b	0.00048272763
78	0x3705ac81	7.967582e-06
79	0xb7a30669	-1.94341e-05
80	0xb78607cd	-1.5977677e-05
81	0x37b12740	2.1118321e-05
82	0xb826ea33	-3.97956e-05
83	0x3746e9cb	1.1856154e-05
84	0x3840645d	4.5869838e-05
85	0xb71bbe0a	-9.282967e-06
86	0x341956bd	1.428079e-07
87	0xb87f4fe2	-6.0871134e-05
88	0x37321dc3	1.0616556e-05
89	0xb6dd83d0	-6.6016582e-06
90	0x38c5e45d	9.436228e-05
91	0x38b8f127	8.818722e-05
92	0x3885ee9f	6.386381e-05
93	0xb8e0632c	-0.000106996245
94	0xb843f648	-4.672099e-05
95	0xb8fa677e	-0.00011940206
96	0xb8d424de	-0.00010115815
97	0x38dc8de3	0.00010516846
98	0x38bca553	8.9953326e-05
99	0x38f242a7	0.00011551874
100	0x399283f0	0.0002794559
101	0x38434e46	4.656452e-05
102	0xb4275298	-1.5583134e-07
103	0xb801457a	-3.08207e-05
104	0x36df2908	6.6506946e-06
105	0x38189d62	3.63862e-05
106	0x37ee2935	2.8391e-05
107	0xb78eab8a	-1.7007598e-05
108	0xb5245ba5	-6.122812e-07
109	0x3478d400	2.3173925e-07
110	0xb7ae3cec	-2.0770785e-05
111	0xb6494857	-2.9993441e-06
112	0xb645c393	-2.9469127e-06
113	0x37b1d92f	2.1201178e-05
114	0xb82a2a14	-4.0570347e-05
115	0x389310dc	7.0126465e-05
116	0xb90b3108	-0.00013274339
117	0xb8263e7c	-3.9635677e-05
118	0xb8613d88	-5.3701486e-05
119	0xb91d47ab	-0.00014999385
120	0x387d325f	6.0366812e-05
121	0x38f2b968	0.00011573994
122	0x38567f0a	5.113989e-05
123	0xb8e933bc	-0.00011119942
124	0x3813856d	3.5171794e-05
125	0x377b2e1c	1.49715015e-05
126	0xb74e2a6e	-1.2288436e-05
127	0xb6486ee5	-2.9866872e-06
128	0x38416961	4.6112928e-05
129	0xb7638580	-1.3561337e-05
130	0xb81fed6f	-3.812968e-05
131	0x36e379e6	6.779318e-06
132	0x3414c8d1	1.385663e-07
133	0x371f3abf	9.490816e-06
134	0x3801ebd4	3.097563e-05
135	0x369cabcd	4.6691625e-06
136	0xb5afc209	-1.3094988e-06
137	0xb89540ff	-7.11698e-05
138	0xb7ce9054	-2.4624322e-05
139	0xb7acf6fe	-2.0619013e-05
140	0xb7f9029d	-2.968433e-05
141	0xb8b2e073	-8.529508e-05
142	0xb7c60276	-2.3604585e-05
143	0x38ca535d	9.647638e-05
144	0x37c1fd2d	2.3125287e-05
145	0x3791f26d	1.7398235e-05
146	0x39630fc1	0.00021654276
147	0x37a3dd75	1.9534238e-05
148	0x363f9d2d	2.8552706e-06
149	0xb7691061	-1.3891696e-05
150	0x37aa4b45	2.030063e-05
151	0x3839c655	4.429215e-05
152	0x36abd1e2	5.1206307e-06
153	0x379cab4d	1.8676417e-05
154	0xb68268c7	-3.8864996e-06
155	0x32941a50	1.7241433e-08
156	0xb76d0ff2	-1.4130013e-05
157	0xb7518f65	-1.2490757e-05
158	0xb620eae5	-2.3978585e-06
159	0x36a8556e	5.0167355e-06
160	0xb809380b	-3.271554e-05
161	0xb8c0ef1e	-9.1998125e-05
162	0x389fe452	7.624239e-05
163	0x3898f86f	7.294199e-05
164	0xb7875074	-1.6130718e-05
165	0x38e0ce9f	0.000107196385
166	0xb789cd06	-1.6427144e-05
167	0x3529d191	6.3262365e-07
168	0x36cd9b7c	6.127577e-06
169	0x39312e22	0.00016897221
170	0xb83646e1	-4.3458193e-05
171	0xb7629cda	-1.350717e-05
172	0x37645c92	1.3611412e-05
173	0x35a7bf45	1.2498136e-06
174	0xb838fe83	-4.410605e-05
175	0x37fac815	2.9895493e-05
176	0xb7086afb	-8.13114e-06
177	0xb6e0b18e	-6.6963903e-06
178	0xb3dc50d3	-1.025925e-07
179	0xb7dcd56c	-2.6325426e-05
180	0xb74f541a	-1.2357743e-05
181	0xb686a2a4	-4.012445e-06
182	0x3824df45	3.9308583e-05
183	0x380353bf	3.131083e-05
184	0x388da67e	6.7544155e-05
185	0xb8a83580	-8.0208294e-05
186	0x38e09fe4	0.00010710934
187	0xb7f98d23	-2.9748835e-05
188	0xb83832ca	-4.391632e-05
189	0xb924141b	-0.00015647749
190	0x390c1954	0.00013360876
191	0x398344e0	0.00025037583
192	0xb9580a6f	-0.00020603252
193	0xb7a097c7	-1.9144163e-05
194	0x36e6f2bc	6.882792e-06
195	0x3851c731	5.0014994e-05
196	0x360c668e	2.092132e-06
197	0xb8496631	-4.8017308e-05
198	0xb81e6b24	-3.7769918e-05
199	0x384e713e	4.9219692e-05
200	0xb362f302	-5.284074e-08
201	0xb4ee707f	-4.4412806e-07
202	0xb7092059	-8.173368e-06
203	0x38d9088f	0.000103489605
204	0x37914f11	1.7322165e-05
205	0x38eb1f4f	0.00011211505
206	0x3803d29a	3.1428972e-05
207	0xb89ebd5b	-7.569297e-05
208	0x381be233	3.7165544e-05
209	0x378938ff	1.6358214e-05
210	0x37e1d58d	2.6921532e-05
211	0x383329b9	4.2715783e-05
212	0x3837ce33	4.3822638e-05
213	0xb867e843	-5.5291002e-05
214	0x379f07e7	1.8957957e-05
215	0x38931232	7.0128954e-05
216	0x3821160f	3.8405935e-05
217	0xb69cebc7	-4.6766104e-06
218	0x379be745	1.8585133e-05
219	0x38235552	3.894169e-05
220	0x365bb3b5	3.2738146e-06
221	0xb7d11b8e	-2.4927573e-05
222	0x37b499d0	2.1529297e-05
223	0xb71484fa	-8.852448e-06
224	0x34b13223	3.3005298e-07
225	0xb81d8060	-3.7551275e-05
226	0xb6ecdf37	-7.0593337e-06
227	0x36b19d4f	5.293324e-06
228	0xb7bacf92	-2.2269585e-05
229	0x36ba767b	5.557025e-06
230	0xb84d4987	-4.8944286e-05
231	0x37fdbc8c	3.024775e-05
232	0xb88dcd2e	-6.7616216e-05
233	0x387864c0	5.922164e-05
234	0x385ab9dd	5.214835e-05
235	0x38028657	3.111953e-05
236	0xb90c9b47	-0.00013409286
237	0xb95e5d8b	-0.00021206417
238	0x39feb932	0.00048584637
239	0x38700898	5.7228463e-05
240	0xb8194b34	-3.654808e-05
241	0xb85be4d9	-5.24268e-05
242	0x37baff72	2.2291879e-05
243	0x38881507	6.488902e-05
244	0x3893ae09	7.041923e-05
245	0xb8ddb344	-0.00010571492
246	0x368e5e49	4.242906e-06
247	0xb358e452	-5.0499075e-08
248	0xb7c6d4b7	-2.3702492e-05
249	0xb859ec3d	-5.1956846e-05
250	0xb7dd04b5	-2.6347445e-05
251	0xb8c422ed	-9.352514e-05
252	0xb852067f	-5.007395e-05
253	0xb9146aeb	-0.0001415421
254	0x3951a36d	0.00019992674
255	0xb87caa17	-6.023989e-05

exp_avg_sq f4 [256, 23]
0	0x358b43a7	1.0375996e-06
1	0x35b4c32c	1.3467848e-06
2	0x336e4556	5.5476754e-08
3	0x3526981c	6.206117e-07
4	0x357104fc	8.978675e-07
5	0x348ca3c9	2.6196201e-07
6	0x34a63dcc	3.0964873e-07
7	0x36114082	2.1644232e-06
8	0x35e39c37	1.6958282e-06
9	0x329d3f93	1.8306116e-08
10	0x3196ac05	4.385131e-09
11	0x324dee44	1.1986746e-08
12	0x321f5530	9.2743875e-09
13	0x32b8461e	2.1452305e-08
14	0x32b51e21	2.1084874e-08
15	0x3277085d	1.4379194e-08
16	0x2ce34855	6.4597585e-12
17	0x2b8a6ea8	9.836203e-13
18	0x331a892d	3.598068e-08
19	0x330ce903	3.2808213e-08
20	0x30a0597d	1.1666966e-09
21	0x34224bdd	1.5115025e-07
22	0x32af352f	2.0396866e-08
23	0x359d8f27	1.1739074e-06
24	0x35cc181e	1.5206203e-06
25	0x33970e32	7.0340676e-08
26	0x35420cf5	7.2289487e-07
27	0x3589aaea	1.0257038e-06
28	0x34a8776a	3.1379324e-07
29	0x34c2e769	3.630369e-07
30	0x36288333	2.5110319e-06
31	0x35f89a31	1.8522315e-06
32	0x32b56ee3	2.1121599e-08
33	0x319cead7	4.5668958e-09
34	0x327b979a	1.4644593e-08
35	0x3233ae9c	1.0458873e-08
36	0x32bee08f	2.2221029e-08
37	0x32b8df73	2.1522032e-08
38	0x32921852	1.7007697e-08
39	0x2c94fb80	4.234335e-12
40	0x2bb0db1e	1.2566369e-12
41	0x3353eae9	4.9340915e-08
42	0x33281fe4	3.9144552e-08
43	0x30f9e35f	1.8181757e-09
44	0x343c3faf	1.7532032e-07
45	0x32d2d466	2.4543805e-08
46	0x3468a22a	2.1665679e-07
47	0x3496d573	2.8094982e-07
48	0x3265adde	1.3369087e-08
49	0x34125cc5	1.3631059e-07
50	0x344fb64f	1.9344701e-07
51	0x33868f66	6.265945e-08
52	0x33902ecb	6.714034e-08
53	0x34e690fe	4.2946334e-07
54	0x34c503f6	3.669699e-07
55	0x31805434	3.734863e-09
56	0x308f5240	1.0427996e-09
57	0x315c3b3d	3.2047887e-09
58	0x3124a08e	2.3956406e-09
59	0x31cf69ac	6.0365064e-09
60	0x31be5bf2	5.5401808e-09
61	0x318203ba	3.7839216e-09
62	0x2cc27d55	5.5277263e-12
63	0x2aa16d51	2.8675199e-13
64	0x3233c930	1.0464916e-08
65	0x31f02b6a	6.989855e-09
66	0x2fe73055	4.2052997e-10
67	0x330f9a92	3.3435363e-08
68	0x31acec0d	5.0326947e-09
69	0x35676e71	8.621492e-07
70	0x3595f216	1.1171821e-06
71	0x33400bf5	4.471436e-08
72	0x350a4623	5.151107e-07
73	0x3547b561	7.439722e-07
74	0x345e8035	2.0722003e-07
75	0x348c7cb3	2.6167763e-07
76	0x35f3635e	1.813383e-06
77	0x35bebd94	1.4211278e-06
78	0x32513b59	1.2178895e-08
79	0x3161bb68	3.2848337e-09
80	0x320dcaf4	8.253426e-09
81	0x31f09a8a	7.0024884e-09
82	0x328a7982	1.612057e-08
83	0x3271bd8d	1.4071145e-08
84	0x3232ca31	1.0406937e-08
85	0x2cf9460a	7.0847815e-12
86	0x2b3f458e	6.795336e-13
87	0x32f6be8b	2.8724818e-08
88	0x32e7c842	2.6983006e-08
89	0x306c2e11	8.5921764e-10
90	0x34053cc7	1.2408701e-07
91	0x32886093	1.58764e-08
92	0x342939ef	1.5760428e-07
93	0x3456b858	1.9997367e-07
94	0x3234ed90	1.0531394e-08
95	0x33d44be1	9.8858216e-08
96	0x34156db4	1.3916616e-07
97	0x33495e5c	4.688478e-08
98	0x334a2b10	4.7070955e-08
99	0x34acdae8	3.2196772e-07
100	0x348c6f1d	2.6157878e-07
101	0x318fe02f	4.1873345e-09
102	0x30869687	9.792566e-10
103	0x3130058f	2.561453e-09
104	0x31056be6	1.941538e-09
105	0x3196cae6	4.3886415e-09
106	0x318cdab2	4.099399e-09
107	0x316db7b5	3.4592464e-09
108	0x2d4a72d3	1.1507867e-11
109	0x2a8a136c	2.45272e-13
110	0x31cc82a6	5.9520344e-09
111	0x31b98f83	5.400524e-09
112	0x2f8f6a90	2.6087266e-10
113	0x32d0af75	2.4294176e-08
114	0x318de533	4.129697e-09
115	0x34e7a92c	4.3150192e-07
116	0x35144ae6	5.524329e-07
117	0x32da8497	2.5438835e-08
118	0x34858008	2.4866335e-07
119	0x34ca6120	3.76961e-07
120	0x33ee0d41	1.10851495e-07
121	0x340e0765	1.322747e-07
122	0x3568f626	8.678493e-07
123	0x353fe97c	7.149281e-07
124	0x31ffd0af	7.4452013e-09
125	0x30ed0a22	1.72469e-09
126	0x31a12994	4.6904436e-09
127	0x317128c1	3.5093282e-09
128	0x3229f5b3	9.89296e-09
129	0x31d0e271	6.07934e-09
130	0x31cf6a89	6.0366045e-09
131	0x2cb53701	5.150436e-12
132	0x2adb7167	3.8980903e-13
133	0x32896a14	1.5997138e-08
134	0x325d7f9b	1.2892907e-08
135	0x301b7da0	5.6567195e-10
136	0x337f720e	5.9475546e-08
137	0x3219d031	8.953109e-09
138	0x34b71a09	3.410535e-07
139	0x34ee4b51	4.4385754e-07
140	0x32a1c03f	1.883029e-08
141	0x34609c25	2.0918431e-07
142	0x34a1b108	3.0117394e-07
143	0x33c30b4b	9.082449e-08
144	0x33dcf0ad	1.0288327e-07
145	0x353b4caf	6.977452e-07
146	0x35191984	5.703407e-07
147	0x31d5e9ce	6.2256964e-09
148	0x30caacca	1.4746544e-09
149	0x31a153d6	4.6952477e-09
150	0x317d9bd4	3.6904924e-09
151	0x31e6bb9c	6.7152097e-09
152	0x320bc226	8.135009e-09
153	0x31c055d2	5.597692e-09
154	0x2ca6e707	4.743653e-12
155	0x2aa33f11	2.8998378e-13
156	0x326d5ced	1.38163445e-08
157	0x32398001	1.0797522e-08
158	0x30094691	4.994059e-10
159	0x3354f552	4.9583214e-08
160	0x320542ee	7.756837e-09
161	0x34d97025	4.0500996e-07
162	0x350a0ebb	5.143044e-07
163	0x32cbe01a	2.373422e-08
164	0x3475df9e	2.2898755e-07
165	0x34bc7b08	3.5107246e-07
166	0x33e4f300	1.0661279e-07
167	0x340184c5	1.2062362e-07
168	0x355aeb35	8.15536e-07
169	0x352fb86a	6.546094e-07
170	0x32000ac6	7.45303e-09
171	0x30dfa443	1.6272071e-09
172	0x319fd434	4.6516337e-09
173	0x3168ce33	3.3877654e-09
174	0x321868cb	8.871392e-09
175	0x31cd274f	5.970754e-09
176	0x31c6eb00	5.789275e-09
177	0x2c9333da	4.183748e-12
178	0x2ae44d20	4.0554452e-13
179	0x32871320	1.5724765e-08
180	0x32547204	1.2365948e-08
181	0x3018c0c9	5.557124e-10
182	0x336d81cd	5.5298916e-08
183	0x3203e1eb	7.676571e-09
184	0x35c995c5	1.5019256e-06
185	0x3600c895	1.919024e-06
186	0x33bfc7ce	8.930475e-08
187	0x35744805	9.1001885e-07
188	0x35aec4b7	1.3021262e-06
189	0x34de3185	4.1386753e-07
190	0x34f30777	4.5267709e-07
191	0x3650a84c	3.1092377e-06
192	0x3618600b	2.270567e-06
193	0x32ec713f	2.7525514e-08
194	0x31bdb50f	5.521208e-09
195	0x329f6198	1.8554417e-08
196	0x3258c198	1.2616873e-08
197	0x32f5bad0	2.8606706e-08
198	0x32f62a07	2.8657281e-08
199	0x32b8b950	2.150469e-08
200	0x2c6380a3	3.2330048e-12
201	0x2bd86791	1.5376469e-12
202	0x3384332d	6.156038e-08
203	0x334b4a4c	4.7332193e-08
204	0x310deaf3	2.0651754e-09
205	0x34699ed0	2.1757592e-07
206	0x33019392	3.0169367e-08
207	0x346ceb32	2.2064776e-07
208	0x349893dd	2.841979e-07
209	0x32779fea	1.44136525e-08
210	0x34164b3a	1.3997206e-07
211	0x3451565d	1.949606e-07
212	0x338d246b	6.5724485e-08
213	0x33913c53	6.7630616e-08
214	0x34ed2190	4.416911e-07
215	0x34c5f060	3.6869005e-07
216	0x318fd598	4.1861306e-09
217	0x307a67fd	9.1097246e-10
218	0x3172c3bd	3.53269e-09
219	0x3130969e	2.5696987e-09
220	0x31cb82f5	5.9229657e-09
221	0x31cdc389	5.988515e-09
222	0x3197d208	4.418556e-09
223	0x2ca87461	4.787768e-12
224	0x2a82d33c	2.3239212e-13
225	0x323d5399	1.1020256e-08
226	0x31f71289	7.1907533e-09
227	0x2fe2efa3	4.1279433e-10
228	0x331281f0	3.411145e-08
229	0x31a409c3	4.774138e-09
230	0x359d3d4b	1.171525e-06
231	0x35c9e1b0	1.5041351e-06
232	0x338ee750	6.654466e-08
233	0x353c26cd	7.009192e-07
234	0x358a0654	1.0283643e-06
235	0x34a82140	3.131663e-07
236	0x34bd349b	3.524227e-07
237	0x361ddae1	2.3522227e-06
238	0x35fd9a7b	1.8894929e-06
239	0x32aea350	2.0330532e-08
240	0x31be4c96	5.5384346e-09
241	0x328c803a	1.6356456e-08
242	0x324866bc	1.1664891e-08
243	0x32cd62c9	2.3910063e-08
244	0x33022486	3.03012e-08
245	0x32a0db6c	1.8726233e-08
246	0x2d6866dd	1.3210513e-11
247	0x2ba39525	1.1623243e-12
248	0x333d2f87	4.4048218e-08
249	0x331ce6d1	3.6531507e-08
250	0x30d01ee8	1.5142776e-09
251	0x34366811	1.698793e-07
252	0x32ea1c96	2.7254185e-08
253	0x35a54784	1.2314272e-06
254	0x35d2394c	1.5662895e-06
255	0x339472c0	6.91266e-08
