RefAgent/BC-CAB-256128/checkpoints/agent_4400.pt (torch, 488547 bytes, 18 tensors)

net.0.weight f4 [256, 23]
00000000: 5fcd a1bd e9f3 10bd 55fe 18be dec1 7cbc
00000010: fd05 7ebc 8236 e3bc 02aa 0dbd 8752 a5bc
00000020: 8951 9ebc c765 3ebe 9818 b3be 1785 09bf
00000030: 3506 913d 9e93 733d 81d7 c8bd a604 c03a
00000040: c2c9 a4be 3b1e 2ec0 360f ac3e 687b 863d
00000050: 9b56 913f 45ce 423e 3481 e73d 5983 2f3c
00000060: 485e 4fbe d71f 873d 150d 20bd b95e 863d
00000070: 9033 97bd 3908 93bb 7077 dabc 9f71 3fbc
00000080: 0ac0 b63c 5b3b 37bf 0591 67be f56d 823e
00000090: e5c1 c13d 4f30 7ebe 3065 59bd b1f0 e33d
000000a0: dd52 ee3d 7dca 693d a28c afbe f23e 7a3e
000000b0: a306 3a3e 6c43 cbbc b9ff a93d bd98 d4bc
000000c0: f2c4 fa3c 3e66 6d3d 184a 86bc 6c0e c23d
000000d0: d393 0a3e a51f 26bd 01f9 8ebb 182a e8bd
000000e0: 555f 983e f444 943e 9a20 a2be 84e9 25bd
000000f0: 88aa 4f3e 86d0 893e 0413 b8be 2bb4 0a3f
00000100: e5f8 36bd d5fd 2fbe d0ae 3abe b036 43bc
00000110: 6110 efbd b20f 133d 2d9d e8bc 4870 d6bd
00000120: f59a 123c 1e88 8f3c 1713 ba3c d2ae b13c
00000130: 7219 59bc a53f 4dbc 2cf7 f13b 6813 53be
00000140: bf60 b6be 4090 e93d 2260 993c 42f2 15bc
00000150: 82ed d0bc 1f47 b1be 5f1b 49c0 512d cd3e
00000160: 18ff 993e f086 493f 76e9 353e bb30 973d
00000170: cacb eabc 91f1 a2bd 7de1 8a3c be0c 0ebe
00000180: 8990 d73c 1ac4 8abd 05ba 323d ef4a 73bc
00000190: 0976 8bbd 5dd0 45bd cb10 c93e 049c 133e
000001a0: 1fc7 e2bc 6fa4 52be 1e26 3f3e c314 903d
000001b0: f73f afbd 2294 bfbf e712 7bbe ec87 2c3e
000001c0: db8b 123d 9a42 17bb 59ea ecbc 71ad 04be
000001d0: 1fd8 9fbc 52df a9bc 957f 83bd 3f2e 39bd
000001e0: a867 69bd 67c3 1abe 88e8 a53c 7446 54bc
000001f0: f725 2cbe 38f7 483d 1754 9ebd d6ab 96be
00000200: bc18 97bd 9e43 4fbe 067d a0be e98a 49be
00000210: a7b8 c93e ee63 1ebe ba82 45be 780a d33e
00000220: d489 643d 54ed 7dbc 8a5b a73b 62ea b5bc
00000230: 2e2b f7bc 0bdf 8ebd 5d69 0dbd b320 57bc
00000240: a7d1 80bd 257c 513d 7160 9bbc 198e 9c3d
00000250: 0035 0e3f 574a 2c3e 4ba2 41be bbd6 81be
00000260: 6a09 1b3e 9d0c 69be ba1a b9bc 0bd9 8dbf
00000270: 2b6c d9bd fe4b ee3e 286e 573e 98dd 5cbd
00000280: 92fc 853c 57d0 f93d 34cd 51bd 2796 bfbc
00000290: de14 b83c 4867 ba3d 19ab c83d 8d4b bb3d
000002a0: ed71 6dbc 090e 5a39 e46f 2c3e 3d97 c23e
000002b0: 0dcb 623e 0471 e53c 990c 8b3d 9ec1 b43e
000002c0: 0d25 c03e 44cf 6d3f ed98 e2bd bab3 7dbd
000002d0: fa89 843e 2f4c 62be 0a5c 15be 7b43 11bd
000002e0: 9e15 79bd 3985 883e 1be9 6abd 7a36 503d
000002f0: b405 83bd 0037 393d 2c37 9cbc c26b 6e3b
00000300: 651e ddba 5923 4bbd bb9e 1f3f 8734 fb3d
00000310: 026f 1dbe 646d 80bd dbdc 713e 39cb 0d3d
00000320: ecb6 2bbd 1657 1abf 2aed 7a3d 423b 623e
00000330: 8fc4 b1bd 2c31 bebd 26c0 a93d f819 4ebc
00000340: 9311 cd3c d840 a2bc 54e8 233c 4007 9d3b
00000350: 2190 1abb 9ba3 cebd 66eb bb3d b410 da3c
00000360: 68f0 883d 1bbe 48bd 4d29 33bc 2543 9b3e
00000370: ad1e b6bd 59b8 a4bd d8bb 6cbe b34e 883b
00000380: d88e 04be 219a e23c 90d6 863e 5e20 70be
00000390: 3948 61bd bd7d f83d dfaa 80bb cbdd f33b
000003a0: ae89 a3bd dfa1 0fbe b2e8 2fbd 13ce 27bd
000003b0: 86fa f0bd ce4e e83c 8dcd b43c a4ad d73d
000003c0: 0aff c23c c92b bebd 2f7e f5be c375 ffbb
000003d0: 8d11 a2bd b8da 09bd d727 c13d 962c 82bf
000003e0: d290 9dbe b1bc da3e 0322 903f 3b7b 1cbe
000003f0: e279 e7bd acb6 023e 98bc b23d 4680 413e
-0.079004996 -0.03538886 -0.1494077 -0.015427081 -0.015504357 -0.027735952 -0.03458596 -0.020180954
-0.019325988 -0.18593512 -0.349797 -0.53718704 0.07081262 0.05946695 -0.09806729 0.0014649823
-0.3218518 -2.7205951 0.33605355 0.065665066 1.1354555 0.19023998 0.113039404 0.010712468
-0.20250809 0.0659787 -0.039074976 0.06561036 -0.07382882 -0.004487064 -0.02666828 -0.011684804
0.022308368 -0.71574944 -0.22613914 0.25474516 0.094608106 -0.24823116 -0.053075016 0.111298926
0.11636899 0.057077873 -0.34286982 0.24438074 0.18166594 -0.024812423 0.08300728 -0.025951738
0.030611489 0.057958834 -0.016392753 0.09475407 0.13532953 -0.040557522 -0.0043631797 -0.11336154
0.29760233 0.28958857 -0.31665498 -0.0405059 0.20279896 0.26916903 -0.35952008 0.54181165
-0.044670958 -0.17186673 -0.18230748 -0.011914894 -0.11673046 0.03590364 -0.02839526 -0.10470635
0.008948077 0.01752096 0.02271418 0.021689806 -0.013250696 -0.012527381 0.0073842015 -0.20612872
-0.35620686 0.11404467 0.018722598 -0.009151997 -0.025503878 -0.34624574 -3.1422956 0.40073636
0.30077434 0.78721523 0.1776484 0.073823415 -0.028661627 -0.079562314 0.016953224 -0.13872048
0.026314037 -0.06775685 0.043634433 -0.0148494085 -0.06809623 -0.048294414 0.39270625 0.14414984
-0.027682839 -0.20570539 0.18666884 0.0703521 -0.08557122 -1.4967082 -0.2451893 0.16848725
0.035777908 -0.002308047 -0.02892034 -0.12956788 -0.019512234 -0.02073637 -0.06420819 -0.04521012
-0.05698362 -0.15113603 0.020252481 -0.01295625 -0.16811357 0.04906389 -0.077308826 -0.29427975
-0.073777646 -0.20240638 -0.31345385 -0.19681896 0.3939869 -0.15467808 -0.1928815 0.41218925
0.055795506 -0.015498478 0.005107348 -0.022206489 -0.030171957 -0.06976136 -0.03452431 -0.013130355
-0.06289988 0.051143784 -0.018966885 0.076442905 0.5554962 0.16825233 -0.18909566 -0.2535914
0.1514031 -0.22758718 -0.022595752 -1.1081861 -0.106163345 0.46542352 0.21038115 -0.053922266
0.016355786 0.12197941 -0.051221088 -0.023387028 0.022470888 0.091017306 0.09798259 0.091452695
-0.014492494 0.00020795329 0.16839558 0.3800601 0.2214777 0.028007992 0.06789512 0.35303968
0.37528268 0.9289439 -0.110643245 -0.06193898 0.25886518 -0.22099374 -0.14585891 -0.035464745
-0.06081163 0.2666414 -0.057351213 0.050833203 -0.06397572 0.045218468 -0.019069277 0.0036380147
-0.001687002 -0.049594257 0.6235158 0.12265878 -0.15374377 -0.062708646 0.23619406 0.034617636
-0.041922495 -0.6028913 0.061261334 0.22092918 -0.08680069 -0.092867225 0.082886025 -0.012579434
0.025032794 -0.01980631 0.010004122 0.004792124 -0.0023584443 -0.10089799 0.09175758 0.026619293
0.06686479 -0.049009424 -0.01093514 0.30324665 -0.0889257 -0.08042974 -0.23118532 0.0041597723
-0.12945116 0.027661385 0.26335573 -0.23449847 -0.055000518 0.12133358 -0.0039266194 0.0074422113
-0.07985245 -0.14026593 -0.042946525 -0.040968012 -0.117665336 0.02835789 0.02207067 0.10531166
0.023803253 -0.09285695 -0.47947833 -0.0077960207 -0.07913504 -0.033655852 0.09431427 -1.0169857
-0.30774552 0.42722085 1.126038 -0.15281384 -0.11302544 0.12764996 0.08727378 0.18896589

net.0.bias f4 [256]
00000000: a4d3 0c3c d860 fbbd ef58 d8bc 24d3 37bd
00000010: f13a aabd d4d9 1a3d ec60 14be 95e8 5ebd
00000020: b167 753e e68d 3fbd 3210 1abe 69ee 403a
00000030: bdda 2fbe dcfe 4b3d c2ec 88bc da2c 683d
00000040: 973c b13d 22db 12be b73a 1e3c e1b4 59bd
00000050: 98db 433e 0401 3cbe 6978 58bd 624d e3bd
00000060: 9e35 6a3b a7f2 0cbc c8a6 47bd e43e 46be
00000070: d040 90be 9788 7e3d f2de 88bd a85f 573c
00000080: b176 3d3d 88fd babd e41e e8ba 96b9 ac3d
00000090: 48f3 5c3e 5282 383d 6b41 40bc 7702 b43d
000000a0: a36c 203d d347 543c 9a11 c03d b861 77bd
000000b0: 762f 7ebd 0c92 143d ff8d 82bd 469f 273c
000000c0: 4c5e 79be c3b9 19bd 609a ca3d 21b8 0dbd
000000d0: 7f1f 943d 5e4d 66be f094 e53d 70b1 35bd
000000e0: a69a 5c3e a44e 58be 4207 e8b8 4e8e 9b3e
000000f0: 8903 5fbc ff21 673b b905 10bd b8bd 18bd
00000100: 87a5 233d 3e0e 8b3d 949d 0e3d 6ff3 1a3b
00000110: 0d0c 1d3e 103c da3c e1cb 4e3d 368d 8a3d
00000120: f173 893d 5f19 babd 8463 2fbc 7382 a53c
00000130: 9f94 15bd 1d13 c9bc e47f c5bd fc8e f73d
00000140: 6df1 7d3d 230d 853c 03d0 933b 441a 8c3b
00000150: daa4 03be 7a2c 963d ce18 373e 6657 b4bc
00000160: af0a 09be 3f96 b73d c313 873c c80a 9e3d
00000170: c26f 473d 622b d83d 903e bebd 2976 a23c
00000180: 821c 423d a10d 403c 6090 873c 1b4c 39bd
00000190: c372 1fbe 310e 153e 53f8 933d f0c7 79bd
000001a0: 0cf0 fe3b e014 c03d 83ed 0cbe d602 7abd
000001b0: e774 ac3d feed ecbd 6c56 d0bd 1d5c edbc
000001c0: c17c a73d 6143 88bd 71da c7bc 5e09 eebc
000001d0: dbff c2bd e7ba babd f2ef 683d 8d21 513c
000001e0: 3aa4 923d 30e0 593e acf3 c0bd 2d3e 8e3d
000001f0: 1202 6fbc b34a 81bd 420d 97bd f2ed 723d
00000200: a11e 893c c7dd e53c 2109 953b 8aa5 b23d
00000210: 9c52 183d 22a6 873d 51ef 823d 329c 2f3c
00000220: 7e7f 32be 478d 463d 5060 593b 7169 f83c
00000230: 94d5 0abc 9397 bc3d 26fb 693d c1d3 ddbb
00000240: b820 d1bd 3123 27bd 76a6 663e c441 1a3b
00000250: ebc1 713e fa25 bf3d ac27 273d 497a 823d
00000260: 6c17 dd3c 9c09 71bd 6bc0 543c 90e3 f63c
00000270: 98d0 a03d bfd9 d0bd e50f d83d 59f5 e83d
00000280: b331 a4bd 1adf 653d bf60 693d a4b6 39be
00000290: 31f0 fbbb f7a6 99bd c987 22bd f525 d3bd
000002a0: 65f3 e7bc 9399 c9bd cdad c33d 2b15 61bc
000002b0: 3179 463e f4d2 9d3c ae49 81bc b8a1 b1bc
000002c0: 5180 debc 9988 d23d eb07 773d 51b7 143c
000002d0: 91a8 613e 1288 a43d d5de 96bd f680 94bd
000002e0: 9e5a 1b3d 8af2 bebd 6f0a ddbd db20 e53b
000002f0: 04a0 1c3d d784 5bbe 8b12 40bc 3e31 38bc
00000300: f210 6a3d 9088 a03d 8ad3 08be 1a55 b7bd
00000310: b6d8 e7bd 0a4f 633c dfd8 7c3d 7a29 c7bb
00000320: 1265 7cbc 0fb5 023e 1705 853d 7510 82bd
00000330: 1db9 68bd 8db1 023e 9182 333e 0e45 c5ba
00000340: ae87 ce3c 23d7 19bd 18a9 7b3d 4974 96bd
00000350: 9fd7 003d 1c83 173d fed0 9fbd d74f 07bc
00000360: 1f9d 74bd 3b42 b5bd a240 e73b 0c2c 223d
00000370: 04bc 2fbd 7766 a0bd bcf9 1f3d 16ba 03bd
00000380: 1a92 9abc 7c64 9bbc 35e1 4fbe b462 8d3c
00000390: 4e5c 533c 5729 f03b 36a0 b93c ab17 9b3d
000003a0: 325c 8c3d 7fa2 a6bd a93f 3bbe a1ce 433d
000003b0: 3fd1 013c ede6 f83c ccd8 293e c17c 26be
000003c0: 9466 ae3c cd26 a03c b75a 0ebd 858c 31bd
000003d0: fa9d 84bc 8fd4 213d ca87 1abe 422c 0ebe
000003e0: 1271 04bd d38e e2bd 66e9 ad3d d6b7 0f3d
000003f0: cb64 5a3d bbd3 7c3d c664 d3bc 8a11 253e
0.008595381 -0.12274331 -0.026409594 -0.044879094 -0.083120234 0.037805393 -0.14490098 -0.054421026
0.23965336 -0.046766184 -0.1504524 0.00073597446 -0.17173286 0.0498036 -0.016714457 0.0566834
0.08654135 -0.14341405 0.009657553 -0.053151015 0.19126737 -0.18359762 -0.052849207 -0.11098744
0.0035737525 -0.008602775 -0.04874304 -0.19359928 -0.28174448 0.06214198 -0.066831484 0.013145365
0.04625577 -0.091303885 -0.0017709401 0.08433835 0.2157718 0.045046158 -0.011734347 0.08789533
0.039166104 0.012956577 0.09378357 -0.060395926 -0.06205698 0.036272094 -0.0637474 0.010230845
-0.24352378 -0.03753067 0.09892726 -0.034599427 0.0723257 -0.2249045 0.11210048 -0.04435867
0.21543369 -0.21123749 -0.00011063974 0.30382007 -0.013611683 0.0035268066 -0.035161708 -0.037290305
0.03995278 0.06789826 0.034818247 0.0023643633 0.15336628 0.026639968 0.050487403 0.06765215
0.06711567 -0.090868704 -0.010704879 0.020203805 -0.03651869 -0.024545247 -0.09643534 0.12087819
0.06199782 0.016241616 0.004510881 0.004275592 -0.12855855 0.07332702 0.17880556 -0.022014331
-0.13382982 0.08964204 0.016488915 0.077169 0.048690565 0.105551496 -0.092892766 0.019831734
0.04739047 0.011721999 0.016548336 -0.045238595 -0.15571122 0.14556195 0.072250985 -0.06098169
0.0077800807 0.093789816 -0.13762479 -0.06103786 0.08420735 -0.11568831 -0.10172734 -0.028974587
0.08178092 -0.066534765 -0.024396153 -0.029057201 -0.09521457 -0.0911768 0.056869455 0.012764347
0.0716023 0.21276927 -0.09421477 0.06945453 -0.014587896 -0.06313076 -0.073755756 0.059308954
0.016738238 0.028059853 0.0045482074 0.0872298 0.037188157 0.06623484 0.06393302 0.010718392
-0.17431447 0.048474576 0.003316898 0.030323716 -0.008473773 0.09208598 0.05712428 -0.006769628
-0.10211319 -0.040805046 0.22524437 0.0023537735 0.2360913 0.09333415 0.04080932 0.0637098
0.026988707 -0.058847055 0.012985329 0.030137807 0.07852286 -0.10197782 0.10549907 0.11374921
-0.08017292 0.05612097 0.05697703 -0.18136078 -0.007688545 -0.07502549 -0.039680276 -0.10309974
-0.028314302 -0.09843745 0.09554634 -0.013737957 0.19382168 0.01926563 -0.015782204 -0.021683559
-0.027160795 0.1027996 0.060310286 0.009076909 0.22036959 0.08033766 -0.073667206 -0.0725116
0.037928216 -0.093236044 -0.10793006 0.006992442 0.03823854 -0.21437393 -0.011723171 -0.011242209
0.057145067 0.07838547 -0.13361946 -0.08951779 -0.11320631 0.013873825 0.061730262 -0.0060779424
-0.015404956 0.12764381 0.064951114 -0.06350795 -0.056817163 0.12763043 0.17530276 -0.0015050487
0.025211181 -0.037558686 0.061440557 -0.073463984 0.031455632 0.03699027 -0.07803534 -0.008258781
-0.059720155 -0.08850523 0.0070572654 0.039592788 -0.042903915 -0.078320436 0.039056525 -0.032159887
-0.018868495 -0.018968813 -0.20300753 0.01725898 0.012900425 0.007329147 0.022659402 0.07572874
0.06853522 -0.081364624 -0.18286003 0.04780448 0.007923423 0.030383551 0.16586608 -0.16258527
0.021289147 0.019549752 -0.03475448 -0.0433469 -0.01618861 0.039509352 -0.15090862 -0.1388407
-0.032334395 -0.11062398 0.08491783 0.03508743 0.05331878 0.06172536 -0.025804888 0.16119972

net.3.weight f4 [128, 256]
00000000: c4c4 d03c b172 ab3d aa6e bb3d 5d70 a7bc
00000010: b83e 3c3d 7828 a53d 3e33 4abc d8c0 febc
00000020: b256 43bd 4dc5 3abd 2374 46be 66c7 d1bc
00000030: 3ba4 a638 1e58 4bbd fc95 a73c 2ec6 a1bb
00000040: 682f 15bd bc98 b5be 0cc8 843c 6d1e a93b
00000050: 6f58 a8bd 37ac 813c 8aed ba3c f241 f03c
00000060: d424 acbb cf55 14bd 4c01 3b3c 93a5 a7be
00000070: 35f2 90bd 9435 853e 0d81 bbbd 8ad4 b2bd
00000080: 77ed f9bc 23ad a43c 1b4d 3abd 1627 8abd
00000090: 4b07 3bbc bc40 863d bb78 6bbb c82e 8e3b
000000a0: 62ec 253d 8491 00bc 9d2c d93e c7c7 093e
000000b0: a4f1 4a3d ff08 363e cc67 7a3d ebc7 763c
000000c0: 8e61 19be c72d a8bc a991 1c3d 1c2f a83c
000000d0: d422 1bbc 0e45 42be 11e0 b53b c6f6 5ebc
000000e0: 21f7 9d3d 872a cfbd 1587 debd 7d2b 94bd
000000f0: 35f9 bfbc 0cf5 9dbc 63f4 1cbd a4ce a5bc
00000100: fe1a a63d ea19 1b3d e90e 8e3c 4c4d 0dbc
00000110: 7bf4 92bd 9fea 1fbd 8b26 b43d 9346 c43e
00000120: ac36 8a3d aecb 5fbc c493 f2bd bc92 86bc
00000130: 7df9 b6bc 3547 cdbc a03d 253c 360c 483e
00000140: 9ab5 d33c 8172 8dbd b217 e4bd c5cf b83b
00000150: e7b4 55bd c0c0 173d 66c9 a3bd ec3d 153d
00000160: 5da0 6cbe d219 bcbd e50b 93bc 1e0b 65bd
00000170: 2f2e 883c 6777 95bd 1205 813d 65d4 9ebe
00000180: e90f 10bd f11c 84bd 1a7d 29b9 3a26 113d
00000190: b8c3 e73c 87f0 9f3c 47c4 663d 38f1 a7bd
000001a0: eae5 82bd 83a8 f8bd 321d 55bd 513f 393d
000001b0: 3f8d 6b3b d8af 39bd e0bf 4d3c cf59 24bd
000001c0: 3cd3 f63c 002c 9f3d 3bf4 4d3d 1379 67be
000001d0: e402 853c f8c7 dcbc 65ed f1bc b263 943c
000001e0: 4045 19bd 4c71 d2ba 6a23 7fbc d133 28bb
000001f0: 20bb a83d 7717 b2be 7ef0 c9bc 6cf1 08bd
00000200: 0386 9dba f2a8 74bc add0 d8bd 46c0 4dbd
00000210: 81cf 17bd 7c36 ec3b 5ae1 adbd 038c 8abc
00000220: d775 23bd 9eec 2b3c f5bf 083d 93fd 073e
00000230: 1a27 d33d e235 58bb ad83 b73d 1fca fb3c
00000240: 60c6 cebc 296c a33c a056 83bc 77a8 483d
00000250: 23cd 42bd ddb3 9dbc 9a91 bf3c 427c 34bd
00000260: f86e 613d 05c5 2b3c 41c8 bb3c d048 66bd
00000270: d8c8 5a3d cfd6 4cbc c1f3 a73c 0c90 63bd
00000280: ec22 72bd 52be 14bd a700 eb3d d355 d53b
00000290: edcf 193d e0d4 41bd 9cee 4bbd 92f9 363d
000002a0: 6a47 8ebd d069 a83c d3cb 65bd eccd 39bd
000002b0: eb8a 9a3c 2531 453e 6aa7 a13b 93ff 1fbd
000002c0: 806e 253d 6c27 dbbc 639b a3bc 98a9 5cbd
000002d0: fd27 d53c aa30 acbe f7a4 b43d f298 7d3c
000002e0: ac36 3e3d 0525 1a3d 7134 02be 34b9 44bd
000002f0: 4fcb 9e3c e85e bbbc 5409 91bc ec3c 5c3c
00000300: c41c 14bc 857e a2bd a832 92bd 9e53 aa3c
00000310: 0d11 323d 151d 233e f44f a3bd b80d 823e
00000320: ba66 eebc 559b a2bd 26fc 81bc dedb c6bc
00000330: a87c e33c 9afd 50bd 10eb aabd 34b0 193e
00000340: a20a 84bc 9c34 943c 9056 8bbd 3819 1cbb
00000350: a977 cabc 9ee8 343c 66b9 cf3c 3783 2b3d
00000360: 3063 d5bc 2a26 a63c 8587 af3c 46ea 5bbd
00000370: 4777 33bc 29c7 f93d b354 973c 71d0 33bd
00000380: f7ec 79bd 72f5 7e3d d03c fdbd 2cbb e83c
00000390: 989b 65bd 1250 02bd de62 923d 05d0 efbc
000003a0: 3760 503d 6190 b93d 9964 33bc 1931 d53d
000003b0: 7d7f 10bc faab da3a 7c9b 03bc 01ed 94bb
000003c0: 61d9 853d d276 47bd d06d ea3d 3426 37bd
000003d0: f1d6 66bd c254 933d aafc 39bd 16e0 b8bc
000003e0: 81b0 013d b748 833b 1d34 92bc df16 37bc
000003f0: 43aa 1dbd d72b cebb 956f 45bb f4ba f33c
0.02548445 0.08371485 0.09151967 -0.020439321 0.04595825 0.080643594 -0.012341319 -0.031097814
-0.0476901 -0.045598317 -0.1938024 -0.025607776 7.946087e-05 -0.049644582 0.02045726 -0.004936955
-0.036422163 -0.3546809 0.016208671 0.0051610977 -0.08219992 0.015829189 0.022818346 0.02932832
-0.0052534137 -0.036214646 0.011413883 -0.3274351 -0.07077447 0.2601744 -0.09155474 -0.08731945
-0.03050874 0.02010209 -0.04548369 -0.06745736 -0.011415313 0.06555316 -0.0035930115 0.004339073
0.040508635 -0.007847194 0.4241685 0.13455115 0.049546853 0.17776869 0.061134145 0.015062313
-0.1497862 -0.02052964 0.03822485 0.020530276 -0.009468753 -0.18971655 0.0055503924 -0.01360864
0.07713152 -0.10115533 -0.108656086 -0.07234857 -0.02343426 -0.019281887 -0.038319003 -0.020240135
0.08110617 0.03786651 0.017341094 -0.008624386 -0.07175537 -0.03904211 0.08796414 0.38335094
0.06748709 -0.013659401 -0.1184459 -0.01642739 -0.022335762 -0.025058368 0.010085493 0.19535908
0.02584343 -0.069066055 -0.11137332 0.0056400024 -0.052174475 0.037049055 -0.07997398 0.036436006
-0.23108049 -0.09184612 -0.017950008 -0.055918805 0.016623585 -0.07298165 0.06299795 -0.3102142
-0.035171423 -0.06450833 -0.000161637 0.035436846 0.028291568 0.019523872 0.05633953 -0.08200306
-0.06391509 -0.12141516 -0.052029796 0.0452264 0.0035942344 -0.045333713 0.012557954 -0.04012471
0.030130021 0.07772064 0.050281744 -0.2260478 0.01623673 -0.026950821 -0.029532144 0.018113945
-0.037419558 -0.0016055494 -0.015572408 -0.002566565 0.08238816 -0.34783527 -0.024650808 -0.033433363
-0.0012018088 -0.014932858 -0.10586677 -0.050232194 -0.037063126 0.0072086435 -0.08490248 -0.016912466
-0.039907303 0.010493426 0.03338619 0.13280325 0.103101924 -0.00329911 0.08960662 0.030736027
-0.025241077 0.019949036 -0.016032517 0.048988786 -0.047558915 -0.019250805 0.023384858 -0.044063814
0.05503747 0.010483985 0.022922637 -0.056221783 0.053414196 -0.012502386 0.020501973 -0.055557296
-0.059115335 -0.036314316 0.11474734 0.006510475 0.03755181 -0.047322154 -0.049788103 0.044671603
-0.06947215 0.020558268 -0.056102585 -0.045362398 0.01886507 0.19257028 0.0049332874 -0.039062094
0.040388584 -0.026752196 -0.019971555 -0.053872675 0.026020044 -0.33630878 0.08820527 0.01547836
0.046438858 0.03763296 -0.12715317 -0.048028186 0.019384054 -0.022872403 -0.017704643 0.013442259
-0.009040061 -0.07934288 -0.07138568 0.020791825 0.043473292 0.15929063 -0.07974234 0.25401092
-0.029101718 -0.079397835 -0.015867304 -0.024274763 0.027769402 -0.051023103 -0.08345616 0.15008622
-0.016118351 0.018091492 -0.0680362 -0.0023818742 -0.024715262 0.011041788 0.02535696 0.041873183
-0.026048273 0.02028187 0.021426925 -0.053690217 -0.010953731 0.1219619 0.018473005 -0.043899957
-0.061017003 0.062245794 -0.12365115 0.028409563 -0.05605659 -0.031814642 0.07147764 -0.029273996
0.050873008 0.09060741 -0.010949277 0.10409755 -0.008819458 0.0016683333 -0.008032676 -0.0045448546
0.06535602 -0.0486973 0.11446726 -0.044714168 -0.056357328 0.07193901 -0.045406975 -0.02256779
0.031662468 0.004006471 -0.017847115 -0.0111748865 -0.038492452 -0.006291847 -0.0030126323 0.029752232

net.3.bias f4 [128]
00000000: ebb9 f5bb 2f81 a83b 18ee cf3a 0ce6 9bba
00000010: ce59 ffba 77f6 a4bb 86e3 08bc b020 6b3b
00000020: fd0f 05bc 4d30 c4bb 1e57 a33a 9329 3dbc
00000030: 270d 67bc 5d13 f63b 524b 2fbc d5f6 b43a
00000040: 52a6 90ba 8884 4fbc 9ead 0abc 1d08 acbb
00000050: feaa 49bc ad3f f43a 4327 5abc 23dc efbb
00000060: af3a c33a 63e9 99bb c753 dcbb ecd7 30bc
00000070: 247f 4ebc cbdb 433c b5b7 d2bb dde1 893c
00000080: cde1 bab9 02d5 f93b f40b dabb 4aa4 cd3b
00000090: 9a07 24bc bf38 f138 0cd3 26bc 5cc0 babb
000000a0: 9f6f 10bc 89be c63b eea3 b23a e3e4 a6bb
000000b0: 1077 bf3a 01b8 33bc 48a8 88bc e67d 6a3b
000000c0: bad5 98bb 0670 8ebb def3 7ebb d2f1 6f3b
000000d0: 7567 de3a b2e1 abbb 9ca5 b93b 37ab 8fbc
000000e0: 7176 e8bb d078 6e3b 48f2 c53b bb0c 7d3b
000000f0: 8dbb 78bc 906e 92bb 1cec 3e38 a0ac 333c
00000100: e36e 803b b340 263a 8a25 c13a 306f 8cbb
00000110: 8288 0fbc 7edd 21bc 52f3 24bc 26cf 13bb
00000120: a333 32bc f363 48bc d0cb 4ebc 6c67 d93b
00000130: 296d 6739 bf18 d9b9 eb80 4d3a 9d92 eabb
00000140: 8b79 04bc 2128 4e39 6c5c 95bb 2fdc 153c
00000150: a0d7 123b d004 30bc 53fc a4bb 299e d33b
00000160: fdab 85b7 23ca 01bc 1a7b a5bb 8548 25bc
00000170: 9b8e 09bb 61a7 863a 2d31 5a3c 5965 15bc
00000180: 9986 043c 8ed5 853b bd4e 3abc e809 e8ba
00000190: eb62 383c 46d7 48bc 7c37 c23b 42df 013c
000001a0: 06ef cf3b 0794 4abc 0a5a 67bc 9cd1 94bc
000001b0: a68e 903a 6389 5abc 49b1 99bb c8ad 3e3a
000001c0: 84ec 07bc d57a 86bc cf42 01bb 6149 cebc
000001d0: 78fd cabb b4bc 1e3b 126e 25bb 4e77 24bb
000001e0: 1765 edbb 7f14 59bb 5cfd 61bc 601a 63bb
000001f0: 1469 62bb ab23 e8bb 72d0 cb3b 8711 fabb
-0.00749897 0.005142353 0.0015863804 -0.0011894121 -0.001948172 -0.0050342637 -0.008355027 0.0035877638
-0.008121488 -0.005987203 0.0012461876 -0.011545557 -0.014102257 0.0075096325 -0.01069911 0.0013806472
-0.0011035895 -0.012665875 -0.008464245 -0.0052499906 -0.012308834 0.00186347 -0.013315025 -0.0073199435
0.0014894808 -0.0046970113 -0.006723854 -0.010793667 -0.012603555 0.011954258 -0.006430591 0.016831333
-0.0003564492 0.0076242695 -0.006654257 0.0062756883 -0.010011578 0.00011502345 -0.010182153 -0.0056992006
-0.008815675 0.006065194 0.0013629177 -0.0050932034 0.0014607627 -0.010969163 -0.016681805 0.0035780608
-0.00466415 -0.0043468503 -0.003890268 0.0036612642 0.0016968088 -0.005245411 0.005665494 -0.017537696
-0.0070941974 0.0036387928 0.006040845 0.0038612324 -0.015181434 -0.0044687465 4.5519424e-05 0.01096645
0.0039194687 0.00063420384 0.0014735919 -0.0042857155 -0.008760573 -0.009879468 -0.010067778 -0.002255389
-0.010876569 -0.012230861 -0.012621835 0.0066346433 0.00022070542 -0.00041407903 0.00078393397 -0.007158591
-0.008085619 0.0001966064 -0.0045581367 0.009146734 0.0022406355 -0.010743335 -0.005034962 0.006458063
-1.5934924e-05 -0.007921728 -0.0050500752 -0.010088091 -0.002098954 0.0010273271 0.0133173885 -0.009118401
0.008088731 0.0040842956 -0.011371312 -0.0017703148 0.011254053 -0.012258356 0.0059270244 0.007926764
0.0063456325 -0.012364394 -0.014120588 -0.018166356 0.0011028841 -0.01333842 -0.0046903235 0.000727382
-0.008296136 -0.016415993 -0.001972366 -0.025181474 -0.0061947666 0.0024221363 -0.002524261 -0.0025095525
-0.007244717 -0.003312379 -0.013793316 -0.0034653172 -0.0034547495 -0.00708433 0.006219917 -0.007631484

net.6.weight f4 [9, 128]
00000000: 18b3 41bc 14bb 83bb 7e13 12bd 190a 9dbc
00000010: b21e a23c 5c54 9fbc 047d 98bc a73e 263e
00000020: ef16 a33c aed8 c23c 23ba 1cbc a73e c9bc
00000030: 8bc6 03be 425e 4cbd c4bc bebc 10ba edba
00000040: 2d14 503c 573a ac3c 4a6a 113e eb46 c73c
00000050: b505 3c3d 7267 40bc c2e8 073d 3da1 d53a
00000060: ab6e f2ba 0537 4ebc d0f4 0b3d 5d68 f0bd
00000070: f61b 42bb ca61 99bc ed6d 103e 4c05 e0bc
00000080: e28d 243e a6e8 e2bc 246a dfbc c16a dabc
00000090: 4fb6 2a3c b95e 8a3b 5d88 1f3e 8511 4bbc
000000a0: ca80 bcbb f752 bf3c dcb5 a3ba c4a1 843c
000000b0: 3c27 1b3d 093c ff3b 2692 5dbc ed2c 783c
000000c0: 0820 86bb 445e 1b3e c4ca 5e3b 408f 25bc
000000d0: 473d eabc 9e19 fcbc 3e60 1ebc 19d9 01be
000000e0: 82ff 863c 55b8 863c d9ea 0a3c d179 24bd
000000f0: 452e ae3c 9164 62bd d39e f23c 50aa c2bc
00000100: edf4 72bb d69b eabc 0ac3 863b 5aa5 de3c
00000110: 1439 11be 0401 e6bc 4b01 263c e77f 4fbd
00000120: 4efb e2bb 134a 713c 5396 65bc ecd9 e2bd
00000130: ac4e c2bc fa8c 173e 41a2 a3bb fca0 a93b
00000140: 15a0 89bc 2db3 c63c 507c 253d 5f46 93bd
00000150: d70e 1b3e 143f 533c 18e4 f83c 7d02 9fbc
00000160: a8c2 b8bc bb56 9abc 6645 19ba c094 13bc
00000170: a02e a9bc 55b5 c73c 6519 fbbc c6f8 02bd
00000180: 872d c73c 0acf 253e a57e c13c d0cf 1d3e
00000190: 2ff2 8ebc cd95 a7bc 4d2e 11bd fe7f 103d
000001a0: 76a6 e1bb 06b7 8dbc 514f 4b3d b056 e9bc
000001b0: b8b3 cf3c 1044 9b3c cabb e83c 2bd1 453b
000001c0: c15c 5a3c 1088 dc3c 3489 b8bc 0cbe a13b
000001d0: f927 6c3c 4844 debc 99a1 0bbd 6e31 c83c
000001e0: 1efe 6bbc 99d2 1f3e 4c72 08be b9a5 403d
000001f0: 234a d3bb 201a 99bc a4ed 64bb df1e 1dbd
00000200: ad8e e43b 5d4e 42bd 06e3 a8bb f796 fc3b
00000210: f737 dcbc a861 90bb bde2 bfbc a516 8f3c
00000220: 3abf 753c 6f67 f53d 3c13 64bd a483 95bc
00000230: cd57 19bd a7ab 0bbe 662a fbbb 2f25 063d
00000240: eefc f63d 64a6 05bc 0dec 213c 4e02 12bd
00000250: de5a b7bc 6be5 333c fb91 c4bc 5d2b 353d
00000260: b28a 6d3d ab11 5cbb de69 2abc bc43 22bd
00000270: 9ef6 6e3c 2085 8d3c baed fb3c 2b44 d53b
00000280: 771a b23c 2855 ac3c c0a9 b13b 005f 5b3c
00000290: 366c a63d a536 72bd 37d9 3d3c cb1f 73bd
000002a0: 0ed5 13bd cfa0 b9bc 383f 20bb 506a 243d
000002b0: 8ed6 d9bc 00f5 4dbd 445b b0ba ba91 17bd
000002c0: 4726 08bd 79cf d63c bcda 873c 278c 5a3c
000002d0: a722 c43c fff2 15bc a148 873b 9d49 c9bc
000002e0: 0a64 3fbd daba d73c b317 183d f148 8b3c
000002f0: 029d 21bc 0a60 0cbe 9bce 9cb8 74f2 743c
00000300: 83fa 00bd 4e40 99bb 299d 89bd 0719 e3bc
00000310: 7aa7 f9bc 1836 05bb 41a0 6fbc 22c0 16be
00000320: 4638 d6bc 3564 ecbc 957e 00bb 64a4 61bc
00000330: 79f3 953c a8f6 eb3c 8bb0 b6bc 61ce 1e3d
00000340: f2cf 043d 8b47 103e 4388 003e af07 843b
00000350: 4957 c63c 8f94 7dbb cc7e 2abc 4ee4 e13c
00000360: e0e9 cd3d 8a20 61bb f0be c83c e88f 73bc
00000370: e2ab 3dbd 379c 01bd afed 383c d289 013c
00000380: b3d9 013d a8be eb3c 150f 92bc 2eb7 333c
00000390: bd2c 053d df2f 94bb 4ab7 893c 9bad 263d
000003a0: 983c 143d 9174 cd3a 9c8b d9bc 0a22 243b
000003b0: 7fe6 183d 4d26 4fbb adb9 b2bc 9e24 dd3d
000003c0: 4163 b4bc 35b8 8bbc c203 debd 9712 d93c
000003d0: aae1 e8bb 5b22 e6bc e5fb 1b3d 742d df3b
000003e0: d46e fdbc 8562 a03c c950 40bc c19e f83d
000003f0: 406c 65bb 340a a8bd f85b 61bd 592a 9a3c
-0.011822484 -0.004020104 -0.03566312 -0.019169854 0.019790027 -0.019449405 -0.0186143 0.16234837
0.019908397 0.023784962 -0.009565863 -0.024566008 -0.12868707 -0.04989458 -0.02328337 -0.0018137116
0.012700123 0.021023912 0.14200702 0.024325809 0.04590388 -0.011743413 0.03318096 0.0016298663
-0.0018496116 -0.01258636 0.03416902 -0.11738656 -0.0029618717 -0.018723387 0.14104433 -0.027346276
0.16069749 -0.027698826 -0.027272291 -0.026662232 0.010419442 0.0042227176 0.15579362 -0.012394314
-0.0057526575 0.02335499 -0.0012490111 0.016190417 0.037879214 0.007789139 -0.013523614 0.01514743
-0.004093174 0.15172678 0.003399537 -0.010104954 -0.028593672 -0.030773934 -0.009666501 -0.12680472
0.016479257 0.016445318 0.008478844 -0.040155236 0.021262297 -0.05527169 0.029616749 -0.023762852
-0.0037072257 -0.028638761 0.004112606 0.027178455 -0.1418193 -0.028076656 0.010132144 -0.050659087
-0.0069269305 0.014727133 -0.014012891 -0.110767215 -0.023719154 0.14799872 -0.0049937074 0.0051766615
-0.016799966 0.02425536 0.040401757 -0.071911566 0.1514238 0.012893457 0.030382201 -0.019410366
-0.022553757 -0.018840184 -0.0005846828 -0.009007633 -0.020652115 0.024378458 -0.030651757 -0.03197553
0.024313701 0.1619226 0.02361996 0.15411305 -0.017449467 -0.020457173 -0.035444546 0.035278313
-0.006886299 -0.017299186 0.04963619 -0.028483719 0.025354251 0.018953353 0.028409857 0.0030184488
0.013327778 0.026920348 -0.022526361 0.0049359854 0.014413827 -0.027132168 -0.03408966 0.024437632
-0.014403848 0.1560768 -0.13324851 0.047033045 -0.006448047 -0.018689215 -0.0034931684 -0.03835952
0.006975016 -0.047438014 -0.0051540164 0.007708426 -0.026882155 -0.004406173 -0.023423547 0.017466852
0.014999205 0.11982619 -0.055682406 -0.018251248 -0.03743725 -0.13639699 -0.0076649664 0.032750305
0.12059961 -0.008157346 0.009882939 -0.03564673 -0.022382196 0.0109799905 -0.02399539 0.044230808
0.0579936 -0.0033579867 -0.010401217 -0.039615378 0.014585165 0.017275393 0.030753005 0.0065083704
0.021741135 0.0210367 0.005421847 0.013389349 0.08126108 -0.059134144 0.011587433 -0.059356492
-0.036091857 -0.022659687 -0.0024451744 0.04014045 -0.026591565 -0.05028248 -0.0013454934 -0.03700421
-0.03323963 0.026221978 0.016583793 0.013339079 0.023942305 -0.009152173 0.004128531 -0.024571234
-0.046726264 0.026334215 0.037131976 0.017002555 -0.009864094 -0.13708511 -7.477143e-05 0.014950383
-0.031488907 -0.004676855 -0.06719429 -0.027721895 -0.030475367 -0.0020326432 -0.01462561 -0.1472173
-0.02614988 -0.028856376 -0.0019606699 -0.013772104 0.018304573 0.028804138 -0.02230098 0.038771037
0.032424875 0.14089791 0.1255198 0.0040292363 0.024211543 -0.0038693284 -0.010406207 0.027574684
0.10054374 -0.003435167 0.024505109 -0.014865853 -0.0463065 -0.03164312 0.011287137 0.007906394
0.031701755 0.028777435 -0.017829457 0.010968966 0.03251337 -0.0045223082 0.016811032 0.040692907
0.0361906 0.0015674998 -0.026555829 0.0025044703 0.037329193 -0.0031608522 -0.021817053 0.10798
-0.022019984 -0.01705561 -0.108405605 0.026498122 -0.0071069794 -0.028092554 0.038082022 0.0068108384
-0.030936636 0.019578228 -0.011738011 0.12139655 -0.003500715 -0.08205071 -0.05501935 0.018819021

net.6.bias f4 [9]
00000000: 2416 10bb 6071 7ebc cd54 993c edba 6d3b
00000010: 9450 5fbc a752 c3b8 2de2 d43c 7a20 a93e
00000020: 8e34 473e
-0.0021985853 -0.01552996 0.018717194 0.0036274747 -0.013630051 -9.31372e-05 0.025986755 0.3303259
0.19453642

exp_avg f4 [256, 23]
00000000: 588f e338 4251 48b9 803e 2137 862e 88b9
00000010: 437f 02b9 dada ff38 966d 1439 1597 7d39
00000020: 2379 6939 9648 89b7 7445 4437 acc3 53b7
00000030: 757a df35 cfec ec37 4b35 a037 b862 d4b7
00000040: 846b ef33 3dcc 9234 d071 00b8 fb11 d537
00000050: f361 8636 d5f6 ff38 aa50 e3b7 0daa 8c39
00000060: b01d 91b9 875c 6a37 da84 f4b8 2d7f 56b9
00000070: 7ffb 49b9 0c89 00b8 83f5 8538 1ec2 1fb7
00000080: d7ba e8b6 8257 0638 2f1c af37 8c70 17b8
00000090: 39c3 14b8 8b60 b836 ae6e fdb7 a9cb e234
000000a0: c127 abb3 d04a 1736 67d9 1938 c3f4 2e37
000000b0: 0a70 eb38 76cd 53b7 c838 efb8 dd5b c938
000000c0: b8ef 78b5 7526 76b8 e2de 3538 cb28 e838
000000d0: 7c32 23b7 e444 c7b8 890c 5ab9 7a97 0ab6
000000e0: d726 30b6 3153 7eb7 277c 8837 f1f2 5937
000000f0: d689 86b6 5c89 4eb8 9812 2db3 5abe 0e34
00000100: 430e 02b7 130c 6ab7 588a 78b7 4f93 20b7
00000110: 98ea 24b8 dc87 2738 4e04 9fb7 360b b8b7
00000120: 3cf6 4db7 add5 7a37 ad92 5238 2a10 14b7
00000130: 7da5 ff38 a792 7138 e5fe e037 6ccc b437
00000140: d221 01b8 0556 0438 4690 ca37 ef0c 8837
00000150: 7ab1 6db7 a981 3234 a7f2 f934 ed55 31b6
00000160: 5565 0ab7 9e2b e1b6 88e0 0136 eedc 00b7
00000170: ecee c638 d7cc 9fb8 bd63 9fb8 0d7e bdb7
00000180: e0dc f6b8 dfab 2a38 f333 0db8 e853 3c38
00000190: f0a6 9bb9 f8a0 8737 debf 89b7 22dc 07b7
000001a0: 4613 6137 4fac c8b7 b8f3 beb7 9bd6 53b7
000001b0: 6051 9c34 a636 bcb2 0d69 beb6 5c68 9fb6
000001c0: 07de 51b6 0704 20b8 c30c 9b37 67de 1e37
000001d0: 63f8 f8b6 29cf c637 3285 8b38 b73b 0eb8
000001e0: 3e63 adb8 b9e0 4338 e1c9 16b9 cff4 32b9
000001f0: 550f 71b8 30a0 28b7 00ab 6138 e4f6 a1b8
00000200: 6c9d 5837 aa26 8337 01b9 9eb7 d17a acb4
00000210: 42ec 10b5 5f52 ce37 16e0 cdb6 3899 b137
00000220: aa9b 4bb7 fa83 8437 bae5 9e38 84bf 3ab8
00000230: e538 11b8 a678 d738 33fc 23b8 b81e feb7
00000240: 2298 2238 bd5b 5b39 0fec c9b8 231f 81b7
00000250: b614 d0b6 132c c637 0def 9536 108a 0837
00000260: 52c5 14b8 57f6 2d38 1fda 2d33 cd4d 9532
00000270: 2bca 3037 16c7 7836 20e5 cd36 f8a2 14b8
00000280: b6e1 5438 285b a9b8 5b4d af38 3714 64b3
00000290: 2563 6137 80f6 bd38 a362 8638 4520 2eb8
000002a0: 74a7 8438 2de2 0437 8ec1 2a38 457f fc36
000002b0: be96 0fb8 fb81 9f38 9f4e 7936 e2a9 5fb7
000002c0: 1343 cb37 8a40 4634 3ed5 e934 b0e6 c5b7
000002d0: 8fce a3b6 f7d1 76b7 1806 b5b7 bcbf c2b7
000002e0: f446 72b9 11da 5239 ab8c e5b6 ef1e 03b8
000002f0: d0d0 f938 8fd3 6139 05e1 66b7 164a 4fb9
00000300: 3c0f 9938 bfde 4938 4833 b3b7 c29b f8b7
00000310: cf71 3f38 7112 df37 9854 82b7 fd54 0437
00000320: aee4 1f34 e748 e834 ec26 f0b7 7722 4fb7
00000330: 3604 a7b7 165e 87b8 d44d 8738 ede2 1f39
00000340: 79a5 f5b8 3ca8 5bb7 540e 8438 1144 90b8
00000350: eae6 2fb9 34f8 5db7 e029 4839 4bfb 8839
00000360: 4469 9737 c43d 6136 724c 5037 fd09 5936
00000370: bf57 3db7 4846 15b7 4b5a 8138 1f0e 0934
00000380: 7478 8eb2 c1ae 74b7 cf8b 4d37 ffd5 9835
00000390: b4bd 87b6 28e7 9038 3f39 18b9 5d10 d237
000003a0: 927a fa38 6628 c2b7 8038 0139 080a a038
000003b0: 5c82 ac39 b34c c939 16db ad39 3314 9fb8
000003c0: c236 6d36 ae10 5b38 2510 0eb8 2c09 a738
000003d0: 7951 ee37 ec95 0fb7 e31e 6ab5 b3f6 57b5
000003e0: 9187 97b7 8896 de36 de1b e137 1844 a638
000003f0: 9d79 bbb8 417a 5ab7 e3a3 8638 8261 29b7
0.00010850903 -0.00019103757 9.6109e-06 -0.00025974604 -0.00012445175 0.00012200112 0.00014155204 0.00024184243
0.00022265739 -1.6365473e-05 1.1698681e-05 -1.26221385e-05 1.6650434e-06 2.8243665e-05 1.9098303e-05 -2.5318339e-05
1.1148862e-07 2.7343222e-07 -3.0623574e-05 2.5399951e-05 4.004914e-06 0.000122053236 -2.709807e-05 0.0002682958
-0.00027678674 1.396903e-05 -0.00011659572 -0.00020456007 -0.00019262543 -3.0645213e-05 6.387664e-05 -9.522335e-06
-6.93589e-06 3.2029588e-05 2.087475e-05 -3.6106023e-05 -3.5467765e-05 5.4948664e-06 -3.021149e-05 4.2243963e-07
-7.970039e-08 2.25443e-06 3.6680514e-05 1.0428196e-05 0.00011226542 -1.2624418e-05 -0.000114069844 9.601538e-05
-9.2736036e-07 -5.8686786e-05 4.336134e-05 0.0001107022 -9.727311e-06 -9.501891e-05 -0.0002079477 -2.0651773e-06
-2.6248651e-06 -1.5158949e-05 1.6270276e-05 1.2990772e-05 -4.0095574e-06 -4.9242153e-05 -4.0296612e-08 1.329403e-07
-7.751924e-06 -1.3950298e-05 -1.4814163e-05 -9.571041e-06 -3.931913e-05 3.994243e-05 -1.8956282e-05 -2.193973e-05
-1.2276283e-05 1.49509115e-05 5.0204504e-05 -8.825251e-06 0.00012190172 5.759546e-05 2.6821575e-05 2.1552863e-05
-3.0787494e-05 3.1551364e-05 2.4147459e-05 1.6218486e-05 -1.4167623e-05 1.6624712e-07 4.6556417e-07 -2.642507e-06
-8.249034e-06 -6.7106002e-06 1.9353192e-06 -7.680834e-06 9.4858784e-05 -7.619865e-05 -7.6002885e-05 -2.2589253e-05
-0.00011771335 4.0691226e-05 -3.36654e-05 4.4900837e-05 -0.00029688282 1.6168211e-05 -1.6421018e-05 -8.097881e-06
1.34155325e-05 -2.3922095e-05 -2.2763255e-05 -1.2626547e-05 2.9116472e-07 -2.1910932e-08 -5.674671e-06 -4.7507183e-06
-3.1272664e-06 -3.8150723e-05 1.8483383e-05 9.469316e-06 -7.419892e-06 2.3699906e-05 6.652846e-05 -3.3911052e-05
-8.267768e-05 4.6700912e-05 -0.0001438032 -0.00017066601 -5.7473157e-05 -1.0050877e-05 5.3803436e-05 -7.723065e-05
1.2911256e-05 1.5634421e-05 -1.8921217e-05 -3.2126857e-07 -5.398798e-07 2.459547e-05 -6.135563e-06 2.1171392e-05
-1.2135986e-05 1.5797083e-05 7.576817e-05 -4.452422e-05 -3.462368e-05 0.000102744714 -3.9097107e-05 -3.0293464e-05
3.8765495e-05 0.00020919643 -9.628396e-05 -1.5392498e-05 -6.201294e-06 2.3623963e-05 4.468375e-06 8.138377e-06
-3.546972e-05 4.1475836e-05 4.047808e-08 1.7381263e-08 1.0537488e-05 3.7070763e-06 6.1361498e-06 -3.5437726e-05
5.075495e-05 -8.075527e-05 8.359059e-05 -5.3103772e-08 1.3434129e-05 9.0581365e-05 6.4079904e-05 -4.1514886e-05
6.325441e-05 7.920474e-06 4.071142e-05 7.5250014e-06 -3.4234246e-05 7.6059216e-05 3.7149655e-06 -1.333139e-05
2.423072e-05 1.8463666e-07 4.3554786e-07 -2.3591652e-05 -4.881825e-06 -1.4711629e-05 -2.1579719e-05 -2.3215885e-05
-0.0002310535 0.00020108397 -6.8411077e-06 -3.1261643e-05 0.000119121396 0.00021536484 -1.376146e-05 -0.00019768658
7.298446e-05 4.8129583e-05 -2.1362343e-05 -2.9636434e-05 4.564394e-05 2.6592259e-05 -1.55366e-05 7.887601e-06
1.4891222e-07 4.326641e-07 -2.8628354e-05 -1.2346186e-05 -1.9909912e-05 -6.4548265e-05 6.451798e-05 0.00015247958
-0.00011713332 -1.3092587e-05 6.296919e-05 -6.8791334e-05 -0.00016775323 -1.3230416e-05 0.00019089086 0.0002612717
1.804962e-05 3.3563565e-06 1.2415565e-05 3.2341334e-06 -1.1285708e-05 -8.897456e-06 6.168018e-05 1.2764256e-07
-1.6585751e-08 -1.4584221e-05 1.2251504e-05 1.1387164e-06 -4.045398e-06 6.909511e-05 -0.00014517175 2.504157e-05
0.000119437595 -2.3145414e-05 0.00012323447 7.631263e-05 0.00032903522 0.00038394853 0.00033160363 -7.585473e-05
3.5347625e-06 5.2229203e-05 -3.3870474e-05 7.964889e-05 2.840975e-05 -8.558371e-06 -8.721674e-07 -8.0452736e-07
-1.806373e-05 6.6336397e-06 2.6835067e-05 7.92818e-05 -8.939507e-05 -1.3022277e-05 6.420144e-05 -1.0095888e-05

exp_avg_sq f4 [256, 23]
00000000: d440 8f35 cc14 b535 ee07 8a33 f195 3335
00000010: 7aa7 7335 8cfd 9d34 5fe9 af34 7211 1236
00000020: dd9f e735 de40 8732 3484 9b31 db07 3832
00000030: d380 1f32 666c c832 eab4 b232 3bb1 8132
00000040: 8f84 c12c cd33 8a2b ae59 1833 eb13 1333
00000050: e6cb 9130 b5b5 2e34 3ffd c732 a73f a035
00000060: 5ec7 ce35 5474 a033 290e 5535 8b53 8b35
00000070: acb4 b534 6403 d034 0d61 2936 682f 0c36
00000080: 3923 c032 654c c231 2b5f 8732 c963 4032
00000090: e801 cb32 d5a4 dd32 6a7f b532 c785 1e2d
000000a0: bb71 a42b aa45 5a33 1a5f 3533 8241 0431
000000b0: c432 5734 f053 e432 feec 6f34 13bd 9e34
000000c0: 8681 8032 8f7d 1e34 fe52 5a34 ce3d 8433
000000d0: 7289 9f33 ad7d f134 2405 ce34 d370 9c31
000000e0: 22ad b030 9ebe 6e31 f674 3431 7abe c831
000000f0: f5e9 db31 5bc3 7b31 8116 1d2d 4990 a52a
00000100: b606 3a32 4818 0432 92f9 0a30 944c 1c33
00000110: 8fad c731 1a37 5235 d350 8935 c7bb 3833
00000120: 3b30 0535 3e2f 3735 e602 5034 866c 8434
00000130: 4e5a de35 126f b235 4c14 4a32 c4b8 5431
00000140: 660a 0432 61b7 dc31 8d41 8332 ee22 4d32
00000150: 4343 2b32 d55c e02c 4d0a 2b2b c12e df32
00000160: 2202 df32 d1a4 5630 c41c 0234 ec90 7c32
00000170: 3447 3234 22e0 6534 9515 5832 a528 f633
00000180: 4310 1e34 b377 4733 65af 6933 71d2 b834
00000190: 5268 a234 d428 ad31 50f6 8e30 b5ce 4e31
000001a0: 3581 1631 ac12 a831 7daa 9f31 0337 7b31
000001b0: 9b46 b42c 92e6 752a 7fb1 ee31 c550 c531
000001c0: ab2a 902f ba59 f032 4a48 a231 24af 0b35
000001d0: 7ffb 3435 64b8 0d33 7d59 af34 9334 f434
000001e0: 7db6 1334 581e 3434 11fc 9035 ad16 6a35
000001f0: 4178 2a32 4801 1a31 c067 e731 aca3 b031
00000200: dc3d 4332 e0e9 1332 6e82 0032 1d1c 792c
00000210: 9d94 0b2b 40ac aa32 d70c 9132 490e 4230
00000220: 6876 ad33 d802 4532 8cf8 ce34 06b0 0335
00000230: 89f2 cf32 8767 8434 ef02 b434 0d4a e733
00000240: 4321 0534 001e 5435 fe13 2a35 4221 2332
00000250: 6381 f630 fe52 d131 bab6 8d31 c1f0 1532
00000260: a8a0 1b32 333f dc31 e9c4 8d2c 5981 a72a
00000270: 8d46 8332 6e7d 5732 6d8a 1d30 bd21 8533
00000280: 6ac4 1132 b880 f734 6143 1b35 458f 0033
00000290: 84bc 9434 118b d334 aa01 0a34 51b5 1734
000002a0: 0d07 7a35 2d56 4a35 0fd1 1132 9b4f 1331
000002b0: 9259 cb31 3612 9f31 8b70 2932 25ed 1032
000002c0: 1ab5 f231 82be 272c 511b 082b bfec 9532
000002d0: c0ff 7932 c110 3f30 dc5a 9333 6f66 2e32
000002e0: fcc3 d635 5d5a 0636 8f9b dc33 eff1 8635
000002f0: c554 b635 0e3b f534 458d 0235 643b 5436
00000300: 0a00 3736 ab6e 0233 2e6c 0732 6dff ae32
00000310: bcc1 8a32 ad0b 1333 8eaf 0d33 228b f832
00000320: cac2 742d ff1f e52b 969f 8d33 26d8 6333
00000330: c28c 3231 139d 8734 e55b 1633 b628 5434
00000340: 4dea 8834 3ebf 6d32 0d49 0634 2a68 3b34
00000350: ae63 7933 05fd 8833 2219 d734 4363 be34
00000360: c89a 9d31 562b a030 7304 6c31 03b9 1431
00000370: dd67 b531 a9f8 cb31 f525 7431 0240 8d2c
00000380: 0a4d 7b2a f885 2c32 d598 f231 366c 0530
00000390: c20d 0a33 de27 bc31 150b 9935 1f2f c435
000003a0: cb1e 9b33 52b6 4135 3314 8635 2720 a834
000003b0: e2cd c434 c3de 1d36 aaba 0536 e46b e732
000003c0: 37c0 cb31 82ed 9a32 fedf 7332 3553 f932
000003d0: af87 e332 f56c 9a32 f865 922d 483c aa2b
000003e0: 8de4 3933 fa9d 1d33 0bbb cd30 cac9 3e34
000003f0: 4dd6 0933 47ab 9735 7db9 bd35 ef9b 9333
1.0673198e-06 1.3491604e-06 6.427568e-08 6.690089e-07 9.0768265e-07 2.9428008e-07 3.276609e-07 2.176585e-06
1.7257368e-06 1.5745567e-08 4.5261235e-09 1.0711996e-08 9.284309e-09 2.3332358e-08 2.0804197e-08 1.5098172e-08
5.500107e-12 9.819867e-13 3.547182e-08 3.424422e-08 1.060809e-09 1.6271117e-07 2.3281812e-08 1.1939454e-06
1.540622e-06 7.4717406e-08 7.936929e-07 1.0380621e-06 3.3845333e-07 3.8745486e-07 2.5239453e-06 2.088922e-06
2.236776e-08 5.654828e-09 1.5759346e-08 1.1198559e-08 2.3633177e-08 2.5802743e-08 2.1129114e-08 9.010965e-12
1.1684467e-12 5.082044e-08 4.222884e-08 1.9245765e-09 2.0041904e-07 2.6580864e-08 2.2344827e-07 2.9567363e-07
1.4960062e-08 1.4760575e-07 2.0333025e-07 6.157971e-08 7.4290156e-08 4.498119e-07 3.837423e-07 4.553024e-09
1.2854893e-09 3.4741912e-09 2.6259932e-09 5.8424208e-09 6.4003367e-09 3.6636354e-09 8.929414e-12 2.9410006e-13
1.0828151e-08 7.688932e-09 5.055877e-10 3.6391228e-08 5.8113936e-09 7.831128e-07 1.0230818e-06 4.301162e-08
4.9616546e-07 6.824156e-07 1.9372564e-07 2.4665877e-07 1.6566571e-06 1.3294359e-06 1.17625625e-08 3.0955087e-09
7.685776e-09 6.4236905e-09 1.5280216e-08 1.1940513e-08 9.968804e-09 6.3767693e-12 6.07657e-13 2.5981878e-08
2.5961587e-08 7.8086965e-10 1.2117658e-07 1.4701282e-08 1.6603445e-07 2.1408826e-07 1.2577762e-08 1.1462661e-07
1.4720813e-07 4.6442164e-08 5.440906e-08 3.4425787e-07 3.0250754e-07 5.0396043e-09 1.0401866e-09 3.0094445e-09
2.1901319e-09 4.8915663e-09 4.6468913e-09 3.6556578e-09 5.1237465e-12 2.1840366e-13 6.9468906e-09 5.742637e-09
2.6223765e-10 2.798048e-08 4.723039e-09 5.20364e-07 6.74212e-07 3.2996823e-08 3.26614e-07 4.5486794e-07
1.375683e-07 1.6774845e-07 1.0802197e-06 8.720479e-07 9.922645e-09 2.2410678e-09 6.73478e-09 5.1408815e-09
1.1364559e-08 8.609703e-09 7.480237e-09 3.5400634e-12 4.958896e-13 1.9868935e-08 1.688606e-08 7.059709e-10
8.077478e-08 1.1467556e-08 3.8551332e-07 4.905745e-07 2.4208264e-08 2.4662242e-07 3.3529747e-07 1.07702455e-07
1.2398691e-07 7.901981e-07 6.335903e-07 9.495411e-09 1.793563e-09 6.0921357e-09 4.1244137e-09 8.727683e-09
9.058716e-09 6.4100276e-09 4.0293224e-12 2.9754912e-13 1.528249e-08 1.25431665e-08 5.731298e-10 6.199432e-08
8.48477e-09 4.610099e-07 5.784005e-07 2.9932625e-08 2.770431e-07 3.9402997e-07 1.2852857e-07 1.4128933e-07
9.314252e-07 7.5376266e-07 8.487645e-09 2.1436566e-09 5.9182605e-09 4.6295794e-09 9.862684e-09 8.435824e-09
7.063716e-09 2.383788e-12 4.8354815e-13 1.7453543e-08 1.4551858e-08 6.9509204e-10 6.861748e-08 1.0151424e-08
1.6001281e-06 2.0020154e-06 1.0272844e-07 1.005419e-06 1.3584728e-06 4.5677774e-07 4.863435e-07 3.1625032e-06
2.7269148e-06 3.0368636e-08 7.882631e-09 2.037242e-08 1.6153415e-08 3.4236724e-08 3.2988787e-08 2.893427e-08
1.3913046e-11 1.6280309e-12 6.594853e-08 5.3049142e-08 2.598242e-09 2.5259996e-07 3.5008174e-08 1.9758849e-07
2.550245e-07 1.3838699e-08 1.2506298e-07 1.7453627e-07 5.806549e-08 6.3790175e-08 4.0065157e-07 3.546248e-07
4.586898e-09 1.1653849e-09 3.434505e-09 2.1642002e-09 5.279601e-09 5.936347e-09 3.552825e-09 4.0145673e-12
2.2320007e-13 1.0042179e-08 7.060502e-09 4.8538895e-10 3.214314e-08 5.4760525e-09 1.1402614e-06 1.4616852e-06
7.223351e-08 7.2163414e-07 9.989657e-07 3.1315832e-07 3.6657644e-07 2.3524487e-06 1.9927197e-06 2.6941002e-08
5.92993e-09 1.8035966e-08 1.41953915e-08 2.9025253e-08 2.648798e-08 1.7977507e-08 1.6643562e-11 1.2095958e-12
4.3281535e-08 3.669809e-08 1.4968874e-09 1.776854e-07 3.2092704e-08 1.1300225e-06 1.4135582e-06 6.873585e-08

exp_avg f4 [256]
00000000: 4673 8039 3f97 ad39 136b dcb8 4f8d d836
00000010: bd0d f138 21e6 1138 6944 7c38 1e34 dfb8
00000020: 5b87 77b9 afbe 0e39 d801 ad37 889a 8eb8
00000030: 9f5e 8a39 3cba f438 4117 a2b7 41ad ce37
00000040: 0269 01b9 be33 9e37 5b0e 5239 bcac 3f39
00000050: 28af 80b9 4402 4039 bb45 5839 ca77 27b9
00000060: 1078 0139 4f1d 21b9 ed63 43b8 9d0f 1ab8
00000070: dbbd 1ab9 9f29 83b8 d909 8b38 0f30 8bb8
00000080: 3169 8f37 b2e0 09b9 f21f 6bb9 ee4b 9838
00000090: af45 1438 d490 f7b8 f765 3639 cc82 6738
000000a0: dad7 1939 b331 1939 49ee c0b8 ad60 8b39
000000b0: 6f96 d7b8 455e 5238 f52f ba39 d839 93b9
000000c0: e954 f8b8 e4bf 95b8 2d02 8639 9e0c 4239
000000d0: c37d cfb7 d08f 24b9 47ef 89b9 cd50 8db7
000000e0: 997b 8039 e5de b635 5e50 c7b8 fa42 92b8
000000f0: 3fc4 0138 d8dd 0239 a591 1139 aa70 bb39
00000100: 8584 8c39 0a33 6db8 58be 1337 90bc 30b9
00000110: a711 5cb9 6369 82b8 b6bf 55b7 8cc7 f438
00000120: 07c5 0d39 2db3 9839 10d6 6db7 d572 0a39
00000130: 202a a9b8 5eae df38 d466 2cb9 9d1c 88b9
00000140: 3da8 af38 2cb9 58b8 cfa7 73b5 a80f 51b9
00000150: d8fb b338 7329 3938 e776 8db9 f206 af37
00000160: 8b1c 2eb9 7bb4 c7b8 645c e538 95c4 14b9
00000170: f78a fb37 2e36 5039 4515 8cb8 2877 8bb8
00000180: a923 5eb8 1ef9 9439 ea0f 3fb9 7189 fc37
00000190: 6cfb 8ab8 1a15 97b9 c6ea 1938 0126 e638
000001a0: bb14 7639 2536 ad38 17bc 9637 d2a5 cbb8
000001b0: e073 adb8 143e 87b8 2349 51b7 d1dd 66b8
000001c0: 623c 75b9 b712 1c39 9deb 1c38 c3a7 5fb9
000001d0: cbb2 8938 d751 0139 d412 7635 0f06 b539
000001e0: 851e 80b9 4420 ea37 7751 8639 4d0e 5b39
000001f0: 2127 24b7 fb5b d5b9 209d 4c39 f5b6 5f39
00000200: 45c3 8337 7070 7839 4890 1ab9 6ad3 8138
00000210: 36c9 5ab9 8514 43b8 a876 0339 abe2 87b8
00000220: edce 8db8 4a65 6639 a76f 0d39 ae79 e6b8
00000230: 3d46 e838 3290 25b9 e544 3339 fdd2 d039
00000240: af74 5439 d4db 80b8 ee10 cdb9 be19 6fb8
00000250: 6572 18b9 bdf2 14b9 e87c 99b8 02fb 81b8
00000260: 85bd e8b7 5acc 2d39 ee96 fab8 e026 0439
00000270: 42d9 84b9 c530 a3b8 2e6c 1639 dd1e 16b9
00000280: 015f 91b9 c13c 1b39 10a6 d738 292b afb9
00000290: 65cd e536 cd52 9b38 7db0 2d39 46db a938
000002a0: 26b4 f437 e960 4db9 4b17 a8b8 8dc0 8739
000002b0: c741 0eba 1556 9cb8 37a4 9738 3dec 3738
000002c0: 5290 5239 c731 20b8 9d98 82b9 f3d1 a138
000002d0: b953 b2b9 37c2 3a39 688a 8a39 865b 14b8
000002e0: bfb4 fcb7 0747 3639 dc82 fc38 1eb1 5db8
000002f0: ba6c 34b8 555d 5ab8 c46f 7cb9 3c4d b338
00000300: 604f a939 34cd 17b8 176d 1ab9 b321 cab8
00000310: b326 a137 9983 8839 959c c7b6 dcbe 7c39
00000320: 8c46 8eb8 ab4c 4838 f84f ca38 eef4 1339
00000330: 49ed 6e39 a9ed 9bb9 2ec2 c2b9 16e8 21b8
00000340: 08ae 37b9 8b6f 31b9 bcc4 5739 7123 2b38
00000350: 3e7a 5a38 9589 c6b6 00c6 5c39 82ee aa39
00000360: 25b0 7fb7 4311 9339 b605 adb8 4774 d3b9
00000370: 687c a038 e0da 3bb7 e07d ecb8 4c29 4639
00000380: c18d 9239 7de7 6139 7cf4 6eb8 5031 78b9
00000390: 96cd c237 3904 23b9 255b 83b8 9500 a738
000003a0: 9798 beb8 60eb 0339 5633 193a b46a 13b8
000003b0: 4d06 3cb9 cb7c 84b8 661b 2339 a4df 1e3a
000003c0: eff7 9839 1b75 f7b8 7bf3 5838 9ca2 c638
000003d0: 112b 4b39 cd0b 9639 bf52 06b9 2501 8337
000003e0: 3ef0 4339 0e66 24b8 e812 20b8 a0fd ecb8
000003f0: 1366 80b8 5e20 adb8 9577 ad38 a076 5a39
0.00024499948 0.00033109818 -0.000105103616 6.453752e-06 0.000114943345 3.478502e-05 6.0145194e-05 -0.00010643176
-0.0002360618 0.0001361321 2.0624066e-05 -6.799871e-05 0.0002639191 0.000116695155 -1.9322733e-05 2.4637791e-05
-0.00012341517 1.8859162e-05 0.00020032508 0.00018279528 -0.00024544564 0.00018311391 0.00020625342 -0.00015970986
0.00012347125 -0.00015365075 -4.6584686e-05 -3.6731002e-05 -0.00014757311 -6.254319e-05 6.629871e-05 -6.636988e-05
1.7095912e-05 -0.00013149044 -0.00022423247 7.262068e-05 3.5350848e-05 -0.00011804854 0.00017394857 5.5196506e-05
0.00014671628 0.00014609731 -9.1996575e-05 0.00026584175 -0.00010280019 5.0155697e-05 0.00035512415 -0.00028081122
-0.00011841377 -7.140616e-05 0.00025560093 0.00018505982 -2.4734885e-05 -0.00015693833 -0.00026308952 -1.6846136e-05
0.0002450615 1.3624928e-06 -9.504029e-05 -6.974298e-05 3.0938765e-05 0.0001248041 0.00013882534 0.0003575136
0.00026801616 -5.6552737e-05 8.806201e-06 -0.00016854913 -0.00020987411 -6.218513e-05 -1.27404255e-05 0.00011671995
0.00013520206 0.00029125196 -1.4176141e-05 0.00013203484 -8.0663944e-05 0.00010665947 -0.00016441505 -0.0002596126
8.375987e-05 -5.1670868e-05 -9.076875e-07 -0.00019937626 8.582295e-05 4.414604e-05 -0.00026982205 2.086486e-05
-0.00016604566 -9.5226766e-05 0.0001093678 -0.00014187612 2.9986242e-05 0.0001985661 -6.679682e-05 -6.650231e-05
-5.2962136e-05 0.00028414367 -0.00018221108 3.0104742e-05 -6.627184e-05 -0.00028816686 3.6696692e-05 0.000109743334
0.00023468111 8.259368e-05 1.796898e-05 -9.710681e-05 -8.270866e-05 -6.4488646e-05 -1.2474399e-05 -5.5042856e-05
-0.00023387515 0.00014884291 3.741273e-05 -0.00021329433 6.565972e-05 0.00012332886 9.166954e-07 0.00034527524
-0.000244368 2.7909999e-05 0.00025619168 0.00020890795 -9.784272e-06 -0.00040695057 0.0001951349 0.00021335094
1.5707346e-05 0.0002369301 -0.00014740333 6.190578e-05 -0.00020865057 -4.6510733e-05 0.00012537336 -6.479522e-05
-6.761947e-05 0.00021972242 0.00013488402 -0.00010989919 0.00011075705 -0.00015789343 0.00017096435 0.0003983005
0.00020261364 -6.144462e-05 -0.0003911326 -5.7006015e-05 -0.00014538465 -0.00014204807 -7.318874e-05 -6.197953e-05
-2.7744807e-05 0.00016574693 -0.00011949042 0.00012602983 -0.00025338872 -7.78153e-05 0.00014345415 -0.00014316612
-0.0002772734 0.00014804584 0.000102829305 -0.00033410758 6.848643e-06 7.406399e-05 0.00016564313 8.099391e-05
2.9170955e-05 -0.00019586425 -8.015203e-05 0.00025892668 -0.00054266717 -7.454694e-05 7.2308285e-05 4.3850614e-05
0.00020080924 -3.819333e-05 -0.00024909238 7.716184e-05 -0.00034013184 0.00017810693 0.00026424532 -3.5371188e-05
-3.0124907e-05 0.00017383332 0.00012040671 -5.285546e-05 -4.3016604e-05 -5.2062172e-05 -0.00024074229 8.549771e-05
0.0003229333 -3.6192316e-05 -0.00014727224 -9.6383876e-05 1.9210716e-05 0.0002603799 -5.9488907e-06 0.00024103693
-6.784228e-05 4.775512e-05 9.647006e-05 0.00014110256 0.00022785844 -0.00029740974 -0.0003714724 -3.8601538e-05
-0.00017517072 -0.00016921588 0.00020577287 4.0802584e-05 5.2089097e-05 -5.9168765e-06 0.00021054596 0.0003260263
-1.5240196e-05 0.00028050886 -8.2503466e-05 -0.0004033169 7.652567e-05 -1.1197029e-05 -0.00011276803 0.00018898136
0.00027952905 0.00021543908 -5.6971316e-05 -0.00023669493 2.3222336e-05 -0.00015546464 -6.263544e-05 7.963289e-05
-9.088328e-05 0.00012580818 0.00058441365 -3.5146906e-05 -0.00017931424 -6.317495e-05 0.00015555098 0.0006060547
0.00029176424 -0.000117996904 5.1725172e-05 9.471664e-05 0.00019375632 0.00028619022 -0.00012810061 1.561695e-05
0.00018686146 -3.9195693e-05 -3.816458e-05 -0.00011300598 -6.1225284e-05 -8.255312e-05 8.271557e-05 0.00020834291
