RefAgent/BC-CAB-256128/checkpoints/agent_4000.pt (torch, 488547 bytes, 18 tensors)

net.0.weight f4 [256, 23]
-0.07479754 -0.033793002 -0.1356555 -0.0062373313 -0.017363228 -0.042218663 -0.036617074 -0.02309
-0.02192203 -0.19181387 -0.3521687 -0.5472688 0.098828316 0.046677653 -0.10926902 -0.017574692
-0.3264416 -2.885721 0.35318524 0.057175066 1.1506788 0.19099393 0.097664125 0.0065973997
-0.20543538 0.0623405 -0.037934825 0.057810217 -0.073661566 -0.010012289 -0.019226851 -0.011996799
-0.003895248 -0.73035455 -0.21366432 0.22820391 0.06503181 -0.23508476 -0.04813415 0.3483319
0.10548889 0.055375956 -0.3614765 0.24156877 0.17856008 -0.04505386 0.09311938 -0.019284785
0.03798051 0.06135996 -0.010567329 0.09805075 0.1411346 -0.043592054 -0.009148265 -0.091267675
0.28800258 0.3256752 -0.35004613 -0.030135578 0.18378642 0.2708703 -0.4151944 0.45684364
-0.046895023 -0.17053431 -0.17223923 0.003932383 -0.09902251 0.036417693 -0.023012308 -0.09877526
0.01651978 0.017796395 0.021765891 0.021117762 -0.025051463 -0.016018815 0.013388278 -0.21804023
-0.33933902 0.108494096 0.035622597 0.00503794 0.0035122973 -0.4321173 -3.2527995 0.41194102
0.3053939 0.8354197 0.1735573 0.07336788 -0.031330653 -0.09289742 -0.004803964 -0.14606829
0.022313807 -0.0820753 0.035858937 -0.03644662 -0.068349786 -0.052329812 0.32817465 0.17836574
-0.08574885 -0.20170479 0.22931238 0.020370832 -0.01475874 -1.6301627 -0.22186767 0.18892646
0.085619144 -0.010679409 -0.027497083 -0.13619106 -0.013385922 -0.014845694 -0.05731857 -0.04718872
-0.05541963 -0.16138917 0.023732768 -0.008887509 -0.1690617 0.062364273 -0.081378356 -0.30539605
-0.09007685 -0.19126569 -0.3029401 -0.17654975 0.34832823 -0.14361383 -0.19593543 0.41417754
0.054703385 -0.0022267126 -0.00088926236 -0.034463592 -0.014229464 -0.084635034 -0.034406845 -0.014544492
-0.046336763 0.043617897 -0.024989683 0.08170953 0.55054456 0.12916094 -0.19563007 -0.2615905
0.19287252 -0.27189073 0.023683839 -1.1897666 -0.114813514 0.46422088 0.13922141 -0.06386496
-0.024282504 0.1280602 -0.057297554 -0.033135705 0.031042391 0.10120353 0.095290184 0.09711327
-0.016315233 0.0030449252 0.19078006 0.3517528 0.24374236 -0.011807597 0.060796883 0.33479223
0.3480052 1.0457485 -0.004329195 -0.083913684 0.26113018 -0.1886306 -0.16208622 -0.049987398
-0.07034242 0.27469048 -0.043109715 0.04883923 -0.064718 0.04025096 -0.021044176 -0.0028686617
0.0011040549 -0.062146563 0.6071892 0.12519568 -0.1731116 -0.049723215 0.20613866 0.048796393
-0.20026086 -0.7036493 0.04864853 0.22841206 -0.07534646 -0.1004492 0.0513863 -0.012422944
0.018956134 -0.026032908 0.008808698 0.003408269 -0.0017638131 -0.10614724 0.09819032 0.03840828
0.09437451 -0.023902468 -0.010755937 0.28071967 -0.11502364 -0.07727449 -0.23389253 0.049813453
-0.08036942 0.028571434 0.23862542 -0.26382864 -0.07640718 0.121626 -0.001693462 0.004675452
-0.09213134 -0.13932218 -0.04033626 -0.04628 -0.12499596 0.033420183 0.01201384 0.09369756
0.051741242 -0.11068686 -0.4717774 -1.123003e-06 -0.081632495 -0.055227917 0.059253816 -1.0107249
-0.29266623 0.45056534 1.1383116 -0.16121441 -0.09971923 0.13821316 0.089660816 0.18309537
00000000: 742f 99bd 886a 0abd 47e9 0abe 8762 ccbb
00000010: 543d 8ebc 7aed 2cbd c9fb 15bd 3d27 bdbc
00000020: d495 b3bc db6a 44be 754f b4be cf19 0cbf
00000030: 8066 ca3d 1131 3f3d 70c8 dfbd cdf8 8fbc
00000040: 5a23 a7be a7af 38c0 b2d4 b43e 6730 6a3d
00000050: 7149 933f ea93 433e 2104 c83d 002f d83b
00000060: a75d 52be c158 7f3d 8c61 1bbd 68ca 6c3d
00000070: e0db 96bd 950a 24bc a181 9dbc 398e 44bc
00000080: 6b47 7fbb 84f8 3abf d2ca 5abe 49ae 693e
00000090: 662f 853d 0fba 70be 5128 45bd 8f58 b23e
000000a0: 8f0a d83d e6d1 623d 7313 b9be ce5d 773e
000000b0: 74d8 363e 658a 38bd 60b5 be3d 20fb 9dbc
000000c0: 7491 1b3d 9554 7b3d 9722 2dbc d5ce c83d
000000d0: 9785 103e 958d 32bd 9be2 15bc 8cea babd
000000e0: 1375 933e e6be a63e 3f39 b3be e3de f6bc
000000f0: 8232 3c3e 83af 8a3e 5c94 d4be 69e7 e93e
00000100: ff14 40bd 8ca0 2ebe 7b5f 30be 38db 803b
00000110: 50cc cabd b82a 153d 4f84 bcbc af4a cabd
00000120: 7d54 873c bfc9 913c 624e b23c 28ff ac3c
00000130: ba38 cdbc e439 83bc 825a 5b3c f045 5fbe
00000140: d8bd adbe 2732 de3d 00e9 113d 4e15 a53b
00000150: 922e 663b 7b3e ddbe de2d 50c0 efe9 d23e
00000160: 975c 9c3e 11de 553f 01b9 313e e641 963d
00000170: 9254 00bd 0141 bebd 926a 9dbb ed92 15be
00000180: 72cb b63c 1817 a8bd d2e0 123d 0d49 15bd
00000190: f9fa 8bbd c957 56bd 8206 a83e 82a5 363e
000001a0: 189d afbd b38b 4ebe ddd0 6a3e bbe0 a63c
000001b0: a4ce 71bc 2ca9 d0bf 4731 63be f075 413e
000001c0: 1759 af3d b0f8 2ebc 9041 e1bc ab75 0bbe
000001d0: a050 5bbc 5b3b 73bc e0c6 6abd f648 41bd
000001e0: b2ff 62bd 3443 25be 396b c23c ea9c 11bc
000001f0: 831e 2dbe ae71 7f3d b2a9 a6bd df5c 9cbe
00000200: 367a b8bd 27db 43be f71a 9bbe 75c9 34be
00000210: 1458 b23e 810f 13be 4ca3 48be 140f d43e
00000220: a810 603d 0aee 11bb 631d 69ba b229 0dbd
00000230: b322 69bc 2255 adbd 31ee 0cbd 054c 6ebc
00000240: 9ecb 3dbd aea8 323d 2ab7 ccbc 5357 a73d
00000250: 7df0 0c3f c442 043e 4053 48be 31ef 85be
00000260: 6080 453e 4335 8bbe 9c04 c23c 464a 98bf
00000270: 5923 ebbd 5cae ed3e 0f90 0e3e a2cb 82bd
00000280: 1aec c6bc 3722 033e d7b0 6abd 4eb9 07bd
00000290: 9d4c fe3c cc43 cf3d 8027 c33d 52e3 c63d
000002a0: 86a7 85bc 5e8d 473b d95b 433e f118 b43e
000002b0: 9997 793e a774 41bc 2706 793d e369 ab3e
000002c0: bd2d b23e 16db 853f ebdb 8dbb f0da abbd
000002d0: dbb2 853e 6128 41be eef9 25be 96bf 4cbd
000002e0: b00f 90bd 3ba4 8c3e d093 30bd a50b 483d
000002f0: df8a 84bd 31de 243d d664 acbc 2800 3cbb
00000300: efb5 903a 658d 7ebd c070 1b3f 4c33 003e
00000310: 2b44 31be 92aa 4bbd 0316 533e bade 473d
00000320: 2f11 4dbe 5c22 34bf ae43 473d dae4 693e
00000330: 3f4f 9abd 4fb8 cdbd 717a 523d 9b89 4bbc
00000340: e549 9b3c f742 d5bc 5b52 103c 445d 5f3b
00000350: bf2f e7ba b963 d9bd 0218 c93d 0052 1d3d
00000360: 6c47 c13d 1ccf c3bc ab39 30bc 7dba 8f3e
00000370: 8491 ebbd 1642 9ebd 8681 6fbe 3109 4c3d
00000380: b998 a4bd a40e ea3c 395a 743e 8c14 87be
00000390: 5e7b 9cbd 0d17 f93d 28f7 ddba 8934 993b
000003a0: 5baf bcbd 79aa 0ebe a237 25bd 1990 3dbd
000003b0: e2fd ffbd 9ae3 083d b2d5 443c 82e4 bf3d
000003c0: a0ee 533d cbaf e2bd cf8c f1be 17ba 96b5
000003d0: f02e a7bd ab36 62bd 21b4 723d 6f5f 81bf
000003e0: 59d8 95be 80b0 e63e 32b4 913f 6415 25be
000003f0: 9839 ccbd c087 0d3e 17a0 b73d 5a7d 3b3e

net.0.bias f4 [256]
0.0072699487 -0.12214134 -0.033218537 -0.05030833 -0.08470978 0.026360407 -0.14159419 -0.04799033
0.24493097 -0.045350987 -0.15242784 0.004110832 -0.17259556 0.061317068 -0.016117534 0.066469625
0.090608545 -0.14523041 0.014311596 -0.059102003 0.19092333 -0.18652076 -0.054458886 -0.11575717
0.0020347717 -0.0147448955 -0.05432956 -0.2000906 -0.2782443 0.058649845 -0.06589579 0.018771486
0.049427714 -0.0900393 -0.0049126856 0.08346942 0.22169544 0.04794515 -0.0093601635 0.09538949
0.036659814 0.018948372 0.091904834 -0.06819524 -0.06570057 0.03360696 -0.06680642 0.011255217
-0.23750232 -0.03711618 0.09829476 -0.031147214 0.078937225 -0.22106875 0.1223082 -0.050375033
0.2197371 -0.2172243 0.0058001834 0.30602768 -0.0129334135 0.0039857915 -0.031523474 -0.034104582
0.046701897 0.07174707 0.031838972 0.0017296318 0.15191585 0.02966315 0.04507569 0.063576125
0.06566633 -0.101007976 -0.013004693 0.02677415 -0.04102154 -0.026870731 -0.100833796 0.12395684
0.060076505 0.018977692 0.006692342 -0.004961912 -0.1286489 0.08133333 0.17508386 -0.022698024
-0.13598062 0.08583279 0.01580884 0.085440405 0.0524255 0.10504208 -0.09207044 0.023969214
0.0537662 0.010513038 0.010730036 -0.05359956 -0.15654445 0.15010032 0.06220323 -0.06326931
-0.0055797305 0.0965018 -0.1451651 -0.05455888 0.08705288 -0.11066953 -0.10043804 -0.03258934
0.086871244 -0.075589456 -0.024302637 -0.02967004 -0.103577994 -0.09324442 0.06218887 0.010888826
0.076093696 0.21392578 -0.094424985 0.064350076 -0.014362398 -0.060257804 -0.073613465 0.057082765
0.011717787 0.030091723 0.006931168 0.0981009 0.042680845 0.06255569 0.06270829 0.0076094116
-0.17645602 0.043255676 -0.0005629245 0.03015361 -0.0155476695 0.09282227 0.055215135 -0.006247208
-0.102794245 -0.0427349 0.22564359 0.009823085 0.23375611 0.095467135 0.04449844 0.063991845
0.031870436 -0.06563092 0.016527351 0.031772498 0.07543542 -0.10233265 0.10534015 0.11435108
-0.07813494 0.057806626 0.059587594 -0.18387711 -0.0114246085 -0.07198839 -0.03853104 -0.102837935
-0.03157951 -0.09680424 0.092688166 -0.016696416 0.19653465 0.016462604 -0.012499174 -0.018056097
-0.033307478 0.10443683 0.06988161 0.009120744 0.2274696 0.08597236 -0.07502981 -0.0797555
0.037172265 -0.09984846 -0.107750215 0.010800974 0.04141025 -0.2116532 -0.010509211 -0.01489311
0.06222584 0.075980626 -0.13800412 -0.08547664 -0.11640054 0.007824631 0.06348966 -0.0133919325
-0.014332564 0.13537945 0.072772846 -0.066783406 -0.07281082 0.13287099 0.18030831 -0.008196568
0.030684486 -0.0333753 0.0637518 -0.07004969 0.033742316 0.037614495 -0.07157347 0.002680536
-0.05508715 -0.087675214 0.0039198166 0.038275857 -0.04181131 -0.083975464 0.03994077 -0.031710155
-0.029057162 -0.016738396 -0.2014147 0.025532223 0.009499084 0.009482068 0.01782312 0.08353012
0.069635 -0.08264618 -0.18861134 0.048029207 0.009999345 0.032749962 0.1670975 -0.16576025
0.019334117 0.014884903 -0.040566366 -0.037650973 -0.015343461 0.0314317 -0.15634346 -0.14162977
-0.038896434 -0.115635745 0.07804738 0.042024687 0.06106879 0.07066876 -0.020638943 0.17290139
00000000: c038 ee3b 3d25 fabd 2910 08bd 1c10 4ebd
00000010: 527c adbd c8f1 d73c 11fe 10be 8291 44bd
00000020: 2fcf 7a3e f5c1 39bd 0b16 1cbe 28b4 863b
00000030: e4bc 30be 9b27 7b3d eb08 84bc 3a21 883d
00000040: f990 b93d 48b7 14be 2f7b 6a3c f114 72bd
00000050: 6881 433e 4cff 3ebe 4810 5fbd 1812 edbd
00000060: ce59 053b 9394 71bc ac88 5ebd 8de4 4cbe
00000070: 0976 8ebe d23a 703d 5ff4 86bd a9c6 993c
00000080: b774 4a3d 8666 b8bd 98fa a0bb 04f2 aa3d
00000090: 2104 633e 2262 443d 5f5b 19bc 915b c33d
000000a0: 9a28 163d 9e39 9b3c 9a38 bc3d f2a9 8bbd
000000b0: 058e 86bd 74a7 093d ced1 88bd cd67 383c
000000c0: cf33 73be 2307 18bd c34e c93d 7128 ffbc
000000d0: d7a9 a13d d95f 62be b97c fa3d 0d56 4ebd
000000e0: c302 613e 0c70 5ebe 770f be3b a9af 9c3e
000000f0: abe6 53bc 3e9b 823b c21e 01bd 3fb1 0bbd
00000100: 7d4a 3f3d 21f0 923d 9569 023d d0b4 e23a
00000110: d48f 1b3e 2200 f33c 49a1 383d 3334 823d
00000120: 127c 863d 45dd cebd a311 55bc 7655 db3c
00000130: 3406 28bd 0220 dcbc f381 cebd 15dd fd3d
00000140: c812 763d 1b77 9b3c 6f4b db3b 8997 a2bb
00000150: 8abc 03be 1792 a63d 2f49 333e 35f1 b9bc
00000160: 813e 0bbe 1ac9 af3d 8a81 813c 61fb ae3d
00000170: 1fbc 563d 4d20 d73d 6d8f bcbd 165b c43c
00000180: f239 5c3d e13e 2c3c 08cd 2f3c 368b 5bbd
00000190: 304d 20be e6b3 193e d0c8 7e3d 5793 81bd
000001a0: 2cd6 b6bb bca2 c53d 29a6 14be 2279 5fbd
000001b0: c848 b23d b5a6 e2bd 76b2 cdbd 667c 05bd
000001c0: 8de9 b13d a5ce 9abd 5316 c7bc 950e f3bc
000001d0: b320 d4bd eef6 bebd c2b9 7e3d 0c67 323c
000001e0: 03d7 9b3d 5c0f 5b3e e361 c1bd f9c9 833d
000001f0: 4350 6bbc e3d0 76bd a8c2 96bd 9ecf 693d
00000200: f6fb 3f3c eb82 f63c da1e e33b 20e9 c83d
00000210: 1cd2 2e3d 331d 803d 346d 803d 5f58 f93b
00000220: e3b0 34be dd2c 313d 3991 13ba b404 f73c
00000230: a7bb 7ebc 9a19 be3d 4429 623d 61b5 ccbb
00000240: ca85 d2bd ca0a 2fbd 1d0f 673e 01f1 203c
00000250: c35d 6f3e 4684 c33d ff43 363d 280e 833d
00000260: 938a 023d 8169 86bd 5e64 873c e123 023d
00000270: e37d 9a3d c893 d1bd 94bc d73d e630 ea3d
00000280: 3605 a0bd a4c6 6c3d 1f12 743d 484a 3cbe
00000290: 482e 3bbc a66e 93bd b9d2 1dbd b29c d2bd
000002a0: 8459 01bd 4d41 c6bd 4bd3 bd3d ecc6 88bc
000002b0: 6140 493e 95dc 863c 56c9 4cbc 61ea 93bc
000002c0: 6c6d 08bd fae2 d53d 171e 8f3d 2c6f 153c
000002d0: caed 683e 4712 b03d 3ba9 99bd da56 a3bd
000002e0: f241 183d 597d ccbd 25ac dcbd 92f6 303c
000002f0: cb9d 293d 9ebb 58be d32e 2cbc 3b02 74bc
00000300: 86e0 7e3d bb9b 9b3d f450 0dbe 600e afbd
00000310: 6863 eebd e232 003c de06 823d d669 5bbc
00000320: 21d3 6abc e9a0 0a3e ee09 953d bdc5 88bd
00000330: d71d 95bd 550f 083e bea2 383e e64a 06bc
00000340: 085e fb3c 8ab4 08bd 4e90 823d 3676 8fbd
00000350: 6235 0a3d a811 1a3d 1d95 92bd eeab 2f3b
00000360: 10a3 61bd 108f b3bd ce71 803b 25c7 1c3d
00000370: 5642 2bbd 54fb abbd ef98 233d 82e2 01bd
00000380: 4909 eebc f61e 89bc a83f 4ebe f428 d13c
00000390: 0ca2 1b3c ad5a 1b3c cb01 923c d711 ab3d
000003a0: cb9c 8e3d 6742 a9bd 5523 41be 46ba 443d
000003b0: 4bd4 233c d324 063d 9b1b 2b3e 0ebd 29be
000003c0: 9562 9e3c cfdf 733c eb28 26bd e837 1abd
000003d0: 2463 7bbc 87be 003d 8018 20be 6507 11be
000003e0: de51 1fbd 6fd2 ecbd 4ed7 9f3d 1422 2c3d
000003f0: 4423 7a3d c8ba 903d 0013 a9bc 100d 313e

net.3.weight f4 [128, 256]
-0.019779375 0.07967297 0.068992935 0.0062629944 0.01650665 0.07241199 -0.04590693 -0.029445183
-0.122278124 -0.03473414 -0.22679113 0.0058706617 0.015351542 -0.060216933 0.030687375 -0.043770317
-0.043604333 -0.37292954 0.0018856169 -0.0038986038 -0.09308859 0.0053981445 0.022447994 0.054733504
-0.005088621 -0.0135920895 -0.023464506 -0.30300763 -0.060121685 0.25949293 -0.10765889 -0.12608655
-0.03457054 0.00026987868 -0.044027578 -0.052979045 -0.010966553 0.05602913 0.032952525 0.041634705
0.008541472 0.012921349 0.4405751 0.17945616 0.04367775 0.1756266 0.067535095 -0.048804607
-0.09149805 0.00235412 0.0046826364 0.01698653 -0.0469431 -0.15216783 -0.0074987444 -0.0024315757
0.030592375 -0.112591416 -0.09542269 -0.09660383 0.018680882 -0.040644225 -0.011091508 -0.012834072
0.06587733 0.0076668304 0.017666329 -0.01857173 -0.114088 -0.02566691 0.0811593 0.41808608
0.024071932 -0.011434904 -0.12583353 -0.027087398 -0.032303687 -0.033762015 0.04282083 0.19713339
0.02214327 -0.030731635 -0.094057575 0.0150315445 -0.042612366 -0.0057922467 -0.08330781 0.032988783
-0.27008742 -0.061188072 0.013130772 -0.083825625 -0.015966412 -0.07698841 0.041135866 -0.329214
-0.023263818 -0.053790312 -0.016533934 0.021162484 0.022855699 0.030758401 0.032629207 -0.03085066
-0.07349335 -0.1249 -0.048255756 0.02435883 0.022766925 -0.033893533 -0.023788862 -0.06732936
-0.010466553 0.065833114 0.0435506 -0.23603211 0.0029629967 -0.04382718 0.0018601622 0.0032917783
-0.030441305 0.0035049652 -0.07495662 0.007968911 0.09970961 -0.353179 -0.02952554 -0.08042648
-0.03308023 -0.042293288 -0.08799654 -0.012352088 -0.029188583 -0.023355212 -0.050346386 -0.0019863003
0.023823785 -0.0022710485 -0.017725425 0.13961548 0.08143373 0.0051584193 0.08264575 0.02750919
-0.022501577 -0.007307155 -0.031578206 0.011714245 -0.07729495 -0.026296759 -0.020769032 -0.094809
0.019225795 0.037047748 0.026863337 -0.06978755 0.040701643 -0.030130833 -0.044387285 -0.057945155
-0.06038691 -0.07997805 0.100464284 -0.014696239 0.05914817 -0.06869232 -0.10349051 0.011212296
-0.052625332 -0.013317494 -0.061447196 -0.017801255 -0.07687494 0.22617216 -0.016423268 -0.04274397
0.02667338 0.0047485847 -0.0072997035 -0.066212274 -0.013374365 -0.3939564 0.12574455 -0.030460626
0.043210983 0.023644736 -0.111433335 -0.06553946 0.038977604 0.0031013028 -0.024029799 0.0035010262
-0.0025038358 -0.07769555 -0.048560306 0.0036593555 0.034989096 0.1852549 -0.070024 0.23661289
0.024348166 -0.090537004 -0.03588613 -0.038245033 0.02062726 -0.040292706 -0.06504904 0.15131438
-0.002844501 0.013695666 -0.059871856 -0.025280103 -0.037841294 0.0013774406 0.019455228 0.03235842
-0.031916425 0.013415946 0.039415415 -0.023516158 -0.01779105 0.11398256 -0.00064926833 -0.054483376
-0.05585583 0.06077253 -0.11967344 0.01295464 -0.06798406 -0.026991755 0.07101356 -0.035860095
0.008409067 0.06380223 -0.046607923 0.0843321 -0.012184902 0.02241997 0.020772893 0.012346829
0.088823035 -0.042586382 0.14481983 -0.046175484 -0.05203858 0.07901719 -0.025763722 -0.090539865
0.036067784 0.005940786 -0.036155477 -0.04571222 -0.028361324 -0.027792392 0.012402571 0.0014441801
00000000: 5b08 a2bc 952b a33d 2b4c 8d3d ce39 cd3b
00000010: f438 873c bd4c 943d e808 3cbd 0637 f1bc
00000020: f46c fabd 6345 0ebd ef3b 68be ae5e c03b
00000030: 0985 7b3c 08a6 76bd 1764 fb3c 8148 33bd
00000040: 759a 32bd 9ff0 bebe ce26 f73a b87f 7fbb
00000050: 3ba5 bebd ebe2 b03b dbe4 b73c 3d30 603d
00000060: 72be a6bb 5bb1 5ebc a338 c0bc d123 9bbe
00000070: 2842 76bd 42dc 843e 447c dcbd d51c 01be
00000080: d799 0dbd 817e 8d39 4356 34bd 8e00 59bd
00000090: 0fad 33bc cd7e 653d 3af9 063d 2789 2a3d
000000a0: 88f1 0b3c 11b4 533c 0f93 e13e 5bc3 373e
000000b0: 71e7 323d 76d7 333e d74f 8a3d 57e7 47bd
000000c0: 5463 bbbd 9447 1a3b cd70 993b 5627 8b3c
000000d0: 6847 40bd e2d1 1bbe 07b8 f5bb 125b 1fbb
000000e0: dc9c fa3c 5496 e6bd f96c c3bd 3bd8 c5bd
000000f0: a608 993c 8f7a 26bd 28b9 35bc 0046 52bc
00000100: b2ea 863d 093a fb3b fab8 903c be23 98bc
00000110: f8a6 e9bd 6943 d2bc d936 a63d 610f d63e
00000120: 8032 c53c 7759 3bbc 81da 00be 64e6 ddbc
00000130: df50 04bd 0a4a 0abd e564 2f3d 56dd 493e
00000140: ce65 b53c e9c0 fbbc 42a1 c0bd de46 763c
00000150: 4e8a 2ebd e3cc bdbb 499d aabd 3f1f 073d
00000160: e648 8abe 58a0 7abd 7322 573c c5ac abbd
00000170: fecb 82bc 19ac 9dbd 157e 283d bd8e a8be
00000180: c393 bebc 3b53 5cbd 2c72 87bc f25c ad3c
00000190: e03b bb3c 0bf9 fb3c 34a6 053d 86ba fcbc
000001a0: ae83 96bd 92cb ffbd d4a7 45bd 2b8c c73c
000001b0: b481 ba3c f2d3 0abd dce0 c2bc fae3 89bd
000001c0: e87b 2bbc 83d3 863d 1d62 323d 67b2 71be
000001d0: d62e 423b 2184 33bd b0d0 f33a e0ba 573b
000001e0: 0b60 f9bc 8fb3 653b db82 99bd 0990 023c
000001f0: 8d34 cc3d e1d3 b4be 8cdf f1bc a3b6 a4bd
00000200: 237f 07bd ba3b 2dbd 8837 b4bd 6960 4abc
00000210: e51c efbc 6e53 bfbc 0338 4ebd 972c 02bb
00000220: 192a c33c dfd5 14bb e934 91bc 5cf7 0e3e
00000230: bac6 a63d f507 a93b 2d42 a93d f45a e13c
00000240: 3a55 b8bc dc70 efbb 2658 01bd 1bed 3f3c
00000250: d14c 9ebd 4d6c d7bc d123 aabc 392b c2bd
00000260: 6a7f 9d3c 61bf 173d 8010 dc3c c6ec 8ebd
00000270: c4b6 263d f0d4 f6bc 71cf 35bd e657 6dbd
00000280: 4458 77bd 88cb a3bd 38c0 cd3d 7ec8 70bc
00000290: 5a45 723d 8fae 8cbd d5f2 d3bd c7b3 373c
000002a0: a98d 57bd 9e31 5abc 0eb0 7bbd f0d3 91bc
000002b0: 9c70 9dbd ad99 673e 178a 86bc 4d14 2fbd
000002c0: 2282 da3c 049a 9b3b 5a32 efbb 4d9a 87bd
000002d0: 2720 5bbc a7b4 c9be 2ec3 003e 9088 f9bc
000002e0: 00fe 303d 9bb2 c13c 2937 e4bd 8d39 86bd
000002f0: fba6 1f3d 3a3f 4b3b 24da c4bc 7971 653b
00000300: 6517 24bb d81e 9fbd 2ce7 46bd ccd1 6f3b
00000310: ba50 0f3d 76b3 3d3e be68 8fbd a64a 723e
00000320: ce75 c73c 776b b9bd 56fd 12bd d3a6 1cbd
00000330: 80fa a83c f709 25bd 6e38 85bd 28f2 1a3e
00000340: cf6a 3abb c963 603c 313c 75bd 3818 cfbc
00000350: 79ff 1abd 3d8b b43a 9260 9f3c 438a 043d
00000360: ccba 02bd 8ece 5b3c 0f72 213d f5a4 c0bc
00000370: 89be 91bc b06f e93d a933 2aba f629 5fbd
00000380: 15c9 64bd 9eec 783d 5917 f5bd b33f 543c
00000390: 3a3b 8bbd d01d ddbc 8f6f 913d 09e2 12bd
000003a0: 2fc6 093c beaa 823d f3e7 3ebd 4fb6 ac3d
000003b0: 2fa3 47bc 16aa b73c ea2b aa3c 5b4a 4a3c
000003c0: dae8 b53d 0f6f 2ebd a64b 143e 8122 3dbd
000003d0: 6826 55bd c4d3 a13d 710e d3bc f76c b9bd
000003e0: d0bb 133d edaa c23b c417 14bd bd3c 3bbd
000003f0: 0256 e8bc dfac e3bc 2734 4b3c a54a bd3a

net.3.bias f4 [128]
-0.0138307605 0.0048525874 -0.0014710703 -0.0215604 -0.0051664356 -0.0076387483 0.00090760965 -0.0031879283
8.427741e-05 -0.007435775 0.009680275 -0.010327874 -0.009232273 -0.004985416 -0.017778574 -0.0037233538
-0.009382499 -0.0054899193 -0.009831948 -0.003483816 -0.0027262948 -0.010134738 -0.0020014548 0.0062940684
0.0054012835 -0.011793269 -0.0073788194 -0.019394362 -0.014203521 0.014475072 -0.0054014544 0.010135647
-0.009158686 -0.00084182824 -0.021936527 0.013239229 0.011020871 -0.0096414415 -0.01133187 0.00060056156
0.0044837147 0.00929191 -0.0037641507 0.0050092 -0.0045447648 -0.010858877 -0.0012411136 -0.0046014916
-0.0010249144 -0.010790281 0.0016061876 0.0048617846 -0.0067472174 0.005252534 -0.0016234689 -2.2915872e-05
-0.0040773996 -0.01196222 0.002662259 -0.005828844 -0.007172843 -0.008006482 -0.0069205454 0.0038720134
-0.0022437733 -0.0073405923 -0.008774637 -0.009711716 -0.0114555685 -0.009423416 -0.010486825 -0.0032947192
-0.010116032 -0.011885176 -0.0069858446 0.0010139957 0.0101947095 -0.0070244973 -0.006526699 -0.0013718855
0.00020168061 0.005561813 -0.011148424 -0.0026780204 -0.0023874613 -0.004171188 -0.0010457794 0.01635442
0.0019127573 -0.0009758677 -0.015111274 0.008680762 -0.00023128842 -0.008907376 0.017881151 -0.006040882
-0.009642634 -0.0011411887 -0.014454919 -0.010058902 0.0028196292 -0.006079935 0.012360016 0.006423096
0.0015845709 0.0012997182 -0.006728479 -0.01858553 -0.0032727905 -0.013527832 -0.008767645 0.0014065412
-0.0067617306 -0.0072179907 0.0077627646 -0.008510018 -0.012811073 -0.011974621 0.0035280841 0.0007799866
-0.0050877724 -0.005934976 -0.007937937 -0.004061914 -0.014266803 -0.009284241 -0.008670355 -0.0028392433
00000000: 6a9a 62bc 7402 9f3b eed0 c0ba 709f b0bc
00000010: 344b a9bb 774e fabb a7ec 6d3a 90ec 50bb
00000020: 17be b038 cda7 f3bb 049a 1e3c 3e36 29bc
00000030: f642 17bc b35c a3bb 5fa4 91bc 8303 74bb
00000040: 0eb9 19bc c8e4 b3bb 2e16 21bc bc50 64bb
00000050: a3ab 32bb 2c0c 26bc d72a 03bb 793e ce3b
00000060: 40fd b03b 8e38 41bc 06ca f1bb ede0 9ebc
00000070: e3b5 68bc da28 6d3c affe b0bb fc0f 263c
00000080: 500e 16bc 23ae 5cba 3bb4 b3bc 5ae9 583c
00000090: e290 343c 23f7 1dbc 4fa9 39bc 016f 1d3a
000000a0: 20ec 923b 183d 183c f8af 76bb 3724 a43b
000000b0: 40ec 94bb 6ee9 31bc ddac a2ba 1cc8 96bb
000000c0: 6c56 86ba b8c9 30bc b686 d23a 9b4f 9f3b
000000d0: c317 ddbb 731d ac3b 94ca d4ba 763b c0b7
000000e0: b59b 85bb 30fd 43bc 4b79 2e3b e3ff bebb
000000f0: 2b0a ebbb 9f2d 03bc bec5 e2bb 9bc1 7d3b
00000100: 450c 13bb 5a89 f0bb 7fc3 0fbc e41d 1fbc
00000110: 23b0 3bbc ac64 1abc efd0 2bbc 37ec 57bb
00000120: b7bd 25bc 0bba 42bc 83e9 e4bb 0de8 843a
00000130: b607 273c c12d e6bb ebdd d5bb d7d0 b3ba
00000140: 3a7a 5339 de3f b63b e1a7 36bc ba81 2fbb
00000150: f476 1cbb 76ae 88bb 8912 89ba b4f9 853c
00000160: 7cb5 fa3a 5fd1 7fba 4795 77bc c139 0e3c
00000170: 0386 72b9 3ef0 11bc 7e7b 923c 97f2 c5bb
00000180: 23fc 1dbc f093 95ba 53d4 6cbc 18ce 24bc
00000190: 87c9 383b 313a c7bb aa81 4a3c d678 d23b
000001a0: 60b1 cf3a 4e5b aa3a 937a dcbb ae40 98bc
000001b0: 507c 56bb d7a3 5dbc 2ba6 0fbc b15b b83a
000001c0: 8291 ddbb e584 ecbb ca5e fe3b 9a6d 0bbc
000001d0: 89e5 51bc 3331 44bc 6e37 673b 0478 4c3a
000001e0: 54b7 a6bb 307a c2bb 1f0e 02bc ce19 85bb
000001f0: 4fbf 69bc ee1c 18bc 1b0e 0ebc 9912 3abb

net.6.weight f4 [9, 128]
-0.025874212 -0.019304918 -0.018616911 -0.027322419 0.029947624 -0.02415415 -0.0035788051 0.15942483
0.017831491 0.013648642 0.003088852 -0.007017045 -0.11107706 -0.02763982 -0.0209372 0.0032699294
0.015580988 0.028832283 0.1559723 0.035860572 0.023664862 -0.014755734 0.025311872 -0.004673352
-0.017542444 -0.016048858 0.030364422 -0.11011998 -0.036922574 -0.029271103 0.1545682 -0.023646105
0.1499221 -0.031501554 -0.010005476 -0.014263484 0.009376093 0.010305927 0.16271803 -0.012185353
-0.013060033 0.0068816794 0.014332 -0.017976094 0.019329626 0.021707758 -0.01503552 0.015589758
-0.0058424296 0.14123122 0.0056536486 -0.021309597 -0.01518871 -0.021600822 0.018913558 -0.1280089
-0.017628232 0.016138198 0.0062308055 -0.0052488605 0.022014998 -0.045643114 0.0261581 -0.022377562
-0.012796899 -0.026271239 -0.0026312668 -0.016007572 -0.12948497 -0.038543805 -0.001904285 -0.05551962
0.0049356217 0.029894255 -0.020054638 -0.0995926 -0.033693038 0.16307463 0.008681547 -0.0068842885
-0.0062247994 0.031070808 0.01505654 -0.070989475 0.14834628 0.00557427 0.029151615 -0.014881063
-0.0117935315 -0.026517283 -0.026088752 -0.022005113 -0.0077329325 0.038379073 -0.028672926 -0.007135715
0.010442405 0.14177509 0.022473468 0.15373157 -0.0071547045 -0.016594995 -0.028655898 -0.010246376
0.0073760967 -0.023346942 0.03507691 -0.011177264 0.0077362997 0.028567458 0.030903243 0.0003458322
0.020600485 0.034052595 -0.018495638 -0.03565747 0.02781222 -0.006191527 -0.04681191 0.009989831
-0.030443877 0.14397274 -0.117888466 0.016558675 -0.018208968 -0.05997854 -0.0016499701 -0.017938979
0.0055163302 -0.017359346 0.013038785 0.008034555 -0.008572948 -0.023623023 -0.013321908 0.018899193
0.0032279536 0.12938206 -0.049422298 -0.029536668 -0.058948644 -0.13141878 -0.014191579 0.0636323
0.12354496 -0.017613312 0.026439633 -0.027991265 -0.013910999 0.017101476 0.0064299433 0.05729634
0.05269257 -0.012937 -0.01776235 -0.043493237 -0.012617138 0.02292497 0.028819336 0.022276806
0.024618106 0.0038500621 -0.017648859 0.02485938 0.09038601 -0.044564 0.027991295 -0.051773965
-0.037347313 -0.02396432 0.030679708 0.0244403 -0.041843556 -0.027567832 -0.0077228006 -0.03483163
-0.030634128 0.04503363 -0.0015668826 0.010610036 0.022707997 -0.008073556 0.0055609997 -0.0391026
-0.025407206 0.029215876 0.010356576 -0.00060889864 0.011873895 -0.12330792 -0.0018113604 0.015939577
-0.037172843 0.014975963 -0.055428926 -0.05019533 -0.034950282 0.0035050407 -0.00308183 -0.10745728
-0.019080173 -0.014627527 -0.004758947 -0.007949678 0.019842992 0.029534025 -0.028850932 0.034254313
0.029420698 0.1311016 0.13923223 0.009191131 0.020855056 0.008335938 -0.013998115 0.02974626
0.091339335 -0.013830018 -0.0007606264 -0.0046074577 -0.03555166 -0.006854348 0.03059454 0.053435426
0.031657692 0.013529904 -0.026464285 0.03170218 0.0094034085 0.0006669386 0.013536946 0.03252889
0.008072803 0.011978221 0.003770801 -0.026339278 0.00022823401 -0.0046162074 -0.012715329 0.093005866
0.012036455 -0.011834317 -0.09765353 0.0026707628 -0.007815051 -0.021220798 0.06741438 0.010037724
-0.015991064 0.023212306 -0.02120717 0.13530962 0.0052957656 -0.084330335 -0.058215387 0.0032708973
00000000: 28f6 d3bc 5925 9ebc 7e82 98bc 44d3 dfbc
00000010: b854 f53c edde c5bc 638a 6abb 4340 233e
00000020: 5913 923c 8e9e 5f3c 566e 4a3b 3def e5bb
00000030: 5f7c e3bd e76c e2bc 7e84 abbc 504c 563b
00000040: 6647 7f3c ae31 ec3c 34b7 1f3e 89e2 123d
00000050: d0dc c13c 09c2 71bc d85a cf3c eb22 99bb
00000060: 2cb5 8fbc e578 83bc cfbe f83c 9686 e1bd
00000070: 203c 17bd f4c9 efbc 2047 1e3e 7ab5 c1bc
00000080: 2e85 193e c607 01bd 02ee 23bc 63b1 69bc
00000090: 2f9e 193c 31da 283c 8e9f 263e 13a5 47bc
000000a0: c0f9 55bc b67f e13b c4d0 6a3c 9a42 93bc
000000b0: 2a59 9e3c 78d4 b13c 8b57 76bc 2f6c 7f3c
000000c0: da71 bfbb eb9e 103e 3e42 b93b 7791 aebc
000000d0: 11da 78bc 35f4 b0bc 9bf0 9a3c c414 03be
000000e0: 1569 90bc 4134 843c c92b cc3b a2fe abbb
000000f0: cc58 b43c 46f4 3abd 8349 d63c 2651 b7bc
00000100: 16aa 51bc c836 d7bc 5571 2cbb 5022 83bc
00000110: b597 04be 1ce0 1dbd 3499 f9ba 8b68 63bd
00000120: ffba a13b cce4 f43c a049 a4bc 34f7 cbbd
00000130: b601 0abd 09fd 263e 0c3d 0e3c 9995 e1bb
00000140: 67f9 cbbb 3588 fe3c b5af 763c ee62 91bd
00000150: 16e8 173e 5ea8 b63b 5ecf ee3c b4cf 73bc
00000160: a839 41bc c63a d9bc 14b8 d5bc 1144 b4bc
00000170: 8a64 fdbb 6033 1d3d 7ce3 eabc b7d2 e9bb
00000180: 9f16 2b3c 7d2d 113e 471a b83c cf6b 1d3e
00000190: 0372 eabb 3af2 87bc c6bf eabc 6ae0 27bc
000001a0: 2fb3 f13b 1642 bfbc ceac 0f3d d820 37bc
000001b0: c980 fd3b 4d06 ea3c cc28 fd3c d050 b539
000001c0: 59c2 a83c bc7a 0b3d 2a84 97bc 910d 12bd
000001d0: 74d6 e33c 4be2 cabb d8bd 3fbd 63ac 233c
000001e0: 7065 f9bc 976d 133e 826f f1bd 0fa6 873c
000001f0: f92a 95bc 0fac 75bd cf43 d8ba c4f4 92bc
00000200: 55c2 b43b 3035 8ebc a1a0 553c 5ea3 033c
00000210: 8d75 0cbc 1285 c1bc 2244 5abc 7bd2 9a3c
00000220: 138c 533b bb7c 043e 096f 4abd e2f6 f1bc
00000230: 2274 71bd a592 06be cc83 68bc a751 823d
00000240: 2405 fd3d cb49 90bc ee97 d83c f04d e5bc
00000250: f5ea 63bc 6518 8c3c 46b2 d23b 91af 6a3d
00000260: 2ad4 573d b6f5 53bc 5982 91bc f725 32bd
00000270: 1db8 4ebc 26cd bb3c 8716 ec3c d97d b63c
00000280: e9ab c93c 5351 7c3b 5794 90bc e6a5 cb3c
00000290: 4d1c b93d be88 36bd 004e e53c f010 54bd
000002a0: 7ff9 18bd d250 c4bc 0354 fb3c 0637 c83c
000002b0: 2664 2bbd efd5 e1bc 8c0f fdbb 9cab 0ebd
000002c0: 6cf4 fabc 2f75 383d db5f cdba b7d5 2d3c
000002d0: 1f06 ba3c f346 04bc 0c39 b63b 0c2a 20bd
000002e0: c622 d0bc 2256 ef3c a1ae 293c 7f9e 1fba
000002f0: ba8a 423c dd88 fcbd 2b6b edba b793 823c
00000300: 8d42 18bd be5d 753c 7109 63bd 9e99 4dbd
00000310: 0728 0fbd d3b4 653b 87f8 49bb 9012 dcbd
00000320: 064e 9cbc 4ca8 6fbc f1f0 9bbb 5e3f 02bc
00000330: c58d a23c 57f1 f13c ca58 ecbc 404e 0c3d
00000340: ad03 f13c 7f3f 063e e592 0e3e 6696 163c
00000350: 39d8 aa3c 7593 083c 5a58 65bc 6eae f33c
00000360: 1e10 bb3d 4d97 62bc c664 47ba 28fa 96bb
00000370: 9e9e 11bd 709a e0bb 67a1 fa3c 1bdf 5a3d
00000380: 7fab 013d 88ac 5d3c a1cb d8bc 25da 013d
00000390: c110 1a3c 7ed5 2e3a 11ca 5d3c 033d 053d
000003a0: ca43 043c 4d40 443c 8b1f 773b 78c5 d7bc
000003b0: 1a52 6f39 8e43 97bb f553 50bc dc79 be3d
000003c0: 8d34 453c b9e4 41bc 93fe c7bd f707 2f3b
000003d0: b30a 00bc 3dd7 adbc 8d10 8a3d 4475 243c
000003e0: b1ff 82bc bc27 be3c a9ba adbc 9b8e 0a3e
000003f0: 1a88 ad3b 62b5 acbd 4273 6ebd 8d5c 563b

net.6.bias f4 [9]
-0.015813569 -0.0024320288 0.016478933 0.0037244968 -0.007359647 0.0080676 0.028905457 0.32766357
0.20157662
00000000: 758b 81bc ac62 1fbb d4fe 863c b016 743b
00000010: 3229 f1bb f82d 043c 23cb ec3c 85c3 a73e
00000020: 1a6a 4e3e

exp_avg f4 [256, 23]
-0.00011521888 -3.595828e-05 0.00012749412 -0.00020962342 0.00011998571 0.00013054114 0.000113520175 -1.981553e-06
0.0003982879 -3.140298e-05 3.6381157e-06 3.78256e-05 -4.3195755e-06 -4.3562053e-05 2.3136521e-05 -7.335077e-05
-5.2428055e-07 1.04622856e-07 -1.0807322e-05 3.4481913e-05 1.8570985e-06 0.00015867899 -9.564412e-06 -6.813244e-05
6.472982e-05 -6.6206208e-06 -4.8084716e-05 -3.369098e-05 7.357009e-05 -0.0001482764 -0.0003884667 1.3413907e-05
0.00014851656 -2.3058104e-05 -9.925652e-05 3.13039e-05 -2.1303009e-05 7.657329e-05 4.5489876e-05 8.2931575e-07
9.821367e-08 -2.4282901e-06 2.7260947e-05 -3.3117765e-05 -4.8650218e-05 3.9507395e-05 -8.978714e-05 8.002358e-05
-1.07258975e-05 2.9775105e-05 4.1200277e-05 0.00010339095 -9.028082e-05 -1.9340026e-05 -0.0005218598 1.0614757e-05
-2.332798e-05 1.6085518e-05 -4.9697987e-06 2.3377472e-06 -2.5970967e-05 3.3151235e-05 1.4827552e-06 -5.582676e-08
-2.0696063e-05 -4.7480344e-06 -2.2148468e-05 -5.3925763e-05 -1.4396858e-05 -0.00016699998 0.00018517995 0.000111102774
4.5396468e-05 0.00028909638 1.1034437e-05 -1.5536321e-05 -0.00010437304 0.00034850865 -2.2657776e-05 3.142791e-05
3.8866812e-05 5.965093e-05 -5.669579e-05 1.3906196e-05 -4.3975888e-05 -6.453959e-07 -1.946254e-08 6.445248e-06
-6.81844e-06 1.8852193e-06 4.771964e-05 -2.9438139e-05 -0.00017777049 0.00022915029 2.4073106e-06 0.00019782876
0.00018134595 0.00012336088 -0.0001450145 -0.00021341442 -0.00037302866 -2.9581593e-05 -2.2968112e-05 1.0077079e-05
1.4897724e-05 -2.1513546e-05 -3.5924066e-05 -1.5424619e-05 -4.6564955e-06 2.4211053e-07 4.620892e-05 -1.9293893e-05
2.0278326e-06 -9.43747e-05 -1.0384276e-05 0.000111184105 -0.00027899782 -2.7865859e-05 -0.00023505748 -0.00030617233
5.201238e-05 0.00017290917 0.00016528915 -9.174406e-05 -3.1426214e-05 -5.943581e-05 1.0704209e-05 -7.963098e-05
8.4286316e-05 1.7664763e-05 -6.7040696e-06 1.0020178e-06 -1.219961e-07 -4.0374223e-05 1.916689e-05 -3.4203704e-06
5.6482415e-05 6.332698e-05 6.581224e-05 -3.129948e-05 -3.1680775e-05 6.8540896e-05 -3.7711274e-05 -3.7143218e-05
6.092466e-05 6.624969e-05 -8.544603e-05 -8.4606276e-05 -2.2523567e-05 6.860825e-05 -1.1869403e-05 5.0329614e-05
-4.812294e-05 -2.8506578e-05 -1.0354534e-06 1.5946631e-07 3.5263e-05 -2.3123923e-05 2.1267522e-05 -2.0706697e-05
1.2712998e-05 -0.00018284345 0.00031493852 5.358008e-05 0.00021900583 0.00031313297 7.933407e-06 -0.00013130481
-0.00016476942 -0.00015591226 -1.5903513e-06 4.7122958e-05 1.0808462e-05 5.667217e-05 -5.574283e-05 -4.001654e-05
2.5876013e-06 -9.230443e-07 -5.6609085e-08 5.78775e-05 -1.7369577e-05 4.534747e-06 -4.0864707e-05 -4.920148e-05
0.00010118156 3.1015716e-05 -1.973862e-05 0.00026781298 8.9845016e-05 -0.00024362479 3.3496402e-05 8.925161e-05
-0.00016528441 -0.00019225175 -1.38358555e-05 0.00012350208 -9.889879e-05 8.14771e-06 -3.5814e-05 -6.4571286e-05
3.786385e-06 -1.2498604e-07 3.190381e-05 -7.394088e-05 3.8882303e-05 -2.1696278e-05 5.662625e-06 0.00021958082
-0.00019302352 -3.112236e-05 -5.46946e-05 -0.00015844362 -0.00016784313 9.8296325e-05 0.00022841514 0.00037029316
-2.4726642e-05 7.3482984e-06 3.1579177e-06 -1.2910277e-07 -2.9628773e-05 1.9195004e-05 1.9194551e-06 7.122252e-07
9.078884e-08 1.4727344e-06 1.2577438e-05 1.8825414e-05 5.2656913e-05 1.4051977e-05 -0.00014185598 -1.5636504e-05
8.226546e-05 -4.122892e-05 0.00011536112 7.262942e-05 0.00028991303 -0.00025676916 0.00012076098 -2.6084963e-05
7.5794866e-05 0.00010459209 -2.7777965e-05 0.00022339498 -7.86307e-05 -0.00013752017 2.503504e-06 -8.416579e-07
1.9004574e-05 -4.2752195e-05 3.2504453e-05 6.388652e-05 6.1285878e-06 0.00016183387 -0.00010687635 -0.00010617287
00000000: aaa1 f1b8 e9d1 16b8 f1af 0539 5cce 5bb9
00000010: d6a0 fb38 dfe1 0839 ae11 ee38 d2fa 04b6
00000020: 4cd1 d039 b1b6 03b8 5a26 7436 eea6 1e38
00000030: dff0 90b6 66b6 36b8 4d15 c237 e5d3 99b8
00000040: 49bc 0cb5 06ad e033 1851 35b7 aca0 1038
00000050: 6b41 f935 1163 2639 d676 20b7 53e2 8eb8
00000060: 8fbf 8738 b326 deb6 92ae 49b8 6a4f 0db8
00000070: a449 9a38 a57a 1bb9 1eab cbb9 4b0c 6137
00000080: 1cbb 1b39 e76c c1b7 f027 d0b8 4f4c 0338
00000090: ddb3 b2b7 f995 a038 62cc 3e38 259e 5e35
000000a0: 89e9 d233 b5f5 22b6 70ae e437 eee7 0ab8
000000b0: c60d 4cb8 beb4 2538 1b4c bcb8 55d2 a738
000000c0: 61f3 33b7 8dc5 f937 76ce 2c38 98d3 d838
000000d0: 2555 bdb8 643c a2b7 6bcd 08ba 0916 3237
000000e0: 75b0 c3b7 63ef 8637 3fc2 a6b6 31e2 1c36
000000f0: 3adc d9b7 de0b 0b38 1503 c735 2cc6 6fb3
00000100: 759c adb7 4e51 9fb6 79cb b9b7 592e 62b8
00000110: 098a 71b7 b71c 2fb9 dd2c 4239 d9ff e838
00000120: 1668 3e38 dc91 9739 8c20 3937 ff53 82b7
00000130: d9e2 dab8 0ab8 b639 3411 beb7 76d1 0338
00000140: ec04 2338 b331 7a38 a4cc 6db8 a84e 6937
00000150: c072 38b8 453f 2db5 942e a7b2 4244 d836
00000160: f4c9 e4b6 a407 fd35 9326 4838 ecf1 f6b7
00000170: e767 3ab9 1048 7039 488d 2136 4170 4f39
00000180: af27 3e39 6f5a 0139 090f 18b9 ffc7 5fb9
00000190: 0f93 c3b9 fd25 f8b7 a5ab c0b7 ba10 2937
000001a0: 3df1 7937 fd77 b4b7 2cad 16b8 1e64 81b7
000001b0: fe3e 9cb6 6bfb 8134 73d0 4138 52d9 a1b7
000001c0: e615 0836 08eb c5b8 2038 2eb7 832b e938
000001d0: 7446 92b9 7ac1 e9b7 c379 76b9 c185 a0b9
000001e0: de27 5a38 f44e 3539 7851 2d39 b866 c0b8
000001f0: a4cf 03b8 b74a 79b8 3a96 3337 8fff a6b8
00000200: dfc2 b038 ca2e 9437 85f3 e0b6 127d 8635
00000210: 08fe 02b4 7e57 29b8 95c8 a037 8489 65b6
00000220: 88e7 6c38 6ace 8438 ad04 8a38 9047 03b8
00000230: f9e0 04b8 9dbd 8f38 2c2c 1eb8 3aca 1bb8
00000240: 5b89 7f38 88ef 8a38 7d31 b3b8 a66e b1b8
00000250: fef0 bcb7 c6e1 8f38 b322 47b7 0319 5338
00000260: 9dd7 49b8 6921 efb7 e8f9 8ab5 c439 2b34
00000270: 5ce7 1338 3ffa c1b7 a867 b237 4bb3 adb7
00000280: e949 5537 aab9 3fb9 551e a539 2cbb 6038
00000290: eea4 6539 ff2b a439 b919 0537 deae 09b9
000002a0: f4c5 2cb9 617c 23b9 0e74 d5b5 e4a5 4538
000002b0: fe55 3537 47b3 6d38 68cd 69b8 6fd7 27b8
000002c0: a7a6 2d36 1fc7 77b5 5922 73b3 7ec1 7238
000002d0: e2b4 91b7 2e29 9836 2566 2bb8 b05d 4eb8
000002e0: 7031 d438 df16 0238 5d94 a5b7 4069 8c39
000002f0: 2d6b bc38 8875 7fb9 7d7e 0c38 982c bb38
00000300: 3250 2db9 3097 49b9 8c20 68b7 5680 0139
00000310: e267 cfb8 26b2 0837 fd36 16b8 726a 87b8
00000320: 9919 7e36 e733 06b4 75d0 0538 b510 9bb8
00000330: 8e15 2338 6700 b6b7 9401 be36 473f 6639
00000340: 5b66 4ab9 6189 02b8 e167 65b8 e323 26b9
00000350: 0cff 2fb9 7024 ce38 b982 6f39 e823 c239
00000360: 0f6c cfb7 6791 f636 9dec 5336 809f 0ab4
00000370: 4e8b f8b7 f504 a137 fdcf 0036 be2f 3f35
00000380: b1f7 c233 c5aa c535 af03 5337 45eb 9d37
00000390: eedb 5c38 c8c0 6b37 2dbf 14b9 232b 83b7
000003a0: ef85 ac38 37ed 2cb8 08ee f138 9f50 9838
000003b0: 78ff 9739 f99e 86b9 0f41 fd38 08d1 dab7
000003c0: 0ff4 9e38 7358 db38 ba04 e9b7 223f 6a39
000003d0: 89e6 a4b8 4a33 10b9 df01 2836 4aee 61b5
000003e0: 036c 9f37 d250 33b8 6455 0838 d0fa 8538
000003f0: 2ba4 cd36 f3b1 2939 ce22 e0b8 20a9 deb8

exp_avg_sq f4 [256, 23]
1.2233461e-06 1.5504185e-06 7.5037306e-08 7.59584e-07 1.047024e-06 3.199706e-07 3.8287874e-07 2.4475105e-06
2.006037e-06 2.0292612e-08 4.6890056e-09 1.4277589e-08 9.5094e-09 2.6313977e-08 2.1689553e-08 1.6025666e-08
1.2633378e-11 9.979721e-13 4.039327e-08 3.824444e-08 1.0459441e-09 1.880331e-07 2.6131012e-08 1.2600536e-06
1.5974733e-06 7.951896e-08 8.0657793e-07 1.073634e-06 3.5559555e-07 4.0203693e-07 2.5186994e-06 2.093447e-06
2.6272652e-08 4.831736e-09 1.9451138e-08 1.4921888e-08 2.8257753e-08 2.7883003e-08 2.1192596e-08 8.8606025e-11
1.4730146e-12 5.0712146e-08 4.191259e-08 1.9264494e-09 1.9758834e-07 3.365774e-08 2.7572392e-07 3.6307173e-07
1.6968238e-08 1.76304e-07 2.465671e-07 7.705958e-08 8.7171635e-08 5.571388e-07 4.4940208e-07 4.724718e-09
1.3426378e-09 3.863523e-09 2.8700062e-09 5.9314873e-09 6.342305e-09 4.4914543e-09 1.0389916e-11 2.9625244e-13
1.2206098e-08 9.109367e-09 5.212076e-10 4.315649e-08 6.0768994e-09 9.604505e-07 1.2138936e-06 5.7363877e-08
5.86168e-07 8.175338e-07 2.458028e-07 2.9968894e-07 1.9297868e-06 1.5544023e-06 1.3254612e-08 3.4228123e-09
8.943478e-09 6.882696e-09 1.8397996e-08 1.4187438e-08 1.13634275e-08 4.619697e-12 6.8310684e-13 3.198998e-08
3.0538068e-08 8.1135176e-10 1.4630744e-07 1.7157694e-08 2.0273374e-07 2.6707275e-07 1.3994235e-08 1.3625224e-07
1.8053952e-07 5.538031e-08 6.636345e-08 4.180671e-07 3.501602e-07 4.6565245e-09 1.1349589e-09 3.2399445e-09
2.4527191e-09 5.4607048e-09 6.1357435e-09 3.8982533e-09 1.8243695e-11 2.5815024e-13 8.1799225e-09 7.3734965e-09
3.161995e-10 3.3422005e-08 4.7661186e-09 5.1903e-07 6.6704365e-07 3.3096804e-08 3.2269747e-07 4.5342168e-07
1.4564465e-07 1.6849178e-07 1.0638043e-06 8.2164024e-07 8.411211e-09 2.2823814e-09 6.0748673e-09 4.5782405e-09
1.07499165e-08 8.430917e-09 6.9623973e-09 4.2880955e-12 4.603758e-13 1.9607455e-08 1.7219023e-08 7.197149e-10
8.015973e-08 1.14307435e-08 4.0333546e-07 5.246641e-07 2.4354401e-08 2.6415395e-07 3.5369436e-07 1.0716737e-07
1.2946775e-07 8.4393594e-07 6.8473605e-07 8.440785e-09 1.8608309e-09 6.2602576e-09 4.3470108e-09 8.6068574e-09
8.624207e-09 6.369973e-09 4.0746603e-12 3.5034066e-13 1.6569194e-08 1.3195093e-08 5.398949e-10 6.3881146e-08
8.696436e-09 3.884962e-07 4.910186e-07 2.4754982e-08 2.383796e-07 3.3626986e-07 1.12097105e-07 1.16640784e-07
7.69113e-07 6.138072e-07 7.0856214e-09 1.9023962e-09 5.367032e-09 3.5367627e-09 8.699747e-09 7.608749e-09
5.4650693e-09 1.6885342e-12 3.8147602e-13 1.589658e-08 1.2457464e-08 6.169155e-10 5.7612205e-08 9.024022e-09
1.7133317e-06 2.1497176e-06 1.05889264e-07 1.0254817e-06 1.453697e-06 4.7472702e-07 5.0792227e-07 3.3682338e-06
2.8006757e-06 3.308672e-08 6.519251e-09 2.5571536e-08 1.9631855e-08 3.665661e-08 3.9778868e-08 2.867865e-08
1.8552244e-10 2.01334e-12 6.7818625e-08 5.5179832e-08 2.735487e-09 2.487873e-07 4.4113673e-08 2.3531811e-07
2.9721195e-07 1.5894141e-08 1.432526e-07 2.0455848e-07 6.7771225e-08 6.982176e-08 4.7174638e-07 3.895896e-07
4.672147e-09 1.1457788e-09 3.3232765e-09 2.4193496e-09 5.0938214e-09 5.6772027e-09 4.231202e-09 7.1250063e-12
1.9698036e-13 1.0876456e-08 7.475242e-09 4.4305176e-10 3.470288e-08 5.1310125e-09 1.3973383e-06 1.7905011e-06
8.6271584e-08 8.5663976e-07 1.2212275e-06 3.72204e-07 4.3092186e-07 2.8710954e-06 2.238937e-06 2.4532259e-08
6.2022365e-09 2.1437497e-08 1.2852692e-08 3.330558e-08 3.185201e-08 2.3228594e-08 2.0252307e-11 1.2342683e-12
5.098696e-08 4.3133216e-08 1.7726468e-09 2.0726267e-07 3.4327762e-08 9.819776e-07 1.2263689e-06 6.264955e-08
00000000: da31 a435 f917 d035 3224 a133 37e6 4b35
00000010: 7987 8c35 6dc8 ab34 748e cd34 e93f 2436
00000020: 749f 0636 ed4f ae32 ee1c a131 8049 7532
00000030: c95e 2332 0c09 e232 d54f ba32 d0a8 8932
00000040: ad3f 5e2d bc73 8c2b df7c 2d33 3542 2433
00000050: e3c0 8f30 25e6 4934 b476 e032 1d1f a935
00000060: c468 d635 03c4 aa33 9d83 5835 c919 9035
00000070: aee8 be34 89d7 d734 ed06 2936 257d 0c36
00000080: 2cae e132 6604 a631 8115 a732 942d 8032
00000090: 75bb f232 5f83 ef32 030b b632 c2d8 c22e
000000a0: f24e cf2b 98ce 5933 6103 3433 7562 0431
000000b0: ab28 5434 148f 1033 3507 9434 33ec c234
000000c0: 8dc1 9132 134e 3d34 ed5f 8434 f47b a533
000000d0: 1d33 bb33 498e 1535 5a45 f134 0f57 a231
000000e0: de87 b830 e8bf 8431 af39 4531 eacd cb31
000000f0: 81eb d931 4053 9a31 06c8 362d 7ac6 a62a
00000100: fdb2 5132 6b7f 1c32 b944 0f30 105b 3933
00000110: f9cc d031 d4e8 8035 11ed a235 4060 7633
00000120: 2959 1d35 7f74 5b35 e1f6 8334 efe4 a034
00000130: 7c81 0136 dba0 d035 66b6 6332 c036 6b31
00000140: d5a5 1932 d67c ec31 9f09 9e32 03bd 7332
00000150: e238 4332 888a a22c 0947 402b 5b65 0933
00000160: f628 0333 ce05 5f30 af18 1d34 2b62 9332
00000170: 07af 5934 3362 8f34 4c6b 7032 bb4c 1234
00000180: 53da 4134 4bdb 6d33 b183 8e33 b472 e034
00000190: a7fd bb34 39ff 9f31 d1fc 9b30 b5a5 5e31
000001a0: b18c 2831 dea0 bb31 92d2 d231 66f1 8531
000001b0: 2679 a02d 5f53 912a ae87 0c32 f659 fd31
000001c0: 20d5 ad2f e28b 0f33 39c3 a331 7853 0b35
000001d0: e40e 3335 5226 0e33 343f ad34 cd6d f334
000001e0: 7f62 1c34 abea 3434 0ac8 8e35 b08e 5c35
000001f0: e680 1032 14d8 1c31 19bb d031 a14e 9d31
00000200: a2ae 3832 91d7 1032 e539 ef31 bbdf 962c
00000210: 9395 012b 406d a832 08e9 9332 6fd5 4530
00000220: 4724 ac33 f160 4432 018a d834 a4d6 0c35
00000230: e533 d132 0bd1 8d34 62e3 bd34 e223 e633
00000240: d303 0b34 d68a 6235 b4ce 3735 f702 1132
00000250: 2bc0 ff30 cf19 d731 b65c 9531 5cdd 1332
00000260: aa29 1432 e0de da31 475d 8f2c 6939 c52a
00000270: 0b54 8e32 a2b0 6232 ba67 1430 082f 8933
00000280: 5467 1532 8392 d034 8bce 0335 c8a4 d432
00000290: 49f5 7f34 9488 b434 09ba f033 f37b fa33
000002a0: 0b75 4e35 82c4 2435 c975 f331 4fbb 0231
000002b0: ea68 b831 630b 7331 e475 1532 a2b7 0232
000002c0: 42c7 bb31 dba3 ed2b 7dc0 d62a f38c 8832
000002d0: 8204 5632 9293 2930 4a71 7733 1208 1b32
000002e0: a1f5 e535 de43 1036 3d65 e333 48a3 8935
000002f0: a61c c335 fcdd fe34 2758 0835 d109 6236
00000300: 3ef3 3b36 3c1b 0e33 f0ff df31 67a8 db32
00000310: e8a2 a832 5e70 1d33 54d9 2a33 0559 f632
00000320: edfb 4b2f 1cad 0d2c afa3 9133 defe 6c33
00000330: 32fb 3b31 1191 8534 7f77 3d33 c0ab 7c34
00000340: 8090 9f34 9687 8832 fad0 1934 9ba4 5b34
00000350: a089 9133 ebf0 9533 5444 fd34 c928 d134
00000360: a488 a031 8279 9d30 b35f 6431 a641 2631
00000370: ba05 af31 3411 c331 0c62 9131 5ab0 fa2c
00000380: b9c7 5d2a 29db 3a32 766c 0032 fe91 f32f
00000390: 380c 1533 dd4c b031 2e8c bb35 2651 f035
000003a0: 4e44 b933 d6f3 6535 0fe9 a335 54d3 c734
000003b0: 7359 e734 0bad 4036 a540 1636 02bb d232
000003c0: 731b d531 8e25 b832 bdce 5c32 df0b 0f33
000003d0: a8cd 0833 3888 c732 2424 b22d 34b5 ad2b
000003e0: c1fc 5a33 7941 3933 77a1 f330 ee8b 5e34
000003f0: c66f 1333 7ecc 8335 b799 a435 f489 8633

exp_avg f4 [256]
1.9401848e-06 -6.630813e-05 -9.19993e-05 -0.00024648773 -0.000295804 0.00037115838 3.1336513e-05 -0.00043700088
-4.9693892e-05 0.00023915918 -3.7731184e-05 0.00018123328 0.00035164086 0.00010180747 -7.6676566e-05 -0.00058470934
-4.900531e-05 -0.00011665644 -4.3794793e-05 -0.00023321467 -3.6966852e-05 2.5115509e-05 0.00026992694 -6.332039e-05
0.00043229072 -0.0001418862 -6.9416645e-05 -0.0003845516 0.00017959133 0.00031802285 -0.00026939376 -2.6395887e-06
0.00029126328 -0.0004172669 -2.5130207e-06 0.00018310228 -0.0002899418 -2.3800674e-05 0.00035697457 0.00012971614
-0.00019607903 -0.00026280058 0.00043382784 0.00016001015 -2.7596749e-05 -1.5109832e-05 0.0001396505 -0.00030329582
-4.155346e-05 2.5828326e-06 8.232851e-05 -0.00017995194 -0.00027106918 -0.00010603581 0.00013007756 -1.0531764e-05
-0.0003051187 6.2313346e-05 -8.257733e-05 -0.0003741333 -3.842601e-05 -0.00031089273 9.499176e-06 -0.00012509816
-2.7172697e-05 -0.00038100462 -0.0001352814 0.00057333976 -0.0002118656 0.0004105501 0.00025157392 0.00027642277
0.0001893168 0.00034129634 5.2827323e-05 0.00038968062 -0.0001345984 1.3345201e-05 -0.0001927805 0.000110260444
-0.00018336916 0.00021757164 9.31141e-05 2.4422703e-05 0.000231976 -9.257991e-05 -5.4474833e-05 -0.00056951225
-0.00020825923 0.00012554054 0.00018872325 2.0873333e-05 -0.0002084416 0.00015441659 -0.0002544099 8.561108e-05
0.0002455915 -0.00015376443 -0.00012341626 -0.00019672293 -0.00036471992 -0.00026429998 0.00020410481 0.000102370126
5.5100387e-05 -0.00017129358 -1.12112775e-05 -0.00034012043 1.9350978e-06 1.9414383e-05 -0.00029399802 9.4841795e-05
0.0001387058 -0.00019465988 -0.00010116632 -0.00041544353 -2.4873218e-05 -0.00022258381 -8.023252e-05 -0.00011282786
-0.00014709195 -4.33971e-05 6.719705e-05 0.00019488372 -8.248718e-05 -0.00012401008 -0.00016895628 1.1732337e-05
0.00017222289 -0.00023163077 0.00016817512 0.00018669023 -3.5813064e-05 0.0002426443 -0.00013795284 -2.3450586e-05
0.00016408967 0.0001867331 -0.00033760892 0.00036902513 0.00015937687 -0.00012967517 -0.0002540299 7.162726e-05
-0.00013444021 7.9847625e-05 -7.299013e-05 -0.00014624167 -0.00022257188 0.00028480522 2.56537e-05 -0.0002661955
-0.00011258248 0.00010968534 1.1318234e-05 6.290012e-05 -0.00020248244 -0.00036570738 -7.139335e-05 -0.00023719785
-0.00019313647 3.42766e-06 -0.00025163393 0.00021291013 5.4157812e-05 -0.00034817235 -0.00014056203 -0.0001646181
8.25912e-06 -0.0004215694 0.0004348883 0.00022080026 -0.00010924546 0.00012461124 0.00016795784 0.00029244248
-0.0002727408 5.740092e-05 -4.0458195e-05 -0.00023491278 0.00015377761 -0.0003634761 8.8408146e-05 0.0001225116
-0.00015740082 3.9871793e-05 -0.00023259787 -4.5107545e-06 0.00021475242 0.00022416694 -0.00014433269 -0.000104280356
-0.00013404709 -6.2904255e-05 0.00015633508 -0.00027096106 -0.00010655432 0.00026117 0.00018486609 0.00027656075
-0.00036822434 -0.00019874726 -0.00018515778 0.00035768916 6.8782865e-05 -0.00043265996 -0.00029672612 -0.0002529256
1.0650284e-05 -0.00033509554 9.305717e-06 0.00010354977 -0.00016203805 -0.00034412788 -0.00019590926 0.0003112453
-0.00011512827 2.0972102e-05 0.00017488693 0.00011691684 0.00017169642 -0.00012399064 -0.00029912702 0.0001738075
0.00014037076 4.4141645e-05 -0.00022773919 -0.00026002733 -8.0454134e-05 -0.00040636427 -0.0001333855 -5.127291e-05
-3.1652242e-05 -0.00017746512 -0.0003013137 7.604397e-06 -1.1187745e-06 0.0001813917 -0.00017852141 0.0005300292
4.2293083e-05 -6.895415e-05 0.00013634704 -0.0003204706 -0.00023057163 0.00020981206 0.00011369738 -4.751104e-05
0.0003518893 -1.25238375e-05 0.0002486615 6.0726375e-06 0.00017061128 -0.00019263882 -7.860723e-06 -0.0001310288
00000000: 1f34 0236 e80e 8bb8 c0ef c0b8 063b 81b9
00000010: 2416 9bb9 0998 c239 536f 0338 441d e5b9
00000020: 696e 50b8 cec6 7a39 8d41 1eb8 7009 3e39
00000030: 705c b839 7881 d538 6bcd a0b8 2e47 19ba
00000040: 0d8b 4db8 73a5 f4b8 4db0 37b8 168b 74b9
00000050: db0c 1bb8 25af d237 fb84 8d39 e0ca 84b8
00000060: 14a5 e239 49c7 14b9 c793 91b8 a49d c9b9
00000070: ae50 3c39 4ebc a639 6b3d 8db9 ca23 31b6
00000080: b2b4 9839 9ec4 dab9 5ea5 28b6 25ff 3f39
00000090: 5403 98b9 8fa7 c7b7 5128 bb39 6904 0839
000000a0: 909a 4db9 7fc8 89b9 6373 e339 66c8 2739
000000b0: 917f e7b7 3c80 7db7 256f 1239 ad03 9fb9
000000c0: b049 2eb8 ba54 2d36 c8a7 ac38 7bb1 3cb9
000000d0: 4a1e 8eb9 8b5f deb8 6e65 0839 95b1 30b7
000000e0: 57f8 9fb9 39ae 8238 5e2d adb8 5227 c4b9
000000f0: 9d2b 21b8 51ff a2b9 a65e 1f37 c82c 03b9
00000100: ecf0 e3b7 93c1 c7b9 53da 0db9 2e4c 163a
00000110: 3d28 5eb9 1a3f d739 aee5 8339 d6ec 9039
00000120: 5783 4639 05f0 b239 e892 5d38 0c4e cc39
00000130: fc22 0db9 34e5 5f37 1f25 4ab9 a03b e738
00000140: c946 40b9 f123 6439 4046 c338 5bdf cc37
00000150: 953e 7339 7627 c2b8 e87b 64b8 524b 15ba
00000160: 2960 5ab9 88a3 0339 03e4 4539 2419 af37
00000170: 1e91 5ab9 e3ea 2139 5262 85b9 198a b338
00000180: bcc2 8039 d33b 21b9 4d69 01b9 6947 4eb9
00000190: e137 bfb9 be91 8ab9 f804 5639 8baf d638
000001a0: 971b 6738 459d 33b9 1218 3cb7 3152 b2b9
000001b0: badc 0136 12dc a237 bf23 9ab9 cde5 c638
000001c0: 8e71 1139 9d1d 4cb9 4129 d4b8 e3cf d9b9
000001d0: d4a6 d0b7 6365 69b9 8242 a8b8 ff9d ecb8
000001e0: b23c 1ab9 4805 36b8 24ec 8c38 b359 4c39
000001f0: f8fc acb8 b408 02b9 db29 31b9 01d6 4437
00000200: bb96 3439 e9e1 72b9 2a58 3039 47c2 4339
00000210: fc35 16b8 556e 7e39 6fa7 10b9 c0b7 c4b7
00000220: 7c0f 2c39 c9cd 4339 1a01 b1b9 b779 c139
00000230: 671e 2739 6af9 07b9 512f 85b9 9836 9638
00000240: 85f8 0cb9 de73 a738 4712 99b8 7358 19b9
00000250: 2f62 69b9 e951 9539 e732 d737 2890 8bb9
00000260: 421a ecb8 de06 e638 72e3 3d37 3fe9 8338
00000270: 7751 54b9 6abc bfb9 03b9 95b8 50b8 78b9
00000280: ad84 4ab9 c006 6636 bced 83b9 a140 5f39
00000290: 8227 6338 e78a b6b9 d563 13b9 569d 2cb9
000002a0: a690 0a37 1606 ddb9 b801 e439 9e86 6739
000002b0: b61a e5b8 13aa 0239 d71d 3039 f752 9939
000002c0: a7fe 8eb9 c5c1 7038 a8b1 29b8 eb52 76b9
000002d0: 5d3f 2139 f090 beb9 c367 b938 7576 0039
000002e0: f60b 25b9 033c 2738 84e5 73b9 165b 97b6
000002f0: 2a2f 6139 5b0e 6b39 0358 17b9 17b1 dab8
00000300: fe8e 0cb9 77eb 83b8 e1ed 2339 c70f 8eb9
00000310: ea75 dfb8 a5ed 8839 9dd8 4139 5bff 9039
00000320: 3c0e c1b9 d066 50b9 ea26 42b9 3a88 bb39
00000330: 853f 9038 a3d6 e2b9 e891 9bb9 199b 84b9
00000340: 9fae 3237 c3af afb9 c01f 1c37 dc28 d938
00000350: c2e8 29b9 106c b4b9 fe6c 4db9 a32e a339
00000360: 0571 f1b8 3fed af37 da61 3739 4031 f538
00000370: 6809 3439 7c03 02b9 26d4 9cb9 1840 3639
00000380: 7d30 1339 bb24 3938 46cd 6eb9 4754 88b9
00000390: 7cb9 a8b8 4a0d d5b9 66dd 0bb9 de0d 57b8
000003a0: 56c2 04b8 ee15 3ab9 a4f9 9db9 4629 ff36
000003b0: cd28 96b5 f733 3e39 7a31 3bb9 a8f1 0a3a
000003c0: da63 3138 7a9b 90b8 61f8 0e39 d604 a8b9
000003d0: 9ac5 71b9 ff00 5c39 d170 ee38 9746 47b8
000003e0: c87d b839 791d 52b7 c85e 8239 8fc3 cb36
000003f0: 1ee6 3239 17ff 49b9 8ce1 03b7 c764 09b9
