RefAgent/BC-CAB-256128/checkpoints/agent_1100.pt (torch, 488547 bytes, 18 tensors)

net.0.weight f4 [256, 23]
00000000: 172e 7cbc e3e9 30bd f770 d23b 0caf 0a3d
00000010: 84b5 8fbc 369d ea3c 6599 4abd 1b97 d8bc
00000020: 2a54 083c 66ec 34be 0406 e5be df49 02bf
00000030: 40d0 673e 3aef c23d f72d 0cbe 6fc9 573c
00000040: fc4c 06be a786 16c0 cd65 b23e 1f15 84bd
00000050: d959 743f cb2f 3c3e f3a5 113e 1c78 743b
00000060: 3c74 57be b58b 1c3e 9347 3bbd d598 663d
00000070: bd2f 1abd 19bd b0bd 2f94 b6bb 16ae 04bb
00000080: e107 0bbd df90 2cbf 243e 20be 6254 223e
00000090: 2cd2 5c3d ec5e 82be 62de 82bd 0c8c 983d
000000a0: 8028 373e 3779 2c3e 5086 c9be e643 223e
000000b0: a926 ea3d d4ea 58bd 396e 213e 67e9 163d
000000c0: 6e11 923d 9307 a33c 191e 41bd 4942 d43d
000000d0: d98c 213e 6ecd 8cbd 6b8b 55bd e1b5 1f3d
000000e0: 9c6e b63e a99c 913e dee4 4abd a34b 72ba
000000f0: 4d35 813e 9fb6 a13e 5a9b 10be 4fee 1dbf
00000100: e282 acbd 1d62 aa3d 4272 a9be 8d56 b23d
00000110: ab18 36bc 6a0e bb3d 5897 3dbd feac 70bd
00000120: 2e27 7b3c feba 863d b178 8d3d 1c55 8339
00000130: 5c30 17bd 24dc acbc 77cd 143d dfcd 38be
00000140: 3281 bebe db31 4c3e e97e ba3b 446a a43d
00000150: eead 943c a82b bebd 8f27 2fc0 63dc 973e
00000160: d950 a83e bf60 623f f53e 313e c491 fb3d
00000170: 75be aabd 9605 08be 10ed 9abb 8d8c 0dbe
00000180: e2a9 78bc 048e 79bd 0975 6d3c 6924 0abc
00000190: d4a7 99bd 2b77 9e3d 5f65 1a3f d7c4 043e
000001a0: 31e4 82be 2de2 1fbe 4d45 803e 5f61 203e
000001b0: b881 a2bd 848d afbf f304 a0bd 2da2 993e
000001c0: c688 953e 30ed d4bc 96f0 2e3a 3a11 ecbd
000001d0: 777f b2bc c79b 81ba cf68 46bd 1da9 e7bd
000001e0: c77f 40bd 9c2c 27be e53b 443c 98f2 e5ba
000001f0: 4837 2fbe 6981 dd3d 9d01 3ebc e6b9 c7be
00000200: 3ceb a9bd 060e 72be b353 71be 6b7f c0bd
00000210: 9abc 243e 3cf4 15bd 7126 44be 85fe b53e
00000220: b96b ea3d 1741 e4bd 0cb1 babc 8e96 bebd
00000230: b687 39bd 370c 93bd 2755 36bc 6d0d 52bc
00000240: 5800 973b 30f1 1f3d 2ab4 3abc c3ac 9a3d
00000250: d624 f13e b909 243e 094e 6cbe de6f 84be
00000260: 75ca 813e fbd5 58be ee1b 303e 44d1 b3bf
00000270: 0e8a e7bc aa55 e43e d6ec 6c3e 8677 c2bd
00000280: 1cf1 4c3d ec45 c93d 8aec c7bd c9d8 36bd
00000290: 0ef5 0f3d 9904 233e 45ad df3d f396 693d
000002a0: 0c6f 39bb c2c3 2c3c de53 713e 4c3f ca3e
000002b0: bfcc 8e3e 4806 95bd 9fbf bf3d 7102 9a3e
000002c0: d4f8 9b3e 96cd 353f 83f8 2a3d be43 25be
000002d0: 1196 783e 224d 8dbe 8986 43be 66c3 9ebd
000002e0: ac35 eebd 3fc8 7a3e a653 6dbd 562f 143d
000002f0: 9e40 adbd 91e6 0d3d 53e8 b1bd a453 f83b
00000300: dd71 733c 855d ebbd a65c 123f 4390 c73c
00000310: e3d8 58be 7d5e 29bd 1dd7 4b3e c21e 65bc
00000320: ce7a e33d b7e0 91bf d9d8 fb3c 8c72 803e
00000330: e717 803e 93c7 f2bd a6b1 8f3d eb2f 38bd
00000340: a21e 97bc 2b23 143d 284e 543d f910 4a3c
00000350: 00dd a73c 66b0 18be 1c32 083e 3906 403d
00000360: 4475 f53c 2271 813d ae7c c83b 7d27 aa3e
00000370: bcb0 cebd 14df 383d c23d 13be 8a18 5d3e
00000380: 89eb 9d3d 28fb a43c c2a3 443e 260e b5be
00000390: 81c6 30be 5891 debc a1ca 1cbd a638 133d
000003a0: 2113 13be 74a8 32be ca28 5ebd 1438 ebbd
000003b0: afe4 dcbd 8d37 4e3d 9277 293c aa8e 0e3e
000003c0: 2182 743b bdfd 96bc efa7 fabe 13d4 a2bd
000003d0: fa43 edbd ae33 3dbe 9914 223e cd8e 4fbf
000003e0: 6a75 61be 5319 d93e ac88 903f a616 dbbd
000003f0: 9e1a 03be 6add 273e a989 eb3d 4f6b 7a3e
-0.015391848 -0.0431918 0.006422158 0.033858344 -0.017542608 0.028639417 -0.049462695 -0.02643924
0.0083208475 -0.17668304 -0.44731152 -0.5089397 0.22638035 0.09518285 -0.13689409 0.013170584
-0.13115305 -2.3519685 0.34843293 -0.06449341 0.95449597 0.18377607 0.14223461 0.0037303036
-0.21040434 0.15287669 -0.045722555 0.056298096 -0.037643183 -0.086298175 -0.005571864 -0.0020245365
-0.03394306 -0.67408556 -0.15648705 0.15852502 0.053911373 -0.25463045 -0.063900724 0.07448587
0.17886543 0.16843115 -0.39360285 0.15846214 0.11433155 -0.052958325 0.15764703 0.036843684
0.07132231 0.019901073 -0.047147844 0.103642054 0.15776385 -0.0687512 -0.052134912 0.038991813
0.35631263 0.28439835 -0.04953467 -0.0009242838 0.25235978 0.3158464 -0.14121762 -0.61691755
-0.084234014 0.08319495 -0.33094984 0.087079145 -0.01111428 0.09133609 -0.04628691 -0.05875873
0.015329165 0.06578635 0.06907786 0.00025049679 -0.036911353 -0.021101065 0.03632876 -0.18047284
-0.37207943 0.19940893 0.0056913984 0.08028081 0.018149342 -0.092856705 -2.7367895 0.2966033
0.32874182 0.8842887 0.17309172 0.12283662 -0.08337108 -0.13283381 -0.004727967 -0.13823147
-0.015177222 -0.060926452 0.014493235 -0.008431532 -0.07502714 0.07737573 0.6031093 0.12965713
-0.2556472 -0.15613623 0.25052872 0.15662144 -0.07934898 -1.3715062 -0.07813444 0.30006543
0.29205912 -0.025992006 0.00066734233 -0.11526723 -0.021789296 -0.0009888344 -0.048439797 -0.11311553
-0.046996858 -0.16325611 0.011977171 -0.0017543612 -0.17110932 0.10815699 -0.011597064 -0.39009017
-0.082968205 -0.23638162 -0.23567085 -0.09399303 0.16087571 -0.036609873 -0.19155289 0.35545745
0.11446328 -0.111452274 -0.0227895 -0.0930606 -0.04529544 -0.07180064 -0.0111287 -0.012820584
0.0046081953 0.039048374 -0.0113954935 0.07552483 0.47098416 0.16019334 -0.23076643 -0.25866598
0.25349775 -0.21175377 0.17198154 -1.4048238 -0.028264072 0.44596606 0.2313722 -0.094954535
0.050034627 0.0982779 -0.09761913 -0.044640336 0.03514581 0.15919723 0.109217204 0.057028722
-0.002829495 0.010544719 0.23567149 0.39501417 0.27890584 -0.07276589 0.09362721 0.30079988
0.30463278 0.71016824 0.041740905 -0.16139123 0.24275996 -0.2759791 -0.1909429 -0.07752113
-0.11631331 0.2449045 -0.0579411 0.036177956 -0.084595904 0.034643713 -0.086868905 0.00757833
0.01485869 -0.11492447 0.5717262 0.024360782 -0.21176486 -0.041349877 0.19906278 -0.013984384
0.111074075 -1.1396703 0.03074305 0.25087392 0.25018236 -0.11854472 0.070163056 -0.044967573
-0.018447224 0.03616635 0.051832348 0.012333148 0.020491123 -0.1491104 0.13300365 0.046880934
0.029963143 0.063204065 0.0061183786 0.33233252 -0.10092303 0.04513462 -0.14379027 0.21591392
0.077109404 0.020139292 0.19203094 -0.35362357 -0.17263223 -0.027168915 -0.03827918 0.035942696
-0.14362766 -0.17447072 -0.05423812 -0.114853054 -0.107858054 0.050345946 0.010343449 0.1392161
0.0037309008 -0.018431539 -0.48956248 -0.07950606 -0.11585231 -0.18476745 0.1582817 -0.8107727
-0.22017446 0.42402133 1.1291709 -0.10697679 -0.12803122 0.16393057 0.11500866 0.24454997

net.0.bias f4 [256]
00000000: 7ade e53c 1bd2 9bbd d817 88bd 8c8d 25bd
00000010: e3b0 d0bd 430e 90bb f803 1fbe 5063 1ebd
00000020: f78b 783e d40f edbc cb29 23be a5c5 b73b
00000030: ad50 24be fc56 b83d e9c9 16bd 3d51 4e3d
00000040: 4ed9 a13d 0c18 0abe 1a4e 9f3c e8ac afbd
00000050: 44b3 393e 9ee1 5bbe f032 c3bd 06d7 0bbe
00000060: d123 2039 8714 0abd efdb 9cbd 65a9 57be
00000070: 2714 6dbe 4a1b 143d 0ddd 8dbd 0a6c d63b
00000080: b4f2 6f3d 3da4 cebd 0dc7 643c 4da1 c33d
00000090: d696 653e 89ed 4e3d 7e69 10bc 24a3 293e
000000a0: 848e a63c e3ab c73b 29a4 cb3d e45f a9bd
000000b0: 8dfb a3bd b2ea 113b 778b adbd 91da 413c
000000c0: f610 2bbe 78b8 57bd cbb8 c83d a8dc 8abc
000000d0: d7a4 db3d e5bb 45be 95bc 013e c6db ccbd
000000e0: 9825 483e e19c 85be 3031 2fbc f8e8 973e
000000f0: a12c 6d3c 95ac 603b a8ad 97bc 56bc a4bc
00000100: 9691 823d e3b7 dc3d 154b 313d 59ed a33b
00000110: 396f 1b3e 2125 5c3d e0f3 0c3d 7cac 693d
00000120: 1490 963d 1613 03be cd53 c7bc f7bb 653d
00000130: ac6d 60bd 0871 28bd c018 1abe c980 f93d
00000140: 5323 223d 10e1 8f3c 92c7 e83b ed11 37bd
00000150: a617 cebd da0a ea3d 2773 273e c2f5 a0bd
00000160: ed60 18be 1bc2 c83d a265 293d 6a89 ef3d
00000170: ef38 2e3d 5e66 0c3e ab79 dabd 8f8c d53c
00000180: 8130 c73d ec92 78bc ffaf 08bc 80ba e0bd
00000190: afd1 0bbe f4ef 203e e1eb 343d 2138 7ebd
000001a0: fb48 8cbd ef0c a23d 6329 17be 703d 5abd
000001b0: b917 ba3d 60f9 d3bd 676a 04be 3796 afbd
000001c0: 14a5 a83d c4c1 ddbd 3a96 03bd fe95 1abd
000001d0: 7b64 ffbd 0d1f c6bd acb2 923d 4388 c63c
000001e0: cf9b a73d 69b7 513e b361 a8bd feb9 543d
000001f0: 3ee7 96bc 9bdf f0bc 9832 aabd 70ee 553d
00000200: 0f8e 5f3b bf5f ca3c 79fa d43c 27b2 303e
00000210: b438 aa3d bd4a a43d 1cbd 893d b84b 9bbb
00000220: 5ddf 39be 9686 bc3c cf7b 50bd 1447 1e3d
00000230: 45d1 b5bb 671e bb3d b4f8 753d f596 6e3c
00000240: 4f94 c9bd b25a 3dbd af6b 433e 76d2 3c3d
00000250: 404d 423e 2197 c73d 2303 e33c bec8 323d
00000260: 185d da3c 35f3 e9bd 2a75 343c 4f6f b53c
00000270: 3ab2 573d 69e7 c1bd e4fa 133e 2972 f33d
00000280: 208a 3cbd 4a66 813d 413e bc3d f781 35be
00000290: 3f43 a5bc 858b 8ebd da00 4fbd 8aef e0bd
000002a0: d32f 29bd 0db0 d5bd c05a d33d 1550 4bbd
000002b0: 3ab4 3a3e cd7b 9a3b 94b5 743b e20c 3abc
000002c0: 769b a6bd 833a 003e 02c4 c33d 1607 43ba
000002d0: 5abf 803e 99b5 df3d f15e aebd 16db c1bd
000002e0: 2a8e 1d3d 2310 dbbd be71 d7bd a95a 083c
000002f0: 6e10 8a3d bb45 38be bda9 81bc 5244 c5bc
00000300: 42df ce3d fd16 c23d edf9 1fbe 7b4a a4bd
00000310: 9e07 18be d216 373c 5db6 e33d f377 09bd
00000320: c544 0dbd 5631 1c3e d3f6 693d 1c69 9bbd
00000330: 1c2f f1bd d3d8 d63d e60d 2a3e 0dd2 16bc
00000340: acc9 9d3c a810 b0bb d374 293d e6ec e5bc
00000350: df8e b73c e46b 7b3d 847b 4cbd bc5f ca3c
00000360: 93a5 56bd 8cdc f0bd 1a11 9abb 9de5 ac3c
00000370: 62d5 bfbc ecee fabd 1691 193d fd9d b43b
00000380: 9599 b6bc 6c32 b23b b3ae 56be 516a bb3d
00000390: add8 e339 01fb ff3b 33bc 093d aa3e 0a3e
000003a0: 7824 6c3d 7f96 eabd 5865 2abe 5557 4c3d
000003b0: fd16 a63b 952b 913d a372 203e 2ca4 28be
000003c0: e933 ea3c ae08 d8ba f80f 41bd 5354 32bc
000003d0: 6b63 56bc d24a f73c bf04 14be b2de d5bd
000003e0: a811 77bd bc94 edbd aa93 8d3d 6691 a23d
000003f0: 2dff 7c3d 18b2 d23d 28f4 ff3b 5d2a 433e
0.028060187 -0.07608434 -0.06645173 -0.040418193 -0.101899885 -0.0043962314 -0.15528858 -0.03866893
0.24272142 -0.028938212 -0.15933912 0.005608278 -0.160464 0.09000966 -0.03681365 0.050370444
0.07902776 -0.13485736 0.019446421 -0.08577901 0.1813479 -0.21472785 -0.095312 -0.13656244
0.00015272132 -0.033710983 -0.076591365 -0.21060713 -0.23152219 0.036158837 -0.06926928 0.006543641
0.05858107 -0.1008992 0.013963473 0.0955225 0.2242082 0.0505195 -0.008814214 0.1656614
0.020331629 0.0060934885 0.099434204 -0.08270243 -0.08006964 0.0022265133 -0.084738664 0.011831895
-0.16705689 -0.052666157 0.098008715 -0.01695092 0.107248 -0.19309957 0.12669595 -0.10002856
0.19545591 -0.26096252 -0.01069288 0.2966993 0.014475972 0.0034282554 -0.018515423 -0.020109337
0.063754246 0.10777261 0.043284494 0.0050026593 0.15179147 0.053746346 0.034412265 0.05704926
0.073516995 -0.1280025 -0.024331952 0.05608746 -0.05479209 -0.04112342 -0.15048504 0.12182767
0.03958447 0.017563373 0.0071038688 -0.04469483 -0.10063104 0.11427851 0.16352521 -0.078593746
-0.14880724 0.09802648 0.04135669 0.116961315 0.042534765 0.13710925 -0.106677376 0.026068
0.09726048 -0.015171748 -0.008342742 -0.10973072 -0.13654207 0.15716535 0.044170264 -0.062065247
-0.068498574 0.07912623 -0.14761882 -0.053281248 0.09086556 -0.10350299 -0.12931214 -0.08573573
0.08234611 -0.108279735 -0.03212569 -0.0377407 -0.12470337 -0.09673891 0.07162985 0.024234897
0.08184015 0.20480122 -0.0822176 0.05193519 -0.018420812 -0.029403498 -0.08310431 0.052229345
0.0034111773 0.024703858 0.02599834 0.1725546 0.083115965 0.08022068 0.06725523 -0.004739251
-0.18151613 0.023013394 -0.050899323 0.038642004 -0.0055486285 0.09136658 0.060051635 0.014562358
-0.09842741 -0.046229072 0.19084047 0.04609915 0.18974781 0.097456224 0.027711457 0.043648474
0.026655719 -0.11423341 0.011014262 0.022147803 0.052660204 -0.09467966 0.14451176 0.11887009
-0.046030164 0.06318338 0.091915615 -0.17725359 -0.020173667 -0.06960205 -0.05053792 -0.109831885
-0.041305374 -0.1043397 0.103200436 -0.04963692 0.18232813 0.0047144652 0.0037339674 -0.011355611
-0.081351206 0.1252232 0.0955887 -0.00074397156 0.2514599 0.10923309 -0.085142024 -0.094656155
0.038465656 -0.10696437 -0.105197415 0.008322396 0.06741415 -0.1799535 -0.015828008 -0.02408043
0.10101177 0.09477041 -0.15622683 -0.080220185 -0.14846656 0.011174874 0.111187674 -0.033561658
-0.03448941 0.15253195 0.057120156 -0.075884074 -0.117765635 0.10490575 0.16606864 -0.009205353
0.019261204 -0.0053730793 0.041371178 -0.028067064 0.022406993 0.06138219 -0.04992248 0.024703853
-0.052403998 -0.11760816 -0.0047017457 0.021105582 -0.023417179 -0.12252602 0.03749188 0.0055119977
-0.02229003 0.0054381397 -0.2096508 0.091511376 0.0004345825 0.0078119044 0.033626746 0.13500467
0.057651967 -0.11454486 -0.16640222 0.049887974 0.0050686584 0.07088391 0.1566873 -0.16468877
0.028589206 -0.0016482079 -0.04713437 -0.010884362 -0.0130852265 0.030187044 -0.14454935 -0.104428664
-0.060319573 -0.116006345 0.0691293 0.07937889 0.061766792 0.10287875 0.007811088 0.19059129

net.3.weight f4 [128, 256]
00000000: 8f0c 72bc dddb 1b3e 6b00 453d 9479 aebb
00000010: 4b49 4dbd eb10 a23d 3fc2 13bc c589 21bb
00000020: 40fd 53be c173 8a3c 24ea 42be 1698 113d
00000030: 330f bb3d 420a 2dbd b526 e33c 0c71 7dbe
00000040: 7a43 e4bb 7c92 f3be af23 83bd 68a0 77bd
00000050: 4487 f3bd 39fb 21bd 6b52 a6bc 5e9d 803d
00000060: 66df d53c 4497 803c 8cb1 b4bd 1c4d b0be
00000070: 016b 79bd f1d7 603e ae59 e1bd 6bc0 e4bd
00000080: 7840 883c 3f78 d83d f01e 08bd a55f a03d
00000090: 8289 aa3d 9f7f 3e3d 9e08 333d 8816 4dbd
000000a0: 6311 94bd a80f cf3c 4fde a63e 3689 a33e
000000b0: 68f5 013e b357 c13d fc71 593d 23c8 38bd
000000c0: 9f4d 06be fad9 143d 76e1 bb3d df86 753d
000000d0: d9da a7bd 3d70 28be 2653 c0bd 6db7 f9bd
000000e0: b981 fc3c e23d 52be 96e2 65bd 98f2 26bd
000000f0: 2e38 d33c 8012 413c 0f66 a8bd e646 73bd
00000100: 99a9 8fbc 21b3 fd3c 7ddb 113e abde 9fbd
00000110: 7f5a 23be 336f 12bd a70e 93ba ee99 b53e
00000120: f4b9 8b3d d457 3f3c d7d3 b0be 2442 11bd
00000130: bab9 01bc 0adc 4abd cecb bf3d dd29 5e3e
00000140: a56c 093d 61c7 17bb 5ff3 07be a859 2abd
00000150: 7d04 33bd 19da a23d 760a d6bd 7c75 e4bd
00000160: 770c babe 0804 d9bc 2659 61bd 4ea3 73bd
00000170: 0460 5fbc 8a07 8bbd da2b af3c 5be7 d8bd
00000180: 9c6e bfbd d6ed 973c 5b1c 18bd 3fcc 963d
00000190: 2912 fa3c 89c8 ef3c a99c c73b 5b4c bfbd
000001a0: 8086 afbd fc71 0bbe b8b4 0ebd ccd9 a7bc
000001b0: b2f1 a83d c371 8ebd 3778 20be 5f45 af3a
000001c0: dd06 753d 8977 e63c e5a3 5abb 82e3 58be
000001d0: 900b bfbd 807b bbbc 8682 9b3c 223e 15bd
000001e0: d0d8 d2bd 3822 d63d b089 7cbd eb08 0f3d
000001f0: 550e b63d 780d 83be 3a72 b2bd 7220 25be
00000200: a6ef 00bd 3001 f63c 73a1 1ebe 60e8 3a3d
00000210: 6241 e9bd f8b9 8e3d 06f0 91bd c63f 163c
00000220: 0a26 aebc 32aa a9bd 8ad2 ddbc 8638 b83d
00000230: 2dc6 483d f6b5 7e3d a38e ab3d c8c1 aa3d
00000240: 4507 04bd 59ba 12bc 716f da3d 4e54 d7bc
00000250: c7aa b7bd 1799 49bd 5ac0 643d ca6d c5bd
00000260: 0822 533d 5258 493d fa89 8bbc f27e 52bd
00000270: 5389 623d 0976 bbbb a0d7 3dbd 2455 98bd
00000280: c4eb 70bd ae61 29be 7561 9a3d d5e5 cabd
00000290: 9b5d 0f3e a53e 5cbd c6d0 cbbd a64a 063d
000002a0: 47a7 e5bd 2261 913d 6a03 0e3c 1520 e83c
000002b0: 720a 8fbd 71bb 893e a373 823b e39c a2bd
000002c0: ccb8 58bd 8317 e3ba 6a65 19bd 3e8b c9bd
000002d0: aecb b13d a9cd c1be 3db8 843e 6893 86bd
000002e0: 2557 993d 8b7a 5f3c d4ea 8fbd 7a8e d9bd
000002f0: a8c1 b93c 4dd0 8a3b a472 213e c870 213d
00000300: ba32 b7bd 7091 0fbe aa49 c1bd 4390 4f3d
00000310: 2ef7 78bd 55ce 163e 6cb1 36bd 0865 8d3e
00000320: 2c4c 9bbd 14df 9dbd 51f4 80bd b829 c1bc
00000330: bb32 d93d fda3 29bd 07f8 42be c99b 053e
00000340: f78f 313c ecce c9bc 1662 2b3d 8e43 c53c
00000350: 2fbb 92bd 1b2c 833d f100 683d 1b77 533c
00000360: 3d5c 37bd 9320 cabd 158b 883d 70ac dcbc
00000370: 28a0 223d 43a1 4c3d 1a0f 18bb 32d8 c3bc
00000380: bc53 b83b 126d 8c3d 39c4 80bd 505c 0dbd
00000390: 3a13 12be aa26 c1bd b299 083e 7e88 42bd
000003a0: 4415 b93d a29e 593d d8b7 06bc 7f4a 143c
000003b0: ef2a 3bbd 882a e63d 4991 5a3c a28a f93c
000003c0: 6089 003e ff9f adbd 08be 6e3e cf5e 60bd
000003d0: 8d7d 50bd 70d9 013e e51b ce3c 6b30 33be
000003e0: 5b3d ea3c 7491 a93c 5da8 da3b e19b 05be
000003f0: 5646 89bd fd5e 31bc 5ae3 3aba be3b 02be
-0.014773502 0.1522059 0.0480961 -0.005324552 -0.050118726 0.07913383 -0.00901848 -0.0024648767
-0.20702076 0.016900899 -0.1903463 0.03554543 0.091337584 -0.04224611 0.027728418 -0.24750155
-0.0069660516 -0.47572696 -0.064032905 -0.06045571 -0.11891034 -0.039546225 -0.020302972 0.062800154
0.026107501 0.01569713 -0.08822927 -0.3443383 -0.060893063 0.21957375 -0.11003433 -0.11169513
0.016632304 0.1056981 -0.03323263 0.07830743 0.08327009 0.046508428 0.04370939 -0.050070316
-0.07229879 0.02527602 0.32591483 0.3194062 0.12691271 0.094405554 0.05308722 -0.04511274
-0.13115548 0.03634069 0.09173863 0.059943076 -0.08196039 -0.16449066 -0.09390859 -0.12193189
0.030823575 -0.20531419 -0.056124292 -0.0407587 0.025783625 0.011784196 -0.08222591 -0.059393786
-0.017536925 0.030969204 0.14243884 -0.078061424 -0.1595249 -0.03575058 -0.0011219577 0.35469002
0.06822577 0.011678655 -0.3453662 -0.035463467 -0.007917816 -0.04952625 0.093650445 0.21695657
0.033550877 -0.002315961 -0.13276432 -0.04158941 -0.043705452 0.07951755 -0.10451214 -0.11155221
-0.36337635 -0.02649118 -0.05501666 -0.05948191 -0.013633732 -0.06788547 0.021383215 -0.105910026
-0.09347269 0.018546026 -0.037136417 0.073631756 0.030526238 0.029270427 0.0060916734 -0.093407355
-0.08570576 -0.136177 -0.034840316 -0.020489596 0.08249225 -0.06955292 -0.15670858 0.0013372115
0.059821 0.02813317 -0.003336185 -0.21180537 -0.09328377 -0.022886038 0.018983137 -0.036436208
-0.1029526 0.104557455 -0.061654747 0.034920614 0.08889452 -0.25596213 -0.08713193 -0.16125658
-0.031478547 0.030029863 -0.15491275 0.045631766 -0.11389424 0.069690645 -0.07125859 0.009170478
-0.021258373 -0.08284415 -0.027077932 0.08995156 0.04901712 0.06218525 0.08376815 0.08337742
-0.032233495 -0.008955562 0.10665787 -0.026285317 -0.0896812 -0.049218263 0.055847503 -0.09640081
0.051546127 0.049156494 -0.017033566 -0.051390596 0.055306744 -0.005720858 -0.046348214 -0.07438114
-0.058818594 -0.16541168 0.0753812 -0.09907118 0.14000551 -0.05377068 -0.0995193 0.032786034
-0.11213546 0.07098605 0.008667806 0.02833561 -0.06984414 0.2690082 0.00398107 -0.0794008
-0.05291061 -0.0017325733 -0.03745023 -0.098410115 0.08681427 -0.3785222 0.25921813 -0.06571084
0.074873246 0.013640056 -0.07027212 -0.106228784 0.02267535 0.004236257 0.15766388 0.039414197
-0.08945222 -0.14020324 -0.094378784 0.050674688 -0.060782604 0.14727147 -0.044602796 0.27616143
-0.07582888 -0.077085644 -0.062966 -0.023579463 0.10605379 -0.041416157 -0.19039927 0.13047709
0.010837547 -0.0246348 0.04184159 0.024080064 -0.07164609 0.06404897 0.056641523 0.012906815
-0.0447657 -0.09869494 0.06667153 -0.026937693 0.03970352 0.04995848 -0.002320236 -0.0239068
0.0056252163 0.06856741 -0.062874265 -0.034511864 -0.14265147 -0.09431203 0.1333988 -0.04749345
0.09037259 0.0531298 -0.008222543 0.009050964 -0.04569524 0.11238581 0.013340303 0.030461613
0.12552404 -0.084777825 0.23314679 -0.054777917 -0.050900985 0.12680602 0.025159786 -0.17498939
0.02859371 0.02069924 0.0066729025 -0.13047744 -0.06702869 -0.01082587 -0.0007129215 -0.12718102

net.3.bias f4 [128]
00000000: 2357 61bc c559 81bc 888d aebc 7759 debc
00000010: 3870 b8bc 9b18 bfbc 9c44 f2bc 23c1 b2bc
00000020: f79c 00bc 391c abbc 1094 8ebb ac6e 2f3b
00000030: cb00 1dbc 4f79 8dbb 194e babc f379 b4bc
00000040: ef68 f9bc eb96 36bc 3fad bfba df7d 1b3b
00000050: 3f73 bbbc 2791 afbc 612c 03bc 4ad6 dabc
00000060: e73a 19bc 6fae aebc 9e41 d6bc 5143 24bd
00000070: bc0f 87bc 1c9c f53b 5db7 aabc 8757 9abb
00000080: 46f1 d8bc 1554 b0bc 752b 36bc adb8 a43c
00000090: 1cf8 8ebc f1a7 edbb 04d1 d5bb 6e15 e8bc
000000a0: 7ef2 25bc 243a 4fbc d321 b9bc a887 833a
000000b0: ad48 17bd 2f3f 88bc 47ef 46bc e8dc 1ebc
000000c0: 6ac7 0dbb 125a a9bc 54fb 91bc ed6b 35bc
000000d0: 1dca c4bc 7dc7 08bc 6f7b 66bc 3660 10bc
000000e0: efc1 28bd dd85 aabc 2aab 98bc 485e f5bb
000000f0: 4ac1 c5ba 8fbd bbbc f170 4fbb 1baa 00bd
00000100: 7cca 4ebc 1f20 ffbc a230 08bd 34d0 02bd
00000110: 655f aabc fbc0 86bc fc30 b5bc fbeb babc
00000120: c46b 1abc b1a5 39bc d39f 3fbc 7271 68bc
00000130: ee83 a3ba a0f3 5bbc f266 97bb 307f 0abc
00000140: 9c10 16bc 94a1 76bc 3672 bebc e078 0f3c
00000150: dd74 42bc db97 20bc b4a8 9cbc efab 9e3c
00000160: 4a1c 2bbd 543e bbbc bd7c 62bc 7ce1 1abb
00000170: c4bc f7bc 4f3c 1cbc ba06 203c a3e2 d1bc
00000180: 57b1 cabc 1f7f c8bc 06f8 1dbd cf2e a5bc
00000190: 71e8 f7bc a660 09bd ffe0 4a3c a4df e6bb
000001a0: 08b5 89bc aac2 b0ba 9cf5 8ebc 71bd fbbc
000001b0: 2660 bcbc 2ebf d8bc ea4f 9abc d200 02bc
000001c0: 5d3f febc c52f 8fbc ee5a a1bc b95d 61bc
000001d0: 6f33 11bc f0dd b9bc a12f f9bc 0126 a9bc
000001e0: 86af 45bc ed73 acbc 2751 e8ba 67f9 de39
000001f0: c2de c7bc c6ae 7fbc 4ae3 debb 4ca4 65bc
-0.013753685 -0.015789876 -0.021307722 -0.02714227 -0.022514448 -0.023327162 -0.029573731 -0.02182061
-0.007849923 -0.020887481 -0.0043511465 0.0026768846 -0.009582709 -0.0043174396 -0.022742318 -0.022030806
-0.030445544 -0.01114438 -0.0014623775 0.0023726148 -0.022882102 -0.021431519 -0.008006186 -0.02671351
-0.009352422 -0.02132341 -0.026154336 -0.04010326 -0.016486995 0.0074954163 -0.020839388 -0.004710141
-0.026482236 -0.021524468 -0.011118759 0.020107592 -0.017452292 -0.007252686 -0.0065251607 -0.028330531
-0.010128615 -0.012648139 -0.022599136 0.0010034936 -0.036934543 -0.01663169 -0.012142009 -0.009696223
-0.0021633753 -0.020672832 -0.017820038 -0.011073095 -0.024022156 -0.008348343 -0.014067515 -0.008812001
-0.041200574 -0.020815784 -0.018636305 -0.007488046 -0.0015087512 -0.022917537 -0.0031653012 -0.031412225
-0.012621518 -0.031143246 -0.033249505 -0.03193684 -0.02079744 -0.016449442 -0.022118084 -0.022817602
-0.009425107 -0.011331008 -0.01169582 -0.014187204 -0.0012475231 -0.013424784 -0.0046204263 -0.008453175
-0.009159233 -0.015053172 -0.02324782 0.008756846 -0.011868683 -0.00980183 -0.019123413 0.019369094
-0.041775025 -0.022856869 -0.013823685 -0.0023632934 -0.030241378 -0.009535863 0.009767229 -0.025620764
-0.024742765 -0.024474679 -0.03856661 -0.020163922 -0.030262204 -0.033539437 0.012382745 -0.007045703
-0.016809955 -0.0013485749 -0.0174511 -0.030729981 -0.022995066 -0.02645835 -0.018836934 -0.007934766
-0.031036073 -0.017478833 -0.019696679 -0.013755255 -0.00886236 -0.022688836 -0.030418219 -0.020648004
-0.012065774 -0.021051371 -0.0017724381 0.0004252896 -0.024398211 -0.015605634 -0.0068019973 -0.014016222

net.6.weight f4 [9, 128]
00000000: 14d8 f2bb d585 62bd e91b 16bd 42a7 c9bb
00000010: d40e 0d3d 698c c23b 5aa7 2bbc 93e3 193e
00000020: 9293 ef3c d70b 573c 2aa7 53bc 2c20 393c
00000030: afff bebd 6dbf 4bbd 8dad c2bb 79cd 9fbc
00000040: f3c7 923c 4aa7 fe3b 7274 143e 202e 5b3b
00000050: b35f 363d c6fc c73c 9bc0 033d 2e23 a3bc
00000060: 68aa 89bc 1b8b 0ebc 0b69 d93b e0cb 41bd
00000070: 1476 dbbc 3be0 0dbd 4ec3 093e 9bf9 bdbc
00000080: cc80 0a3e d2cf efbc f308 323c 4d86 1bbd
00000090: 6963 c2bc 5a85 4d3c 7b37 f93d 16ef 91bc
000000a0: 382c 963b 4e1c c73c 8ac0 9fbc ca56 583b
000000b0: bc99 963c 880c 233d 5d99 caba 57a3 1b3d
000000c0: 0cd5 443c c736 e13d b17d 553c a6d1 68bc
000000d0: 5ef1 28bc 8845 82bb ec6b f43c d12e b9bd
000000e0: 6dca f33b bc0b bc3c b880 be3c ba44 bbbc
000000f0: f6e1 473d af5c b2bc 1dd3 013d 57a2 3dbc
00000100: 1d0a 943c 753e 1cbd 2236 493c 72c0 133c
00000110: d859 c9bd 71bc 14bb 44eb 243b 0761 25ba
00000120: 36f9 0a3c 1304 9e3c 4676 4fbc d604 a3bd
00000130: a622 9fbc b909 1a3e f10e 8e3b d53d 5ebd
00000140: 7921 34bc f492 073d c771 763c 7130 8abd
00000150: 367a 0b3e 7765 943b de07 813c 24a5 35bb
00000160: 68e3 61bc 1207 b5bb 6f83 09bd dd6b cd3c
00000170: de29 ddbc b938 173d 79e4 b9bc 68be 92ba
00000180: 7cf7 e83c 1385 0c3e 5f1d f439 b71b fd3d
00000190: 8d74 023d 0c5c c0bc 3215 bcbc 9367 d63b
000001a0: e03f 87bc e418 a1bc 65bb 0b3d f3fe 26bc
000001b0: 7920 093c 8698 3cbc b481 6a3c 48fb ceba
000001c0: 6a42 bb3c b431 8b3c 805c 1bbd e94a 143d
000001d0: 45a5 453c 77d0 acbc 8e9d 46bd 37f9 0f3d
000001e0: 26e2 13bd ff1e ac3d 79c4 ddbd 2033 aabc
000001f0: 3e3f 8bbc afc6 0cbd 6752 e7bb e0f6 19bc
00000200: 9caf f03c 89fb ecb8 cf61 e83c fa3f 093c
00000210: 27b4 12bd caab 1fbc 0411 11bd 3593 c73c
00000220: e161 96bb 49bf d93d 5b98 bfbd ed48 743c
00000230: 06bc 4abd f5da cfbd 203e 1dbc e515 6c3d
00000240: b2ed c03d 5489 20bc 2618 cd3c e513 0abb
00000250: 100d 6dbd 364b f03b 4906 a5bc dd93 8e3d
00000260: 38a2 953d 0f95 80bc e400 48bc 7617 c5bc
00000270: a2e9 883c 4f30 063d bb1f da3c 62ff 473a
00000280: 4405 ac3c a6c2 7fbc 9880 5f3c 50e4 3d3c
00000290: 7be6 763d ab0f 47bd 5e0a 133d 67be 9fbd
000002a0: 7abe 08bd 8731 d93c a23a 5e3d 6414 b23c
000002b0: 1024 38bd d402 aabc 0d0d 68bc 3bb8 34bc
000002c0: 9c0d 90bc 365f 31bc 2cad 6d3c 5c66 85bb
000002d0: a17e 6c3c c1a8 8abc e02e e93c 67c9 0cbd
000002e0: 8929 72bd 77f3 7f3c 3725 d03c 14b3 2bbd
000002f0: 4a5c 613c 0c31 dfbd 1609 01bc 7987 4e3c
00000300: 51f7 c0bc 8628 eabc 7087 57bd 800a 45bd
00000310: a184 8b3b 3e05 78bd 0999 4fbd 7042 fabd
00000320: 821f 3ebd e209 e6bc c0b8 7fbc 4dcb 053c
00000330: ff72 b43c 14b4 b23c a5f7 53bd 6720 5b3d
00000340: 89ac b23c f338 e13d 114b fe3d 458a c93c
00000350: a588 653c 775e e53a 9d27 82bc efb8 913c
00000360: 70c1 cc3d 3efe 16bc e475 f5ba 43a6 973b
00000370: a7c1 8bbd 2a7a bdbc 7c8a 563c 8ce8 373d
00000380: 7622 493c 3be6 823c 270f cabc 12bd 023d
00000390: 6380 fe3c beed 1f3c 0e72 7f3c 9e3e 103d
000003a0: 6900 b53c c179 933c 113e e5bc b7f8 26bc
000003b0: 828a 633d 819f e33b 27a2 62bc 7f2e 963d
000003c0: d536 f13c 539c 84bc 7290 c1bd d79a 5ebb
000003d0: 794e 6cbb b5c1 a9bc cf36 db3c b859 5abc
000003e0: 180f 173d 9f40 a7b7 75fe c9bc 0d13 f03d
000003f0: 12f9 8fbc 824b 53bd 94e6 96bc 98b8 46bd
-0.0074110124 -0.055303413 -0.03664771 -0.006153972 0.03443797 0.0059371484 -0.010476911 0.15028219
0.029245172 0.013125381 -0.012918273 0.011299174 -0.093261115 -0.049743105 -0.005941099 -0.019507157
0.017917609 0.0077714073 0.14497545 0.003344424 0.04452486 0.024412524 0.032166105 -0.019914236
-0.016804889 -0.0087001575 0.0066348366 -0.04731357 -0.026789702 -0.03463767 0.13453409 -0.02319031
0.13525695 -0.029273901 0.0108663915 -0.037969876 -0.023729043 0.0125440005 0.12168785 -0.0178142
0.004582908 0.024305489 -0.01950099 0.0033010715 0.018383853 0.039806873 -0.0015457083 0.03799757
0.012013685 0.10996776 0.013030455 -0.01421014 -0.010311453 -0.003975574 0.029836617 -0.09042133
0.0074399025 0.022954814 0.023254737 -0.02285992 0.048799478 -0.02177271 0.031695474 -0.011574349
0.018071229 -0.0381455 0.012280973 0.0090180505 -0.098315895 -0.0022695328 0.0025164643 -0.00063087087
0.008482268 0.019289052 -0.012662476 -0.07959907 -0.019425701 0.15042771 0.0043352772 -0.054258186
-0.010994309 0.03309913 0.015041775 -0.06747521 0.13620839 0.004528697 0.015750822 -0.002771684
-0.013787128 -0.0055245245 -0.03357261 0.025075847 -0.026997503 0.03691933 -0.022691952 -0.0011195662
0.028438322 0.13722639 0.0004656119 0.12358802 0.031849433 -0.023481391 -0.022959325 0.0065431087
-0.01650995 -0.01966519 0.03411426 -0.010192621 0.0083695585 -0.011510974 0.01431315 -0.001579144
0.022858817 0.016991474 -0.03793001 0.036204252 0.012063329 -0.021095498 -0.0484901 0.03514978
-0.036104344 0.084043495 -0.1082849 -0.020776331 -0.01699793 -0.034369167 -0.0070593837 -0.0093972385
0.029380612 -0.00011300209 0.028366951 0.00837707 -0.035816338 -0.009745548 -0.035416618 0.024362186
-0.004589305 0.10632188 -0.093552314 0.014909965 -0.04949572 -0.101491846 -0.009597331 0.057638068
0.09420337 -0.009798367 0.025035929 -0.0021068987 -0.057873785 0.0073331846 -0.020144599 0.069617964
0.073063314 -0.015696077 -0.012207244 -0.024059039 0.016712967 0.032760914 0.026626458 0.00076293026
0.020998605 -0.015610373 0.013641499 0.0115900785 0.060278397 -0.048598927 0.03589856 -0.07799988
-0.033384778 0.026512874 0.054255135 0.021738239 -0.044956267 -0.020753302 -0.014163268 -0.011030252
-0.017584614 -0.010825923 0.014506619 -0.00407104 0.014434488 -0.016926171 0.028464735 -0.03437176
-0.059121642 0.015622011 0.02540837 -0.04191883 0.013754914 -0.10898027 -0.007875701 0.012605541
-0.02355543 -0.028583776 -0.052619398 -0.048105717 0.004257754 -0.060551874 -0.050683055 -0.12219703
-0.046416767 -0.028080884 -0.015608013 0.008166146 0.02202749 0.021814384 -0.051749844 0.0534977
0.021810787 0.1099719 0.124166615 0.024602065 0.014009629 0.0017499466 -0.01588803 0.017788379
0.09997833 -0.0092158895 -0.0018727151 0.0046279742 -0.06824046 -0.023129541 0.013094541 0.04489951
0.0122762825 0.015978923 -0.024665428 0.031918593 0.031067079 0.009761272 0.015591158 0.035215966
0.022094922 0.018002393 -0.027983697 -0.010191134 0.055552013 0.0069465046 -0.013832605 0.07333087
0.029445091 -0.016187822 -0.09451379 -0.0033966803 -0.0036057516 -0.02072225 0.026759533 -0.013327055
0.03687963 -1.9938043e-05 -0.024657467 0.11722384 -0.01757482 -0.05158568 -0.018420495 -0.048515886

net.6.bias f4 [9]
00000000: 7293 ed3b add2 63bc 1676 ea3a 5f02 ec3b
00000010: e64e 4bbc 289c c53b f8fd 543c 2845 bd3e
00000020: 5008 713e
0.007250243 -0.0139052095 0.0017887976 0.007202431 -0.012408948 0.006030578 0.013000004 0.36966825
0.23538327

exp_avg f4 [256, 23]
00000000: 7876 0238 e9c8 9737 9da0 8438 806a 0439
00000010: 03c7 be38 3ad0 e2b8 8634 a7b8 cf43 0438
00000020: f23f f038 3f83 6538 25f0 53b8 fd40 1a38
00000030: 9959 9838 797b 55b8 cda4 3737 8476 a938
00000040: bf82 bfb4 ec5c 1035 fb98 4c38 453d d838
00000050: 4f17 0f37 40f1 0c38 d268 b938 2fa0 c539
00000060: c39f 14ba a02d 8138 69e3 aab9 86f3 61b9
00000070: a460 b9b9 783f c938 ab86 203a 988a 583a
00000080: d84a 0139 c5ba 1638 ff9c 1e39 47ce 3739
00000090: 70f4 0338 192c 06b9 93ca 7b39 cfe1 8d35
000000a0: 0e31 bf35 83da 1cb9 d516 5839 0639 4538
000000b0: 2a3d 5939 bd4d 6e39 7956 5b39 75e2 ddb8
000000c0: 23a3 51b9 cf76 0b39 1516 7ab9 d0c0 7837
000000d0: 9f8e cab8 8709 4738 d152 35ba cb7e 7138
000000e0: 95aa 5db8 5b11 b3b7 806f 0bb8 65ed a3b7
000000f0: 52fa 7938 c91e 9fb8 6dfe c5b4 ad72 e1b3
00000100: 985c c0b6 ab52 aab8 0eb6 afb7 4d80 34b9
00000110: 07bd 0fb8 eca3 cdb8 85d6 8239 0bd7 c5b8
00000120: 4384 6039 22c2 3e39 032b ba38 b92d 8ab9
00000130: f58b 91b9 cfb9 0cba 00a9 9f37 e3dd 4fb8
00000140: fd7f 9f37 32cf 77b8 5c5e 9cb7 53ca 2038
00000150: 3ed2 cdb5 28aa 80b5 7bba 20b4 a8c2 1f39
00000160: d4b4 6bb8 742d ffb7 daf6 efb8 f9be 1938
00000170: 4ce3 7f39 7deb 38b9 1f0d 1cb9 7773 84b8
00000180: 3532 84b9 7a27 82b7 ca99 49b8 c0f3 9b39
00000190: c6e7 9ab9 a0a5 bb37 68ea e2b7 0e22 26b8
000001a0: 97a1 50b8 5f4a 13b8 ae7f 6438 5e75 84b8
000001b0: 287a 97b4 84c8 4ab4 9ee8 1c37 b670 23b8
000001c0: 0be1 9eb7 807b 19b8 96f1 40b7 e4f6 9f39
000001d0: eef5 97b9 11b6 11b8 2b8a fcb8 d310 a0b9
000001e0: 5961 7eb9 00d2 6838 bcd3 eb39 ce97 f138
000001f0: 8cf1 4536 bd6f fd35 597f c9b7 0b51 0538
00000200: db82 23b7 aa2b b135 ed51 e1b6 78d0 1635
00000210: 3060 fd33 8606 02b9 2d9e 4637 7037 85b7
00000220: abfd c037 aaf7 8f37 ef75 2739 d142 8cb8
00000230: d6f2 bdb8 301e afb7 6b27 0eb9 c3b2 e7b7
00000240: 8afb b9b8 3503 0039 7ef4 f4b8 fd58 57b8
00000250: 3b0a adb6 ca51 b1b7 5070 eeb8 cd5e 3637
00000260: 1151 2eb7 ed0b c1b8 81fe 2cb4 59c0 b3b4
00000270: 1f4b 7038 5345 30b8 75d9 dcb7 74db 89b4
00000280: 8116 d937 43d5 dbb7 1084 0738 7e63 acb8
00000290: 3c42 0cb7 7f21 3eb8 c81d 2f39 bc99 2838
000002a0: 184e 8eb9 b8db 88b9 5c2d 85b7 8bf0 b8b7
000002b0: 9afd d8b7 b907 8eb8 9b37 08b6 aaad 8838
000002c0: 2df0 98b8 ed64 08b5 8039 33b3 0626 2538
000002d0: 41cb 6cb8 15be 68b7 144d 3fb8 3ec9 99b8
000002e0: 04f7 f3b8 1f14 7639 e6d5 dab7 0e07 9ab7
000002f0: b3c4 e5b7 5e11 2539 213a ca38 d03d b4b8
00000300: ff1b 8cb9 7ca1 22b9 ebb7 f6b7 5778 40b9
00000310: 7a80 e0b8 0418 a137 73c6 5139 6c53 69b9
00000320: 5659 b2b5 71bc d0b5 238d 2738 7140 33b9
00000330: 8601 a7b8 f228 86b8 27c0 63b9 f219 a4b9
00000340: bdcf 8339 b93f 1239 084b ab36 43d2 9439
00000350: d821 ef38 312c 8637 1493 abb9 296d b539
00000360: 9aa5 80b7 6a49 0138 e7ae 0e35 b65c 7636
00000370: b63d 6fb7 e9bb bdb7 2723 2f38 0811 1533
00000380: 697d 20b4 f3e7 8f38 0ed2 0238 360d 3b37
00000390: a4d3 9338 7c84 63b7 fd23 0639 e3f7 5238
000003a0: a1e7 b0b8 c7d8 b1b7 0cd8 9ab7 25a4 26b9
000003b0: 733d 16b9 b80c 38b8 0e67 c838 47c2 a7b8
000003c0: 9cdc 1f38 c7df 4238 d03d 4eb8 e64d f4b7
000003d0: 9d75 a9b8 b503 4f38 5b95 f232 d832 2c33
000003e0: 4d7a c438 dcef 0cb8 6f54 6cb7 d5d6 9e37
000003f0: beff 8c38 6dd6 2538 2c5d edb8 2c6f 5fb8
3.1104748e-05 1.8094159e-05 6.324167e-05 0.00012628175 9.096975e-05 -0.00010815305 -7.972964e-05 3.1534404e-05
0.000114560025 5.4720087e-05 -5.0529972e-05 3.6776986e-05 7.264614e-05 -5.089815e-05 1.0946021e-05 8.080623e-05
-3.5671653e-07 5.37794e-07 4.8779864e-05 0.00010311095 8.528891e-06 3.3603283e-05 8.841012e-05 0.00037694114
-0.00056695583 6.159698e-05 -0.0003259436 -0.00021548392 -0.00035357953 9.596249e-05 0.0006123583 0.0008260398
0.0001233028 3.593673e-05 0.0001512654 0.00017529084 3.1460484e-05 -0.00012795663 0.0002401269 1.0571038e-06
1.4244886e-06 -0.00014958721 0.00020607871 4.7021567e-05 0.00020717518 0.00022726408 0.00020917681 -0.00010580282
-0.00019992566 0.00013300333 -0.00023850084 1.4826845e-05 -9.658676e-05 4.745417e-05 -0.00069169427 5.7576963e-05
-5.2849373e-05 -2.1346545e-05 -3.3244025e-05 -1.954166e-05 5.9599355e-05 -7.587445e-05 -3.6879229e-07 -1.04982384e-07
-5.7328252e-06 -8.12163e-05 -2.0946401e-05 -0.00017213933 -3.4269902e-05 -9.8056946e-05 0.00024955362 -9.433747e-05
0.00021411576 0.00018192132 8.877183e-05 -0.00026355477 -0.0002776083 -0.0005368264 1.9032974e-05 -4.9559294e-05
1.9013876e-05 -5.9082355e-05 -1.8640589e-05 3.83354e-05 -1.5334879e-06 -9.586265e-07 -1.4969002e-07 0.00015235937
-5.6196775e-05 -3.0419535e-05 -0.00011442388 3.66559e-05 0.0002440337 -0.00017635334 -0.00014882207 -6.3157575e-05
-0.0002521441 -1.551559e-05 -4.806536e-05 0.00029745512 -0.00029545854 2.2369262e-05 -2.7050453e-05 -3.96092e-05
-4.9741557e-05 -3.5116795e-05 5.4478347e-05 -6.316112e-05 -2.8214822e-07 -1.8885663e-07 9.352485e-06 -3.89672e-05
-1.8939862e-05 -3.659306e-05 -1.150034e-05 0.0003051079 -0.00028984196 -3.4740257e-05 -0.00012042032 -0.00030530113
-0.00024259592 5.5508688e-05 0.00044980447 0.00011520051 2.9495886e-06 1.8882489e-06 -2.4020368e-05 3.1785148e-05
-9.746024e-06 1.3200236e-06 -6.71506e-06 5.6182716e-07 1.1798727e-07 -0.00012400196 1.1838548e-05 -1.588065e-05
2.3006307e-05 1.7162256e-05 0.00015970295 -6.688166e-05 -9.057454e-05 -2.0875683e-05 -0.0001355686 -2.7620588e-05
-8.86834e-05 0.00012208226 -0.00011680367 -5.134287e-05 -5.1569928e-06 -2.113813e-05 -0.00011369644 1.0870118e-05
-1.0390083e-05 -9.2051785e-05 -1.6111336e-07 -3.34813e-07 5.729042e-05 -4.2026233e-05 -2.6327305e-05 -2.5677912e-07
2.5878895e-05 -2.6206142e-05 3.23095e-05 -8.220131e-05 -8.360072e-06 -4.5330726e-05 0.00016700395 4.0197498e-05
-0.00027142535 -0.00026103645 -1.5875958e-05 -2.204652e-05 -2.5867299e-05 -6.772526e-05 -2.0297946e-06 6.517333e-05
-7.292661e-05 -5.0810814e-07 -4.172898e-08 3.9374478e-05 -5.645608e-05 -1.38725345e-05 -4.5609733e-05 -7.333093e-05
-0.00011633153 0.00023467884 -2.608723e-05 -1.8361516e-05 -2.7390523e-05 0.00015742096 9.642938e-05 -8.594582e-05
-0.0002672374 -0.00015509682 -2.9411129e-05 -0.00018355377 -0.00010705083 1.9203879e-05 0.00020005721 -0.00022251689
-1.3288034e-06 -1.5552051e-06 3.9947347e-05 -0.00017094777 -7.963464e-05 -6.3972446e-05 -0.0002171999 -0.00031299848
0.00025141044 0.00013947384 5.104932e-06 0.00028385417 0.00011402712 1.5994623e-05 -0.00032725243 0.0003460434
-1.5335903e-05 3.082437e-05 5.315364e-07 3.6710821e-06 -1.4259878e-05 -2.2618058e-05 4.175599e-05 3.4707256e-08
-1.4946785e-07 6.861975e-05 3.1190044e-05 1.11491445e-05 7.0489274e-05 -1.3561101e-05 0.00012792643 5.0298764e-05
-8.435478e-05 -2.1200989e-05 -1.8458835e-05 -0.00015892142 -0.00014328006 -4.3880864e-05 9.5559386e-05 -7.9993675e-05
3.8114013e-05 4.6461613e-05 -4.9171795e-05 -2.9123341e-05 -8.080455e-05 4.93561e-05 2.8240427e-08 4.0093113e-08
9.3687886e-05 -3.3601988e-05 -1.4086355e-05 1.8935107e-05 6.723356e-05 3.9538765e-05 -0.00011318395 -5.327088e-05

exp_avg_sq f4 [256, 23]
00000000: 80eb 0036 61d5 3036 c251 0e34 f4f7 c535
00000010: 7d0b f135 3cc3 1235 db86 3a35 9ebc 8736
00000020: 64c7 6136 0f53 5733 5f19 4932 09be 0b33
00000030: 10e4 ef32 59a6 6c33 26f5 5733 1e3b 2b33
00000040: d34f 492e bd6d 0b2c 5730 ab33 63dd ab33
00000050: 5bfb 6731 0955 c634 d2ff 6533 8154 1d36
00000060: f33a 5736 ff57 2b34 4499 e935 b3a7 1236
00000070: 0b35 2b35 b54b 5535 93ae a436 8d15 8636
00000080: d985 8733 6fcc 6532 18f9 2733 dcf8 0c33
00000090: 5fc6 9633 9161 7633 e5d8 5f33 ed16 4e2e
000000a0: 3311 322c 4fcd e833 ee9f ca33 9239 9331
000000b0: 4acb e434 e362 8e33 130a f834 ce40 3435
000000c0: 8f36 e932 23e5 c934 ccb8 f434 436c f033
000000d0: bda3 3b34 a915 8335 4d66 6135 658d 1b32
000000e0: 89fa 3e31 3281 c431 5a5d ce31 f481 4f32
000000f0: 7308 2e32 a124 1332 f0fa 322e 30db 2c2b
00000100: 70aa b632 21e7 a432 8b1f 5230 5b6a c233
00000110: 7e60 4032 b973 9e35 385d da35 afd8 b033
00000120: a105 7b35 c580 9335 9e2f a834 1cdc e734
00000130: afec 2436 a86c 0d36 58f3 f832 41dc fc31
00000140: b8c9 8c32 62a6 8932 5bba 0633 590a d832
00000150: 1a2e ca32 adcb 192e a79e ae2b 5b44 5533
00000160: ab48 5733 7cc9 0631 b88f 8034 480d d132
00000170: f762 0b35 0c00 5135 26fd ef32 8563 e334
00000180: 5e14 0d35 c8ef 0034 067e 5534 1d6e 9635
00000190: ccaa 8535 bbd4 3232 dc3c 3831 6849 0632
000001a0: 05db cb31 916f 5132 9aa3 4432 0f37 1f32
000001b0: 0a02 242e aefe 1a2b 0fa6 e232 d702 be32
000001c0: 7ddf 7330 c0d5 d933 147c 3732 8999 3235
000001d0: c0c1 7335 f1c4 3b33 07c4 0335 d2e0 2735
000001e0: f47a 3f34 2658 6c34 0164 b535 8550 9135
000001f0: 9ec6 7032 c305 7e31 0dcf 2332 b02c 1132
00000200: 0e3e 8232 ef68 6732 32cc 4432 49d6 562d
00000210: f7fc 3e2b 2528 0e33 1a8f d832 60f4 d530
00000220: 5d86 fc33 ee73 7832 cea0 5435 b948 9735
00000230: d33d 4733 1bb9 2435 6f5a 4e35 be26 5e34
00000240: ecf1 9534 eab8 e535 9322 be35 af75 a532
00000250: cc3d 9531 c178 7332 a9cb 3232 cff8 a332
00000260: 59b1 a732 4392 7032 8bf6 ce2c 3608 412b
00000270: 480b 2533 006c 0d33 1f22 c330 1513 2034
00000280: 1a26 a532 d91b 7c35 6699 ac35 5705 8233
00000290: 82e1 3835 619a 6935 e222 8434 8409 af34
000002a0: 796a 0436 2cf5 d035 190a c832 8edd c231
000002b0: 55a6 7432 83dd 7732 94c7 cc32 907f d132
000002c0: fe97 9c32 dbc0 b62c 5f09 8b2b 01ef 3d33
000002d0: c04c 2433 e056 1931 69c3 3534 67d2 c432
000002e0: b46e 1836 6ff7 4c36 8607 2b34 8d3d d835
000002f0: 0248 0b36 7e1f 2835 8a0f 5335 2bc1 9c36
00000300: 707a 8036 b693 8133 49da 5a32 1260 1f33
00000310: 467d 0e33 c51e 8b33 745c 6233 a218 5733
00000320: 5b48 c22d bc3a 3b2c b79c e533 2b36 c933
00000330: 98d3 a531 fae5 dc34 e1fb 6a33 4d23 ec34
00000340: 1a93 2435 1db6 ec32 e540 a534 7b46 e334
00000350: 03b8 f633 973a 1e34 b70d 7535 9990 4035
00000360: 4728 0e32 6873 2431 6005 d131 d322 ae31
00000370: 9bcc 2c32 b05f 2332 885a 0132 4617 712d
00000380: 50c8 012b 0286 dc32 bb93 9032 b122 8230
00000390: da4c a233 4b40 2a32 00d6 b835 352a f935
000003a0: 3be2 cb33 f31f 8835 c788 aa35 526e cd34
000003b0: f6ff f634 167e 3f36 4c8a 1e36 8bd4 0b33
000003c0: dbe5 1532 76ae d832 538c a332 b90a 2133
000003d0: 9187 2333 c6db e232 fa5b 4f2e a4f2 e82b
000003e0: 606b 7833 e043 6933 da89 0831 b3a6 8734
000003f0: 3c28 3533 3616 8035 f4a4 b235 690c 8933
1.9210565e-06 2.6350247e-06 1.3254524e-07 1.4749808e-06 1.7959243e-06 5.467334e-07 6.948664e-07 4.0452715e-06
3.3643673e-06 5.013413e-08 1.1705509e-08 3.2536295e-08 2.7926973e-08 5.5099324e-08 5.028155e-08 3.9867807e-08
4.5773007e-11 1.9814005e-12 7.971601e-08 8.003078e-08 3.3757803e-09 3.6942245e-07 5.3550885e-08 2.344401e-06
3.207181e-06 1.5957629e-07 1.7404459e-06 2.185331e-06 6.377965e-07 7.945885e-07 4.907904e-06 3.99602e-06
6.310774e-08 1.3376037e-08 3.9109267e-08 3.2822626e-08 7.021003e-08 5.7365074e-08 5.2118498e-08 4.685934e-11
2.5304869e-12 1.0840687e-07 9.435449e-08 4.284808e-09 4.2616222e-07 6.630378e-08 4.620093e-07 6.714953e-07
2.714958e-08 3.7605886e-07 4.5583e-07 1.11955636e-07 1.74753e-07 9.766565e-07 8.39679e-07 9.054337e-09
2.7791052e-09 5.7190386e-09 6.006002e-09 1.2078534e-08 1.0130054e-08 8.564855e-09 4.069539e-11 6.141086e-13
2.1265095e-08 1.9197218e-08 7.644238e-10 9.053175e-08 1.1197811e-08 1.1805597e-06 1.6269396e-06 8.235053e-08
9.351298e-07 1.098983e-06 3.1327085e-07 4.3187254e-07 2.4575672e-06 2.1073884e-06 2.898166e-08 7.3592052e-09
1.6389876e-08 1.6024561e-08 3.1368796e-08 2.5150415e-08 2.353686e-08 3.4969073e-11 1.2407478e-12 4.9655096e-08
5.012468e-08 1.9614097e-09 2.3946427e-07 2.4336842e-08 5.192555e-07 7.7858635e-07 2.793838e-08 4.2354455e-07
5.255623e-07 1.2008161e-07 1.9883018e-07 1.1207918e-06 9.958981e-07 1.0409333e-08 2.6810119e-09 7.816517e-09
5.932977e-09 1.2190768e-08 1.14459e-08 9.267537e-09 3.7291094e-11 5.506523e-13 2.6385377e-08 2.2120203e-08
8.872048e-10 1.0143731e-07 1.0680214e-08 6.653359e-07 9.08065e-07 4.3718448e-08 4.908656e-07 6.2539505e-07
1.7832991e-07 2.2011281e-07 1.3514656e-06 1.0826776e-06 1.4014999e-08 3.696514e-09 9.534927e-09 8.450272e-09
1.5162211e-08 1.3469829e-08 1.145513e-08 1.22120725e-11 6.785262e-13 3.3098463e-08 2.5210785e-08 1.5567245e-09
1.1759105e-07 1.4461859e-08 7.9210156e-07 1.1271542e-06 4.6389527e-08 6.1364125e-07 7.687258e-07 2.0689455e-07
2.7929434e-07 1.7115647e-06 1.4166166e-06 1.9262044e-08 4.3434962e-09 1.4171918e-08 1.0407271e-08 1.9088843e-08
1.9522007e-08 1.4003095e-08 5.882244e-12 6.857877e-13 3.8427316e-08 3.2927346e-08 1.4197815e-09 1.4908103e-07
1.9225855e-08 9.391784e-07 1.2859643e-06 6.054568e-08 6.88735e-07 8.7023915e-07 2.4612297e-07 3.2603214e-07
1.9731508e-06 1.5568562e-06 2.3287656e-08 5.671331e-09 1.4240489e-08 1.4427658e-08 2.3839483e-08 2.4388811e-08
1.8229908e-08 5.1941624e-12 9.879145e-13 4.4222364e-08 3.825403e-08 2.2313813e-09 1.6928028e-07 2.2913083e-08
2.2714203e-06 3.0542394e-06 1.5928353e-07 1.6111168e-06 2.0754528e-06 6.2630704e-07 7.862624e-07 4.67165e-06
3.828951e-06 6.033899e-08 1.2738902e-08 3.7107448e-08 3.3175887e-08 6.478289e-08 5.270381e-08 5.0080992e-08
2.2087379e-11 2.6606902e-12 1.069215e-07 9.369645e-08 4.8261874e-09 4.1145523e-07 5.4711453e-08 4.398411e-07
6.130882e-07 2.7556831e-08 3.0780862e-07 4.2333326e-07 1.1488739e-07 1.4736212e-07 9.128957e-07 7.173599e-07
8.274646e-09 2.3930742e-09 6.0833116e-09 5.0680256e-09 1.005824e-08 9.5096055e-09 7.529373e-09 1.3704432e-11
4.6107996e-13 2.567231e-08 1.6830986e-08 9.468605e-10 7.557692e-08 9.909921e-09 1.377135e-06 1.856423e-06
9.494075e-08 1.0142088e-06 1.2705794e-06 3.8264494e-07 4.6007307e-07 2.853461e-06 2.3624334e-06 3.2556766e-08
8.725205e-09 2.5225045e-08 1.903951e-08 3.7495486e-08 3.8074692e-08 2.6409804e-08 4.7148042e-11 1.6551938e-12
5.7839657e-08 5.4311272e-08 1.9868964e-09 2.5267e-07 4.217894e-08 9.543207e-07 1.3310041e-06 6.381817e-08

exp_avg f4 [256]
00000000: 5880 13b8 4f03 4f3a dac7 2939 07a0 b7b9
00000010: 2387 7439 dd2f d639 0286 9a37 9665 a2b7
00000020: 2c5c b4b9 d470 b8b9 66a6 36b9 dc79 3539
00000030: 411a b9b8 06b7 1bba 4787 4239 2ae8 a0b9
00000040: 9c91 b738 31f1 2bb9 1a99 04b9 419a 65b9
00000050: 34eb 6cb9 31b6 2bb9 2961 9639 f06f 3b38
00000060: 278b fab9 d71b a438 3ae8 bb37 c5a6 a139
00000070: 618b 6939 bfc0 be39 f074 0039 997e a3b9
00000080: f71b aeb9 5d4a 9939 131e 85b9 991e de37
00000090: 3449 21b9 d355 7639 a14c 09b7 610f 7eb7
000000a0: 9401 45b8 53ab 4db9 ae5f 7eb8 bff1 c039
000000b0: 6b53 79b9 5671 9039 e3a8 96b8 7daf 98b9
000000c0: fb82 2a39 e7cd 8cb9 7990 0fba d07d 35b9
000000d0: bf67 50b9 8a16 3bb9 b8a8 07b9 e403 da37
000000e0: db64 45b9 5a35 0139 191f 6cb7 6813 8fb9
000000f0: 225f 37b8 f890 7237 1839 4bb8 072b 93b7
00000100: 6952 1839 74b6 b8b9 b2b4 87b8 f8f1 deb8
00000110: 1d35 ba39 728c 43b9 97f8 1b3a 2923 e538
00000120: d51f 86b9 0cf9 ec39 b12f 86b9 2c37 90b9
00000130: 7f36 f439 3e29 01b8 790b 123a 04a8 b0b8
00000140: c279 36ba bdfd 86b8 a382 2dba 15c0 9139
00000150: ee8d b039 8d66 f6b9 4d5e 16ba 6345 fd39
00000160: 04c8 1a39 8718 8138 5654 4e39 ceeb f6b8
00000170: 8fb5 2db9 3989 d1b9 0998 1139 5d0e 8a39
00000180: 5695 b939 c32a 7e38 5b2c ffb9 fbfc 41b8
00000190: 677c ea39 a6dc 5db9 b51f 1339 af6e 02b9
000001a0: 98f0 6ab9 6a3f d9b9 b050 6a36 9608 1738
000001b0: ecf2 4db9 1449 d4b9 03c1 4eb9 5f64 4a39
000001c0: 60eb e338 0335 ae39 55ef 3d39 f64b bd38
000001d0: c937 e1b9 1c40 4739 c875 3335 4a86 5fb8
000001e0: 2367 94b9 c95e 8cb9 3ef8 9938 5808 5ab7
000001f0: 7d03 6939 0037 01b9 7339 27b9 dc4d 8db9
00000200: ced1 4939 0070 a1b9 42ca 07b9 94d0 8b38
00000210: 9e79 d6b9 77fb 51b8 c990 1cba aedf 92b8
00000220: 2de5 50b9 901a 8139 a360 f9b9 1e68 17b9
00000230: 3d97 c2b6 5f73 d938 2fb4 66b9 2bf7 03b9
00000240: e44d e7b8 fc37 7bb8 0fdc 19ba 1f47 f2b9
00000250: 9468 48b9 ad12 b7b9 9455 50b9 e2f4 0dba
00000260: 5e94 3238 2d8a cb39 f2f8 b8b9 b1c1 10b9
00000270: 366c dfb8 b980 3b39 e505 10ba 4e98 25b9
00000280: 0af7 83b9 76d4 5c39 6e1d 9338 e656 8839
00000290: ecbc bcb8 982c b537 aa5f 35b9 50d8 b037
000002a0: 6e52 53b9 400b bf33 d68e b1b8 86cc 5c39
000002b0: 9165 2439 a6ab 133a 5f0c ba39 4b9a 9cb8
000002c0: 175a 213a 4384 af38 aceb cdb8 386e a839
000002d0: ecd0 35b9 0659 0dba f016 6439 6ea9 0038
000002e0: 2e6b 8fb8 48ff 41b9 feb5 1db7 79bc 37b8
000002f0: 20bf 4d39 e5fb b439 2196 9039 e288 6bb6
00000300: 14a0 f4b9 29ad e339 22d0 23b9 9cf5 8339
00000310: 8c70 8d39 f78e 5739 660b 2aba 4a80 1b3a
00000320: e2bb 0b3a 77db 78b9 d370 8237 ee45 eeb7
00000330: e495 8f39 f94e 4cba ed3a 49ba 685d 0e39
00000340: 53f6 0fb6 4fa5 97b8 4374 8b39 9084 e539
00000350: ea01 33b8 5a70 5fb6 f9ed d5b8 ad6e 4939
00000360: 8aa9 b939 770e 6ab7 4463 22b9 2eb8 4c39
00000370: 036f 033a 0b68 1239 068f bdb9 edc8 40b9
00000380: da93 05b9 6f6d 4b39 2e2d c639 588d 2db9
00000390: 15c4 81b7 0435 7ab9 caa6 18b9 5c57 1c39
000003a0: 8c7d 0439 5ed3 8239 2c16 503a 3b5d d838
000003b0: a08a 3139 224f 4838 95c7 1437 c6d9 1c39
000003c0: 6549 2338 c66e deb9 5679 f639 b59a 43b9
000003d0: 65df a738 0bb7 d137 383f 8239 cb8d 7539
000003e0: e5ed 4439 56df a0b8 188f 82b8 1f37 f3b9
000003f0: 48ab d0b9 ebab 4fb9 76a3 cdb9 5e2c e2b9
-3.516706e-05 0.00078969164 0.00016191546 -0.0003502371 0.00023319996 0.00040852922 1.8420633e-05 -1.935921e-05
-0.0003440095 -0.00035179278 -0.00017418861 0.00017306901 -8.8263776e-05 -0.00059400534 0.00018551676 -0.00030690554
8.753242e-05 -0.00016397682 -0.00012645536 -0.00021896606 -0.00022594334 -0.00016375702 0.0002868262 4.4688524e-05
-0.00047787392 7.825315e-05 2.2400276e-05 0.00030832566 0.00022272534 0.0003638323 0.00012250594 -0.00031184105
-0.00033208702 0.0002923784 -0.00025390144 2.647871e-05 -0.00015381427 0.0002349236 -8.183678e-06 -1.514316e-05
-4.696993e-05 -0.00019614147 -6.0647428e-05 0.0003680121 -0.00023777566 0.00027550262 -7.184015e-05 -0.00029122448
0.00016261257 -0.0002685629 -0.0005476545 -0.00017308374 -0.00019875074 -0.00017842106 -0.00012937456 2.5989437e-05
-0.00018824956 0.00012322274 -1.4073937e-05 -0.00027289544 -4.37192e-05 1.4458077e-05 -4.8452144e-05 -1.7543802e-05
0.0001452655 -0.00035231153 -6.470959e-05 -0.00010630855 0.00035516257 -0.00018648969 0.00059498235 0.0001092612
-0.00025582188 0.00045198982 -0.00025594005 -0.00027506927 0.0004657991 -3.0794406e-05 0.00055711676 -8.423629e-05
-0.00069608924 -6.43688e-05 -0.00066188927 0.00027799667 0.00033675082 -0.00046997183 -0.0005736098 0.00048307618
0.00014761096 6.155768e-05 0.00019677109 -0.00011774116 -0.00016566202 -0.00039965825 0.00013884915 0.00026332113
0.00035397214 6.0598144e-05 -0.00048670438 -4.6250392e-05 0.00044724645 -0.000211584 0.00014030824 -0.00012438999
-0.00022405607 -0.00041436712 3.4915684e-06 3.60092e-05 -0.00019640819 -0.00040490238 -0.00019717593 0.00019301612
0.000108680455 0.00033227363 0.00018113603 9.026371e-05 -0.00042956907 0.00019002001 6.685409e-07 -5.329241e-05
-0.00028305603 -0.000267735 7.341847e-05 -1.2995755e-05 0.00022221911 -0.00012322888 -0.00015947763 -0.00026951625
0.00019247012 -0.0003079176 -0.0001294995 6.666887e-05 -0.00040907873 -5.0063678e-05 -0.00059725024 -7.003486e-05
-0.000199218 0.00024624588 -0.0004756498 -0.00014439269 -5.799257e-06 0.00010368856 -0.00022001633 -0.00012585211
-0.000110294466 -5.9895203e-05 -0.0005869278 -0.00046210826 -0.00019112445 -0.00034918395 -0.00019868306 -0.00054152135
4.2576685e-05 0.00038822126 -0.00035280694 -0.00013805066 -0.000106536245 0.00017881663 -0.00054940424 -0.00015792364
-0.00025170326 0.00021059983 7.014988e-05 0.00026004686 -8.999728e-05 2.1597647e-05 -0.00017297143 2.1081563e-05
-0.00020153236 8.896177e-08 -8.466623e-05 0.00021057026 0.00015678095 0.00056331826 0.00035485902 -7.467399e-05
0.0006155087 8.369286e-05 -9.819059e-05 0.00032125576 -0.00017339335 -0.00053919887 0.0002175232 3.067537e-05
-6.838735e-05 -0.00018501014 -9.400303e-06 -4.380613e-05 0.00019621523 0.0003451995 0.00027577675 -3.5097405e-06
-0.00046658574 0.00043425828 -0.00015622427 0.0002516926 0.0002697747 0.00020557256 -0.0006486684 0.00059318973
0.0005330426 -0.0002373288 1.5549746e-05 -2.8404374e-05 0.00027386763 -0.000779375 -0.0007676322 0.00013576972
-2.145204e-06 -7.231032e-05 0.00026598768 0.0004377705 -4.267871e-05 -3.3294987e-06 -0.00010200957 0.00019210084
0.00035412266 -1.3950855e-05 -0.00015486503 0.00019523568 0.00050137955 0.00013962404 -0.0003615545 -0.00018385398
-0.00012738947 0.00019400356 0.00037799164 -0.0001655122 -1.5469306e-05 -0.00023861608 -0.00014557983 0.00014909863
0.00012635271 0.00024953013 0.0007937874 0.00010317048 0.00016931677 4.7757414e-05 8.867956e-06 0.00014958446
3.8930582e-05 -0.00042425672 0.0004701118 -0.00018654282 8.004791e-05 2.4999978e-05 0.00024842634 0.00023417843
0.00018780639 -7.670994e-05 -6.225536e-05 -0.0004638964 -0.00039800466 -0.00019805103 -0.00039222435 -0.00043139135
