RefAgent/BC-CAB-256128/checkpoints/agent_3300.pt (torch, 488547 bytes, 18 tensors)

net.0.weight f4 [256, 23]
000000 db ab 77 bd f1 f9 02 bd 64 c7 f5 bd 5d 82 8c 3b
       -0.06046663 -0.031976644 -0.12000921 0.0042880015
000010 6b 99 8e bc 50 0a b4 bc 01 5e 21 bd 0c 73 4a bc
       -0.01740714 -0.021977574 -0.03939629 -0.012356531
000020 05 48 52 bc 46 9c 53 be 9f da b4 be dd 85 06 bf
       -0.012834554 -0.20665082 -0.35323045 -0.5254801
000030 f2 11 05 3e f1 da 6d 3d af be ff bd 67 f8 08 bd
       0.12995127 0.058070127 -0.12487542 -0.03344002
000040 df 47 aa be 4c 17 30 c0 68 f8 bb 3e 73 4d e5 3c
       -0.33257958 -2.751422 0.36712956 0.027991032
000050 3e 7d 97 3f 6c f7 4d 3e fd 90 f8 3d 2b fe 36 3b
       1.1835096 0.20113915 0.12137029 0.0027922492
000060 d7 d6 59 be 76 89 b4 3d 8b 08 54 bd 6f 54 83 3d
       -0.21273361 0.08815281 -0.05176596 0.06412589
000070 7d cb 93 bd b1 f6 4e bc 9a 3c cb bc 19 4c 51 bc
       -0.07216547 -0.012632058 -0.02480917 -0.012774491
000080 ec cb 02 3c a1 88 3a bf 5f 7e 67 be d3 05 7b 3e
       0.007983189 -0.7286473 -0.226068 0.2451394
000090 af 9a 5b 3d 30 b2 87 be 94 60 87 bd dc f9 50 3e
       0.053614315 -0.26503134 -0.06610218 0.20407814
0000a0 64 38 3c 3e 27 70 9b 3d 2c a5 b5 be f4 35 87 3e
       0.18380886 0.07589751 -0.3547758 0.2640835
0000b0 e2 19 2c 3e af 64 e1 bc f7 d7 df 3d 4e c3 4d bc
       0.16806749 -0.02751383 0.10929864 -0.012558771
0000c0 c8 cf 04 3d 98 26 14 3d 00 c0 78 bc fc 45 c5 3d
       0.03242472 0.03616962 -0.015182495 0.09632489
0000d0 e7 bd 21 3e 4e cd 32 bd 81 1e 44 bc c1 c1 f7 bc
       0.15795098 -0.043652825 -0.011970163 -0.030243756
0000e0 68 8d aa 3e 32 29 c3 3e aa f8 af be 2d 46 d1 3b
       0.3331101 0.38117367 -0.34369403 0.0063865394
0000f0 88 da 04 3e 9a 6d 4b 3e 00 93 ca be 0f c7 a9 3d
       0.12973988 0.19866028 -0.39565277 0.082899205
000100 30 20 91 bd 7c a0 04 be 78 09 a5 be bc 93 07 bb
       -0.070862174 -0.12951845 -0.32233787 -0.0020687422
000110 cd 7e c6 bd e6 47 3b 3d 42 e7 ab bc c8 a1 cd bd
       -0.09692154 0.045722865 -0.020984296 -0.10040623
000120 56 2a 85 3c 25 ce a5 3c da fe a1 3c 36 ef 0a 3d
       0.016255539 0.020239899 0.019774843 0.033919536
000130 c5 e0 a0 bc ef 81 02 bc c1 88 ce 39 7b 51 82 be
       -0.019638428 -0.007965549 0.0003939327 -0.2545279
000140 0f 12 b5 be 1b 2c 14 3e 8f 83 c0 3c a0 60 3a bc
       -0.3536534 0.1446995 0.023500232 -0.011375576
000150 ec bf bc 3c 74 53 ae be 56 e6 53 c0 34 0c c4 3e
       0.023040734 -0.34048045 -3.3109336 0.3829056
000160 c0 58 a0 3e 6b ab 63 3f 4c 2b 2f 3e a1 80 86 3d
       0.3131771 0.8893344 0.1710636 0.06567503
000170 92 ef 40 bd f4 fe d3 bd 1c fc 09 3b f6 3d 11 be
       -0.047103472 -0.10351363 0.002105481 -0.14183792
000180 17 8e bb 3c ac 72 61 bd c1 77 17 3d 0c 28 a1 bc
       0.022894902 -0.055041 0.03697944 -0.019672416
000190 f7 5b 9f bd 4c 17 92 bd 2f 4c c2 3e 50 ad 3a 3e
       -0.07781213 -0.0713335 0.37948748 0.18230176
0001a0 77 bc 01 be bd f6 3a be 1d e4 53 3e 15 1c 21 bd
       -0.1266955 -0.18258186 0.20692487 -0.03933342
0001b0 36 59 19 3d fe 50 ca bf fa 01 4f be 60 4c 5c 3e
       0.037438594 -1.5805967 -0.20215598 0.2151351
0001c0 1b f5 d6 3d 13 fc 0a bd bc e0 29 bd 1a e3 0a be
       0.10495969 -0.033931803 -0.04147409 -0.13563195
0001d0 a3 5c ca bc 0a 4f b5 bc d8 74 69 bd 27 89 75 bd
       -0.024702376 -0.022132415 -0.056996197 -0.05994525
0001e0 ae ef 7b bd f0 08 2a be 2b f7 8f 3c c0 4c 48 3a
       -0.061507873 -0.16604972 0.017573914 0.0007640831
0001f0 98 30 29 be 07 4f 63 3d aa 07 82 bd 97 91 97 be
       -0.16522443 0.05549529 -0.06349118 -0.29603264
000200 34 d1 b9 bd c8 46 45 be 7d 11 97 be a1 3f 64 be
       -0.090731055 -0.19265282 -0.2950553 -0.22289898
000210 34 ae 77 3e ad 5f 01 be 31 f1 3c be 75 e2 ea 3e
       0.24187547 -0.12634154 -0.18451382 0.45875898
000220 17 11 8e 3d 68 a4 9d 3a 64 07 50 bb d6 25 41 bd
       0.069368534 0.0012027146 -0.0031742686 -0.047155224
000230 c0 d0 eb bb 25 92 99 bd e0 86 12 bd ad 28 74 bc
       -0.007196516 -0.07498578 -0.035773158 -0.014902276
000240 31 31 3c bd e0 88 1f 3d 38 13 5a bc 99 a9 ab 3d
       -0.04594535 0.038948894 -0.013310246 0.083819576
000250 28 9e 03 3f ca 71 57 3e 60 8d 5f be 0b df 7e be
       0.514132 0.21039501 -0.21831274 -0.24889772
000260 c8 bb 33 3e af 1b 81 be 51 37 c1 3d b6 2b b2 bf
       0.17552102 -0.25216433 0.09434379 -1.391959
000270 66 ca de bd 0d 35 f7 3e 17 f1 24 3e 34 df a2 bd
       -0.10878448 0.48282662 0.16107593 -0.07952729
000280 98 14 8b bb 29 e4 eb 3d 01 9b 7d bd 64 eb 71 bc
       -0.0042443983 0.115181275 -0.0619154 -0.014765594
000290 27 1d ec 3c 79 e0 f5 3d a5 d6 dc 3d db d4 ac 3d
       0.028822495 0.120057054 0.10783128 0.084390365
0002a0 3f cb 01 bc 08 fb 97 3b c0 6e 53 3e df a0 e5 3e
       -0.007921993 0.0046380796 0.20647717 0.44849297
0002b0 72 05 4f 3e ed fa a2 3c 3b 29 70 3d 11 42 a7 3e
       0.20216921 0.019895041 0.05863307 0.32667592
0002c0 86 e7 bf 3e 59 2a 83 3f 70 8a 96 3d 47 1d e8 bd
       0.37481326 1.0247298 0.073506236 -0.11333709
0002d0 f8 2e 8b 3e 79 9f 52 be 72 7f 41 be 1f 83 72 bd
       0.27184272 -0.20568646 -0.18896273 -0.059207078
0002e0 2a ef 9f bd b8 8b 8d 3e 6e 2c 93 bd 45 41 57 3d
       -0.07809289 0.2764566 -0.07186209 0.05255248
0002f0 b0 09 8e bd a3 4d 35 3d 62 e6 01 bd 55 17 11 3c
       -0.069354415 0.044263493 -0.03171385 0.00885566
000300 e5 6b 84 bb c4 2e ac bd ca 30 22 3f 00 55 c4 3d
       -0.0040411823 -0.08407357 0.63355696 0.09586525
000310 9a 1c 54 be fa e5 a0 bc cb 2e 49 3e 96 d8 87 3c
       -0.20714036 -0.019640911 0.19646756 0.016582768
000320 e3 7f 43 bd 76 d6 59 bf e7 d4 35 3d 98 4f 66 3e
       -0.047729384 -0.85092866 0.044392493 0.224913
000330 7c 45 ed bb a3 a0 cb bd 37 a1 5a 3d 11 09 e0 bc
       -0.007240949 -0.099427484 0.053376403 -0.027348073
000340 dd 5f 7c 3c 90 58 8b bb 31 9e 64 3c 83 19 69 3c
       0.015403715 -0.004252501 0.013953731 0.014227274
000350 ca 5c 05 3c ce e2 e2 bd f0 98 d9 3d 07 4a 3b 3d
       0.008139798 -0.11078416 0.10624874 0.045724895
000360 e2 b8 58 3d 63 ed 00 bd 69 66 94 3c 79 ca a6 3e
       0.052910693 -0.03147639 0.01811524 0.3257635
000370 e0 4c c8 bd c2 2f b8 bd a5 60 67 be 71 bb 36 3e
       -0.09780288 -0.08993484 -0.2259546 0.1784494
000380 bb 06 cd 3d b2 9e 51 bc af 65 6c 3e 74 2c b1 be
       0.10011049 -0.012794184 0.23085664 -0.34604228
000390 dd 96 9e bd dc dd 10 3e 25 c4 32 bc 3f 6c 10 3c
       -0.07743619 0.14147133 -0.010911022 0.00881487
0003a0 b8 1a c3 bd dc 3c 0a be 4a d8 32 bd 85 08 5a bd
       -0.095265806 -0.13499779 -0.0436633 -0.05323078
0003b0 9c a7 fa bd 60 43 f8 3c 77 33 8d 3c df 3d c6 3d
       -0.12239 0.030305564 0.017236454 0.0967977
0003c0 c2 3a 18 3c 01 28 c1 bd b1 22 f8 be 39 71 a3 bc
       0.009291353 -0.09431458 -0.48463967 -0.01995145
0003d0 23 2a c5 bd 89 36 04 bd 6a 8a 62 3d c3 e5 9d bf
       -0.096271776 -0.03227857 0.055307783 -1.2335743
0003e0 c5 5e 97 be 75 2d e2 3e 96 6b 97 3f 62 12 23 be
       -0.2956449 0.44175306 1.1829708 -0.15924981
0003f0 0b 9d ea bd ba 3e 16 3e 81 40 c2 3d 20 ee 45 3e
       -0.11455735 0.14672366 0.094849594 0.19329119

net.0.bias f4 [256]
000000 18 54 d1 3b 0a 79 e6 bd 8f d3 19 bd 56 91 50 bd
       0.0063881986 -0.11253555 -0.037555274 -0.050919853
000010 cf c8 c1 bd ef cf e6 3c 31 01 1b be c3 cf 45 bd
       -0.09462129 0.028175322 -0.15137173 -0.04829384
000020 bd 17 7d 3e 05 ab 4a bd 96 ae 21 be d6 17 a8 3a
       0.24716087 -0.049479503 -0.15789255 0.0012824486
000030 27 22 2f be 6c 54 71 3d 3c 6e 86 bc 5e 86 8d 3d
       -0.17102872 0.0589184 -0.016409986 0.06910394
000040 c9 82 bd 3d ca ae 18 be 64 9b 87 3c 00 10 93 bd
       0.09253461 -0.14910427 0.016553588 -0.07180786
000050 43 22 49 3e 0e c4 4d be e4 6e 96 bd bd a1 ec bd
       0.19641976 -0.2009432 -0.073453695 -0.11554287
000060 41 7e a2 3b 40 3e 61 bc 44 7b 79 bd b2 0b 52 be
       0.0049588983 -0.013747752 -0.06090857 -0.20512274
000070 e9 e3 8c be bd 13 7a 3d 07 c4 8e bd 43 00 3c 3c
       -0.27517632 0.06105398 -0.06970983 0.011474672
000080 09 c3 4a 3d 95 e4 ba bd 06 46 17 3a f8 a3 bc 3d
       0.049502406 -0.0912563 0.0005770627 0.09210962
000090 6e 26 67 3e e6 38 42 3d 6b ab c1 bb 7a a3 e6 3d
       0.22573254 0.047417544 -0.005910327 0.112616494
0000a0 4c 23 0c 3d cf 68 86 3c 2d f2 c5 3d 53 43 8e bd
       0.03421335 0.016407399 0.09665332 -0.06946435
0000b0 e8 d9 94 bd 25 5d fd 3c ec e9 90 bd 5d 0a 54 3c
       -0.07268125 0.030928204 -0.07075867 0.012941924
0000c0 45 d0 68 be ab eb 5b bd 45 3a cc 3d 12 32 04 bd
       -0.22735699 -0.053691547 0.099720515 -0.032274313
0000d0 6b 6e ba 3d 16 85 66 be a1 31 ff 3d ea f7 82 bd
       0.09103092 -0.22511706 0.12460638 -0.06394942
0000e0 56 ca 5b 3e 78 8e 6e be d5 6f 9d 3b d5 09 9a 3e
       0.21463904 -0.23296535 0.004804591 0.30085626
0000f0 bc 1d a2 bb 42 8b c1 3b 6b 38 0a bd 59 1c f4 bc
       -0.0049473923 0.0059064934 -0.03374521 -0.029798673
000100 38 98 3e 3d 2b 00 9e 3d a1 76 12 3d 05 b0 d7 ba
       0.046531886 0.07714876 0.035757665 -0.0016455656
000110 b5 6c 21 3e ba b6 0b 3d a4 5d 40 3d 0a 92 82 3d
       0.15764125 0.03410981 0.046964303 0.06375511
000120 c5 45 83 3d de 5f d6 bd d9 e2 a9 bc 1c 22 18 3d
       0.06409792 -0.10467504 -0.020738052 0.037141904
000130 be 59 3f bd fb 0f 06 bd dd 24 de bd a2 3b 00 3e
       -0.046716444 -0.032730084 -0.10846875 0.12522748
000140 5a 8b 60 3d d5 f5 a4 3c 69 e2 c8 3b 9d fd 57 bc
       0.054820396 0.020136753 0.006130506 -0.013183025
000150 1a a9 0a be 53 73 b3 3d 1b d5 2e 3e cf 47 0f bd
       -0.1354107 0.08762231 0.17073481 -0.03498059
000160 d1 cc 12 be 72 30 be 3d 27 e3 b3 3c fd b9 ca 3d
       -0.14335944 0.09286584 0.0219589 0.09898756
000170 05 c9 4c 3d ca cd ed 3d 14 f8 cf bd 9a 28 e5 3c
       0.049996395 0.11611517 -0.10154739 0.027973462
000180 fd d5 82 3d 9e 16 95 3c 87 11 2c 3c 8a 94 84 bd
       0.06388471 0.018199261 0.010502226 -0.06473644
000190 18 29 1a be 27 90 1c 3e c4 a3 85 3d 7a a5 86 bd
       -0.15054739 0.15289365 0.065253764 -0.06574531
0001a0 d6 40 be bc a1 5e b0 3d 27 d2 16 be e9 77 71 bd
       -0.023224276 0.08611799 -0.14728604 -0.058952246
0001b0 1e a7 b5 3d d1 4c e1 bd e8 c2 df bd d1 0c 32 bd
       0.08869766 -0.1100098 -0.10925847 -0.043469254
0001c0 70 e2 ba 3d 32 e0 a0 bd 53 c0 cd bc 98 f8 fd bc
       0.09125221 -0.07855262 -0.025116121 -0.031002328
0001d0 bb 4e e5 bd d1 a9 b3 bd 00 ef 77 3d bd 09 5a 3c
       -0.11196657 -0.08772624 0.060530663 0.013307986
0001e0 79 f9 a2 3d a8 98 59 3e e2 b1 bc bd 25 06 92 3d
       0.079577394 0.2124964 -0.09213616 0.07130078
0001f0 53 8c 52 bc 45 a6 67 bd 0a be a5 bd b5 d0 72 3d
       -0.012850839 -0.05655505 -0.08092888 0.05928107
000200 1c c2 2f 3c dd 0d d9 3c b5 f4 20 3c 0a 2b dd 3d
       0.010727432 0.026495868 0.009823968 0.10799225
000210 91 5d 55 3d eb 21 91 3d aa 66 65 3d 0d 6a 29 3c
       0.052091185 0.070865475 0.05600611 0.010340226
000220 d6 03 33 be b7 85 25 3d b8 82 4b bc 56 d0 03 3d
       -0.17481932 0.040410724 -0.0124213025 0.032181107
000230 0b 99 42 bc f7 dd bd 3d 89 87 7b 3d 8b 2f 45 bc
       -0.011877309 0.09270852 0.061408553 -0.012035261
000240 d7 fd df bd 1b 99 4c bd c9 d5 64 3e 90 6b 84 3c
       -0.10937088 -0.0499507 0.22347178 0.016164571
000250 0d ae 69 3e 87 e0 c9 3d ce d3 36 3d 2b cc 66 3d
       0.22820301 0.09857278 0.044635586 0.056347053
000260 79 d1 f4 3c bc 84 91 bd dc 05 85 3c 6c 35 0b 3d
       0.02988504 -0.07105395 0.016238146 0.033986494
000270 a8 41 9e 3d 69 6a dd bd 0a 23 f9 3d 81 e0 dd 3d
       0.07727367 -0.10811312 0.12164886 0.10833836
000280 87 d6 99 bd 59 c0 65 3d ad 2b 9a 3d a4 85 45 be
       -0.07511621 0.05609164 0.07527862 -0.19289261
000290 c6 d8 2e bc b8 a4 9c bd d7 18 3c bd d0 82 e4 bd
       -0.0106718 -0.07648605 -0.045922127 -0.11157763
0002a0 f8 27 0a bd 1a 4a ce bd f6 5a c8 3d 6c 5c c7 bc
       -0.033729523 -0.100727275 0.097829744 -0.024336062
0002b0 21 95 4f 3e cc 13 8b 3c 31 14 4e bc c2 40 97 bc
       0.20271732 0.016977213 -0.012578056 -0.018463496
0002c0 06 3b 43 bd b5 22 e0 3d 72 1a 94 3d 72 60 1c 3c
       -0.04766371 0.1094412 0.072316065 0.009544479
0002d0 ac 09 70 3e d9 7b bb 3d 22 14 97 bd 2f fb a5 bd
       0.2344119 0.091544814 -0.07376887 -0.0810455
0002e0 3d 9a 1c 3d be 1d d9 bd dd ca ea bd b1 97 09 3c
       0.03823303 -0.10601376 -0.11464474 0.008397982
0002f0 e3 56 3a 3d 5b bf 57 be f9 90 2a bc 1b c8 99 bc
       0.045493018 -0.2106909 -0.010410541 -0.018772176
000300 4a c2 95 3d 08 c7 a5 3d 86 e1 19 be ab 44 b5 bd
       0.07312448 0.08094603 -0.15027437 -0.08850988
000310 c1 0e fd bd 98 1b 18 3c b1 36 92 3d 7c f3 73 bc
       -0.1235633 0.009283923 0.07139338 -0.014889594
000320 e2 f4 cf bc df a8 0e 3e ff 1e 97 3d 36 43 99 bd
       -0.025385324 0.13931607 0.07378959 -0.074835226
000330 ed 9c b0 bd 1d fb 01 3e 4c f2 37 3e 26 18 26 bc
       -0.08623681 0.12693448 0.17963523 -0.010137593
000340 c7 d7 a3 3c ab 7d f4 bc f6 73 82 3d 3a 11 75 bd
       0.020000352 -0.02984508 0.06369774 -0.05983088
000350 1f 69 02 3d bd 1e 15 3d 45 64 97 bd 2c 95 5c 3c
       0.031838533 0.036406267 -0.07392172 0.0134633
000360 7c 52 81 bd 73 67 bb bd ce 1d 8c ba 00 5c 13 3d
       -0.06314561 -0.09150591 -0.0010690035 0.03597641
000370 a6 ce 24 bd bf 95 b7 bd 8b 38 2a 3d 35 f2 b6 bc
       -0.040236138 -0.08964109 0.04155783 -0.02233229
000380 76 8a 03 bd ef a4 35 bc 69 6a 4f be cb 66 38 3d
       -0.03211447 -0.0110866865 -0.20255436 0.045019906
000390 30 6e 5d 3b 2c 17 1d 3c d3 a9 67 3c 9f 0d d5 3d
       0.00337876 0.009588044 0.01413961 0.10402989
0003a0 7f 9a 99 3d 16 c6 bb bd 6e 7e 42 be 4e db 73 3d
       0.07500171 -0.09168641 -0.18993542 0.059535317
0003b0 a3 dd d9 3b b5 77 44 3d 90 46 25 3e d9 96 2d be
       0.0066487356 0.047965724 0.16140199 -0.16952075
0003c0 4c 94 a4 3c 1e 9e 5a 3c 19 f7 32 bd 3d 65 09 bd
       0.020090245 0.013343362 -0.043692682 -0.033543814
0003d0 62 9c 93 bc 3f 38 d0 3c 26 9b 23 be 7a fc 0b be
       -0.018018905 0.025417445 -0.15977153 -0.13670531
0003e0 09 11 1e bd b2 c4 de bd a4 20 ab 3d 79 a7 3f 3d
       -0.038590465 -0.108773604 0.08355835 0.046790574
0003f0 42 e2 6a 3d 5f dd 99 3d 56 9f 7a bc 61 fd 3c 3e
       0.057344683 0.07512926 -0.015296778 0.18456031

net.3.weight f4 [128, 256]
000000 da 81 42 bd 72 98 52 3d b9 3d bb 3d 97 b0 6f bb
       -0.047487117 0.051414914 0.09142632 -0.0036573762
000010 ea 50 7c 3d ea a3 b6 3d 10 ca 4d bd 06 6b 55 bb
       0.061600603 0.08917983 -0.05024153 -0.0032565012
000020 05 6d 26 be 55 5f 46 bd 0b 2e 8a be 41 68 1e bd
       -0.16252525 -0.04843076 -0.26988253 -0.038673643
000030 e6 be fb bb 6b 18 8a bd a1 60 63 3c 83 1e 92 bd
       -0.007682669 -0.067429386 0.013878019 -0.07134726
000040 ba 45 f8 3b 85 8e bc be aa b4 00 bd 7e 55 d5 bc
       0.0075766714 -0.36827484 -0.031422295 -0.026041742
000050 01 28 df bd 38 1e be bb a7 b8 bd 3b f5 e5 4e 3d
       -0.10896302 -0.005801942 0.0057898345 0.050512273
000060 f4 0c de 3b d8 9f 50 3c 4e dd 1d bd d5 8b bb be
       0.0067764465 0.012733422 -0.03854113 -0.3663012
000070 ca 9f b4 bd e1 69 54 3e e0 9c dc bd 72 e0 13 be
       -0.0881954 0.20743515 -0.10772109 -0.14441088
000080 05 cc 26 bd 05 b8 23 3d 42 e1 fd bc 31 08 06 3c
       -0.040721912 0.039970417 -0.0309912 0.008180664
000090 6a 4e d0 3a e1 d1 01 3d 8e 34 5d 3d 41 01 db 3c
       0.001589251 0.031694297 0.0540052 0.026733996
0000a0 f8 64 b3 3c f5 88 82 3d 39 10 f9 3e 93 dd 23 3e
       0.021898732 0.06373779 0.4864519 0.16002493
0000b0 d4 f3 6e 3d 04 ad 24 3e fc e7 88 3d 19 cb 42 bd
       0.058338 0.16081625 0.066848725 -0.04755697
0000c0 5e 11 0f be 4a 87 2e 3c 56 d8 c8 3c 5b a4 c4 3c
       -0.13971469 0.010652373 0.02451722 0.024004152
0000d0 7d 2f 78 bd 30 fd 5c be 0b ee fb bb 9e c8 f0 bc
       -0.060592163 -0.21580958 -0.007688289 -0.029392537
0000e0 2d 7b 81 3d 90 ee 1b be 36 77 62 bd d4 48 83 bd
       0.06322322 -0.15227723 -0.05528947 -0.06410375
0000f0 67 aa c6 3b cf e5 81 bc ce f6 e6 3c 92 98 20 bc
       0.006062794 -0.015856652 0.028193858 -0.009802001
000100 98 d1 4c 3d 44 86 e1 3c 74 2d b8 3c ec 40 a6 bc
       0.05000457 0.027529843 0.022482611 -0.020294629
000110 dc c4 b1 bd 72 0d 2e bd 3c 89 7d 3d 38 36 c5 3e
       -0.08680126 -0.04249329 0.061898455 0.38517928
000120 75 99 65 3c b2 a3 8f bc 83 57 38 be bd 0c e5 bc
       0.014013638 -0.01753411 -0.18002133 -0.027960176
000130 9b 15 5e 3c ba c1 31 bd ed a2 7d 3d 0e b7 73 3e
       0.013554956 -0.043397643 0.061922956 0.23800299
000140 bd 87 8b 3c 31 27 e5 3c a6 05 ac bd e3 97 ce 3b
       0.017032498 0.02797279 -0.08399515 0.0063047274
000150 6f b2 6b bd 12 ad e4 bc 73 1e bb bd 02 b7 52 bd
       -0.057543214 -0.027914558 -0.09136667 -0.05144406
000160 96 32 87 be 9a 39 2b bd dd b8 98 3c 68 46 96 bd
       -0.26405782 -0.04180298 0.018642837 -0.07337648
000170 74 16 24 3c ad 0b 80 bd 93 bb e7 3b 05 8f 98 be
       0.010015119 -0.06252227 0.007071921 -0.29796615
000180 2f 32 a8 bc 09 03 21 bc a4 de c8 bc 85 3b c6 3c
       -0.020531742 -0.009827384 -0.024520226 0.024198303
000190 57 2e b0 3c 9e 7b 32 3d 30 0e f4 3c 4e bf d6 bc
       0.021506472 0.04357492 0.029791921 -0.026214268
0001a0 6b fd 8b bd 38 0b cf bd 09 ea a7 bd 59 fd ff 3c
       -0.06835445 -0.10109562 -0.081989355 0.031248735
0001b0 97 6f 14 3d 30 ff e2 bc 03 28 ea bc 8d dc c0 bd
       0.036239233 -0.027709574 -0.028583532 -0.09417067
0001c0 4a dd b7 bb 1a e2 d5 3c 7e 28 3f bc 80 a4 5d be
       -0.0056110965 0.02610879 -0.011667369 -0.21644783
0001d0 80 b2 8d bd 69 f3 3f bd c9 7c 78 3c 25 80 49 bc
       -0.06918812 -0.046862993 0.01516647 -0.012298618
0001e0 5d 1d ef bc 63 11 d0 3d 6a 0b 2e bd fa c1 ed bc
       -0.029188806 0.10159566 -0.042491354 -0.02902316
0001f0 40 4e eb 3d ac fc d5 be 1f 68 04 bd e4 f5 9f bd
       0.114895344 -0.41794336 -0.03232586 -0.07810572
000200 d2 0d f5 bc 8e c3 a3 bc c5 b2 d0 bd b2 c1 ff bb
       -0.029913817 -0.019990709 -0.101903476 -0.0078050727
000210 66 89 6e bd 0a 71 51 3c 01 11 0c be 80 44 5d 3c
       -0.058236502 0.012783298 -0.13678361 0.013505101
000220 88 93 47 bd e2 63 f7 bc 96 47 bd bc 0f 5c 14 3e
       -0.04872468 -0.030198995 -0.023105424 0.14488243
000230 d1 a3 19 3d 62 da 17 bc 25 85 d2 3d 26 cc 8f 3d
       0.037509743 -0.009268375 0.102793016 0.0702136
000240 91 f2 cd bc 1d 07 63 bd dd da 9d 3b dd ff 79 bc
       -0.025140079 -0.055426706 0.0048173503 -0.0152587565
000250 5a 30 a7 bd 50 d5 a8 b8 c8 c9 a6 bb 84 61 ae bd
       -0.08163519 -8.050597e-05 -0.005089972 -0.085146934
000260 51 5a 79 3d 91 dc 09 3d ee c6 42 3c bf 0a e8 bc
       0.060877148 0.033657614 0.011888249 -0.028325437
000270 2f fb 47 3d f7 c4 af bd e1 90 22 bd b4 d1 b6 bc
       0.04882353 -0.0858249 -0.03968895 -0.022316791
000280 ef f5 a6 bd d8 1a e9 bd 3b 8f 08 3e 56 29 c4 bc
       -0.08152377 -0.11382073 0.13335888 -0.023945492
000290 25 06 4c 3d ca 1a 76 bd 80 4e 70 bd ac ff ff bb
       0.049810547 -0.06008414 -0.058668613 -0.007812461
0002a0 64 28 5c bd c0 be 1e bd 50 be 29 bd 39 df e4 bc
       -0.053749457 -0.038756132 -0.04144126 -0.027938472
0002b0 17 ab c9 bd b1 45 3a 3e 6d f2 87 bc 0c ba 69 bd
       -0.09847086 0.18190648 -0.01659509 -0.057062194
0002c0 3e 32 47 3c 51 27 fb bc 5a 07 10 bd e1 38 8c bd
       0.012157975 -0.030658396 -0.03516326 -0.06846786
0002d0 99 c5 ed 3b 37 b6 c9 be 86 f8 c9 3d 59 6c 9b bd
       0.0072562215 -0.3939683 0.09861855 -0.07589025
0002e0 b9 ed 2e 3d f6 5a 86 3d a1 d1 1a be 04 d2 ba bd
       0.04270718 0.06560318 -0.1511903 -0.091220886
0002f0 1c 7f a6 3c 2c f2 e6 bc 79 ee 99 3c d2 dc fc 3c
       0.020324282 -0.028191648 0.01879047 0.030867014
000300 e2 8d 41 bc 80 0f ac bd 97 b9 87 bd 66 cc 1c 3d
       -0.011813613 -0.08401394 -0.06627195 0.038280867
000310 98 62 48 3a 35 4e 23 3e 5d ca a7 bd 3b 6a 95 3e
       0.0007644086 0.15947802 -0.081928946 0.2918261
000320 af f5 96 3d 36 aa 6f bd 73 b5 50 bd 12 4e 1d bd
       0.07371079 -0.058511935 -0.050954293 -0.03840453
000330 d3 61 5b 3d 13 e1 97 bd 77 8b fe bd 75 70 0c 3e
       0.05356009 -0.074159764 -0.124289446 0.13714774
000340 ed 26 28 3b 82 ca 64 bb a3 b9 a3 bd 02 3e 7c bb
       0.0025657967 -0.0034910743 -0.07994392 -0.0038489108
000350 01 45 aa bc 3c 6f 84 bc 19 81 9b 3b e2 6c 55 bb
       -0.020784857 -0.016166322 0.0047456142 -0.003256612
000360 61 48 b2 bc ea 99 78 3a 60 18 2d 3d 3c 07 b4 bc
       -0.021763029 0.0009483384 0.042259574 -0.021976106
000370 7d 23 ca 3c 49 3c d3 3d a5 d7 99 3c ad 8f ae bd
       0.024675125 0.10314233 0.018779585 -0.08523498
000380 ad 3b 05 bd 1c e9 8d 3d 80 53 9d bd 1a 88 42 3d
       -0.032527614 0.06929228 -0.07681942 0.047493078
000390 3c d8 a3 bd 1e fd 47 bd 4b e0 8b 3d 48 c3 ba bc
       -0.08000228 -0.048825376 0.0682989 -0.022798195
0003a0 cd ab e3 3c 47 ee 15 3d 1d 47 d7 bc 26 26 aa 3d
       0.027791882 0.036604192 -0.026279027 0.083080575
0003b0 dd b6 94 bc dd e1 61 3d 5f 56 8b 3d 89 bf 06 3d
       -0.018153602 0.05514704 0.06803583 0.032897506
0003c0 2d c6 a8 3d 12 91 4b bc f2 ed 0d 3e 59 7b 5f bd
       0.08240924 -0.012424724 0.138603 -0.054560993
0003d0 80 6b 81 bc 66 dd b0 3d e1 ad 45 bc d4 55 c8 bd
       -0.01579833 0.086359784 -0.012065382 -0.097819954
0003e0 33 2b ba 3c 59 af 1c 3d 5a f0 1a 3c 88 cd db bc
       0.022725677 0.038253162 0.009456718 -0.026831403
0003f0 07 55 4e bd 85 33 aa bc fe 15 42 3d 98 01 15 bc
       -0.050374057 -0.02077652 0.047384255 -0.009094618

net.3.bias f4 [128]
000000 f2 7a 47 bb cd 9e 3f bc b3 70 fd bb 7f 70 d2 3a
       -0.0030438271 -0.011695576 -0.007734382 0.0016055255
000010 dc 86 06 bb d3 66 3f bc 33 8d 26 bc 42 51 16 bc
       -0.002052716 -0.01168223 -0.0101655 -0.009174647
000020 87 b0 9f bb 11 a3 bc bb dd 64 a9 ba cc 2b 02 bd
       -0.0048733386 -0.0057567437 -0.0012923736 -0.03178005
000030 72 6d 92 bb fb d2 8a bb 0b 09 82 bc fd 04 6f bc
       -0.0044686133 -0.0042365766 -0.015873453 -0.014588592
000040 15 83 15 ba 26 ca c5 bb a4 69 b1 3a 35 a0 21 bc
       -0.00057034317 -0.006036061 0.0013535512 -0.0098648565
000050 cb a7 19 bc 45 f6 8f bc 23 77 35 bc 90 f7 47 bb
       -0.009378384 -0.017573485 -0.011075768 -0.003051255
000060 79 d9 1c bc a5 00 67 3a 34 41 3e bc 3a 43 eb bc
       -0.009573334 0.0008812047 -0.011612225 -0.02871858
000070 eb 40 a6 bb 4b 04 a5 3c 2c 38 08 bc 81 c1 28 3b
       -0.005073657 0.020143649 -0.008314174 0.0025750103
000080 da 58 12 bb db af 42 3b 53 4f 0a bc 2f c6 4a 3b
       -0.0022330792 0.0029706869 -0.008441764 0.003094088
000090 11 ea a2 bc d0 b1 ce bb 34 2e d1 3b cc 8b 5d bc
       -0.019887002 -0.006307818 0.0063836817 -0.0135221
0000a0 61 86 1d bc 13 b8 b3 ba 42 c7 40 bc 3e 08 c0 3a
       -0.009614558 -0.0013711475 -0.011766257 0.0014650894
0000b0 4e 32 8c bb 0e 1d 48 bc da 2f 05 bc 13 54 a7 3b
       -0.0042784577 -0.012213958 -0.0081290845 0.005106458
0000c0 78 f3 b2 3b 6b c6 cb ba ac 30 01 bc c2 65 71 bb
       0.0054611526 -0.0015546804 -0.007885139 -0.0036834334
0000d0 54 e8 3c 3a 7c ea 04 bc f5 01 c3 bb b0 0a 9c bb
       0.00072062504 -0.008112546 -0.005951161 -0.0047620162
0000e0 5b 00 35 bc 5b 34 e2 b9 f4 dd 2c bc 1f 48 61 bb
       -0.011047448 -0.00043145087 -0.010550965 -0.0034375263
0000f0 6d 62 be bb 51 e4 85 bb bb bf 8b b9 3d 0f a7 bb
       -0.005810073 -0.0040860553 -0.00026654996 -0.005098252
000100 2c 01 9d bb f8 27 f4 bb 0b 53 16 bd bf c8 40 bc
       -0.0047913995 -0.0074510537 -0.03670029 -0.011766612
000110 1a 62 46 bc d2 d1 38 bc 9c 3b 1c 3c 33 c1 03 bc
       -0.01210835 -0.011280494 0.009535696 -0.008041668
000120 dd 6d 59 bc cc e7 75 bb 3d bd fa bb f7 df d3 3a
       -0.013270822 -0.0037522195 -0.0076519535 0.0016164769
000130 a1 e7 d7 3b 1b e1 fe bb c2 ab 63 3c 89 ed 67 bb
       0.0065888916 -0.0077782995 0.013895931 -0.0035389385
000140 c8 44 67 3b 5a 8b 71 bc 0c b6 35 3c d9 61 26 ba
       0.00352888 -0.014742697 0.011090767 -0.0006346978
000150 20 b5 76 bb 5d 06 47 bc a7 f6 36 bc 16 8c 81 3c
       -0.003764458 -0.012147513 -0.011167205 0.015813868
000160 49 69 26 bb 9e 2a 1f bc 21 ca 29 bc bc 8b eb bb
       -0.0025392345 -0.009714751 -0.010363133 -0.0071882885
000170 9f 2c 98 3b 47 e2 78 bc 94 b7 33 bc 8c 8b 9f bc
       0.004643991 -0.0151906675 -0.010969061 -0.01947572
000180 f6 24 3b bb 8d db 9c 3a 15 9f 52 bc 71 c2 8e bb
       -0.0028555966 0.0011967287 -0.012855311 -0.0043566753
000190 51 3a 0f bb fa df 91 bb f9 b2 27 bc 0e 26 1e ba
       -0.0021854828 -0.004451749 -0.0102355415 -0.0006032892
0001a0 97 57 82 3b 85 fc 09 bc c0 8b 35 bc 5f 87 ba bc
       0.0039777267 -0.008422022 -0.011080682 -0.022769628
0001b0 16 fb f3 bb cd b3 54 bc 77 ae cc 3b 4d 69 cc 3b
       -0.0074457033 -0.012982321 0.006246384 0.006238139
0001c0 f3 2b b5 bc e4 04 20 bb ac 5c 0a bc 39 f6 a9 bc
       -0.022115683 -0.0024416978 -0.008444946 -0.02074729
0001d0 90 f8 5c bc a8 94 2d b9 aa 04 da bb a7 0b 2d bb
       -0.013486996 -0.00016553944 -0.006653388 -0.002640465
0001e0 1a f4 a2 bb 99 d2 57 bc 0b a1 a1 bb c5 9f 6d 3b
       -0.004972947 -0.013172769 -0.004932528 0.003625856
0001f0 ca 76 25 bc 08 95 5f bc 2a 79 1b bc 3d 21 07 bb
       -0.010099122 -0.013646372 -0.009489337 -0.0020619177

net.6.weight f4 [9, 128]
000000 b3 69 15 bc fc 74 69 3b f3 2f 36 bd 1e 71 a1 bc
       -0.009119439 0.0035622707 -0.04447932 -0.019707259
000010 e2 95 d6 3c 61 69 0e bc 26 b0 7c bc 04 1b 1c 3e
       0.026194517 -0.0086921165 -0.015422856 0.1524468
000020 14 0b a5 3c 3e c6 20 3c 2a f2 a2 bc 4c 83 5d bc
       0.020146884 0.00981289 -0.019890863 -0.013520073
000030 7b 74 e1 bd 59 f8 1b bd 62 43 09 bc e6 64 d4 39
       -0.11008545 -0.03807864 -0.008377882 0.00040510966
000040 2a 80 af 3b f4 ce f6 3c d6 54 24 3e 78 22 0e 3d
       0.0053558545 0.03012798 0.16047987 0.03470084
000050 7c c3 0e 3d df 55 65 bc 64 4b c9 3c 50 e4 84 3c
       0.034854397 -0.013997524 0.024572082 0.01622215
000060 ec 69 c1 3b 57 87 7c bc b3 a4 05 3d cb 42 4d bd
       0.0059025194 -0.015413127 0.032627773 -0.050112527
000070 1e 75 f3 bb 8c f1 bf 3b e9 f6 22 3e 25 a3 b6 bc
       -0.007429733 0.005857652 0.15914501 -0.02229459
000080 36 0e 23 3e 4d b6 cf bc f8 09 ae bc 8a c4 de bb
       0.1592339 -0.025355482 -0.021244988 -0.0067983316
000090 99 06 22 bc 4e c0 46 bc 37 3d 22 3e 9b 1e c9 bc
       -0.009889268 -0.01213081 0.15843664 -0.024550727
0000a0 ba 59 9c 3b d3 e2 05 3b 0a 07 1c bc 7f 92 38 bb
       0.0047714384 0.0020429387 -0.009523163 -0.002816349
0000b0 eb 9b e8 3c d3 ee 46 3c ff be 9e 36 6a f5 ef 3c
       0.02839466 0.012141901 4.731002e-06 0.029291827
0000c0 0b 8c 92 3c 00 23 1c 3e d7 87 da 3b 89 86 98 bc
       0.017889043 0.15247726 0.0066690254 -0.018618839
0000d0 36 00 94 bc e3 de f2 bb ec f1 b9 3c 21 6e d7 bd
       -0.018066507 -0.007411824 0.022698365 -0.10519052
0000e0 53 b1 0e bc d5 c7 a9 3c 7e 6c c3 3c e3 a7 0e bd
       -0.00870927 0.02072517 0.023855444 -0.034828078
0000f0 26 e8 eb 3b aa 36 47 bd fb a3 eb 3c af 09 6a bc
       0.007199305 -0.048636116 0.028764715 -0.014284535
000100 4f a8 84 3c c0 ad 2f bd d2 58 62 3c a5 54 8e bb
       0.016193537 -0.04289031 0.013815122 -0.0043435865
000110 f8 c7 d5 bd 8b 64 4e bc ee 20 86 3c b9 c5 5e bd
       -0.10438532 -0.0125972135 0.016373124 -0.05438778
000120 8b d8 72 3b 5d 2c d4 3c d6 f1 a6 bc 48 82 a5 bd
       0.003705534 0.02590006 -0.020378988 -0.0808149
000130 6d 4b 15 bd f4 e8 1e 3e a6 44 62 3c 23 7d 8f bc
       -0.036448885 0.15518552 0.013810312 -0.017515725
000140 06 46 95 3c 08 bd 31 3d 0f db f9 3c d5 44 82 bd
       0.018221866 0.043393165 0.030499963 -0.06360785
000150 e8 3b 19 3e c5 34 b0 3c 05 eb da 3c e9 b7 a6 bb
       0.14964259 0.021509537 0.026723394 -0.005087842
000160 90 6b e7 bc f3 ae 81 bc c7 79 d9 bc 3f 1c dd bc
       -0.028249532 -0.015830493 -0.026547326 -0.026991008
000170 10 36 23 bc 51 23 0e 3d bd 48 ca bc 15 7b 5b 3c
       -0.00996162 0.03470165 -0.024692887 0.013396044
000180 bd 4b d1 3c b4 6d 0a 3e 62 f1 98 3c 34 be 1a 3e
       0.02554881 0.13518411 0.018669788 0.15111619
000190 e3 23 82 bc 77 b8 90 bc 1c b0 d3 bb 69 a7 37 3c
       -0.015886253 -0.017666085 -0.006460203 0.011209347
0001a0 be dc c0 bc e8 ce 87 3a 7c 50 fd 3c b7 db f4 bb
       -0.023542758 0.0010361345 0.030922167 -0.007472481
0001b0 03 48 b2 3c fc 22 bf 3c e8 2e e6 3c eb a2 93 bc
       0.021762853 0.023332112 0.028098539 -0.018022021
0001c0 78 ad 6f 3c 99 53 9b 3c 56 82 ca bc c8 05 90 bb
       0.0146287605 0.01896076 -0.024720352 -0.0043952204
0001d0 9c 81 97 3c ac 26 0b bd 1e 4d 5c bd 42 57 07 3d
       0.01849442 -0.033972427 -0.053784482 0.0330422
0001e0 1a aa 0c bd 51 10 22 3e 78 19 ea bd a8 e6 ef 3b
       -0.03434191 0.15826537 -0.11430639 0.0073211975
0001f0 a4 98 9c bb c6 81 c8 bc 73 48 3b 3c b2 bf f7 bc
       -0.0047789384 -0.024475943 0.011430847 -0.030242775
000200 0b 88 29 3c 6c fe 41 bc fb 7f ba 3b 0b 5e c1 3b
       0.010347377 -0.011840444 0.005691526 0.0059011034
000210 f9 6f c8 bc 22 1f 3a 3a d3 2a 43 bc 38 5f 44 3c
       -0.024467455 0.0007099976 -0.011912066 0.011985593
000220 41 56 b6 3b 2d b9 f3 3d 17 60 9c bd 57 c9 87 bc
       0.0055644815 0.11900554 -0.07635515 -0.016575499
000230 0f fa 23 bd af 00 02 be bc 34 a3 bb 9b 59 4f 3d
       -0.040033396 -0.12695573 -0.0049806517 0.050622564
000240 f4 15 fa 3d 00 7a bf bc 7c 94 a6 3c ec db cb bc
       0.122112185 -0.023373604 0.020334475 -0.02488514
000250 c9 3a d3 bc 90 c1 30 3c b0 27 59 bb 71 ba 48 3d
       -0.025784867 0.010788336 -0.0033135228 0.04900593
000260 8c 20 2b 3d 06 9e 3f bc 08 43 da bb 8f 63 e8 bc
       0.041779086 -0.011695391 -0.006660823 -0.028367786
000270 75 5d 3a 3c 37 c9 bd 3c 3f 28 67 3c cf 40 7c 3c
       0.011374821 0.023167236 0.0141087165 0.015396311
000280 59 d8 0f 3d 3c 1c ae 3c 75 69 45 bc cd 8e f0 3c
       0.035118435 0.021253698 -0.012049069 0.029364968
000290 d4 ca 9a 3d 71 cf ee bc 70 cc 6d 3c df 1e 5e bd
       0.07558218 -0.02915165 0.014514074 -0.05422866
0002a0 8d b0 fa bc 04 0e b9 bc ee eb dd 3c eb 2f df 3c
       -0.030601764 -0.022589691 0.02709004 0.027244529
0002b0 55 c5 80 bd e5 74 a5 bc a7 50 b6 bc 8d 5a 4a bb
       -0.06287638 -0.020197341 -0.022255255 -0.0030876726
0002c0 e8 8f 18 bd f1 37 e7 3c b9 77 c5 3c 22 08 8a 3c
       -0.037246615 0.028224917 0.02410494 0.016849581
0002d0 ba fa de 3c 6b 4c 43 bc 35 1f a3 3c 09 e0 cb bc
       0.027219165 -0.011920075 0.019912342 -0.024887102
0002e0 9e a5 e6 bc 7d 42 15 3c 0a cf 9a 3c bd 91 19 bc
       -0.028155144 0.00911009 0.018897552 -0.009373126
0002f0 5b 79 b9 3c 98 dd 00 be e8 50 83 bc 8c 05 d9 3b
       0.022640875 -0.12584531 -0.01602979 0.0066229757
000300 34 40 52 bd 1b 00 13 3b 82 ec 40 bd 9f e8 28 bd
       -0.05133076 0.0022430483 -0.04710055 -0.04123747
000310 ca 13 4f bd bc dc 45 bc 69 a4 34 bc 6a d9 02 be
       -0.05055598 -0.012076553 -0.011025527 -0.1277825
000320 0e e5 63 ba 33 26 ec bb 2f 56 4b bc 64 3d bd 3a
       -0.00086934946 -0.007206702 -0.0124106845 0.0014437851
000330 f1 94 9a ba 2d bb 7d 3c 7b 06 ab bc ba 1e 77 3d
       -0.0011793656 0.015486521 -0.020877114 0.060332038
000340 62 52 75 3c 68 d9 08 3e b1 bf 0c 3e 42 3e 96 bb
       0.014973255 0.13364184 0.13745 -0.0045850584
000350 f1 85 07 3d d4 62 bf 3b af 45 94 bc d6 b3 0f 3d
       0.03308672 0.0058406387 -0.018099634 0.035083614
000360 86 f0 b1 3d 86 0e 47 bb aa ba b9 3c b0 b4 28 bc
       0.08688454 -0.0030373647 0.022672016 -0.0102969855
000370 fb d1 27 bd fa 24 b6 bc 53 e1 b1 3c 10 c1 69 3d
       -0.040971737 -0.022234429 0.021713888 0.057068884
000380 f5 61 a2 3c 77 e5 e7 3c a9 ea f6 bc 33 2a ce 3c
       0.0198221 0.02830766 -0.030141192 0.025166607
000390 06 94 eb 3c 2e c1 0e 3c 83 fb 17 3d cf a0 e9 3c
       0.028757107 0.00871305 0.037105095 0.028519062
0003a0 91 09 de bb 07 75 c3 3b 93 e6 ca bc 63 ae 88 bc
       -0.0067760427 0.0059648785 -0.02476815 -0.016684717
0003b0 37 ba e5 3c 22 11 a9 bc 49 bb 59 bc 5e b1 93 3d
       0.028042896 -0.020638052 -0.013289281 0.072115645
0003c0 5b eb 63 3c 35 7e 94 bc c6 48 c9 bd 7b ab 9f 3c
       0.013911094 -0.018126586 -0.098283336 0.019490948
0003d0 30 78 a6 bc d9 64 83 bc 36 05 f4 3c 64 51 b9 3c
       -0.020320982 -0.016039299 0.029787641 0.022621818
0003e0 9a 33 6c bc 4a 3f c6 3c 47 4a 59 bc ec 7b 00 3e
       -0.0144166 0.0242001 -0.013262338 0.12547272
0003f0 e2 20 83 bb ff bc a4 bd cf 73 29 bd 8c 94 c3 3c
       -0.0040017227 -0.08043861 -0.04137021 0.023874544

net.6.bias f4 [9]
000000 b5 a0 ab 3a 78 95 6a bc ac 68 60 3c ae 88 0a 3b
       0.0013094159 -0.014317863 0.013696831 0.0021138596
000010 19 32 60 bc 92 07 bd 3b e6 35 03 3d 62 95 a9 3e
       -0.013683819 0.0057687247 0.032033823 0.33121783
000020 7a 48 49 3e
       0.19656554

exp_avg f4 [256, 23]
000000 18 7c 83 38 d6 90 7f 38 e4 48 d4 b8 19 01 9c 38
       6.269681e-05 6.0931627e-05 -0.00010122525 7.438864e-05
000010 5b cf a7 36 cd 1c 4c b7 cf 9d d9 b8 2f 8d 3f b9
       5.001127e-06 -1.2166053e-05 -0.000103767605 -0.00018267774
000020 2a 67 26 ba 21 4c 3d 38 92 d0 25 38 88 85 f6 b7
       -0.000634777 4.5132012e-05 3.953331e-05 -2.9387666e-05
000030 fc 3a c0 b8 93 27 73 38 af e4 0b 38 c5 bd 05 b9
       -9.16626e-05 5.797257e-05 3.335316e-05 -0.00012754563
000040 fa 84 8b 34 d5 be 75 34 52 52 8d 38 a1 3e 8e b8
       2.598752e-07 2.2886827e-07 6.738737e-05 -6.782753e-05
000050 72 e0 1d 37 42 7d 68 b8 94 96 d6 b7 e0 35 bb 38
       9.410187e-06 -5.5429766e-05 -2.5580906e-05 8.92689e-05
000060 11 27 30 b9 22 31 88 38 4f 3e 35 b9 e3 29 44 b9
       -0.00016799221 6.494137e-05 -0.00017284717 -0.0001870762
000070 b7 ce 31 b8 eb 8c 00 39 6f 22 9b b6 7c f3 1b 3a
       -4.2392607e-05 0.00012259527 -4.6233686e-06 0.0005949063
000080 ed 3f 81 38 2f 2a bc 36 c5 b6 70 b8 42 7c 5b 37
       6.1631064e-05 5.6077474e-06 -5.7390676e-05 1.3082348e-05
000090 86 69 08 b9 90 10 8e 38 16 68 4e 37 23 7c b0 b2
       -0.00013009281 6.774173e-05 1.2302791e-05 -2.0545547e-08
0000a0 82 12 36 35 9f 11 d6 b7 4e 2d a0 38 2c 35 2b 37
       6.7827216e-07 -2.5518993e-05 7.637833e-05 1.0204774e-05
0000b0 bb bd 07 39 70 d4 e5 37 8c a4 a7 38 68 9c ea 37
       0.00012945283 2.7397851e-05 7.99383e-05 2.7967806e-05
0000c0 99 eb 27 b8 d8 f9 db 38 87 86 9a 36 c0 0c 2c b9
       -4.003532e-05 0.00010489271 4.6052187e-06 -0.00016407948
0000d0 8a 5c 18 b9 eb e7 75 b8 cc d3 19 b9 c5 09 e7 34
       -0.00014530323 -5.8628542e-05 -0.00014670118 4.303421e-07
0000e0 a0 02 d5 b5 a8 e1 77 37 92 4f d2 37 70 c0 01 b8
       -1.5870501e-06 1.4774887e-05 2.5071004e-05 -3.0935218e-05
0000f0 0d 59 98 37 14 67 12 38 f0 66 34 b3 ca 84 54 b4
       1.816128e-05 3.490511e-05 -4.2003137e-08 -1.9792347e-07
000100 80 b7 5e 37 d8 d9 82 b7 ce 02 8f b6 f8 8f 66 b8
       1.3274956e-05 -1.5598649e-05 -4.2620586e-06 -5.4970355e-05
000110 dc e5 e6 37 7a 89 3d 39 66 45 b5 b8 e6 4e e2 b8
       2.7525173e-05 0.00018075659 -8.643679e-05 -0.00010791216
000120 3b b5 f1 b7 08 7c c7 b8 46 d1 93 b8 60 3c ac b7
       -2.881383e-05 -9.512162e-05 -7.0484864e-05 -2.0532112e-05
000130 02 21 09 39 10 b0 cf b9 0f 32 52 b6 f2 23 17 37
       0.00013077635 -0.00039613293 -3.1321576e-06 9.0086705e-06
000140 1e ee 48 37 3e 05 ba b8 66 ea 3f 38 2d 61 2f b6
       1.197637e-05 -8.8701476e-05 4.575625e-05 -2.6133596e-06
000150 17 a3 e2 b8 64 9a c1 34 7b 0a 8c 34 5d 60 0e 38
       -0.000108068976 3.6061385e-07 2.6084658e-07 3.3945184e-05
000160 7d e5 27 b8 b6 93 2d 36 ef ff e3 b3 d7 1f 5b 37
       -4.002963e-05 2.5864988e-06 -1.0617065e-07 1.30608305e-05
000170 2c fe 60 39 a4 a1 42 b9 3b c5 2d b8 09 70 9d b8
       0.00021456991 -0.00018561498 -4.14301e-05 -7.5072116e-05
000180 0b 6d 1c b9 b9 7e 1f b9 d2 08 41 b7 da 9a c7 38
       -0.00014917941 -0.0001521063 -1.150575e-05 9.517903e-05
000190 43 db 89 b7 06 25 b1 37 78 f6 56 35 4c a8 ff 36
       -1.6433774e-05 2.1117285e-05 8.007987e-07 7.6191845e-06
0001a0 9c 18 82 b6 0e 05 03 b8 b5 13 54 b7 10 f8 46 37
       -3.877167e-06 -3.123754e-05 -1.2640773e-05 1.1859476e-05
0001b0 f3 a3 20 b3 e3 ef a7 32 27 06 09 b7 9c 39 af 37
       -3.7402014e-08 1.9550447e-08 -8.167269e-06 2.0888452e-05
0001c0 3f ac 24 b6 d0 3f 32 38 90 1b 59 38 ce 18 aa b8
       -2.4538165e-06 4.2497937e-05 5.17625e-05 -8.110852e-05
0001d0 88 34 8c b8 29 9c c6 38 c7 b6 5f b9 be 8a d1 b7
       -6.685505e-05 9.470463e-05 -0.00021335027 -2.4979348e-05
0001e0 9f 6c c9 38 99 9a 38 39 72 d5 b5 37 32 0e d3 39
       9.604659e-05 0.000176052 2.1676275e-05 0.00040255632
0001f0 fa 93 59 36 41 5a 73 37 87 4d 0e 37 f4 4d 86 37
       3.2421653e-06 1.4504943e-05 8.48191e-06 1.6010345e-05
000200 13 ca 99 37 22 62 05 b8 b5 25 00 38 cf 93 10 b5
       1.833312e-05 -3.1801064e-05 3.0552696e-05 -5.385927e-07
000210 cb 4d 44 33 c9 10 0c b8 bd 6a 4e 38 e8 d5 aa 36
       4.570556e-08 -3.3394233e-05 4.9213635e-05 5.0912968e-06
000220 91 5f ed 38 9a 86 9d 33 03 07 58 b7 c2 b7 06 b9
       0.00011318841 7.335366e-08 -1.2876236e-05 -0.00012847691
000230 85 0e 90 38 f8 d6 31 b9 c6 00 9e b7 05 c7 87 38
       6.8691596e-05 -0.00016960118 -1.8835428e-05 6.474372e-05
000240 5e 2b 6e 39 3c 93 55 39 1b 85 e3 38 a0 1d 79 b8
       0.00022713604 0.00020368112 0.00010848996 -5.9393817e-05
000250 d3 2d 64 37 19 be 61 36 ae bd 88 b8 b3 c5 69 37
       1.3600528e-05 3.3638264e-06 -6.520316e-05 1.3933913e-05
000260 cb 6b 8a b8 54 ed 0a b8 16 42 29 b4 65 78 cf b3
       -6.600431e-05 -3.3122793e-05 -1.5763393e-07 -9.661088e-08
000270 20 90 bd b7 8f 4a b1 37 41 eb 3a b6 85 8c f6 38
       -2.259767e-05 2.1134763e-05 -2.7853096e-06 0.00011756368
000280 ef d8 2a 38 59 42 d0 38 65 b6 d0 36 2c 17 b4 b8
       4.0733194e-05 9.930571e-05 6.2201166e-06 -8.587385e-05
000290 2b 01 02 39 5d 6d 6f b7 af 07 83 b8 90 45 b5 b8
       0.00012398201 -1.4270973e-05 -6.247998e-05 -8.6437096e-05
0002a0 9e 56 d5 37 5f 24 96 b9 f5 02 3f b7 17 76 8d b7
       2.5431913e-05 -0.00028637328 -1.1385176e-05 -1.68635e-05
0002b0 27 7f 10 37 0d fb fa b7 c3 ed 0a 36 6b 30 2b 36
       8.612674e-06 -2.9919227e-05 2.0701998e-06 2.5509169e-06
0002c0 c4 b8 03 b8 d5 00 d5 34 d0 b8 b2 31 03 9b ce 37
       -3.140491e-05 3.9674947e-07 5.2014926e-09 2.4629297e-05
0002d0 d4 e6 01 b8 13 71 d4 b5 38 e2 90 b8 d9 42 9f b7
       -3.0970972e-05 -1.582814e-06 -6.9085916e-05 -1.8985405e-05
0002e0 ac 16 e1 b8 25 c4 e4 38 3c e3 24 b8 23 b9 b3 37
       -0.00010733059 0.00010908422 -3.9312275e-05 2.1424674e-05
0002f0 1d 01 00 39 79 74 0f 39 13 7d b3 b8 c0 ee 5e b7
       0.00012207446 0.00013680932 -8.558682e-05 -1.32878195e-05
000300 88 ee 26 ba ac f1 0c b8 7f a8 42 b7 b4 4a a0 38
       -0.00063679414 -3.3603676e-05 -1.1602532e-05 7.643309e-05
000310 c5 14 3d 37 0b bd 2f 39 33 da ad b8 c2 7f c1 b7
       1.1270114e-05 0.00016759725 -8.2899256e-05 -2.3066885e-05
000320 33 f6 db 33 83 75 07 b5 2c b2 15 b7 35 35 82 b8
       1.02427656e-07 -5.046242e-07 -8.922576e-06 -6.208794e-05
000330 63 cd 0b b7 30 ef 9c b8 e0 2f 87 b8 ad 18 87 b8
       -8.332866e-06 -7.483212e-05 -6.446219e-05 -6.441898e-05
000340 75 09 b5 b8 ae f6 30 38 ce d1 0f b9 77 37 71 b8
       -8.632514e-05 4.219141e-05 -0.00013715701 -5.7510533e-05
000350 bc b9 43 39 b2 98 72 39 12 4e 5d 39 86 d8 5b 39
       0.0001866584 0.00023135802 0.00021105286 0.00020966129
000360 d9 3b 08 b8 00 4c 55 b7 b4 14 fc b6 94 53 0f b8
       -3.2480664e-05 -1.27134845e-05 -7.5125954e-06 -3.4171695e-05
000370 eb 34 83 37 69 47 4f b7 02 c4 0f b8 fd ec 03 34
       1.5641059e-05 -1.2354788e-05 -3.4276403e-05 1.2286542e-07
000380 21 f9 32 34 c7 77 f2 b7 5a b0 c7 37 5c 8c a1 36
       1.6668174e-07 -2.8904424e-05 2.3804769e-05 4.814514e-06
000390 56 cf 8d 38 64 bb 09 b8 69 c2 96 b8 93 c1 2c b9
       6.762023e-05 -3.2837866e-05 -7.188769e-05 -0.0001647531
0003a0 a5 3f 0b 39 cb 02 9e b9 1a 61 00 38 0e d7 a3 38
       0.00013279782 -0.0003013819 3.060801e-05 7.812503e-05
0003b0 85 8c a2 39 81 2e 10 3a a5 12 98 38 45 4e 5b b8
       0.00031003743 0.00055000937 7.2513976e-05 -5.2286563e-05
0003c0 3f 06 26 38 db 30 2e b7 4a 1c 24 b9 b6 83 1c 39
       3.95833e-05 -1.0382583e-05 -0.00015650797 0.00014926385
0003d0 92 f0 da b8 6b b4 9e b8 8f 9a 1b 34 44 ba 53 35
       -0.0001043986 -7.5676326e-05 1.4491728e-07 7.887468e-07
0003e0 5b bb 19 b8 d1 fe ec 37 24 bb 86 b7 cf e1 65 39
       -3.665253e-05 2.825205e-05 -1.6061189e-05 0.00021923262
0003f0 79 fb 02 39 cb c2 8d b9 a3 09 df 38 59 5a 2d 39
       0.00012491447 -0.00027038748 0.000106352636 0.00016532223

exp_avg_sq f4 [256, 23]
000000 8e 0c a4 35 db 8b d2 35 27 59 8e 33 19 fc 4a 35
       1.2222606e-06 1.5686923e-06 6.628607e-08 7.5617714e-07
000010 af 7a 8e 35 1c c0 ab 34 4a 94 c5 34 4a 0d 2b 36
       1.061553e-06 3.199101e-07 3.6802004e-07 2.548872e-06
000020 47 dc 01 36 b0 94 c6 32 b3 d2 c0 31 01 3d 81 32
       1.9350716e-06 2.3117849e-08 5.611889e-09 1.5045318e-08
000030 05 8e 30 32 55 bc de 32 d9 a1 e8 32 26 3d a2 32
       1.027684e-08 2.5929845e-08 2.7081954e-08 1.888709e-08
000040 a5 a0 20 2d 86 f6 8a 2b 90 11 32 33 1f 96 26 33
       9.130617e-12 9.873914e-13 4.1459828e-08 3.878642e-08
000050 10 f3 ab 30 82 80 42 34 27 38 dd 32 71 27 c4 35
       1.251097e-09 1.8114409e-07 2.5753321e-08 1.4614617e-06
000060 ab 1c fd 35 c8 1a c5 33 0a e1 7c 35 18 fb ab 35
       1.8858312e-06 9.178399e-08 9.420479e-07 1.2813571e-06
000070 ff db d7 34 57 32 ee 34 94 97 47 36 49 26 20 36
       4.020694e-07 4.4367582e-07 2.974154e-06 2.3864143e-06
000080 fb e2 fc 32 71 d7 e8 31 c5 b3 be 32 fc 99 89 32
       2.943988e-08 6.7765815e-09 2.220066e-08 1.6018923e-08
000090 65 87 07 33 32 c0 01 33 c9 9b cd 32 85 a7 c1 2d
       3.1555278e-08 3.0209954e-08 2.3935984e-08 2.2015953e-11
0000a0 0b 65 c9 2b f7 71 82 33 f8 40 5b 33 38 4e 17 31
       1.4309954e-12 6.074327e-08 5.1049e-08 2.2017854e-09
0000b0 f2 7f 76 34 05 ae 21 33 a2 a9 74 34 3e e4 9e 34
       2.2957082e-07 3.7644003e-08 2.2785983e-07 2.959586e-07
0000c0 ca 44 7a 32 fd d6 24 34 e8 58 5c 34 95 d8 8c 33
       1.4567556e-08 1.5351903e-07 2.052144e-07 6.558654e-08
0000d0 49 03 9a 33 3e f0 f1 34 db 2d cc 34 c4 32 aa 31
       7.1717814e-08 4.5064547e-07 3.8031325e-07 4.9534226e-09
0000e0 e4 db b1 30 ec dd 77 31 d6 e6 30 31 ce 84 b2 31
       1.2940942e-09 3.6069379e-09 2.5742586e-09 5.19558e-09
0000f0 01 d2 e9 31 ba 0e 96 31 fe 63 e6 2c 99 4d 9d 2a
       6.805067e-09 4.367249e-09 6.5480945e-12 2.7942647e-13
000100 db 72 2a 32 76 fa 09 32 22 80 f1 2f dc 93 22 33
       9.9214175e-09 8.031398e-09 4.3928688e-10 3.785304e-08
000110 3e e7 b4 31 67 13 6f 35 16 d9 99 35 77 c6 58 33
       5.2649787e-09 8.906267e-07 1.1462569e-06 5.047192e-08
000120 26 27 1b 35 55 6d 4f 35 84 c4 79 34 7d 22 94 34
       5.779897e-07 7.727261e-07 2.3261424e-07 2.7592242e-07
000130 18 71 fa 35 05 45 c7 35 a4 c0 98 32 72 47 93 31
       1.8659366e-06 1.4846743e-06 1.7782732e-08 4.2863855e-09
000140 cf 58 32 32 88 70 02 32 f1 cc 9b 32 87 d3 99 32
       1.0381156e-08 7.592583e-09 1.8137571e-08 1.7907736e-08
000150 6f 3f 61 32 b7 a2 9e 2c e2 1d 40 2b 79 ae 02 33
       1.3111147e-08 4.508695e-12 6.8253573e-13 3.0426666e-08
000160 46 70 fa 32 2d 56 81 30 48 55 15 34 00 b8 97 32
       2.9154887e-08 9.410478e-10 1.3907731e-07 1.7662387e-08
000170 cf 6a 4a 34 c2 aa 83 34 4d 7c 5b 32 fb cb 0c 34
       1.8851573e-07 2.4524894e-07 1.27757405e-08 1.3112724e-07
000180 c9 c3 36 34 9c a8 74 33 84 d4 81 33 8b 91 cb 34
       1.7021297e-07 5.6964026e-08 6.045687e-08 3.7917593e-07
000190 b8 68 ab 34 b9 71 ae 31 ef ba b2 30 bd 02 7f 31
       3.1927425e-07 5.0769953e-09 1.3004334e-09 3.710894e-09
0001a0 61 34 2b 31 0f ae c5 31 27 6d d2 31 61 8d 82 31
       2.491355e-09 5.7532428e-09 6.1242136e-09 3.799571e-09
0001b0 0d 50 08 2d 55 f5 80 2a 54 82 04 32 b0 8a eb 31
       7.74848e-12 2.29076e-13 7.713044e-09 6.855167e-09
0001c0 ff ac bd 2f 77 26 07 33 f2 5e ab 31 b0 50 0e 35
       3.450182e-10 3.146712e-08 4.987549e-09 5.301654e-07
0001d0 ba f7 39 35 e0 3e 18 33 43 1d be 34 c2 5c fc 34
       6.927836e-07 3.5447442e-08 3.5411549e-07 4.7006148e-07
0001e0 3a f5 18 34 12 75 39 34 ac c8 90 35 20 20 70 35
       1.4245316e-07 1.7272058e-07 1.0787239e-06 8.9453715e-07
0001f0 ec 9e 2f 32 18 6c 35 31 fd 5d f7 31 af 80 af 31
       1.0222475e-08 2.640041e-09 7.1993314e-09 5.1078e-09
000200 58 0a 43 32 08 d5 2f 32 f2 1f fb 31 d9 e4 58 2c
       1.1352846e-08 1.0234778e-08 7.308693e-09 3.0822482e-12
000210 8c 9f 07 2b 84 23 b1 32 b3 f9 97 32 ff ad 46 30
       4.818305e-13 2.0621663e-08 1.7692264e-08 7.2279244e-10
000220 c2 be b7 33 5a 6d 3c 32 b0 4c e3 34 c2 ee 13 35
       8.5563e-08 1.0967904e-08 4.2337842e-07 5.5109206e-07
000230 e3 12 ea 32 00 04 9b 34 a4 1d cb 34 39 35 fe 33
       2.7249774e-08 2.887391e-07 3.7833263e-07 1.1837478e-07
000240 07 f3 13 34 dc 69 6a 35 e0 ec 3b 35 44 0c 2f 32
       1.3778855e-07 8.732584e-07 7.0007627e-07 1.01891295e-08
000250 eb cb 24 31 48 cd fd 31 38 ae a4 31 1a 88 30 32
       2.3981055e-09 7.386607e-09 4.7928346e-09 1.0275494e-08
000260 6b b0 47 32 b5 61 0a 32 84 6e a4 2b 17 13 e4 2a
       1.1623437e-08 8.054873e-09 1.1683575e-12 4.0514182e-13
000270 ae 88 99 32 43 0f 7f 32 e2 99 47 30 a8 e3 96 33
       1.7873699e-08 1.4846424e-08 7.261446e-10 7.02633e-08
000280 70 c2 1b 32 ab 29 e2 34 1a ca 15 35 67 fa f2 32
       9.066397e-09 4.2126098e-07 5.580092e-07 2.8286378e-08
000290 d8 74 9b 34 b1 6a cb 34 e5 fe f3 33 13 81 15 34
       2.8956015e-07 3.7889325e-07 1.1361934e-07 1.3923663e-07
0002a0 b0 9f 64 35 8f 3f 4c 35 6b 8c 15 32 66 c1 12 31
       8.5168995e-07 7.608841e-07 8.704869e-09 2.135573e-09
0002b0 66 fb d8 31 28 9a 8f 31 5a 79 2b 32 e4 48 13 32
       6.315008e-09 4.1793733e-09 9.981102e-09 8.5731e-09
0002c0 2a 19 e8 31 b7 37 ed 2b 47 94 e9 2a 25 34 a6 32
       6.7549495e-09 1.6855327e-12 4.1492002e-13 1.9348656e-08
0002d0 7b 72 7a 32 6a 25 2d 30 a9 0c 97 33 02 22 18 32
       1.4577945e-08 6.29902e-10 7.033788e-08 8.855297e-09
0002e0 89 9e d8 35 0b 47 0c 36 e7 f1 e1 33 fd 4e 90 35
       1.6139394e-06 2.0902978e-06 1.0521381e-07 1.0751825e-06
0002f0 36 66 be 35 92 04 f3 34 56 e1 09 35 3a 5b 5c 36
       1.418585e-06 4.5265602e-07 5.1364384e-07 3.2835655e-06
000300 80 70 35 36 b3 5c 0f 33 8a f5 f2 31 0a 3e dc 32
       2.7036585e-06 3.337909e-08 7.0710415e-09 2.5639583e-08
000310 a8 32 9a 32 be 90 1b 33 bc f4 11 33 2f 60 ef 32
       1.7950995e-08 3.6220392e-08 3.3983028e-08 2.7867001e-08
000320 3f 6c 40 2e 1f f1 eb 2b 33 8a 96 33 2e 94 71 33
       4.3751888e-11 1.6764679e-12 7.0100576e-08 5.6246954e-08
000330 be c8 36 31 46 76 89 34 55 c6 21 33 4b c9 67 34
       2.6598594e-09 2.5604294e-07 3.7666116e-08 2.1586781e-07
000340 52 62 94 34 e9 7b 72 32 c9 d5 15 34 d1 3e 4e 34
       2.7638686e-07 1.4114428e-08 1.3954481e-07 1.9208098e-07
000350 17 f5 94 33 74 c7 91 33 52 14 ed 34 03 d7 b8 34
       6.9363686e-08 6.788369e-08 4.4159475e-07 3.4429112e-07
000360 e2 33 b6 31 cd 4c 9b 30 31 f0 67 31 b9 d4 31 31
       5.3027955e-09 1.1299562e-09 3.3751457e-09 2.5877809e-09
000370 40 d2 9f 31 8e d4 d1 31 57 b7 95 31 60 66 86 2c
       4.6514117e-09 6.1068652e-09 4.357314e-09 3.819875e-12
000380 30 95 82 2a bd 59 3d 32 d4 cb 05 32 3d ff 11 30
       2.3196159e-13 1.1021652e-08 7.787964e-09 5.311341e-10
000390 3f 55 15 33 bc 3c b4 31 91 01 c2 35 e6 e3 f0 35
       3.4769297e-08 5.245594e-09 1.4454582e-06 1.7947721e-06
0003a0 8d e7 df 33 86 53 7c 35 5f a5 a5 35 e5 13 e4 34
       1.04263655e-07 9.399886e-07 1.2341587e-06 4.2482785e-07
0003b0 62 57 ee 34 07 f9 3b 36 25 2f 20 36 f5 3f e3 32
       4.4394534e-07 2.8010124e-06 2.38693e-06 2.6455362e-08
0003c0 6b 9b 0f 32 bd c8 bf 32 4a ca 98 32 7f 54 1a 33
       8.3590335e-09 2.2326612e-08 1.778712e-08 3.5932768e-08
0003d0 9d 0e 24 33 07 e7 b9 32 68 b6 c9 2d 3b 92 b5 2b
       3.8197516e-08 2.1641894e-08 2.2932059e-11 1.2901411e-12
0003e0 b4 ac 6b 33 fb fa 47 33 04 f3 15 31 06 f3 78 34
       5.4872274e-08 4.6561563e-08 2.1820492e-09 2.3185211e-07
0003f0 c1 48 22 33 c1 38 85 35 b6 e3 aa 35 3f 34 71 33
       3.7784734e-08 9.92579e-07 1.273226e-06 5.6159703e-08
