RefAgent/BC-CAB-256128/checkpoints/agent_1000.pt (torch, 488547 bytes, 18 tensors)

net.0.weight f4 [256, 23]
-0.011536511 -0.043108765 0.007886144 0.036799427 -0.023126211 0.030934475 -0.055770878 -0.027798273
-0.0007843234 -0.15209937 -0.44600448 -0.5208338 0.2319455 0.09353431 -0.12859987 0.004623482
-0.17665145 -2.3324964 0.3595272 -0.063666195 0.90915745 0.172327 0.14630848 0.007740324
-0.21134311 0.16313817 -0.036410183 0.052982613 -0.038559977 -0.089714296 -0.0014602789 -0.0019691996
-0.046762258 -0.6727736 -0.16487823 0.18104629 0.040047176 -0.24000126 -0.078283675 0.033449303
0.13739236 0.16266908 -0.38191923 0.17089424 0.10917456 -0.07873023 0.15875599 0.042751595
0.07404774 0.02195504 -0.054510333 0.10077845 0.15833305 -0.071338646 -0.053675327 -0.007826094
0.36040443 0.27365845 -0.022448834 0.058111638 0.26383802 0.29678893 -0.12911993 -0.5753243
-0.077495895 0.08098857 -0.32879576 0.088934466 -0.028087735 0.09319248 -0.0435506 -0.040928442
0.014030394 0.070484035 0.06257443 -0.0021033292 -0.032433845 -0.028506244 0.033050776 -0.17820682
-0.35252586 0.19826035 0.013207117 0.07327386 0.020013548 -0.10442031 -2.659182 0.29276472
0.3302554 0.88456744 0.17204557 0.12828825 -0.09081111 -0.12804012 0.01174161 -0.134823
-0.009250649 -0.072592184 0.0065076808 -0.02496877 -0.06440871 0.089645274 0.60469186 0.14041184
-0.2167808 -0.0953308 0.22916299 0.12677988 -0.040896058 -1.3653679 -0.078498386 0.29435018
0.34869626 -0.025588227 -0.00086976413 -0.110573016 -0.017243903 -0.011960386 -0.04649962 -0.11433697
-0.061099846 -0.16290392 0.006891704 0.0037278188 -0.15197727 0.07926699 -0.040136565 -0.39745405
-0.08810669 -0.20953354 -0.23418763 -0.084161125 0.048170038 -0.012610674 -0.18815252 0.30882108
0.11482863 -0.14949268 -0.018198684 -0.09514629 -0.04108197 -0.06786558 -0.009817597 -0.036323357
0.014321426 0.03015073 -0.011985541 0.062048815 0.48136964 0.16961823 -0.2061522 -0.20779565
0.24885355 -0.23411658 0.22403626 -1.3979701 -0.01400645 0.44129834 0.27554712 -0.09651959
0.06111708 0.10009082 -0.10142475 -0.04121864 0.03466393 0.1614757 0.09667412 0.053811003
-0.004260425 0.011605637 0.23399134 0.3649676 0.28485748 -0.057327673 0.10154495 0.34754303
0.30085188 0.6964623 0.118505664 -0.1784225 0.23015209 -0.26936835 -0.18460256 -0.07900398
-0.120858796 0.24241473 -0.06666233 0.023967413 -0.082896166 0.04901717 -0.08849379 0.010375961
0.009745115 -0.098087564 0.5665996 0.02198781 -0.21848622 -0.049259447 0.19916645 0.021318948
0.14595391 -1.0848637 0.04767527 0.25085664 0.2647529 -0.11279789 0.08377523 -0.054254174
-0.021907294 0.051039234 0.04577196 0.015764829 0.038943958 -0.14943986 0.13399117 0.04517212
0.052716203 0.0640434 -0.010583077 0.32773912 -0.092628494 0.044742223 -0.13301413 0.20015274
0.07400135 0.024937524 0.19239043 -0.3349807 -0.17751099 -0.040527564 -0.037920613 0.041780226
-0.15322207 -0.18143284 -0.049852118 -0.12313623 -0.10097284 0.04754619 0.010487333 0.113865495
-0.006766781 -0.013975175 -0.47861034 -0.09844943 -0.11253831 -0.17780946 0.151762 -0.84589386
-0.20195784 0.41729695 1.1300737 -0.10134124 -0.16296025 0.17191043 0.11335172 0.23332052
00000000: a203 3dbc d192 30bd e334 013c ffba 163d
00000010: 2e73 bdbc 4c6a fd3c 0170 64bd 34b9 e3bc
00000020: 0d9b 4dba f0bf 1bbe b35a e4be 5d55 05bf
00000030: 1f83 6d3e eb8e bf3d afaf 03be 9480 973b
00000040: 1ee4 34be 9f47 15c0 f313 b83e 6c63 82bd
00000050: 8bbe 683f 7d76 303e e4d1 153e 8ba2 fd3b
00000060: 546a 58be b10d 273e d822 15bd 4c04 593d
00000070: 11f1 1dbd 21bc b7bd d466 bfba b00d 01bb
00000080: c889 3fbd e43a 2cbf d7d5 28be 3364 393e
00000090: 8208 243d e4c2 75be 3153 a0bd 2302 093d
000000a0: 95b0 0c3e b992 263e eb8a c3be e6fe 2e3e
000000b0: e996 df3d 513d a1bd ee90 223e 4c1c 2f3d
000000c0: 57a6 973d 0edb b33c 3a46 5fbd ef64 ce3d
000000d0: 0f22 223e ff19 92bd a9da 5bbd 0439 00bc
000000e0: ee86 b83e f61c 8c3e 9ee6 b7bc 7806 6e3d
000000f0: c715 873e b8f4 973e 0438 04be 7448 13bf
00000100: 2bb6 9ebd 56dd a53d eb57 a8be 4623 b63d
00000110: 4018 e6bc b3db be3d 1d62 32bd 95a4 27bd
00000120: bddf 653c ef59 903d 0627 803d 02d8 09bb
00000130: 5ad9 04bd ed85 e9bc 4060 073d d97b 36be
00000140: 457e b4be c304 4b3e aa62 583c 9b10 963d
00000150: 74f3 a33c 51da d5bd 0a30 2ac0 42e5 953e
00000160: 3c17 a93e 0373 623f b72c 303e ff5d 033e
00000170: 2dfb b9bd f31c 03be e25f 403c 0a0f 0abe
00000180: 0990 17bc 36ab 94bd 623e d53b 4e8b ccbc
00000190: b7e8 83bd f197 b73d 16cd 1a3f 1fc8 0f3e
000001a0: c9fb 5dbe cb3c c3bd b4a9 6a3e 96d2 013e
000001b0: a082 27bd 60c4 aebf c3c3 a0bd 11b5 963e
000001c0: 5188 b23e 679e d1bc e200 64ba 1b74 e2bd
000001d0: 1643 8dbc 7ff5 43bc 6376 3ebd 8029 eabd
000001e0: d543 7abd 49d0 26be ced3 e13b 6c4e 743b
000001f0: ee9f 1bbe bb56 a23d 3d66 24bd 197f cbbe
00000200: 4871 b4bd f68f 56be e2ce 6fbe ab5c acbd
00000210: f24d 453d 009d 4ebc 0eab 40be cc1d 9e3e
00000220: 462b eb3d 9c14 19be 6815 95bc 0fdc c2bd
00000230: 9145 28bd 1cfd 8abd fdd9 20bc cdc7 14bd
00000240: 6aa4 6a3c aafe f63c 015f 44bc e626 7e3d
00000250: 1576 f63e 67b0 2d3e 9019 53be 62c8 54be
00000260: 77d3 7e3e 42bc 6fbe c369 653e aff0 b2bf
00000270: 4f7b 65bc dbf1 e13e 8314 8d3e 10ac c5bd
00000280: e755 7a3d 6afc cc3d c8b7 cfbd e0d4 28bd
00000290: c4fb 0d3d e359 253e 15fd c53d ed68 5c3d
000002a0: 099b 8bbb 9225 3e3c 6d9b 6f3e 09dd ba3e
000002b0: d7d8 913e 6cd0 6abd ccf6 cf3d 29f1 b13e
000002c0: 4209 9a3e 5a4b 323f 19b3 f23d 63b4 36be
000002d0: fdac 6b3e a6ea 89be 7408 3dbe d7cc a1bd
000002e0: d184 f7bd 913b 783e 4286 88bd 4f57 c43c
000002f0: 77c5 a9bd 3ac6 483d 3b3c b5bd efff 293c
00000300: faa9 1f3c 22e2 c8bd ac0c 113f c81f b43c
00000310: daba 5fbe 46c4 49bd 4af2 4b3e 13a5 ae3c
00000320: f174 153e d0dc 8abf 2547 433d 4870 803e
00000330: b18d 873e 9502 e7bd 5992 ab3d a039 5ebd
00000340: ed76 b3bc 840e 513d 617b 3b3d 3e25 813c
00000350: b383 1f3d c306 19be fb34 093e 6706 393d
00000360: f2ec 573d 3029 833d a464 2dbc 6ccd a73e
00000370: 02b4 bdbd 9f43 373d db34 08be d7f4 4c3e
00000380: 058e 973d c749 cc3c ff01 453e 9782 abbe
00000390: 71c5 35be 3b00 26bd a552 1bbd be21 2b3d
000003a0: 3fe6 1cbe 88c9 39be bc31 4cbd d92e fcbd
000003b0: d9ca cebd cbbf 423d 10d3 2b3c 5032 e93d
000003c0: e0bb ddbb 22f8 64bc 6a0c f5be db9f c9bd
000003d0: 7c7a e6bd af13 36be 7f67 1b3e 808c 58bf
000003e0: 09ce 4ebe f2a7 d53e 41a6 903f ff8b cfbd
000003f0: 0ddf 26be 4a09 303e f224 e83d 93eb 6e3e

net.0.bias f4 [256]
0.027641132 -0.07121151 -0.07297946 -0.04068508 -0.10365658 -0.010891173 -0.15423237 -0.03782515
0.2383763 -0.028115058 -0.16145444 0.0060611917 -0.15442298 0.088842444 -0.040781796 0.04942223
0.07940542 -0.13183689 0.028121307 -0.08301934 0.17540644 -0.20714036 -0.09209287 -0.12908873
-0.0034801005 -0.038116943 -0.07780773 -0.21291532 -0.22513208 0.03297729 -0.06976412 0.00730985
0.05813479 -0.09925786 0.0146639515 0.09700281 0.21890217 0.05096741 -0.008337105 0.16350822
0.015119163 0.0023910971 0.098233834 -0.0752787 -0.07973751 0.0036401975 -0.08344979 0.01099656
-0.16091561 -0.051778167 0.09762592 -0.016645657 0.10550613 -0.19192444 0.11988408 -0.0959038
0.19196129 -0.2527491 -0.016570501 0.28852838 0.012875202 0.0035287081 -0.02677605 -0.01748807
0.06583473 0.111508146 0.04239287 0.0139481025 0.1504635 0.0533386 0.03134161 0.06349733
0.07423635 -0.12152324 -0.027072614 0.053271275 -0.0575121 -0.038790885 -0.14587666 0.117061526
0.040687364 0.014782127 0.005045316 -0.04412493 -0.10010821 0.10991459 0.15784776 -0.08147775
-0.14561649 0.09682183 0.0443671 0.111050114 0.03559008 0.13704722 -0.113005854 0.024752386
0.09091008 -0.013692322 -0.013352266 -0.11367607 -0.13262926 0.15751804 0.040441673 -0.0591123
-0.061647873 0.07550659 -0.14274356 -0.055455353 0.08975262 -0.104905896 -0.12852043 -0.091113456
0.08886509 -0.11672258 -0.028684035 -0.03765818 -0.11970734 -0.09339636 0.069845386 0.021795336
0.07925262 0.19420367 -0.081575535 0.054253284 -0.018297683 -0.030744815 -0.09579591 0.052393902
0.0041573825 0.02348231 0.023779016 0.17794211 0.083619185 0.08604821 0.064617895 -0.0031412528
-0.18172038 0.022896448 -0.052893657 0.039475493 -0.010347958 0.09534969 0.058039248 0.016566811
-0.09139647 -0.033751097 0.18937886 0.046658725 0.18641488 0.09407015 0.025604298 0.04657945
0.023405174 -0.11933606 0.018707603 0.022532834 0.04907166 -0.09703203 0.14010294 0.114080735
-0.04474535 0.06511192 0.094292656 -0.17062129 -0.018626785 -0.07533579 -0.04839738 -0.11107489
-0.04288728 -0.103912115 0.10474254 -0.052835613 0.18256563 0.0005145223 0.008101238 -0.011220604
-0.083321445 0.122965045 0.09335931 -0.0046067466 0.24812761 0.10595046 -0.08330141 -0.09399313
0.039407026 -0.10168357 -0.10352957 0.011024875 0.06287918 -0.17370944 -0.017447362 -0.024610085
0.10523473 0.101158515 -0.15781608 -0.074665576 -0.14939111 0.012584078 0.11595296 -0.036980297
-0.034364313 0.14729734 0.05621172 -0.074788995 -0.113868 0.10514206 0.16139711 -0.007891005
0.021354284 -0.0023509632 0.040316153 -0.026629396 0.019408835 0.06366765 -0.050955236 0.029318543
-0.05521836 -0.11711426 -0.007570549 0.01999223 -0.023592703 -0.118570566 0.035845015 0.011311689
-0.013918044 0.0039019226 -0.20626482 0.0875907 0.001773412 0.011979857 0.033655133 0.13824247
0.057518397 -0.116782136 -0.16734618 0.0465917 0.00764456 0.07841815 0.1528141 -0.16588432
0.03403863 0.00082943385 -0.050048124 -0.005119236 -0.012418186 0.03161604 -0.14336737 -0.10049739
-0.06083438 -0.107231066 0.07122319 0.08467259 0.055102795 0.100779735 0.011330734 0.1842655
00000000: a86f e23c 57d7 91bd 4176 95bd 66a5 26bd
00000010: e749 d4bd e470 32bc 17ef 1dbe 8bee 1abd
00000020: eb18 743e 8d51 e6bc 5054 25be f69c c63b
00000030: 0f21 1ebe 07f3 b53d d00a 27bd f76e 4a3d
00000040: 4f9f a23d 4000 07be a85e e63c 0b06 aabd
00000050: bf9d 333e 9a1c 54be 309b bcbd d62f 04be
00000060: 6612 64bb 8320 1cbd a959 9fbd 7906 5abe
00000070: 0689 66be 3213 073d 7ee0 8ebd 7787 ef3b
00000080: bf1e 6e3d b447 cbbd 1241 703c 69a9 c63d
00000090: e427 603e 34c3 503d 5a98 08bc b36e 273e
000000a0: 5eb6 773c f4b3 1c3b d22e c93d b82b 9abd
000000b0: 6b4d a3bd 6190 6e3b b9e7 aabd ea2a 343c
000000c0: 10c7 24be 5815 54bd 19f0 c73d 795c 88bc
000000d0: 9913 d83d d787 44be c985 f53d 3669 c4bd
000000e0: 8091 443e 5468 81be dcbe 87bc feb9 933e
000000f0: 83f2 523c e641 673b 7259 dbbc 2443 8fbc
00000100: 5cd4 863d 625e e43d 25a4 2d3d 9586 643c
00000110: 1b13 1a3e 9379 5a3d 0f60 003d e30a 823d
00000120: 3a09 983d 2de1 f8bd 63c7 ddbc fb32 5a3d
00000130: cf91 6bbd 31e3 1ebd b160 15be f4bd ef3d
00000140: cba7 263d bc30 723c 2e53 a53b 58bc 34bd
00000150: 8905 cdbd e71a e13d d8a2 213e cedd a6bd
00000160: 7d1c 15be 864a c63d 47ba 353d 3e6e e33d
00000170: e7c6 113d 1b56 0c3e 9d6f e7bd 84c5 ca3c
00000180: 102f ba3d c355 60bc 76c3 5abc 00cf e8bd
00000190: f7cf 07be 694c 213e 2ba6 253d bd1f 72bd
000001a0: 7b82 7cbd 33a3 9a3d 5e2b 12be 2725 63bd
000001b0: 39d0 b73d e7d8 d6bd dc9a 03be b199 babd
000001c0: e6fe b53d 3f0c efbd c8fa eabc 773f 1abd
000001d0: 1f29 f5bd 9746 bfbd 190b 8f3d 228c b23c
000001e0: 334f a23d 54dd 463e 1311 a7bd b138 5e3d
000001f0: 06e5 95bc 8ddc fbbc a530 c4bd fd9a 563d
00000200: a73a 883b f95d c03c 36cc c23c 7536 363e
00000210: 8940 ab3d 0b3a b03d 6356 843d 7add 4dbb
00000220: e814 3abe 5591 bb3c 05a7 58bd 0eb1 213d
00000230: 7b8a 29bc b346 c33d 90ba 6d3d 1fb7 873c
00000240: 132e bbbd 973e 0abd 88ec 413e 381d 3f3d
00000250: 8be3 3e3e daa7 c03d 1bc0 d13c 18ca 3e3d
00000260: 35bc bf3c 7766 f4bd b040 993c c796 b83c
00000270: 5dff 483d bbb8 c6bd 2577 0f3e 29a3 e93d
00000280: e646 37bd 6659 853d 821c c13d 59b7 2ebe
00000290: 3397 98bc a749 9abd 553c 46bd 3b7b e3bd
000002a0: 93aa 2fbd e0cf d4bd 4283 d63d 286a 58bd
000002b0: 7cf2 3a3e 02e1 063a 0ebb 043c a0d6 37bc
000002c0: 6fa4 aabd 19d5 fb3d 2a33 bf3d 31f4 96bb
000002d0: 2a15 7e3e 8efc d83d ee99 aabd 787f c0bd
000002e0: 4369 213d 7a3f d0bd 5007 d4bd ada1 343c
000002f0: cdc6 803d e3e0 31be c5ed 8ebc 179b c9bc
00000300: 4e85 d73d 322c cf3d 8a9a 21be 44ea 98bd
00000310: fcf9 18be 732d 4e3c bf78 ed3d a778 17bd
00000320: 98c1 0cbd 1dd5 163e 433e 663d f92a 99bd
00000330: a033 e9bd b854 d73d 4945 253e 4649 01bc
00000340: 2eef ae3c 9e12 1abb 8d22 253d e425 dabc
00000350: 47ff 9e3c 2f64 823d 70b6 50bd 712d f03c
00000360: a62c 62bd 9ad9 efbd 5e12 f8bb bfc6 a33c
00000370: 7c45 c1bc 20d5 f2bd 39d2 123d aa54 393c
00000380: 8208 64bc 66b7 7f3b 1637 53be c162 b33d
00000390: d571 e83a 2a47 443c f7d9 093d 6f8f 0d3e
000003a0: 6998 6b3d 792b efbd cc5c 2bbe f0d6 3e3d
000003b0: 387f fa3b b299 a03d 4d7b 1c3e 94dd 29be
000003c0: 176c 0b3d 5d6e 593a 43ff 4cbd 44bf a7bb
000003d0: a675 4bbc d27f 013d e5ce 12be 93d1 cdbd
000003e0: 792d 79bd f69b dbbd 77dd 913d d368 ad3d
000003f0: 78b3 613d 9b65 ce3d 8ba4 393c 18b0 3c3e

net.3.weight f4 [128, 256]
-0.023081258 0.14143391 0.08916957 0.009487478 -0.040903 0.07321706 -0.03095721 0.012391975
-0.18017255 0.013342711 -0.17103527 0.041630667 0.0717151 -0.033260453 0.0097562745 -0.23492242
-0.011662577 -0.46757853 -0.055312756 -0.080586895 -0.12677717 -0.03664347 0.000111584515 0.036272846
0.03708239 0.013950525 -0.056280367 -0.37898976 -0.085435115 0.22466551 -0.117008775 -0.11491577
0.025587246 0.09374501 -0.053092796 0.073894955 0.116405405 0.072772734 0.065111496 -0.036731306
-0.038780194 0.035383154 0.2790539 0.30775937 0.12837346 0.06994211 0.039911818 -0.050886434
-0.14556374 0.0021032032 0.07320044 0.077706836 -0.08997203 -0.20269789 -0.07153123 -0.11401885
0.018763682 -0.21842414 -0.07006259 -0.0181886 0.036008578 0.004278709 -0.07422504 -0.09746898
0.0208641 0.011920447 0.13370164 -0.079703264 -0.14650837 -0.050587136 0.015420736 0.32271838
0.06409268 0.015952071 -0.35131946 -0.040468976 0.009924867 -0.032013576 0.09714218 0.21259248
0.03432115 -0.03344151 -0.119745374 -0.030383563 -0.05515234 0.09816652 -0.11887046 -0.10035151
-0.35343826 -0.0150944255 -0.075873494 -0.041932993 0.012741122 -0.07053952 0.048158 -0.084100045
-0.08362364 0.028135734 -0.042717375 0.08611504 0.030384354 0.051026464 -0.011356355 -0.08091682
-0.07653354 -0.13785127 -0.047310498 -0.012590227 0.10639887 -0.07403788 -0.16915199 0.028512688
0.08728875 0.031554498 0.025973164 -0.18681134 -0.07974368 -0.013611257 0.008873519 -0.021236707
-0.116240144 0.08622619 -0.07098758 0.036683157 0.07911355 -0.2606607 -0.08659994 -0.16216086
-0.0067121433 0.029955206 -0.14887276 0.040615816 -0.09556009 0.06284861 -0.041888494 0.007844557
-0.009750778 -0.112550035 -0.046669077 0.090646625 0.030840898 0.08098172 0.08830969 0.098505914
-0.025474707 0.005205254 0.09775474 -0.004820281 -0.093478695 -0.033349447 0.054138046 -0.091059126
0.069837265 0.060896747 -0.014480594 -0.035997104 0.07472683 0.006816185 -0.07804502 -0.07984167
-0.0666661 -0.16479239 0.11473759 -0.10260427 0.14972697 -0.043135997 -0.101827726 0.018079704
-0.116714686 0.06411089 -0.01662466 0.021464048 -0.06872523 0.28786698 -0.00083502464 -0.0953679
-0.042243984 0.0031530242 -0.04319354 -0.07130495 0.051178433 -0.36570862 0.24120548 -0.05647313
0.0829458 0.021311799 -0.08846998 -0.09934172 0.011147296 -0.019776817 0.17598476 0.041141577
-0.08974593 -0.17643636 -0.10218303 0.06045394 -0.06091246 0.15428542 -0.048671003 0.27185473
-0.07753078 -0.0687072 -0.04095076 -0.017761031 0.10257721 -0.0147897005 -0.16494872 0.13890241
-0.011550828 -0.029073056 0.04719328 0.014293632 -0.0643056 0.0939365 0.06752 0.032380495
-0.039590783 -0.120042115 0.035892554 -0.03514905 0.047281154 0.04054535 -0.015222437 -0.011347598
0.014860333 0.083370164 -0.045703165 -0.033531018 -0.15697925 -0.09301861 0.13847479 -0.045195002
0.10644146 0.04491033 -0.01703317 0.019591853 -0.058165003 0.12379086 0.003715952 -0.0013338649
0.13292511 -0.09026002 0.2156409 -0.036882166 -0.047959045 0.11640054 0.017827297 -0.16656105
0.04047596 0.036461588 0.0038871611 -0.113520965 -0.06948247 -0.015513922 -0.006381066 -0.14914495
00000000: e814 bdbc 0dd4 103e 899e b63d 5e71 1b3c
00000010: e789 27bd d3f2 953d fa99 fdbc b607 4b3c
00000020: 277f 38be 639b 5a3c df23 2fbe eb84 2a3d
00000030: 5edf 923d 1d3c 08bd c8d8 1f3c 818f 70be
00000040: 6514 3fbc 7466 efbe a18f 62bd be0a a5bd
00000050: e0d1 01be 7717 16bd 7b02 ea38 d692 143d
00000060: b4e3 173d be90 643c 3e86 66bd f20a c2be
00000070: 9bf8 aebd b70e 663e 4ca2 efbd f658 ebbd
00000080: 589c d13c 62fd bf3d d577 59bd 3d56 973d
00000090: f565 ee3d df09 953d 2d59 853d 9173 16bd
000000a0: fbd7 1ebd eded 103d 27e0 8e3e a392 9d3e
000000b0: 5574 033e cf3d 8f3d 937a 233d 4b6e 50bd
000000c0: a90e 15be e5d5 093b 1dea 953d c324 9f3d
000000d0: 4143 b8bd 0990 4fbe f77e 92bd b782 e9bd
000000e0: 4bb6 993c 94aa 5fbe fa7c 8fbd 4200 95bc
000000f0: bb7d 133d 6a34 8c3b 4c03 98bd d19d c7bd
00000100: 30eb aa3c fb4d 433c 15e9 083e 773b a3bd
00000110: 4a06 16be 7534 4fbd 41a7 7c3c 583b a53e
00000120: 0643 833d ebad 823c 25e0 b3be ccc2 25bd
00000130: e99b 223c ab20 03bd 7bf2 c63d d8b1 593e
00000140: 5694 0c3d f7f9 08bd 103d f5bd f3e6 f8bc
00000150: 6ce7 61bd 870b c93d 5b72 f3bd 1885 cdbd
00000160: dcf5 b4be 9c4e 77bc 9063 9bbd eec1 2bbd
00000170: 24c0 503c 0677 90bd 5341 453d a53c acbd
00000180: df42 abbd e97c e63c 6af8 2ebd 155d b03d
00000190: 9ce8 f83c 2001 513d 0110 3abc b8b7 a5bd
000001a0: 9ebd 9cbd e228 0dbe a7c8 41bd 3d47 4ebc
000001b0: a7e7 d93d 2ca1 97bd 2e36 2dbe 7193 e93c
000001c0: 72c4 b23d 4a3f 013d acc5 d43c 794b 3fbe
000001d0: a850 a3bd c001 5fbc 3c62 113c 9af8 adbc
000001e0: 500f eebd 5b97 b03d f061 91bd 1441 163d
000001f0: 4906 a23d 5275 85be 4f5b b1bd 7f0d 26be
00000200: 8af1 dbbb 9f64 f53c 1a72 18be c55c 263d
00000210: 02b5 c3bd c6b6 803d 4593 2bbd 7586 003c
00000220: bac1 1fbc a280 e6bd 1328 3fbd f0a4 b93d
00000230: 0da6 fc3c bed9 a53d b6db b43d 78bd c93d
00000240: 55b0 d0bc d690 aa3b a333 c83d 73f3 9dbb
00000250: c271 bfbd 6e99 08bd dbbf 5d3d 357d babd
00000260: d706 8f3d de6e 793d 0340 6dbc b371 13bd
00000270: 610a 993d 4e5a df3b 11d6 9fbd 0884 a3bd
00000280: 3c88 88bd 56bf 28be 8bfb ea3d 3022 d2bd
00000290: 0752 193e 5faf 30bd 0e8b d0bd e31b 943c
000002a0: 1c08 efbd 924c 833d 7030 88bc 5fd5 af3c
000002b0: d0bf 8cbd 4d63 933e 8ee5 5aba 3f50 c3bd
000002c0: 0708 2dbd f8a2 4e3b b6eb 30bd 5408 92bd
000002d0: 7aa0 513d 293e bbbe 92fe 763e 5e50 67bd
000002e0: 7ddf a93d 1596 ae3c c02f b5bd ac73 cbbd
000002f0: 26a3 363c fe02 a2bc 5935 343e 1284 283d
00000300: b7cc b7bd bcab 34be 5645 d1bd 8d9e 773d
00000310: 587f 79bd fffc 1d3e 3f5b 47bd 8b30 8b3e
00000320: 75c8 9ebd 5cb6 8cbd fcbb 27bd 957f 91bc
00000330: 0014 d23d 8050 72bc 51e8 28be 6f3c 0e3e
00000340: af3f 3dbc 9e2a eebc be4d 413d d62f 6a3c
00000350: a8b2 83bd c861 c03d ed47 8a3d 69a1 043d
00000360: f229 22bd a4d8 f5bd 1204 133d 73f8 0fbd
00000370: e2a9 413d e212 263d 8767 79bc 47eb 39bc
00000380: c178 733c fabd aa3d 3e33 3bbd d257 09bd
00000390: 2bbf 20be 8a80 bebd 56cc 0d3e 651e 39bd
000003a0: fbfd d93d e5f3 373d 2689 8bbc 187f a03c
000003b0: 6d3e 6ebd 1086 fd3d 5487 733b 14d5 aeba
000003c0: 851d 083e 3fda b8bd f8d0 5c3e c111 17bd
000003d0: b470 44bd 6863 ee3d 8d0a 923c fb8e 2abe
000003e0: 1fca 253d bf58 153d bebf 7e3b ae7d e8bd
000003f0: d34c 8ebd 1b2e 7ebc 4318 d1bb 74b9 18be

net.3.bias f4 [128]
-0.0072049117 -0.026426768 -0.026560172 -0.015313881 -0.026353993 -0.023847416 -0.020871101 -0.010014148
-0.012989248 -0.02826993 -0.01508304 -0.029026898 -0.019538872 -0.010931759 -0.023702882 -0.037879836
-0.029065257 -0.03015892 -0.014464386 -0.0024115557 -0.035629276 -0.009203265 -0.011818234 -0.028601237
-0.017315922 -0.02305497 -0.0033794274 -0.027677352 -0.024593383 0.0028978873 -0.016459972 0.004359863
-0.005227325 -0.015079268 -0.025059268 0.011546907 4.9786777e-05 0.0023007665 -0.007406466 -0.028332585
-0.030412834 -0.029103009 -0.024798319 -0.0017871575 -0.031878673 -0.024270946 -0.022672456 -0.021543682
-0.009930575 -0.023283731 -0.023544488 -0.010238482 -0.041816518 -0.016647805 -0.021095477 -0.02347898
-0.040660642 -0.02498987 -0.02912322 0.00624684 -0.020225462 -0.013628433 -0.010234901 -0.021834243
-0.016297026 -0.035097346 -0.04307797 -0.023320045 -0.016142376 -0.016005116 -0.012172652 -0.019800792
-0.012764757 -0.01094546 -0.023080593 -0.012834141 -0.0030649619 -0.013297462 -0.014966699 -0.022709347
-0.010149866 -0.029218951 -0.012117604 0.00039416182 -0.018712752 -0.009030388 -0.0031771306 0.0035678349
-0.0327465 -0.024980279 -0.0050429087 -0.016646154 -0.02407847 -0.024561457 0.0072367885 -0.020216512
-0.026830288 -0.015709933 -0.052168317 -0.011782374 -0.04051462 -0.03040796 0.013944184 -0.012130393
-0.00720149 -0.0034167203 -0.015767034 -0.038524497 -0.0059967055 -0.013879798 -0.024722634 0.010827971
-0.027977264 -0.018220635 -0.008575041 -0.014195379 -0.0131434575 -0.029921077 -0.02666298 -0.021947913
-0.0076584904 -0.02582714 -0.015500652 -0.009641815 -0.030974485 -0.022911165 -0.014316393 -0.026645765
00000000: 2e17 ecbb f37c d8bc b894 d9bc 13e7 7abc
00000010: 54e4 d7bc a85b c3bc dff9 aabc 6212 24bc
00000020: dbd0 54bc 5796 e7bc db1e 77bc d1c9 edbc
00000030: fc0f a0bc 1f1b 33bc 8c2c c2bc e327 1bbd
00000040: 431a eebc d70f f7bc 08fc 6cbc 310b 1ebb
00000050: 01f0 11bd 4bc9 16bc 44a1 41bc 244d eabc
00000060: 1fda 8dbc c7dd bcbc 6279 5dbb 9dbb e2bc
00000070: 1078 c9bc 7bea 3d3b 10d7 86bc 2fdd 8e3b
00000080: fb49 abbb 090f 77bc 1849 cdbc 3d2f 3d3c
00000090: 25d2 5038 75c8 163b f1b1 f2bb bd19 e8bc
000000a0: 5624 f9bc 6f69 eebc d825 cbbc 0e3f eaba
000000b0: 3693 02bd ddd3 c6bc 96bb b9bc 607c b0bc
000000c0: dab3 22bc 86bd bebc 5fe0 c0bc 4ebf 27bc
000000d0: cc47 2bbd fa60 88bc 6cd0 acbc fd56 c0bc
000000e0: c68b 26bd 8eb7 ccbc d293 eebc 4bb2 cc3b
000000f0: deaf a5bc cb49 5fbc 49b0 27bc badd b2bc
00000100: 5781 85bc 3cc2 0fbd 8772 30bd ae09 bfbc
00000110: 043d 84bc 291d 83bc ce6f 47bc 4535 a2bc
00000120: 4523 51bc 9654 33bc 8313 bdbc 4a46 52bc
00000130: 87dd 48bb 99dd 59bc e336 75bc f408 babc
00000140: a04b 26bc 955c efbc ea88 46bc 81a7 ce39
00000150: 7c4b 99bc 31f4 13bc 6837 50bb 56d2 693b
00000160: 3221 06bd 71a3 ccbc fc3e a5bb 845d 88bc
00000170: 3640 c5bc 1c35 c9bc 9522 ed3b 199d a5bc
00000180: 31cb dbbc 1eb2 80bc 72ae 55bd dc0a 41bc
00000190: a8f2 25bd 1d1a f9bc 2676 643c 8ebe 46bc
000001a0: 7afa ebbb 0eeb 5fbb de29 81bc ddcb 1dbd
000001b0: 0380 c4bb 1868 63bc 1f87 cabc cd67 313c
000001c0: 9330 e5bc 7143 95bc 547e 0cbc bc93 68bc
000001d0: a857 57bc 0c1d f5bc 526c dabc 1ccc b3bc
000001e0: 13f4 fabb 7093 d3bc 72f6 7dbc b4f8 1dbc
000001f0: 34be fdbc 32b0 bbbc 4e8f 6abc 3848 dabc

net.6.weight f4 [9, 128]
-0.022177454 -0.07310116 -0.028234787 -0.009436323 0.027703706 -0.015951455 -0.019248141 0.13125817
0.018845305 0.025482882 -0.01664279 0.013427909 -0.09059953 -0.049879063 -0.019587088 -0.0124297
0.027995905 0.030161407 0.13922401 -0.0078364415 0.007773755 0.0015307672 0.023225142 0.013376886
0.01197576 -0.016310506 0.019020468 -0.059928086 -0.006292388 -0.042416774 0.12941472 -0.021038031
0.14288989 -0.034652963 -0.0009801207 -0.021955676 -0.008259028 0.00032870725 0.12450908 -0.009202967
0.009607569 0.022391323 -0.009308784 0.017543258 0.020421721 0.05159257 -0.020475935 0.025038222
0.0053505516 0.086164705 0.0054175374 -0.016860172 -0.007539505 -0.014628854 0.017813781 -0.10370463
-0.007247863 0.03507175 0.016710147 -0.021384645 0.046701416 -0.034052946 0.031250235 -0.0057667284
0.010699924 -0.024004167 -0.001721761 0.01243388 -0.08941058 0.01165738 -0.010943209 -0.027688557
-0.001198467 0.009805145 -0.02219894 -0.081479035 -0.023335103 0.14669302 -0.007938924 -0.023528948
-0.0127389375 0.04563893 0.023682302 -0.066902965 0.12875743 0.020911014 0.020550251 -0.011352888
0.0038012033 -0.013736817 -0.00053311145 0.0020248313 -0.020975633 0.017411193 -0.017194102 -0.002413569
0.021718191 0.13316819 0.021630695 0.12300973 0.006998183 -0.028096667 -0.021758795 0.011651506
0.00021667883 -0.011190513 0.017446436 -0.023197128 -0.009591216 0.020866252 0.02572621 -0.0014888626
0.036922872 0.010831484 -0.05549565 0.03340415 0.031942133 -0.025022496 -0.040369205 0.03248163
-0.020886257 0.079074666 -0.10642703 -0.007840496 -0.009749233 -0.034923483 -0.023307182 -0.01818867
0.015056992 -0.010822586 0.022482429 0.01979438 -0.035668924 -0.014236549 -0.01880001 0.03760995
-0.023229837 0.102699496 -0.09057992 0.021740302 -0.05083778 -0.097721785 0.0012102007 0.053159285
0.100901686 -0.018716946 0.023860874 0.0044446504 -0.052726742 0.022511546 0.0051115453 0.060053416
0.07145041 -0.015072631 -0.0127110835 -0.025268113 0.014645397 0.023984727 0.037441373 0.013594817
0.024046896 -0.0054338127 0.016916696 0.03459774 0.0630896 -0.05660686 0.022759927 -0.06903268
-0.029230487 0.05226473 0.0643036 0.020169497 -0.05066442 -0.0044154963 -0.00013432393 -0.018893134
-0.027413134 0.0061836434 0.013647047 0.018054936 0.010103151 -0.009936954 0.025770586 -0.02357625
-0.05597134 0.007581312 0.04315494 -0.027341371 0.013657361 -0.10123423 -0.0011028098 0.01019275
-0.047685914 -0.017677862 -0.056364816 -0.046695095 0.0016236063 -0.042605832 -0.05444585 -0.119307354
-0.05690026 -0.02552712 0.00032935134 0.023082664 0.018714162 0.03827273 -0.06404261 0.06105543
0.018256016 0.10401538 0.13065854 0.004330172 0.03279538 0.02113967 -0.010322783 0.018469576
0.103226356 -0.013754455 0.0018245053 -0.013811811 -0.06433207 -0.011145385 0.016559409 0.04931458
0.0061139823 0.025449947 -0.018772915 0.047061734 0.046059966 3.3392233e-05 0.018124213 0.021634005
0.019024238 0.020633725 -0.00039599987 -0.007975901 0.04777876 -0.017636633 -0.011007381 0.092054605
0.02870482 -0.026293907 -0.090485595 0.010587922 -0.008383772 -0.01389272 0.03213618 -0.015017898
0.04932678 0.0077400645 -0.02754673 0.11762802 -0.01364032 -0.072811864 -0.009910305 -0.030613793
00000000: 7ead b5bc 10b6 95bd a44c e7bc cf9a 1abc
00000010: e2f2 e23c a0ac 82bc 47ae 9dbc 8b68 063e
00000020: 7861 9a3c 7ac1 d03c 7656 88bc bc00 5c3c
00000030: 3f8c b9bd fd4d 4cbd 1a75 a0bc f1a5 4bbc
00000040: ab57 e53c 0e15 f73c bd90 0e3e 6b64 00bc
00000050: fcba fe3b 06a4 c83a a742 be3c ba2a 5b3c
00000060: fa35 443c 9c9d 85bc d0d0 9b3c 2777 75bd
00000070: 6030 cebb 36bd 2dbd 4b85 043e f357 acbc
00000080: ba51 123e 44f0 0dbd 6577 80ba 64dc b3bc
00000090: e050 07bc 5756 ac39 9efe fe3d 0bc8 16bc
000000a0: 1169 1d3c 026e b73c df83 18bc e1b6 8f3c
000000b0: 744b a73c bb52 533d 26bd a7bc f51c cd3c
000000c0: ae53 af3b 1f77 b03d 9985 b13b 581e 8abc
000000d0: f40d f7bb dcad 6fbc 35ee 913c 1863 d4bd
000000e0: 7b7f edbb 65a7 0f3d b8e3 883c da2e afbc
000000f0: fc49 3f3d 1a7b 0bbd 3f00 003d d3f6 bcbb
00000100: bc4e 2f3c 63a4 c4bc b6ac e1ba 79b7 4b3c
00000110: e51c b7bd 98fe 3e3c 254b 33bc 1dd3 e2bc
00000120: e115 9dba c2a5 203c 8dda b5bc 7bde a6bd
00000130: 4229 bfbc b236 163e 4312 02bc c8bf c0bc
00000140: fab6 50bc e3ef 3a3d 6301 c23c 6c04 89bd
00000150: fdd8 033e 934d ab3c 0059 a83c 7701 3abc
00000160: 9c1d 793b 6310 61bc 81c0 0bba 08b3 043b
00000170: 17d5 abbc eba1 8e3c a5da 8cbc f82c 1ebb
00000180: 59ea b13c 3e5d 083e db32 b13c 86ec fb3d
00000190: 0451 e53b fb2a e6bc 803f b2bc f5e5 3e3c
000001a0: 4834 6339 6a58 37bc d4eb 8e3c e707 bebc
000001b0: 7a24 1dbc b4ef aa3c c6bf d23c f025 c3ba
000001c0: 703c 173d 8976 313c 684f 63bd cad2 083d
000001d0: c1d5 023d fafb ccbc 2e5a 25bd 750b 053d
000001e0: a819 abbc e6f1 a13d 6af6 d9bd 6c75 00bc
000001f0: 3fbb 1fbc ed0b 0fbd b4ee bebc 6800 95bc
00000200: 9ab1 763c 3751 31bc 122d b83c d327 a23c
00000210: 9419 12bd 6a40 69bc 7b02 9abc e40c 1a3d
00000220: 804c bebc 1d54 d23d f781 b9bd b818 b23c
00000230: 473b 50bd 5c22 c8bd 999f 9e3a 8dbd 593d
00000240: 8ba5 ce3d 4854 99bc e177 c33c 6ea4 913b
00000250: fff7 57bd 226a b83c c07e a73b 92fa 753d
00000260: 9854 923d 32f3 76bc 2642 50bc 13ff cebc
00000270: 3ff3 6f3c 9e7b c43c 205c 193d ccbc 5e3c
00000280: fffd c43c 200e b2bb e294 8a3c 5cb6 0d3d
00000290: 1f35 813d 98dc 67bd 0773 ba3c 0161 8dbd
000002a0: c674 efbc 8b13 563d 9bb1 833d 803a a53c
000002b0: 7f85 4fbd deaf 90bb 4ed9 0cb9 c6c5 9abc
000002c0: 8291 e0bc 29a0 ca3b dd97 5f3c f2e7 933c
000002d0: b087 253c 9bce 22bc d61c d33c fb22 c1bc
000002e0: 3442 65bd a86c f83b 3cc3 303d 03fb dfbc
000002f0: 20c3 5f3c e453 cfbd 288c 90ba 7eff 263c
00000300: 4e52 43bd 2ad1 90bc cbde 66bd 5b43 3fbd
00000310: 30cf d43a 7483 2ebd 9d02 5fbd 6a57 f4bd
00000320: 3f10 69bd 401e d1bc caac ac39 db17 bd3c
00000330: 714e 993c dec3 1c3d c628 83bd 4215 7a3d
00000340: a48d 953c 0406 d53d 5acb 053e 1ee4 8d3b
00000350: 7354 063d 1a2d ad3c e420 29bc 824d 973c
00000360: 5768 d33d 5e5a 61bc 3d24 ef3a ef4a 62bc
00000370: 88c0 83bd 229b 36bc 99a7 873c 16fe 493d
00000380: cd57 c83b 687c d03c a8c9 99bc cec3 403d
00000390: 60a9 3c3d a30e 0c38 3b79 943c cc39 b13c
000003a0: b8d8 9b3c 0f08 a93c 349e cfb9 5aad 02bc
000003b0: a9b3 433d b37a 90bc 4d58 34bc 2087 bc3d
000003c0: 5f26 eb3c 5266 d7bc 8350 b9bd f778 2d3c
000003d0: 175c 09bc 4b9e 63bc 3aa1 033d a10d 76bc
000003e0: e10a 4a3d 5ea0 fd3b aea9 e1bc f6e6 f03d
000003f0: a67b 5fbc 631e 95bd d55e 22bc c7c9 fabc

net.6.bias f4 [9]
0.01657286 -0.016567796 -0.0037617038 0.0034179678 -0.010605433 0.0024263165 0.0075983796 0.3670932
0.2437114
00000000: cec3 873c 30b9 87bc eb86 76bb fcff 5f3b
00000010: 69c2 2dbc d602 1f3b d4fb f83b a4f3 bb3e
00000020: 7b8f 793e

exp_avg f4 [256, 23]
0.00035386946 -0.00033275227 -0.00012415215 -0.00017591403 -0.00032704804 -7.569437e-05 0.00016769023 0.0008462561
-0.00021235655 3.379504e-05 1.23363925e-05 0.00016129938 5.8887363e-05 6.175314e-05 -3.343198e-05 0.00018748365
-6.969071e-06 7.12362e-07 3.0181287e-05 7.097581e-05 5.4587937e-05 7.521734e-05 4.2702737e-05 0.0004481658
-0.00032795192 -2.8241902e-05 3.328741e-05 -0.00019802646 -0.00039168872 0.00022266744 0.00053902605 0.00036965762
-0.00012253315 2.9105491e-05 9.955683e-05 -3.022921e-05 -0.00010170623 -7.411731e-05 0.00032251212 -1.1555434e-05
3.82165e-07 1.4379588e-05 8.435663e-05 6.308344e-05 8.8422596e-05 -3.477132e-05 -8.691535e-05 5.9177837e-05
2.9376573e-05 3.007256e-05 3.639651e-05 2.028794e-05 -3.0940926e-05 -0.0002802556 0.00015822481 1.6769527e-05
8.432505e-06 -7.8253135e-05 -2.9977912e-06 -3.0053157e-05 3.173629e-05 -0.00010579201 1.7423929e-05 -7.95425e-07
-3.3424913e-05 -2.7709171e-05 -2.0727797e-05 -1.9443347e-05 -1.963293e-05 7.986021e-05 -1.6075679e-06 -3.456086e-05
-2.6845008e-05 2.0386588e-07 1.738312e-05 -6.662619e-05 0.0003615662 -0.00031528893 4.560713e-06 1.3175863e-05
5.2226827e-05 3.3988774e-05 7.9309655e-05 3.464613e-05 4.569844e-05 3.9761494e-06 -1.2549626e-07 2.4731044e-05
3.5505257e-06 9.343757e-06 3.1681822e-05 4.3465792e-05 4.145404e-06 -0.00011964517 4.5292316e-05 -9.145711e-05
-8.256542e-05 8.2678496e-05 0.00010050679 2.1211534e-05 0.00017829303 2.8673237e-06 -7.925696e-06 -5.6349283e-05
-9.441665e-06 4.4822624e-05 3.1442334e-05 -0.0001461091 1.6321934e-05 -7.334658e-07 -5.5120054e-05 7.1214554e-06
-1.3986385e-05 5.159102e-05 -3.8878727e-05 0.00011387152 -0.000182037 1.4877521e-05 -7.8045516e-05 -0.00014386987
-7.764e-05 0.00010663505 0.0001276187 0.00011715452 -2.3960174e-05 -2.762425e-05 2.1667745e-05 -5.1036395e-06
3.681839e-05 -1.6011507e-05 8.41738e-06 1.2479571e-06 2.040748e-07 -9.175425e-05 -2.2162465e-06 -1.8061792e-05
2.0729762e-05 9.583931e-07 2.1847567e-05 -8.683465e-05 3.1252814e-05 -0.00015851774 -6.6104534e-05 0.00013194996
9.235795e-05 0.00033113308 7.296066e-05 -5.8420745e-05 -2.045063e-05 -2.6847458e-05 1.3833347e-05 8.183844e-05
4.3329164e-05 -0.000101625796 4.930649e-06 -3.4143005e-07 -5.2200732e-05 5.786901e-06 -2.2206454e-05 8.235386e-05
-3.3274697e-05 -0.00024007505 0.00037967428 -1.0653406e-05 0.00010381398 0.00023185769 7.87384e-05 -0.00021704732
-0.00058034586 0.00010035257 -9.748604e-06 4.479858e-05 -0.00014225088 -1.9387386e-05 -6.61393e-05 8.3332656e-05
-8.8351975e-05 -3.320436e-06 -2.8940037e-09 6.0986167e-05 -6.3181666e-05 -3.0873067e-05 -7.071555e-05 -5.5740937e-05
-0.0001590052 -4.5655364e-05 1.6859543e-05 -0.00028631662 -8.4878935e-05 0.00024307979 2.6175983e-05 -2.7177482e-05
-8.509887e-05 7.004937e-05 -3.2812022e-05 -6.0788832e-05 8.97862e-05 0.0002036211 8.439928e-05 -0.00023718156
4.4231665e-06 3.034135e-07 -9.484169e-05 -1.7104747e-05 -3.6732064e-05 2.7216587e-05 4.074807e-05 -3.3409226e-05
9.241022e-05 -3.9156644e-06 1.7287462e-05 0.00011761596 5.572859e-05 -6.43578e-05 8.820734e-05 -0.00017327367
-7.039309e-06 6.721234e-06 3.3681037e-05 6.018245e-07 2.0573534e-05 -1.1469439e-06 3.302286e-05 -1.1826783e-05
3.2814404e-07 6.607394e-05 2.8246017e-05 1.2287464e-05 1.2010285e-05 2.6000194e-05 0.00015506806 -0.00010535492
-6.305832e-05 -0.00015650204 -0.00017689934 0.00012974591 3.5249206e-05 0.0003708029 -0.00028765464 -0.000117343705
-4.9799768e-05 7.167473e-05 8.588543e-06 -3.7789614e-05 -4.982895e-06 8.7479355e-05 -7.071372e-06 7.0507076e-07
-7.2293676e-07 9.4674415e-06 -1.8484405e-05 6.619811e-05 -2.4163415e-05 -0.00017792804 3.0685598e-05 8.939869e-05
00000000: 8e87 b939 4175 aeb9 d72e 02b9 9075 38b9
00000010: a577 abb9 1bbe 9eb8 01d6 2f39 49d7 5d3a
00000020: 07ac 5eb9 26bf 0d38 67f8 4e37 7922 2939
00000030: d3fd 7638 7781 8138 5139 0cb8 4297 4439
00000040: ddd7 e9b6 2539 3f35 d22d fd37 d9d8 9438
00000050: 5af5 6438 00be 9d38 b71b 3338 ccf7 ea39
00000060: f6f0 abb9 06e9 ecb7 169e 0b38 53a5 4fb9
00000070: 925b cdb9 d67b 6939 6d4d 0d3a 9bce c139
00000080: 3e7c 00b9 9127 f437 2bc9 d038 bc94 fdb7
00000090: 1e4b d5b8 6e6f 9bb8 d816 a939 36de 41b7
000000a0: 5c2c cd34 dc3f 7137 9fe8 b038 aa4b 8438
000000b0: 856f b938 6cd7 11b8 5346 b6b8 b835 7838
000000c0: b66d f637 5544 fc37 74a8 1838 0530 aa37
000000d0: 91c6 01b8 45ef 92b9 26e9 2539 49ac 8c37
000000e0: 5579 0d37 d51b a4b8 a92d 49b6 aa1a fcb7
000000f0: 951c 0538 a7dc ddb8 9a29 9237 3185 55b5
00000100: ba31 0cb8 fe70 e8b7 9be0 adb7 451a a3b7
00000110: 65b1 a4b7 a07a a738 9dc3 d7b5 71f5 10b8
00000120: 3731 e1b7 3ae6 5a34 f7d1 9137 aab9 8bb8
00000130: 9890 bd39 5d4d a5b9 3a08 9936 e70d 5d37
00000140: 210e 5b38 2b8f 0e38 0c53 a638 0051 1138
00000150: 54ac 3f38 dd6a 8536 26c0 06b4 8375 cf37
00000160: 9145 6e36 21c3 1c37 19e2 0438 0a4f 3638
00000170: c018 8b36 03ea fab8 41f8 3d38 a9cc bfb8
00000180: f926 adb8 ae63 ad38 2cc7 d238 6cef b137
00000190: 2cf4 3a39 3f6c 4036 9bf8 04b7 9558 6cb8
000001a0: a467 1eb7 edff 3b38 f3e0 0338 dd34 19b9
000001b0: 16eb 8837 63e3 44b5 b530 67b8 d6f4 ee36
000001c0: 11a7 6ab7 7063 5838 b711 23b8 4fce ee38
000001d0: 2fe1 3eb9 779a 7937 5eac a3b8 c6db 16b9
000001e0: a8d2 a2b8 42a1 df38 62d1 0539 dbb0 f538
000001f0: 15fe c8b7 a0ba e7b7 21c3 b537 ee3f abb6
00000200: 726d 1a38 7350 86b7 5f38 0d37 7b7f a735
00000210: a71f 5b34 306c c0b8 d3ba 14b6 6783 97b7
00000220: d3e4 ad37 23a2 8035 4b45 b737 ff1a b6b8
00000230: 7415 0338 c837 26b9 9aa1 8ab8 0c5c 0a39
00000240: 4cb0 c138 ee9b ad39 7502 9938 cc08 75b8
00000250: 658d abb7 7a36 e1b7 c615 6837 aea0 ab38
00000260: 56bc 3538 ef1f d5b8 f471 a536 ca4d b7b4
00000270: 1cf2 5ab8 1a2d c236 ff47 bab7 64b5 ac38
00000280: 6f90 0bb8 a8bc 7bb9 050f c739 08bc 32b7
00000290: b5b6 d938 d31e 7339 5b20 a538 3297 63b9
000002a0: 5a22 18ba 6074 d238 ef8d 23b7 1ce6 3b38
000002b0: 2e29 15b9 18a2 a2b7 44b4 8ab8 e1c2 ae38
000002c0: 9b49 b9b8 a8d4 5eb6 dadf 46b1 66cb 7f38
000002d0: 6680 84b8 b47d 01b8 1f4d 94b8 60cb 69b8
000002e0: a2ba 26b9 137e 3fb8 986d 8d37 c41c 96b9
000002f0: 0801 b2b8 3ce3 7e39 7f94 db37 33fb e3b7
00000300: 1c77 b2b8 78e7 9238 a49f 09b8 83f7 7eb8
00000310: 994b bc38 1f83 5539 85ff b038 f1b3 78b9
00000320: b66a 9436 d5e4 a234 bfe5 c6b8 2a7c 8fb7
00000330: c110 1ab8 2d4f e437 e8e8 2a38 e220 0cb8
00000340: 5ccc c138 4d63 83b6 8b04 9137 96a8 f638
00000350: 1ebe 6938 d5f7 86b8 f4fb b838 ccb0 35b9
00000360: 3433 ecb6 f686 e136 bd44 0d38 118d 2135
00000370: 5495 ac37 b1f0 99b5 0782 0a38 a56b 46b7
00000380: c62b b034 2d91 8a38 dcf1 ec37 4226 4e37
00000390: c87f 4937 fe1a da37 c499 2239 fef1 dcb8
000003a0: 2e3e 84b8 b21a 24b9 0e7e 39b9 670c 0839
000003b0: 8cd8 1338 5368 c239 5ad0 96b9 6c16 f6b8
000003c0: 18e0 50b8 1450 9638 8317 1037 4a80 1eb8
000003d0: be32 a7b6 1f75 b738 9f46 edb6 1844 3d35
000003e0: d60f 42b5 5ad6 1e37 f50e 9bb7 d7d3 8a38
000003f0: 8ab2 cab7 3292 3ab9 69b4 0038 8e7b bb38

exp_avg_sq f4 [256, 23]
1.995339e-06 2.7055355e-06 1.4307591e-07 1.5160917e-06 1.8616252e-06 5.7108593e-07 7.2280324e-07 4.1281764e-06
3.476642e-06 5.2454524e-08 1.3547257e-08 3.3450654e-08 3.06202e-08 5.574968e-08 5.3428472e-08 4.8263413e-08
2.7154074e-11 2.3290172e-12 8.344179e-08 8.34182e-08 2.9995508e-09 3.9320955e-07 5.3069723e-08 2.6219313e-06
3.478057e-06 1.8339637e-07 1.8564784e-06 2.4003646e-06 7.058457e-07 8.404957e-07 5.3915805e-06 4.1261515e-06
5.980875e-08 1.5085268e-08 4.1168896e-08 3.3811748e-08 7.250806e-08 6.345135e-08 5.442646e-08 3.6291307e-11
2.6853149e-12 1.122917e-07 9.9538155e-08 4.4531734e-09 4.4893815e-07 6.953354e-08 5.5735495e-07 8.115807e-07
2.9931936e-08 4.5376262e-07 5.443349e-07 1.3022941e-07 2.0163631e-07 1.2065567e-06 9.920835e-07 1.1155281e-08
3.315416e-09 6.134245e-09 6.4523107e-09 1.3894888e-08 1.2134174e-08 1.0687774e-08 3.1587656e-11 6.9060697e-13
2.4574126e-08 2.3511447e-08 7.9784185e-10 1.0967644e-07 1.1798001e-08 1.2710465e-06 1.7384416e-06 8.941735e-08
1.0116761e-06 1.1792603e-06 3.388273e-07 4.6770333e-07 2.659271e-06 2.2648974e-06 3.258202e-08 7.932238e-09
1.8125217e-08 1.7941874e-08 3.3728664e-08 2.9123814e-08 2.6670582e-08 2.044304e-11 1.4668464e-12 5.208934e-08
5.391001e-08 1.9059396e-09 2.6173356e-07 2.8992293e-08 4.896203e-07 7.122508e-07 2.7183379e-08 3.8416297e-07
4.8054915e-07 1.1398733e-07 1.7657582e-07 1.0308313e-06 8.6212833e-07 1.12484955e-08 2.8166744e-09 7.036941e-09
5.879468e-09 1.0312067e-08 1.0877022e-08 8.93407e-09 3.3211267e-11 5.146827e-13 2.3339183e-08 2.0649662e-08
7.736952e-10 9.3658976e-08 9.303019e-09 6.0711017e-07 8.403699e-07 3.7263117e-08 4.5486678e-07 5.795571e-07
1.6123175e-07 2.0197915e-07 1.249095e-06 1.0134497e-06 1.5173267e-08 3.4595968e-09 9.767563e-09 7.110799e-09
1.4533076e-08 1.3432404e-08 1.20434835e-08 7.9725185e-12 5.84905e-13 3.2882745e-08 2.2796605e-08 1.4790389e-09
1.0732681e-07 1.2854196e-08 7.836957e-07 1.1099588e-06 4.764249e-08 6.051709e-07 7.5519813e-07 1.9710211e-07
2.7270934e-07 1.6171239e-06 1.3253625e-06 1.8109855e-08 4.0835535e-09 1.2360595e-08 9.068171e-09 1.7190722e-08
1.9347425e-08 1.3587913e-08 4.757942e-12 6.1942357e-13 3.796083e-08 3.1865174e-08 1.160081e-09 1.4878118e-07
1.7687979e-08 1.1505965e-06 1.5686057e-06 7.0289495e-08 8.5406714e-07 1.0737593e-06 2.964645e-07 3.9078392e-07
2.367705e-06 1.8746917e-06 2.5344846e-08 6.490063e-09 1.6119929e-08 1.5098998e-08 2.688321e-08 2.5691506e-08
2.1601577e-08 4.3972313e-12 1.0944564e-12 5.27575e-08 4.441124e-08 2.311815e-09 2.0341695e-07 2.5286582e-08
2.3500195e-06 3.187718e-06 1.6110003e-07 1.6603909e-06 2.1931637e-06 6.32804e-07 7.7881424e-07 4.8010684e-06
3.749201e-06 5.671023e-08 1.3730664e-08 3.9599175e-08 2.9895723e-08 6.7964486e-08 5.5201404e-08 5.0118615e-08
1.5676018e-11 2.7610863e-12 1.09047974e-07 9.1618986e-08 4.401447e-09 4.099571e-07 5.384068e-08 4.574657e-07
6.5608714e-07 2.6642466e-08 3.370915e-07 4.4547684e-07 1.15096235e-07 1.5572559e-07 9.925088e-07 7.61575e-07
9.82895e-09 2.5888682e-09 6.188243e-09 4.7910933e-09 1.0611526e-08 9.729591e-09 8.2983895e-09 1.3213354e-11
4.8976545e-13 2.6589856e-08 1.8631882e-08 9.902478e-10 8.314744e-08 1.03656586e-08 1.3784297e-06 1.911481e-06
9.46368e-08 1.1164612e-06 1.3040124e-06 3.8374384e-07 4.974345e-07 2.7664748e-06 2.4930873e-06 3.490135e-08
8.62418e-09 2.2875476e-08 1.8464588e-08 3.8007812e-08 3.665339e-08 2.4087182e-08 2.5250796e-11 1.5545399e-12
5.975811e-08 5.811886e-08 2.043661e-09 2.7780098e-07 3.97041e-08 1.0267057e-06 1.4106347e-06 7.0297986e-08
00000000: aae7 0536 bf90 3536 68a0 1934 847c cb35
00000010: f4dc f935 ba4c 1935 a906 4235 c484 8a36
00000020: 4150 6936 5c4a 6133 77bd 6832 62ab 0f33
00000030: 4483 0333 6c71 6f33 3a79 6533 2f4a 4f33
00000040: 8ad9 ee2d d8e3 232c 9c30 b333 a423 b333
00000050: a820 4e31 4f1a d334 c7ee 6333 70f4 2f36
00000060: 9068 6936 9ceb 4434 1d2c f935 f315 2136
00000070: 5979 3d35 6d9e 6135 53e9 b436 5f73 8a36
00000080: 3570 8033 db94 8132 aed1 3033 6938 1133
00000090: bab5 9b33 c042 8833 87c2 6933 619c 1f2e
000000a0: 55f6 3c2c 0425 f133 aec1 d533 8702 9931
000000b0: 9705 f134 7852 9533 249d 1535 67db 5935
000000c0: 838e 0033 a99c f334 691e 1235 30d5 0b34
000000d0: 5e81 5834 f9f0 a135 bb27 8535 72a5 3f32
000000e0: 6ad5 6331 64c5 d231 20b3 dd31 5db6 6e32
000000f0: a976 5032 549d 3732 8aec 0a2e 7a63 422b
00000100: 1317 d332 38f6 c932 214f 5b30 4387 eb33
00000110: 28b0 4a32 d398 aa35 6654 e935 b505 c033
00000120: edc8 8735 1347 9e35 12e8 b534 a818 fb34
00000130: ee75 3236 a4fe 1736 4ff0 0b33 5a46 0832
00000140: c6b1 9b32 991e 9a32 0fdd 1033 f22b fa32
00000150: 3b19 e532 a2d1 b32d b670 ce2b d6b8 5f33
00000160: af8a 6733 a5f9 0231 6384 8c34 ba0a f932
00000170: 736e 0335 8131 3f35 e280 e932 f53e ce34
00000180: 16ff 0035 33c9 f433 cb98 3d34 185b 8a35
00000190: 026d 6735 683f 4132 768f 4131 96c9 f131
000001a0: 5904 ca31 f328 3132 a6dd 3a32 757c 1932
000001b0: 9010 122e ccde 102b 687b c832 1661 b132
000001c0: f6ab 5430 9121 c933 1cd3 1f32 4bf8 2235
000001d0: c895 6135 3b0b 2033 6a34 f434 dc92 1b35
000001e0: 0c1f 2d34 9bdf 5834 94a6 a735 de05 8835
000001f0: 5e56 8232 dfbd 6d31 32ce 2732 4053 f431
00000200: 25ad 7932 56c4 6632 cde7 4e32 0841 0c2d
00000210: d9a2 242b f63a 0d33 44d2 c332 0e47 cb30
00000220: 8a7b e633 5ad5 5c32 295f 5235 e5f9 9435
00000230: 799f 4c33 0773 2235 d2b8 4a35 04a3 5334
00000240: e368 9234 f40b d935 1ce3 b135 fe8f 9b32
00000250: 514f 8c31 795a 5432 3dca 1b32 ccaa 9332
00000260: 7031 a632 4670 6932 bb67 a72c 2c5a 2e2b
00000270: 600a 2333 21dc 0833 b970 9f30 a9c0 1f34
00000280: 47f0 9732 326e 9a35 e288 d235 0ff2 9633
00000290: 0c43 6535 171e 9035 c529 9f34 efcc d134
000002a0: dde4 1e36 eb9d fb35 e8b5 d932 33ff de31
000002b0: 1978 8a32 0cb3 8132 ceec e632 38b0 dc32
000002c0: 5f8e b932 bdb6 9a2c f307 9a2b 7c97 6233
000002d0: adbe 3e33 e1dd 1e31 d36a 5a34 c835 d932
000002e0: 07b5 1d36 94ec 5536 d7fa 2c34 99da de35
000002f0: 442e 1336 f6dd 2935 b50f 5135 dd18 a136
00000300: c89a 7b36 8f91 7333 19e4 6b32 c113 2a33
00000310: b266 0033 dff3 9133 9616 6d33 0042 5733
00000320: 41e3 892d 4f4b 422c c22d ea33 12c0 c433
00000330: 8a3b 9731 1318 dc34 743e 6733 9b99 f534
00000340: f71d 3035 67db e432 81f9 b434 df29 ef34
00000350: d32a f733 8635 2734 5836 8535 096f 4c35
00000360: 2edc 2832 dae7 3131 5ca0 d431 e79e a431
00000370: fc4d 3632 3227 2732 b490 0e32 a873 682d
00000380: 52db 092b b667 e432 f10b a032 3f19 8830
00000390: ca8e b233 a614 3232 7c02 b935 fe46 0036
000003a0: 223b cb33 51d9 9535 8605 af35 5a05 ce34
000003b0: 7087 0535 ada7 3936 ea4e 2736 71e6 1533
000003c0: 8b29 1432 b47f c432 0f9c 9e32 083e 2333
000003d0: d46c 1d33 46e8 ce32 bd1b de2d 34c8 da2b
000003e0: 5e54 8033 5d9e 7933 7770 0c31 ad24 9534
000003f0: 1f87 2a33 57cd 8935 0a55 bd35 baf6 9633

exp_avg f4 [256]
0.000367584 0.0004916692 -6.25375e-05 -5.0888615e-05 0.00015754142 0.00028229685 0.000106820466 -0.00046561417
3.106496e-05 -0.00015100696 0.00012791646 -2.4325731e-05 -0.000118464755 0.00021821407 0.00012548036 2.288053e-05
0.00017393335 0.00025007877 -0.0001491815 -0.00012306296 5.1992014e-05 9.5413845e-05 0.00040873227 3.1741347e-05
0.00014880502 -0.00032500984 0.0002693553 6.308873e-05 4.659426e-05 -0.00035835392 -0.00019170016 -3.865976e-06
0.0001475829 -0.00020861963 -0.0002729858 -3.81201e-05 -7.12768e-05 -9.63755e-05 9.67435e-06 0.00012778421
-3.4984292e-05 0.00021164613 -0.0002701372 0.0003096536 0.00011258662 9.336203e-05 5.0693867e-05 -0.0003346899
-0.00013087431 -0.0002593771 -0.000110606015 -0.000229007 0.00012293505 0.00033094076 -4.1008414e-05 0.00030043419
-3.442204e-05 -6.899018e-06 9.10001e-05 5.5536304e-05 -0.00016587504 1.4506187e-05 0.00017993036 0.00025026282
2.9353174e-05 5.4427786e-05 -0.00046014073 0.00021939396 0.00020273933 -6.314665e-05 -0.00012542559 -3.5417354e-05
-0.00020777812 0.00047390623 0.0005381613 -0.00033677413 -0.0004536331 -8.420366e-05 -0.00016215262 -0.0004144445
6.5445245e-05 0.00016677115 -0.00022776115 -3.4174343e-05 -0.00011427446 0.00071660196 -7.864386e-05 0.0007139557
-0.00053921936 -0.00013668889 0.00023789232 -0.00013281428 -1.529204e-05 0.00026406877 -0.0001679042 0.0001619716
0.000216773 0.00010481477 -0.00025200067 -0.00068066217 0.0003327103 -0.000220134 0.00025784125 -0.00065617624
5.5754183e-05 3.7796417e-05 7.263572e-05 -0.0002229531 0.000118975695 0.00015595395 -0.00036637957 -6.969074e-05
-0.00016817954 -2.2959486e-05 -0.00021275348 -0.00016546571 -1.8034963e-05 0.0001544791 0.00048274433 -3.2312517e-05
2.3180866e-05 0.00022740122 0.00018202707 0.0005059408 5.13121e-05 3.579755e-05 -0.0002723561 0.00037480236
0.00023780606 -7.124765e-05 -0.00020293154 0.00040907005 0.00021336922 0.00024614975 -0.0002019925 -0.00023510477
-1.8374313e-06 0.00045279527 -0.000617138 -0.00042586066 5.8104048e-05 5.041159e-05 0.000115147304 -1.6037997e-06
0.0003633055 -7.096434e-05 0.00025170477 5.145008e-05 1.9792853e-05 0.00015770915 -0.00048276223 -0.0003580058
0.00016451259 -2.205676e-05 0.00040405686 7.126756e-06 -0.00027312775 -0.00049786875 -0.0003316109 -2.819506e-05
-0.00057600316 0.00014333216 0.00024820204 -5.5081182e-05 0.00022613192 -0.00035249648 0.000149154 -0.0005107839
-0.00059462583 -0.00036195765 0.00029779505 7.477385e-05 -0.00031929318 -0.00024432343 0.0005457655 0.0001254779
0.00026307578 0.00016139302 -3.6414833e-05 0.00062655716 -0.00012546865 -0.00025237133 -0.00034847605 -0.00017169798
-8.890024e-05 -0.00011339081 7.5911244e-05 -6.74172e-05 0.00016911728 -0.0004599591 -0.00050719245 0.0004459248
6.968983e-05 -7.854392e-05 -7.523055e-05 -0.00010898711 -0.00050523505 -1.5528216e-05 -0.0003385436 -0.00062956405
0.00011864166 -5.965053e-05 0.0002849917 4.21007e-05 0.00038981257 -0.0007748866 0.0005689223 0.00015214477
-2.412052e-05 6.948851e-05 0.00021397587 0.0008478962 7.952391e-05 3.4448723e-05 -0.00011338832 8.51916e-05
0.00013885934 1.5263275e-06 -0.00021303284 -0.00017014233 0.00018373718 -8.435869e-05 -0.0004564083 7.323831e-05
0.00024506086 0.00022601946 -8.505429e-05 -0.00013075865 0.00021748847 -9.344929e-05 -0.0005853201 -2.7136062e-05
0.00013895244 -0.00014652971 0.0005366155 -0.00015986754 0.0002999755 0.00027518993 9.928476e-06 -0.00030794137
-0.00012171715 -0.00045689612 -0.00030008276 -7.8089986e-05 0.00027976526 -0.000764923 0.00028408907 0.00033519484
-7.273554e-05 0.00016555328 0.00016156743 7.03136e-05 -0.00013681965 5.400056e-05 6.532847e-05 7.800257e-05
00000000: 4ab8 c039 5de3 003a 9126 83b8 3c71 55b8
00000010: b431 2539 3e01 9439 cd04 e038 ad1d f4b9
00000020: bf4b 0238 9f57 1eb9 5021 0639 1c0f ccb7
00000030: 4870 f8b8 65d0 6439 6193 0339 90ef bf37
00000040: e161 3639 011d 8339 9b6d 1cb9 760a 01b9
00000050: 0012 5a38 eb18 c838 1e4b d639 0322 0538
00000060: 8b08 1c39 1566 aab9 4238 8d39 814e 8438
00000070: 356e 4338 73e1 bbb9 1f03 49b9 7bb8 81b6
00000080: 7cc0 1a39 e8c0 5ab9 891f 8fb9 25e3 1fb8
00000090: 717a 95b8 341d cab8 044f 2237 d0fd 0539
000000a0: 19bc 12b8 53ed 5d39 34a1 8db9 0159 a239
000000b0: 7b1c ec38 5ccb c338 20a0 5438 5179 afb9
000000c0: 4e3b 09b9 01fd 87b9 27f5 e7b8 9921 70b9
000000d0: 20e8 0039 1e82 ad39 7300 2cb8 9883 9d39
000000e0: 6260 10b8 1d7e e7b6 4fd7 be38 a7ef 6838
000000f0: beee 2db9 995f 7337 b0ab 3c39 b535 8339
00000100: 763b f637 6449 6438 0b3f f1b9 1e0d 6639
00000110: 6d96 5439 996d 84b8 ad84 03b9 188d 14b8
00000120: 04df 59b9 9e76 f839 6513 0d3a 0f91 b0b9
00000130: 9bd5 edb9 7f96 b0b8 8307 2ab9 cd49 d9b9
00000140: a63f 8938 4adf 2e39 2bd3 6eb9 6c56 0fb8
00000150: a2a6 efb8 58da 3b3a 9aed a4b8 c228 3b3a
00000160: 665a 0dba 2554 0fb9 bc72 7939 1044 0bb9
00000170: 6847 80b7 b672 8a39 710f 30b9 ecd6 2939
00000180: 8f4d 6339 00d0 db38 f51e 84b9 776e 32ba
00000190: 9f6f ae39 c5d3 66b9 de2e 8739 3e03 2cba
000001a0: 99d9 6938 9887 1e38 0154 9838 84c8 69b9
000001b0: 9782 f938 9287 2339 a216 c0b9 ee26 92b8
000001c0: 5a59 30b9 1f99 c0b7 9416 5fb9 dd80 2db9
000001d0: ca49 97b7 abfb 2139 d918 fd39 4d87 07b8
000001e0: 8874 c237 8d72 6e39 85de 3e39 1da1 043a
000001f0: f337 5738 5425 1638 04cb 8eb9 1f81 c439
00000200: 945b 7939 ca6a 95b8 05ca 54b9 7478 d639
00000210: ddbb 5f39 a90d 8139 f3cd 53b9 7586 76b9
00000220: a99d f6b5 2765 ed39 6ec7 21ba 0d46 dfb9
00000230: bfb4 7338 0871 5338 3d7b f138 2342 d7b5
00000240: 0a7a be39 b1d2 94b8 3ef7 8339 1acc 5738
00000250: d408 a637 ba5e 2539 401b fdb9 bab2 bbb9
00000260: 0381 2c39 8806 b9b7 98d7 d339 5e22 ef36
00000270: 9632 8fb9 6883 02ba 10dc adb9 6e84 ecb7
00000280: ebfe 16ba 6f4b 1639 1d21 8239 f806 67b8
00000290: d31d 6d39 47cf b8b9 3966 1c39 21e6 05ba
000002a0: aae0 1bba 22c5 bdb9 6021 9c39 e8cf 9c38
000002b0: ce66 a7b9 8918 80b9 b411 0f3a b892 0339
000002c0: 6fed 8939 9c3b 2939 21bc 18b8 8a3f 243a
000002d0: 3c90 03b9 b550 84b9 aab3 b6b9 d309 34b9
000002e0: f46f bab8 3acc edb8 8a32 9f38 5562 8db8
000002f0: 1355 3139 aa26 f1b9 1cf5 04ba 03cb e939
00000300: 7126 9238 f2b7 a4b8 18c5 9db8 0290 e4b8
00000310: c071 04ba 9742 82b7 8e7e b1b9 5409 25ba
00000320: 42cf f838 4531 7ab8 f06a 9539 4895 3038
00000330: c25f cc39 c221 4bba bb23 153a 0d89 1f39
00000340: 6c56 cab7 5cba 9138 b65e 6039 5a45 5e3a
00000350: 13c6 a638 097d 1038 e4ca edb8 e4a8 b238
00000360: c59a 1139 37dc cc35 9161 5fb9 3c68 32b9
00000370: 93a9 4039 bae9 b0b8 164a efb9 8597 9938
00000380: 837b 8039 a3ff 6c39 2d5f b2b8 421c 09b9
00000390: 9e0d 6439 35fa c3b8 2b70 19ba 40a2 e3b7
000003a0: c3b3 1139 c5a5 19b9 a8ab 0c3a 1ea2 27b9
000003b0: 0846 9d39 5e47 9039 7b92 2637 3173 a1b9
000003c0: 6642 ffb8 8f8b efb9 6d54 9db9 3ec4 a3b8
000003d0: 75ad 9239 1d85 48ba caf1 9439 17bd af39
000003e0: 9889 98b8 5f98 2d39 6d6a 2939 5475 9338
000003f0: 3f77 0fb9 a97e 6238 f500 8938 5095 a338
